DQN/DQN_incomplete/save/main_model_000001.pth (torch_old, 274727 bytes, 6 tensors)

main_model.InputLayer.weight f4 [256, 6]
-0.20737657 -0.23462215 0.06738004 -0.14894626 -0.33691645 -0.089187175 -0.2670089 -0.4022558
-0.34372273 0.16245174 -0.27205077 0.3552369 -0.17571051 0.06729001 -0.069815814 0.09621781
0.32497376 0.0014975667 0.0669471 0.1018548 0.11983365 0.3344277 0.15297818 -0.023514658
-0.17201489 0.09359443 0.35696322 0.034688175 -0.03303519 0.32425255 0.13431853 0.32590997
-0.1955004 -0.3017639 0.15255356 -0.084723055 0.21089911 0.17129868 0.22204423 -0.28428
-0.16003993 -0.4078668 0.23481178 -0.36271334 0.23055732 -0.3884441 0.2973709 0.27868968
-0.1399245 -0.2063296 0.1902188 -0.05109757 0.16416717 -0.20609649 -0.36822516 -0.013774127
-0.3024054 -0.033284187 0.22240591 -0.36955225 0.25939113 0.08287138 0.03071329 0.3336082
0.12333804 0.3675769 0.21083766 -0.26011115 0.15329641 -0.25135058 -0.36901182 -0.064622164
0.403745 -0.37803808 0.12969828 -0.35497883 0.3834747 -0.18277846 0.33415568 -0.37625468
0.25425863 -0.0150844455 0.20830512 0.27483255 0.35836786 -0.16133404 0.31470042 0.017996222
-0.20170024 0.19771367 0.08158806 -0.18528399 0.20230228 0.24905038 0.09730792 0.11205894
0.2134608 0.25841653 -0.40224215 0.37479156 0.29695803 0.22831738 -0.19371594 0.035871714
-0.14924002 0.1622855 -0.32144815 -0.13509834 -0.23514299 0.098344564 -0.38522387 0.08293289
-0.13489226 0.36569244 0.117057085 -0.036747515 -0.30330276 0.07332343 -0.021270841 -0.37066898
-0.27172002 0.24478614 -0.035047084 0.019075304 0.35749227 0.15010548 0.36067414 -0.120352626
-0.027966082 -0.20225134 -0.009465098 -0.046138436 0.31789446 0.2270574 0.34203768 -0.16586348
-0.05834925 0.16334414 -0.19113576 -0.1852853 0.054052234 0.32669586 0.12184954 -0.14955956
-0.22457558 -0.32740995 -0.14278585 0.28784895 -0.0760358 -0.1929161 -0.2518343 0.3980853
0.38507444 0.11138785 0.082579166 0.026488721 -0.19301042 -0.29586613 0.31895423 -0.28934887
0.031669706 -0.21640298 -0.12661824 -0.23150931 -0.24206756 -0.3356094 -0.061730564 0.38675368
-0.30547214 0.13304812 0.3183391 0.35395598 0.028735578 -0.2395235 -0.24225911 -0.10787457
0.13302302 -0.33328167 -0.29983371 -0.08946395 0.11401057 -0.19417337 0.094162285 -0.39901376
-0.3113682 0.20505601 -0.24627629 0.13134217 0.29482013 0.33963418 -0.21591869 -0.293945
-0.04271868 0.009449571 0.06242925 -0.02667424 -0.34473237 -0.10934007 0.2416327 0.19642067
-0.059568733 -0.37360343 -0.051856875 0.3838247 -0.070059985 0.323246 0.29447782 -0.017635882
-0.06760985 0.14767641 0.2742797 -0.1990497 0.35571116 0.1654557 0.3716507 -0.27668002
0.24492002 -0.14832813 0.2688619 0.23592508 -0.10849488 -0.29600632 0.028761268 0.28519106
0.089336395 -0.32549262 -0.3226078 0.2928285 0.27969992 0.0044115186 0.2557636 0.2579608
-0.35105184 0.17693305 0.22798175 0.10748154 -0.19840096 -0.2816389 0.21160716 -0.35012737
-0.32213867 -0.07776317 0.32872874 0.22548646 -0.3871826 0.28233308 -0.338823 0.12831068
0.03745967 -0.123705834 -0.24729411 0.24134928 -0.37484756 -0.12844992 -0.22167143 0.2784078
00000000: 865a 54be ca40 70be 8cfe 893d 5e85 18be
00000010: 5080 acbe c4a7 b6bd 64b5 88be 79f4 cdbe
00000020: 6dfc afbe c059 263e 3d4a 8bbe 9ce1 b53e
00000030: 75ed 33be 58cf 893d 98fb 8ebd d80d c53d
00000040: f662 a63e 004a c43a 901b 893d 4099 d03d
00000050: 586b f53d 1c3a ab3e 50a6 1c3e d0a1 c0bc
00000060: ac24 30be 70ae bf3d e2c3 b63e 3015 0e3d
00000070: e84f 07bd 6e04 a63e cc8a 093e acdd a63e
00000080: 4231 48be cc80 9abe 0037 1c3e 4883 adbd
00000090: f0f5 573e ec68 2f3e 905f 633e 268d 91be
000000a0: 82e1 23be ebd3 d0be 8072 703e 90b5 b9be
000000b0: 3817 6c3e 25e2 c6be 0041 983e 6ab0 8e3e
000000c0: 5e48 0fbe 1148 53be b8c8 423e b04b 51bd
000000d0: 701b 283e f50a 53be 0288 bcbe e0ac 61bc
000000e0: e1d4 9abe 0055 08bd 60be 633e f435 bdbe
000000f0: eace 843e 78b8 a93d 709a fb3c b2ce aa3e
00000100: a898 fc3d 0a33 bc3e d4e5 573e 4a2d 85be
00000110: bcf9 1c3e 06b1 80be 1eef bcbe a058 84bd
00000120: aab7 ce3e 358e c1be a0cf 043e c9bf b5be
00000130: cc56 c43e 472a 3bbe 7416 ab3e 74a4 c0be
00000140: 302e 823e c024 77bc f04d 553e dab6 8c3e
00000150: fe7b b73e c034 25be 6a20 a13e d06c 933c
00000160: 828a 4ebe 7475 4a3e a417 a73d 16bb 3dbe
00000170: 5428 4f3e 1007 7f3e 6049 c73d 287f e53d
00000180: 7895 5a3e 2c4f 843e aff2 cdbe aee4 bf3e
00000190: e20a 983e 08cc 693e 795d 46be 38ee 123d
000001a0: 60d2 18be 2c2e 263e da94 a4be 3857 0abe
000001b0: 53c9 70be e068 c93d 103c c5be b8d8 a93d
000001c0: 3221 0abe 0a3c bb3e a0bb ef3d 9084 16bd
000001d0: 804a 9bbe 982a 963d 3040 aebc 53c8 bdbe
000001e0: e31e 8bbe 38a9 7a3e 888d 0fbd d043 9c3c
000001f0: 3a09 b73e 40b5 193e 48aa b83e 707b f6bd
00000200: 2019 e5bc fa1a 4fbe 8013 1bbc a8fb 3cbd
00000210: 10c3 a23e bc81 683e 901f af3e 1ed8 29be
00000220: a0ff 6ebd b043 273e 18b9 43be 6ebb 3dbe
00000230: e065 5d3d ae44 a73e 408c f93d 2426 19be
00000240: 24f7 65be 47a2 a7be 7436 12be f060 933e
00000250: a8b8 9bbd cc8b 45be 6df0 80be d6d1 cb3e
00000260: 7a28 c53e 501f e43d 441f a93d e0fe d83c
00000270: 86a4 45be c47b 97be f84d a33e 8925 94be
00000280: 18b8 013d be98 5dbe 36a8 01be c710 6dbe
00000290: 8fe0 77be ffd4 abbe 30d9 7cbd 9404 c63e
000002a0: d866 9cbe c43d 083e 58fd a23e b839 b53e
000002b0: e066 eb3c a645 75be c612 78be 58ed dcbd
000002c0: 3037 083e e5a3 aabe ce83 99be e038 b7bd
000002d0: 607e e93d 62d5 46be 28d8 c03d 884b ccbe
000002e0: a76b 9fbe 34fa 513e da2f 7cbe 907e 063e
000002f0: aaf2 963e 88e4 ad3e ca19 5dbe f67f 96be
00000300: c8f9 2ebd 60d2 1a3c d0b5 7f3d f083 dabc
00000310: c380 b0be b0ed dfbd 906e 773e 8022 493e
00000320: 58fe 73bd f348 bfbe e067 54bd ac84 c43e
00000330: 9c7b 8fbd 8080 a53e ccc5 963e 2079 90bc
00000340: 0877 8abd 7c38 173e 646e 8c3e afd3 4bbe
00000350: c61f b63e 386d 293e 0049 be3e 01a9 8dbe
00000360: 50cc 7a3e 54e3 17be 44a8 893e 5896 713e
00000370: 9032 debd 248e 97be c09c eb3c 9004 923e
00000380: 00f6 b63d f8a6 a6be d92c a5be 9eed 953e
00000390: d434 8f3e 808e 903b 72f3 823e 7013 843e
000003a0: 11bd b3be f02d 353e 0c74 693e 481f dc3d
000003b0: 9f29 4bbe f932 90be 8caf 583e e543 b3be
000003c0: 5cef a4be 4c42 9fbd 224f a83e ece5 663e
000003d0: cc3c c6be f68d 903e 357a adbe e063 033e
000003e0: 506f 193d 7c59 fdbd ab3a 7dbe 4424 773e
000003f0: 05ec bfbe 6088 03be d6fd 62be 788b 8e3e

main_model.InputLayer.bias f4 [256]
0.16274494 0.21497512 -0.1614307 0.21628946 0.27823943 0.32079864 0.23463953 -0.24028558
-0.3504454 -0.27155033 0.12332183 0.11742067 -0.28385723 -0.20914567 0.06826684 0.26363873
-0.0032746494 0.08704388 0.010049164 -0.3768612 0.022399068 -0.3762028 0.07676804 -0.36315465
-0.0105006695 -0.34226575 -0.34323436 0.1498146 -0.3811475 -0.17375927 -0.1269876 -0.3503006
0.3167737 0.07668871 -0.05375445 -0.30382138 0.18443084 -0.29037437 -0.3402897 0.34948975
-0.32714176 -0.30833703 -0.065986454 -0.2860222 0.005517572 0.3504774 0.391926 0.079921335
-0.0606066 -0.0057686567 -0.29432487 -0.36036593 0.19334185 -0.08752078 0.021039277 -0.06509805
0.14856845 -0.041323006 0.38874686 0.036780328 -0.17514062 0.24826908 0.21811867 -0.27707946
0.40243638 0.04328087 -0.30268317 0.3893417 0.34214133 -0.21620758 -0.17826909 -0.06182459
0.23492855 -0.109246016 -0.13882867 -0.14920273 -0.20592897 0.016211987 0.2931202 -0.06562632
-0.30621997 0.2620362 0.2095108 0.29847842 -0.091834664 -0.0149742365 0.34179705 0.06409344
0.004876077 -0.2820714 -0.052045077 -0.39899918 -0.21230036 -0.3157097 -0.029322058 0.38433164
-0.32614034 -0.13574108 -0.34537196 0.028389305 0.122736216 0.17865288 -0.23436154 0.15957874
0.11862898 -0.18337288 0.18770504 -0.13908577 -0.117094725 -0.19713344 0.016240358 -0.2207776
-0.22291131 -0.07625815 0.38169807 0.08505395 0.12212312 0.35832065 0.2798162 0.12607414
0.0035261214 0.15409958 0.19030839 0.3697865 -0.35814762 -0.24966906 -0.4037789 0.30828726
-0.009656519 -0.17872666 -0.009397924 0.40558606 0.35576713 0.38453323 0.050086796 -0.10019308
0.06529829 -0.082850695 0.13793415 -0.27810103 -0.09357715 0.2267918 -0.2571286 0.17785197
-0.3651139 0.20117515 0.096066594 0.00023156404 -0.38783523 -0.17161222 -0.23217137 -0.18505959
0.39853585 -0.12830108 -0.107325405 -0.2063113 0.07597774 -0.4051329 0.35778916 0.3255797
-0.033868432 -0.07985824 -0.19957569 0.35161585 -0.26324812 -0.2460038 -0.13357049 -0.1319626
-0.17440002 -0.349131 0.25846004 -0.24439876 -0.23442446 -0.017285585 0.18054801 -0.23429213
0.36382067 -0.37209067 -0.28080696 0.1988771 0.088887304 -0.028493792 -0.2575809 -0.24647388
0.18789428 -0.27489567 0.18672466 -0.088814914 -0.0057481527 -0.07087219 0.008631438 0.25025123
-0.2256684 0.0810059 0.017785251 -0.07837215 0.08204883 -0.330963 -0.20317982 -0.3539557
-0.15155503 0.352399 -0.14917329 0.014223278 -0.37422696 0.2424013 0.3252173 -0.35824403
-0.20714301 0.33059007 0.084228486 -0.039396405 -0.14126888 0.0152224 -0.089651555 -0.08907625
-0.3156014 0.021660447 -0.27217272 0.34216172 0.0914861 0.2540171 -0.27563137 -0.073803574
-0.32470387 -0.1599936 -0.044318587 0.3001945 -0.34365913 -0.14569044 0.0051027834 -0.2755007
0.2565986 0.12083846 -0.07179183 0.30641395 0.39593875 0.1730426 0.00273031 -0.23720296
-0.29817772 0.084712684 0.35783774 0.37691385 -0.3346094 0.029569298 -0.11107111 -0.115648866
0.35944182 0.07698101 -0.050370038 0.33882385 0.025717199 0.019663125 0.10450184 0.36726284
00000000: 9ca6 263e 7022 5c3e 174e 25be fc7a 5d3e
00000010: 6675 8e3e b83f a43e 5845 703e 6c0d 76be
00000020: 946d b3be a508 8bbe 2890 fc3d 407a f03d
00000030: bc55 91be 482a 56be 7ccf 8b3d a8fb 863e
00000040: 809b 56bb 1044 b23d 40a5 243c f4f3 c0be
00000050: 407e b73c a79d c0be 9038 9d3d 68ef b9be
00000060: 000b 2cbc 753d afbe 6abc afbe 0069 193e
00000070: c425 c3be f3ed 31be 0a09 02be 9a5a b3be
00000080: 2a30 a23e f80e 9d3d a02d 5cbd 7a8e 9bbe
00000090: 70db 3c3e f3ab 94be 743a aebe 52f0 b23e
000000a0: 207f a7be 5ade 9dbe e823 87bd 8071 92be
000000b0: c0cc b43b c671 b33e 86aa c83e ccad a33d
000000c0: a03e 78bd 0007 bdbb c0b1 96be e281 b8be
000000d0: 68fb 453e 183e b3bd 905a ac3c 2052 85bd
000000e0: 5422 183e 5042 29bd d409 c73e f8a6 163d
000000f0: 1058 33be 403a 7e3e 805a 5f3e 5cdd 8dbe
00000100: 240c ce3e 4847 313d 4af9 9abe cc57 c73e
00000110: 262d af3e 8565 5dbe 2c8c 36be c83b 7dbd
00000120: 1c91 703e 60bc dfbd 1a29 0ebe 9ac8 18be
00000130: 0bdf 52be 00cf 843c da13 963e 1867 86bd
00000140: ddc8 9cbe 9c29 863e 008a 563e 2ad2 983e
00000150: d013 bcbd 8056 75bc 0600 af3e 6c43 833d
00000160: 80c7 9f3b aa6b 90be 382d 55bd 9f49 ccbe
00000170: 4465 59be b4a4 a1be d034 f0bc 1ec7 c43e
00000180: defb a6be b6ff 0abe 98d4 b0be b090 e83c
00000190: 205d fb3d c8f0 363e 79fc 6fbe 9c68 233e
000001a0: c0f3 f23d 1ac6 3bbe c035 403e 806c 0ebe
000001b0: 5ccf efbd 59dd 49be 800a 853c 8613 62be
000001c0: dd42 64be 3c2d 9cbd ee6d c33e c430 ae3d
000001d0: b01b fa3d ce75 b73e 1244 8f3e 9419 013e
000001e0: 8016 673b 48cc 1d3e 34e0 423e a854 bd3e
000001f0: 205f b7be 3fa9 7fbe 1cbc cebe d4d7 9d3e
00000200: 6036 1ebc 1f04 37be c0f9 19bc faa8 cf3e
00000210: 1c27 b63e 8ae1 c43e d027 4d3d 0832 cdbd
00000220: 1cbb 853d a0ad a9bd 9c3e 0d3e 4263 8ebe
00000230: 60a5 bfbd 1c3c 683e 5ca6 83be d41e 363e
00000240: 36f0 babe dc00 4e3e 90be c43d 00d0 7239
00000250: 5792 c6be 1dbb 2fbe 55be 6dbe 4380 3dbe
00000260: e40c cc3e 5c61 03be 6ccd dbbd 4543 53be
00000270: 389a 9b3d 946d cfbe 2430 b73e 62b2 a63e
00000280: a0b9 0abd b88c a3bd 925d 4cbe fe06 b43e
00000290: 75c8 86be 6ce8 7bbe b4c6 08be 3421 07be
000002a0: eb95 32be 4cc1 b2be e054 843e ab43 7abe
000002b0: f70c 70be 809a 8dbc 94e1 383e 47ea 6fbe
000002c0: b446 ba3e ab82 bebe eec5 8fbe 70a6 4b3e
000002d0: 8c0a b63d d06b e9bc a5e1 83be a663 7cbe
000002e0: 5c67 403e 20bf 8cbe c034 3f3e 98e4 b5bd
000002f0: 005b bcbb 7025 91bd e06a 0d3c ee20 803e
00000300: 9e15 67be 6ce6 a53d 60b2 913c 9481 a0bd
00000310: 3809 a83d fb73 a9be 5f0e 50be ae39 b5be
00000320: 3e31 1bbe a46d b43e e2c0 18be c008 693c
00000330: ad9a bfbe 0c38 783e e282 a63e c36b b7be
00000340: 4c1d 54be 1a43 a93e fc7f ac3d 205e 21bd
00000350: caa8 10be 6067 793c 3c9b b7bd 9c6d b6bd
00000360: 8296 a1be 4071 b13c 395a 8bbe d22f af3e
00000370: 105d bb3d 880e 823e 8e1f 8dbe 5426 97bd
00000380: 963f a6be 5dd5 23be 6887 35bd 18b3 993e
00000390: 17f4 afbe e02f 15be 4035 a73b 6e0e 8dbe
000003a0: e460 833e 287a f73d 9807 93bd 4ae2 9c3e
000003b0: 7cb8 ca3e 1432 313e 00ef 323b 55e5 72be
000003c0: c0aa 98be d87d ad3d 8236 b73e dafa c03e
000003d0: ec51 abbe 503b f23c 4079 e3bd 50d9 ecbd
000003e0: c208 b83e 38a8 9d3d d050 4ebd 527a ad3e
000003f0: e0ac d23c 9014 a13c 1005 d63d e009 bc3e

main_model.hiddenlayer_0.weight f4 [256, 256]
-0.05829277 -0.011227101 0.03987834 0.018652685 -0.013254419 -0.0028770342 -0.04393997 -0.03970124
-0.022296958 -0.030894049 -0.05639012 -0.022790432 0.0437574 -0.053325392 0.04973749 -0.013131544
0.05346579 -0.0017903447 -0.028633945 0.050083667 0.035141565 0.044879757 0.012713179 0.009253874
0.0051389337 0.049362376 -0.014278039 0.029399857 0.03895606 0.021536 -0.032306604 -0.033413388
-0.052812167 0.00030634552 -0.0026714131 -0.011498824 0.0052465126 -0.0091937855 -0.06073928 0.052085273
0.03075274 -0.060695946 -0.026789248 0.04085943 -0.026440814 -0.034858026 -0.016545914 0.05559811
-0.011274673 -0.021778777 0.028496705 0.05994898 0.035777442 -0.011548646 0.05929923 -0.006089896
0.058547966 -0.049899988 0.011441737 0.055913985 0.018532664 -0.05968853 -0.04388272 -0.035149284
-0.054906085 -0.02557274 0.025481679 0.03497853 -0.056788646 -0.039368935 0.013480529 0.001174897
-0.019087128 0.03102485 -0.00063659996 -0.01955787 -0.021475643 0.004776165 0.008153312 -0.036363766
-0.028183177 -0.057772458 -0.0011097193 -0.055513687 -0.039897002 0.04626593 -0.007389009 0.03729415
0.040096126 -0.029743448 0.025667556 -0.021157332 -0.016960628 -0.03744612 0.038855672 -0.006519504
0.0022991672 -0.005265638 0.002165258 0.056058794 0.04197309 -0.012923352 -0.0014954358 -0.007262461
0.060656972 -0.019172296 0.012363762 0.011279792 0.060613006 0.0065942556 0.048989095 0.05693467
-0.034277685 0.029524133 -0.029976927 0.0077159256 0.059777193 -0.039711155 0.0598727 0.014656991
0.013599865 -0.042734027 0.028293185 -0.039683327 0.020415418 0.0464432 -0.00077890605 0.0412988
0.03172189 0.030329324 0.035321392 -0.046276838 0.058493756 0.057677917 -0.0049033687 -0.00047701597
-0.04072085 -0.005210273 0.0329073 -0.0486949 0.008737855 0.045706786 -0.018637508 -0.060178302
0.024216838 0.03239564 -0.02430699 -0.025801577 0.028712787 0.04153265 0.035063207 0.044286177
0.04013273 -0.012503937 0.05069013 0.005577706 -0.017411172 -0.0020497665 -0.057006627 0.04456786
-0.024775043 0.012489781 -0.01641275 0.018357597 -0.04718464 -0.009578116 -0.01067321 -0.05485303
0.061680973 -0.015589289 0.053975575 0.010720439 -0.00932353 -0.009265348 0.055900134 -0.005650364
-0.062399246 0.037421905 0.011272922 -0.039423645 0.059738167 0.01242464 0.040669844 -0.0287662
0.03360241 0.04319779 0.032348648 0.015881024 -0.024916112 0.052434847 -0.04419557 -0.009303644
0.03715869 -0.061396673 0.01631356 0.036777265 -0.012205139 -0.05212705 0.021011665 0.045206234
0.031460665 0.025016695 -0.0068548396 -0.04004004 -0.010380819 0.00228858 0.039087296 0.050028138
0.015382722 0.052237943 0.01689431 -0.05094079 0.048229285 -0.023260526 0.034214236 0.05561825
-0.062034063 -0.057485104 0.036090225 -0.056915782 -0.016945869 0.03567137 0.004583776 0.056835927
-0.034914084 -0.015685372 0.012846865 -0.050622106 -0.020250894 -0.05115562 -0.053958192 0.05638566
-0.013488971 -0.061381176 -0.0315234 -0.0044353306 0.02443336 0.03100527 -0.032366358 0.025722966
-0.047812656 -0.0050492734 -0.062086612 0.04695726 0.058680475 0.007487841 -0.050681062 -0.013294965
0.024634928 -0.02379825 -0.042571694 -0.012651987 0.056504704 0.029063068 0.0032765567 0.025168046
00000000: 66c4 6ebd e0f1 37bc 7857 233d 84cd 983c
00000010: 1029 59bc a08c 3cbb 66fa 33bd c49d 22bd
00000020: 1ca8 b6bc 8415 fdbc 54f9 66bd 00b3 babc
00000030: f63a 333d ba6b 5abd 8ab9 4b3d b025 57bc
00000040: f2fe 5a3d 00aa eaba bc91 eabc 8824 4d3d
00000050: 9af0 0f3d d6d3 373d f04a 503c 909d 173c
00000060: 8064 a83b 3430 4a3d 70ee 69bc f8d7 f03c
00000070: 6490 1f3d 446c b03c ee53 04bd 7adc 08bd
00000080: 9251 58bd 009d a039 e012 2fbb 9065 3cbc
00000090: f0ea ab3b 88a1 16bc c0c9 78bd 5e57 553d
000000a0: 2ced fb3c 509c 78bd 2075 dbbc 385c 273d
000000b0: 689a d8bc 4ac7 0ebd 4c8b 87bc d8ba 633d
000000c0: 68b9 38bc 6869 b2bc ec71 e93c 108d 753d
000000d0: 5e8b 123d 8836 3dbc c0e3 723d c08d c7bb
000000e0: fecf 6f3d ee63 4cbd 2076 3b3c 1006 653d
000000f0: d0d1 973c f67b 74bd 5ebe 33bd b2f8 0fbd
00000100: 34e5 60bd ec7d d1bc f4be d03c a645 0f3d
00000110: 369b 68bd 5241 21bd 70dd 5c3c 00ff 993a
00000120: 9c5c 9cbc d427 fe3c 80e1 26ba d437 a0bc
00000130: b0ed afbc 6081 9c3b 7895 053c 2cf2 14bd
00000140: 68e0 e6bc d0a2 6cbd 0074 91ba 5262 63bd
00000150: 0a6b 23bd 5881 3d3d 801f f2bb c0c1 183d
00000160: d63b 243d 88a8 f3bc c444 d23c 2452 adbc
00000170: 04f1 8abc 1a61 19bd 2027 1f3d 90a1 d5bb
00000180: a0ad 163b 608b acbb 00e7 0d3b e89d 653d
00000190: faeb 2b3d 78bc 53bc 8002 c4ba f0f9 edbb
000001a0: 7273 783d 380f 9dbc 6091 4a3c e0ce 383c
000001b0: 5845 783d a014 d83b caa8 483d 5434 693d
000001c0: c266 0cbd 98dc f13c 2c92 f5bc e0d5 fc3b
000001d0: eed8 743d 2aa8 22bd 143d 753d e023 703c
000001e0: f8d1 5e3c e009 2fbd 1cc7 e73c fc8a 22bd
000001f0: 3c3e a73c 3a3b 3e3d 802f 4cba ee28 293d
00000200: d0ee 013d 3475 f83c 2aad 103d c88c 3dbd
00000210: 2697 6f3d ae3f 6c3d 70ac a0bb 0018 fab9
00000220: e8ca 26bd f0ba aabb cec9 063d 4e74 47bd
00000230: 3829 0f3c 0a37 3b3d b0ad 98bc 867d 76bd
00000240: 6462 c63c 4ab1 043d 741f c7bc d45d d3bc
00000250: 1437 eb3c 241e 2a3d 709e 0f3d 6c65 353d
00000260: 3862 243d 50dd 4cbc 74a0 4f3d 30c5 b63b
00000270: e0a1 8ebc 6055 06bb c87f 69bd ca8c 363d
00000280: 08f5 cabc f0a1 4c3c 0874 86bc ac62 963c
00000290: ae44 41bd 88ed 1cbc b0de 2ebc 92ad 60bd
000002a0: 30a5 7c3d 386a 7fbc 7e15 5d3d c8a4 2f3c
000002b0: b8c1 18bc b0cd 17bc 8af7 643d b026 b9bb
000002c0: 5a96 7fbd b647 193d 10b2 383c b07a 21bd
000002d0: 02b0 743d b890 4b3c 6c95 263d 18a7 ebbc
000002e0: aea2 093d 2af0 303d 0480 043d ec18 823c
000002f0: e01c ccbc ecc5 563d 6a06 35bd 506e 18bc
00000300: b633 183d 147b 7bbd 04a4 853c c2a3 163d
00000310: 10f8 47bc 2c83 55bd a820 ac3c 2c2a 393d
00000320: e6dc 003d d0ef cc3c 909e e0bb 0601 24bd
00000330: 5014 2abc 00fc 153b 001a 203d 4eea 4c3d
00000340: d007 7c3c 74f7 553d f065 8a3c 4aa7 50bd
00000350: 128c 453d dc8c bebc 3a24 0c3d f6cf 633d
00000360: 6e17 7ebd 8075 6bbd 58d3 133d 8620 69bd
00000370: 10d2 8abc 241c 123d 8033 963b cacc 683d
00000380: 1202 0fbd 9c7e 80bc a87b 523c 2059 4fbd
00000390: 34e5 a5bc 8e88 51bd 4403 5dbd a6f4 663d
000003a0: d800 5dbc d46a 7bbd ae1e 01bd 4056 91bb
000003b0: 7828 c83c c4fe fd3c 9692 04bd f8b8 d23c
000003c0: 34d7 43bd 6074 a5bb 884e 7ebd 4256 403d
000003d0: f05a 703d 905c f53b f296 4fbd 20d3 59bc
000003e0: 30cf c93c 8cf4 c2bc a85f 2ebd 484a 4fbc
000003f0: 7a71 673d ac15 ee3c 80bb 563b 382d ce3c

main_model.hiddenlayer_0.bias f4 [256]
0.027654707 -0.054327227 0.0058073774 -0.023205712 -0.026963621 0.040535547 -0.021337904 -0.050140575
-0.04682467 0.04524336 0.051065862 0.06248471 0.05165866 -0.054311223 0.01380305 -0.0042558014
-0.012812674 0.042678468 -0.033694908 0.039623044 0.017192692 0.0023441538 -0.035853893 0.03490535
0.03593853 -0.05932635 -0.05081646 -0.0010593906 0.015703969 -0.03133472 -0.057856806 0.0094649345
0.05517845 -0.045716874 -0.012179941 0.0012184754 -0.025201067 0.011200987 -4.209578e-05 -0.04016459
-0.011913158 0.050705224 -0.008149847 0.029010259 -0.024712428 0.045724295 -0.028695144 0.048158117
-0.054724693 0.006299913 0.0037619695 -0.056489736 0.015774362 0.013396375 0.0069212615 -0.015206628
-0.013518676 0.0077739507 0.0068730265 0.046963453 -0.026631974 0.013915651 0.0017218292 -0.013525419
0.01863318 0.01774206 0.053669587 -0.05672551 -0.057293363 -0.0313434 -0.06222564 -0.050998993
0.03495402 -0.029109448 0.061739102 -0.035558946 0.031240307 -0.014212593 -0.038903013 -0.055362344
0.012614004 0.047288045 0.038293876 -0.015493028 0.057986386 -0.008231834 0.06248931 -0.0018940568
-0.04123342 -0.0044607073 -0.015951023 -0.0028905943 0.02776537 0.0026339516 0.005403772 0.05524371
0.013726704 0.057809822 0.028325155 0.025291353 -0.04104887 -0.017711192 0.0036819205 -0.04844802
-0.025397494 -0.040765136 0.042341366 0.02419065 -0.030474134 0.0014344156 -0.047503434 0.05176507
0.016972177 -0.05463726 0.025921762 0.052691706 0.032913707 -0.0040850565 0.04601223 -0.034446113
0.03968201 -0.035330497 -0.058417335 -0.043938093 0.053904675 0.060775205 -0.058399417 -0.04227989
0.020469725 0.0038392544 -0.035868317 -0.040035494 -0.022943512 0.028923862 -0.022176959 0.012131564
0.010921687 -0.043477528 -0.005754687 -0.03632851 -0.011231795 -0.03278201 -0.010296762 -0.04698748
0.017940328 0.02244965 -0.010891676 -0.0050477237 0.008537419 0.011065915 0.036615826 0.040982895
0.053220607 -0.03242924 -0.033182427 0.05945448 0.046775296 -0.003303796 0.03455788 0.036903
-0.014691256 0.0108997375 0.014759108 0.021974482 -0.015654288 -0.017941914 -0.046306796 -0.013032369
0.016611814 -0.051870935 -0.021211773 -0.032352224 -0.0037466735 -0.04056102 -0.018459097 0.035332583
0.04772971 0.0037124902 0.016757399 -0.0030304864 -0.006999992 -0.019013263 0.045586936 0.030223928
0.020859964 0.034289323 0.027169898 -0.059481785 0.03762593 -0.010894552 -0.0018571317 0.034092665
0.05403564 -0.039947674 -0.02357474 0.054304942 0.015854359 0.03083177 0.035479166 -0.057568863
0.029615805 0.04392182 0.06017556 0.022857808 0.016852006 -0.04845307 0.054395482 0.02036219
0.01665122 0.04197248 0.01341445 0.03026598 -0.038700007 0.0037934259 0.046656214 0.058513887
0.045234382 -0.05783066 -0.00952138 -0.036716335 -0.030765831 0.058761507 -0.04203181 -0.054393023
-0.014861278 -0.00013719499 0.019767508 0.039606772 0.050153308 0.02361741 0.011347085 0.050518088
0.05944702 0.002620943 -0.050313003 -0.043570116 -0.05612243 0.059243552 -0.03993915 -0.034458272
0.019700296 -0.024698153 0.058358625 -0.009943299 -0.049237363 -0.012417249 -0.025634177 -0.029710248
-0.0025783405 -0.051507488 0.012441598 -0.032134026 -0.013503812 0.024641238 0.049823694 -0.045725144
00000000: 208c e23c 3a86 5ebd d04b be3b e819 bebc
00000010: d0e2 dcbc 9a08 263d d4cc aebc 3460 4dbd
00000020: 3acb 3fbd 1a51 393d 702a 513d f8ef 7f3d
00000030: 0898 533d 7275 5ebd 3026 623c 4074 8bbb
00000040: 40ec 51bc 9ecf 2e3d ac03 0abd c64b 223d
00000050: b0d7 8c3c 60a0 193b 88db 12bd eaf8 0e3d
00000060: 4834 133d 3000 73bd ec24 50bd 40db 8aba
00000070: 9ca5 803c d658 00bd 42fb 6cbd d012 1b3c
00000080: cc02 623d 9e41 3bbd 608e 47bc 40b5 9f3a
00000090: 7872 cebc 5884 373c 0090 30b8 a083 24bd
000000a0: 682f 43bc 48b0 4f3d f086 05bc eca6 ed3c
000000b0: b871 cabc 6649 3b3d 1412 ebbc 7241 453d
000000c0: 0027 60bd 806f ce3b 608b 763b c861 67bd
000000d0: 3c39 813c 787c 5b3c c0cb e23b 3825 79bc
000000e0: 707d 5dbc a0bc fe3b 2037 e13b c05c 403d
000000f0: 4c2b dabc 78fe 633c 00af e13a b899 5dbc
00000100: 9ca4 983c cc57 913c a4d4 5b3d 0259 68bd
00000110: 72ac 6abd f061 00bd 50e0 7ebd 52e4 50bd
00000120: f22b 0f3d f076 eebc 24e2 7c3d 42a6 11bd
00000130: aceb ff3c f0db 68bc c458 1fbd a0c3 62bd
00000140: f8aa 4e3c 1cb1 413d 0ada 1c3d 78d6 7dbc
00000150: 2283 6d3d d0de 06bc caf4 7f3d 0042 f8ba
00000160: 60e4 28bd 202b 92bb b8ab 82bc 2070 3dbb
00000170: 3474 e33c 609e 2c3b 2012 b13b 3a47 623d
00000180: f8e5 603c fec9 6c3d 280a e83c d02f cf3c
00000190: dc22 28bd 1017 91bc 604c 713b 6e71 46bd
000001a0: 680e d0bc 58f9 26bd 246e 2d3d 782b c63c
000001b0: e4a4 f9bc 0003 bc3a f692 42bd 9c07 543d
000001c0: 3c09 8b3c 52cb 5fbd e059 d43c 42d3 573d
000001d0: 86d0 063d f0db 85bb 5277 3c3d 5e17 0dbd
000001e0: 9a89 223d b6b6 10bd 0447 6fbd 6ef8 33bd
000001f0: 26cb 5c3d 6cef 783d 3a34 6fbd ae2d 2dbd
00000200: 20b0 a73c 009c 7b3b a8ea 12bd 42fc 23bd
00000210: 08f4 bbbc bcf1 ec3c 74ac b5bc 78c3 463c
00000220: e0f0 323c 7e15 32bd d091 bcbb 34cd 14bd
00000230: 9005 38bc 6e46 06bd c0b3 28bc f275 40bd
00000240: 98f7 923c 54e8 b73c 0073 32bc 6067 a5bb
00000250: 88e0 0b3c d04d 353c 7afa 153d aedd 273d
00000260: dafd 593d 86d4 04bd 4cea 07bd 8a86 733d
00000270: 7497 3f3d 8084 58bb 908c 0d3d 9a27 173d
00000280: 98b3 70bc d094 323c 30d0 713c d403 b43c
00000290: 6c3d 80bc ecfa 92bc 32ac 3dbd b885 55bc
000002a0: 8015 883c 9e76 54bd 50c4 adbc c483 04bd
000002b0: c08a 75bb 5023 26bd 8837 97bc e6b8 103d
000002c0: 3a80 433d 404d 733b d046 893c 209b 46bb
000002d0: 3060 e5bb b4c1 9bbc 5eb9 3a3d 2c98 f73c
000002e0: 84e2 aa3c f672 0c3d 6893 de3c 2ca3 73bd
000002f0: a61d 1a3d 107f 32bc 006b f3ba c0a4 0b3d
00000300: 7a54 5d3d 2ca0 23bd d01f c1bc dc6e 5e3d
00000310: 00e1 813c e892 fc3c 9a52 113d 54cd 6bbd
00000320: d89c f23c 5ee7 333d a67a 763d 4c40 bb3c
00000330: 380d 8a3c ba76 46bd cccd 5e3d 9cce a63c
00000340: 2468 883c 56eb 2b3d 48c8 5b3c 5cf0 f73c
00000350: e683 1ebd 209b 783b 961a 3f3d 42ac 6f3d
00000360: b047 393d d8df 6cbd 90ff 1bbc de63 16bd
00000370: a008 fcbc e8af 703d 8c29 2cbd 38cb 5ebd
00000380: b87c 73bc 00dc 0fb9 78ef a13c b63a 223d
00000390: 8e6d 4d3d 4c79 c13c 20e9 393c 0eec 4e3d
000003a0: b87e 733d 20c4 2b3b 0215 4ebd 9476 32bd
000003b0: a2e0 65bd 5ea9 723d 3c97 23bd 1e24 0dbd
000003c0: 8462 a13c c853 cabc 7409 6f3d 38e9 22bc
000003d0: 1ead 49bd b871 4bbc c4fe d1bc e862 f3bc
000003e0: 60f9 28bb 84f9 52bd d8d7 4b3c f89e 03bd
000003f0: 183f 5dbc 6cdc c93c ee13 4c3d 4a4a 3bbd

main_model.OutputLayer.weight f4 [3, 256]
-0.020891786 -0.038032115 0.029834233 -0.038995646 -0.031958863 -0.040325224 -0.05558049 -0.0053789914
-0.051632427 0.014609672 -0.023878276 -0.05792985 -0.03905999 0.043982275 -0.036810413 -0.061207376
0.022657357 0.010126285 0.021656036 -0.033820137 -0.044708647 -0.029568128 0.027439594 -0.02467002
0.0042186305 0.021367349 -0.032723524 0.0062948987 -0.026784271 -0.019944288 -0.023495845 0.022187337
0.026298739 -0.030779958 -0.01564622 0.041307412 -0.038667165 -0.040576167 0.045532785 -0.011119299
-0.042240515 0.060037777 0.021474943 0.059070498 -0.031900242 0.031470694 0.04534877 0.008195072
-0.0029769912 0.060549743 -0.011266544 -0.047763757 0.002317883 -0.05744393 -0.031299293 0.016692944
0.062333554 -0.029161803 0.060852677 -0.002064295 -0.036784843 0.01944381 0.044824824 -0.05646026
-0.049320504 -0.02557496 0.025836341 0.01340808 -0.056954533 -0.05950751 0.043915212 -0.035804167
0.026786596 -0.019631192 0.05359693 0.05447691 -0.0488289 -0.03904789 0.052356414 -0.010211632
-0.04776586 -0.023142241 0.023696527 -0.03824392 0.036946967 -0.0033626184 0.022658266 0.049216263
-0.015867472 0.028455183 0.016609207 0.0033611506 -0.020440735 -0.0064163804 0.062349543 -0.028553002
-0.022269756 0.05106745 -0.006376207 -0.052692696 0.03416162 -0.032368593 0.051592566 0.036566883
-0.020214327 0.030125774 0.060603514 0.007356927 0.02680865 -0.020544998 0.0136754215 -0.012140267
0.044253163 -0.030204386 -0.040907294 0.0462827 -0.013555385 -0.013279222 0.035362817 0.058596388
-0.038050704 -0.04251007 -0.03421206 0.033085622 0.018252932 -0.0050012097 -0.050104618 -0.026609287
0.059799507 0.03324736 0.04329969 -0.0024173558 0.01853183 -0.034907207 -0.057334177 -0.0094500035
0.061232276 -0.002780363 -0.02064693 0.057076275 -0.059589 -0.033341482 0.046406135 0.05712574
-0.04420852 -0.045883596 0.026405863 -0.051454864 -0.0578503 -0.0037925467 0.055323683 -0.021591574
-0.023020647 0.0168892 -0.02063109 0.013001978 0.0034814626 0.055689335 0.005759366 -0.03437276
-0.038978912 0.00044859946 -0.0012741238 -0.050272726 -0.030063622 0.021680035 -0.0064886063 0.013984002
0.05018018 0.0058226585 0.015996896 0.03169816 0.0389195 0.029636182 -0.053823464 0.02150125
-0.043526888 0.030994222 0.047084205 -0.03428603 0.014099069 -0.046805725 0.054949775 -0.042846024
0.05910907 -0.060632147 -0.06082254 0.01760789 0.026638761 -0.0377717 -0.046358936 0.013699561
-0.011635408 -0.015689142 0.025307037 0.009619318 0.006557092 0.035394937 0.03449419 -0.044577815
-0.04051747 -0.04709301 -0.046858713 -0.036907442 0.036237605 0.04799471 -0.040805183 0.017523564
-0.040856272 0.017693482 -0.005125791 0.010573491 -0.055508062 0.053387813 -0.017938755 -0.047728434
-0.056070954 0.036606126 -0.009086043 -0.012082696 0.055985846 0.038712434 0.0060938224 -0.022729084
0.037935033 0.013975121 -0.046021305 0.031242855 0.024078883 -0.035437897 -0.06195823 0.05779203
-0.012242004 0.062410146 0.038870372 -0.05184517 0.016885407 -0.051196396 0.010248452 0.00599055
-0.025736459 -0.026651703 0.058880985 0.041313194 -0.005390227 0.02046498 0.013284825 0.02499964
-0.01265838 0.0040419027 0.019691579 0.00031698495 0.007769175 0.014900051 0.061066292 0.053667292
00000000: 4025 abbc 90c7 1bbd ec66 f43c e6b9 1fbd
00000010: 4ce7 02bd 102c 25bd 5ea8 63bd 4042 b0bb
00000020: 867c 53bd 685d 6f3c 609c c3bc da47 6dbd
00000030: 5efd 1fbd c226 343d 84c6 16bd 96b4 7abd
00000040: ec9b b93c b8e8 253c 0068 b13c fc86 0abd
00000050: 6a20 37bd dc38 f2bc 00c9 e03c c818 cabc
00000060: 703c 8a3b 940a af3c 1a09 06bd 7045 ce3b
00000070: b06a dbbc 3462 a3bc 5c7a c0bc 38c2 b53c
00000080: 7470 d73c 4026 fcbc 802c 80bc f631 293d
00000090: 7661 1ebd 3233 26bd 9680 3a3d b82d 36bc
000000a0: 6404 2dbd 2cea 753d 38ec af3c e8f3 713d
000000b0: d4a9 02bd 6ae7 003d a2bf 393d a044 063c
000000c0: a019 43bb 0203 783d 5097 38bc eea3 43bd
000000d0: a0e7 173b 544a 6bbd b033 00bd a4bf 883c
000000e0: 7851 7f3d bce4 eebc a840 793d 2049 07bb
000000f0: b4ab 16bd a048 9f3c 3c9a 373d e042 67bd
00000100: 4c04 4abd 9482 d1bc bca6 d33c 90ad 5b3c
00000110: 2849 69bd 26be 73bd 70e0 333d 64a7 12bd
00000120: 906f db3c 98d1 a0bc 7488 5b3d 2e23 5f3d
00000130: d000 48bd aef0 1fbd ae73 563d b04e 27bc
00000140: 22a6 43bd cc94 bdbc 381f c23c a8a5 1cbd
00000150: b455 173d 605f 5cbb d49d b93c fe96 493d
00000160: 80fc 81bc d81a e93c 0810 883c c046 5c3b
00000170: 5473 a7bc 8040 d2bb 3c62 7f3d fce7 e9bc
00000180: 106f b6bc 1a2c 513d 80ef d0bb 4cd4 57bd
00000190: 0eed 0b3d ee94 04bd ba52 533d 28c7 153d
000001a0: 8498 a5bc 54ca f63c 643b 783d 6012 f13b
000001b0: d09d db3c fc4d a8bc e00e 603c f8e7 46bc
000001c0: ce42 353d 306f f7bc 688e 27bd ee92 3d3d
000001d0: 6817 5ebc 1891 59bc 9ad8 103d c402 703d
000001e0: 0edb 1bbd 0a1f 2ebd f221 0cbd ca84 073d
000001f0: 2c87 953c 30e1 a3bb 803a 4dbd b8fb d9bc
00000200: 54f0 743d 622e 083d 045b 313d 806c 1ebb
00000210: 10d0 973c dcfa 0ebd 3ed7 6abd 30d4 1abc
00000220: b2ce 7a3d c036 36bb c023 a9bc d0c8 693d
00000230: 9813 74bd 1491 08bd 5c14 3e3d aefc 693d
00000240: fe13 35bd 70f0 3bbd 1c51 d83c 56c2 52bd
00000250: 70f4 6cbd 608c 78bb 169b 623d d0e0 b0bc
00000260: cc95 bcbc 385b 8a3c 8802 a9bc 4006 553c
00000270: 4029 643b 801a 643d 10b9 bc3b 74ca 0cbd
00000280: 5aa8 1fbd 0032 eb39 8000 a7ba c6ea 4dbd
00000290: fc47 f6bc 549a b13c 609e d4bb 281d 653c
000002a0: bc89 4d3d 00cc be3b ec0b 833c eed5 013d
000002b0: 0e6a 1f3d 94c7 f23c fe75 5cbd 6423 b03c
000002c0: 4049 32bd 98e7 fd3c 5edb 403d 826f 0cbd
000002d0: c8ff 663c 5cb7 3fbd 0413 613d 507f 2fbd
000002e0: 5a1c 723d 6a59 78bd 0e21 79bd 6c3e 903c
000002f0: 8839 da3c 80b6 1abd dee2 3dbd 2074 603c
00000300: 70a2 3ebc 8486 80bc b450 cf3c 589a 1d3c
00000310: e0dc d63b 48fa 103d c849 0d3d 3a97 36bd
00000320: a6f5 25bd 9ae4 40bd ecee 3fbd 422c 17bd
00000330: e26d 143d 1a96 443d 5623 27bd 948d 8f3c
00000340: e858 27bd ecf1 903c 40f6 a7bb 703c 2d3c
00000350: 6c5c 63bd 2ead 5a3d 4cf4 92bc e47e 43bd
00000360: a8aa 65bd 4ef0 153d a0dd 14bc 80f6 45bc
00000370: 6a51 653d ee90 1e3d b0ae c73b 5832 babc
00000380: c461 1b3d e8f7 643c d680 3cbd 04f1 ff3c
00000390: 1441 c53c 5427 11bd eac7 7dbd 56b7 6c3d
000003a0: b092 48bc c8a1 7f3d 8a36 1f3d 9a5b 54bd
000003b0: 4453 8a3c 50b3 51bd 20e9 273c 604c c43b
000003c0: 44d5 d2bc ac54 dabc 302d 713d 0638 293d
000003d0: 80a0 b0bb 2ca6 a73c 98a8 593c 0ccc cc3c
000003e0: 1865 4fbc f071 843b 3c50 a13c 0031 a639
000003f0: 9094 fe3b 581f 743c a620 7a3d 3cd2 5b3d

main_model.OutputLayer.bias f4 [3]
0.053556815 -0.018523276 -0.059524067
00000000: 645e 5b3d 20be 97bc 82cf 73bd
