DQN/DQN_incomplete/save/main_model_000017.pth (torch_old, 274727 bytes, 6 tensors)

main_model.InputLayer.weight f4 [256, 6]
0	0xbe545a86	-0.20737657
1	0xbe7040ca	-0.23462215
2	0x3d89fe8c	0.06738004
3	0xbe18855e	-0.14894626
4	0xbeac8050	-0.33691645
5	0xbdb6a7c4	-0.089187175
6	0xbe88b564	-0.2670089
7	0xbecdf479	-0.4022558
8	0xbeaffc6d	-0.34372273
9	0x3e2659c0	0.16245174
10	0xbe8b4a3d	-0.27205077
11	0x3eb5e19c	0.3552369
12	0xbe9f9078	-0.31164908
13	0x3d3c08b1	0.045906726
14	0xbe0a7cb5	-0.13524134
15	0x3d3faebc	0.0467975
16	0x3e60a544	0.21938044
17	0x3e2abc42	0.16673377
18	0xbb72cfca	-0.0037050121
19	0x3d74da59	0.059778545
20	0x3da4e644	0.08051732
21	0x3e911302	0.28334814
22	0x3dc7fa2c	0.097645134
23	0xbe5590c0	-0.20855999
24	0xbec008ca	-0.37506706
25	0xbd942e49	-0.07235391
26	0x3e8a1722	0.26970774
27	0xbdea95cf	-0.11454355
28	0x3d4cea9d	0.050028432
29	0x3f6b4d76	0.9191507
30	0x3e204e64	0.15654904
31	0x3e95d6a3	0.29265317
32	0xbe8d7001	-0.27624515
33	0xbec70f6b	-0.3887895
34	0x3da824fd	0.0821018
35	0xbea313de	-0.31851095
36	0x3e9dbe1a	0.30809098
37	0x3e49eb82	0.19718745
38	0x3e5dfa45	0.21677501
39	0xbe9eecd3	-0.31040058
40	0xbdaf2f2d	-0.0855392
41	0xbe94580a	-0.28973418
42	0x3e4cd671	0.20003678
43	0xbef9c4e7	-0.48783037
44	0x3e06cf0a	0.13164917
45	0xbef293ec	-0.4737848
46	0x3e68c478	0.22731197
47	0x3e0e6453	0.13905458
48	0xbe4c7c2c	-0.19969243
49	0xbeb3d015	-0.35119691
50	0x3e0eea9f	0.13956688
51	0xbdd22869	-0.10261614
52	0x3df2c361	0.11853672
53	0xbec1a5af	-0.3782172
54	0xbf081e52	-0.53171265
55	0xbd8fd958	-0.07023877
56	0xbeab3d9d	-0.33445445
57	0xbe02ac83	-0.1276112
58	0x3e3acc15	0.18241914
59	0xbe92d109	-0.28675106
60	0x3dd124c3	0.1021209
61	0xbd84fc9f	-0.06493496
62	0xbdc5ac20	-0.09651971
63	0x3e471681	0.19442178
64	0x3d0d83a4	0.03454937
65	0x3e4aaa43	0.19791512
66	0x3e57e5d4	0.21083766
67	0xbe852d4a	-0.26011115
68	0x3e1cf9bc	0.15329641
69	0xbe80b106	-0.25135058
70	0xbebcef1e	-0.36901182
71	0xbd8458a0	-0.064622164
72	0x3eb1da97	0.34737083
73	0xbee91d8d	-0.45530358
74	0x3ddc054b	0.10743197
75	0xbecaaa68	-0.39583135
76	0x3ea3137f	0.31850812
77	0x3c34bfdc	0.011032071
78	0x3ea3bab5	0.31978384
79	0xbed7caab	-0.4214681
80	0x3e762378	0.24036968
81	0xbd4641b5	-0.048402507
82	0x3e219aa7	0.15781651
83	0x3e86a508	0.26297784
84	0x3e9a1660	0.30095196
85	0xbe6a6c07	-0.22892772
86	0x3e4bcb87	0.19901858
87	0xbde574d3	-0.11203923
88	0xbe808d7f	-0.25107953
89	0x3eb60c64	0.35556328
90	0xbc2bc80f	-0.010484709
91	0xbe85bfff	-0.26123044
92	0x3e0a651e	0.13515136
93	0x3e31f074	0.17376882
94	0x3d07052a	0.03296391
95	0x3d9e0f02	0.07717706
96	0x3d898fe3	0.06716897
97	0x3e33591c	0.17514461
98	0xbf04f567	-0.51936954
99	0x3e963376	0.29336137
100	0x3e23a4de	0.1598086
101	0x3dad2241	0.08453799
102	0xbe7ba578	-0.2457484
103	0xbc8463c5	-0.016160855
104	0xbe4e1a5f	-0.20127247
105	0x3de1cc4e	0.11025296
106	0xbebf38d8	-0.37348056
107	0xbdaa1e92	-0.08306612
108	0xbe70c953	-0.23514299
109	0x3dc968e0	0.098344564
110	0xbec53c10	-0.38522387
111	0x3da9d8b8	0.08293289
112	0xbe0a2132	-0.13489226
113	0x3ebb3c0a	0.36569244
114	0x3d51b103	0.051194202
115	0xbdd5a481	-0.10431767
116	0xbebdb089	-0.37048748
117	0x3beeaf5c	0.007284088
118	0xbd97888b	-0.073990904
119	0xbe980af2	-0.2969585
120	0xbecd05b6	-0.4004342
121	0x3e2f63ad	0.17127867
122	0xbd7ed9b5	-0.06221934
123	0xbd06f61d	-0.032949556
124	0x3e581784	0.2110272
125	0x3ea7fbcd	0.32809296
126	0x3f1aee54	0.6051991
127	0xbebdf561	-0.37101272
128	0xbf2e8ed7	-0.68186706
129	0xbf4559dc	-0.7709024
130	0x3c005a11	0.0078339735
131	0xbe9d5003	-0.30725107
132	0x3e90c84e	0.2827782
133	0x3e1da849	0.15396227
134	0x3e87db5a	0.2653454
135	0xbe8e7aec	-0.27828157
136	0xbd8d4cfa	-0.06899448
137	0x3e7dd11c	0.247868
138	0xbea237b8	-0.31683135
139	0xbe6909e6	-0.22757682
140	0xbbaee76a	-0.0053376453
141	0x3e97f3b9	0.29678133
142	0x3d858f09	0.065214224
143	0xbe885abf	-0.26631734
144	0xbe8d34ae	-0.27579254
145	0xbec22efd	-0.37926474
146	0xbe473797	-0.194548
147	0x3e7201a9	0.23633446
148	0xbdfaca2c	-0.122455925
149	0xbe1f1c14	-0.15538055
150	0xbec61311	-0.38686422
151	0x3e951031	0.29113916
152	0x3e6dc950	0.23221326
153	0xbd0da594	-0.034581736
154	0x3d252327	0.040316727
155	0xbe09f881	-0.13473703
156	0xbe7db860	-0.24777365
157	0xbeb385f4	-0.35063136
158	0x3e874012	0.2641607
159	0xbeb03396	-0.34414357
160	0xbcbd89a5	-0.023136923
161	0xbe5d98be	-0.21640298
162	0xbe01a836	-0.12661824
163	0xbe6d10c7	-0.23150931
164	0xbe77e08f	-0.24206756
165	0xbeabd4ff	-0.3356094
166	0xbd7cd930	-0.061730564
167	0x3ec60494	0.38675368
168	0xbec9e8c5	-0.39435402
169	0x3dc975ac	0.09836897
170	0x3e7ee752	0.24892929
171	0x3e93b3b5	0.28848043
172	0x3c85d9f8	0.016339287
173	0xbef4461c	-0.4770974
174	0xbe7812c6	-0.24225911
175	0xbddced58	-0.10787457
176	0x3e083730	0.13302302
177	0xbeaaa3e5	-0.33328167
178	0xbe9983ce	-0.29983371
179	0xbdb738e0	-0.08946395
180	0x3de97e60	0.11401057
181	0xbe46d562	-0.19417337
182	0x3dc0d828	0.094162285
183	0xbecc4b88	-0.39901376
184	0xbe9f6ba7	-0.3113682
185	0x3e51fa34	0.20505601
186	0xbeae801f	-0.34082124
187	0x3cb6d9df	0.022320686
188	0x3e3d8bf1	0.18510415
189	0x3e770677	0.2412356
190	0xbe86143c	-0.26187313
191	0xbf49f88c	-0.7889488
192	0xbd2ef9c8	-0.04271868
193	0x3c1ad260	0.009449571
194	0x3d7fb5d0	0.06242925
195	0xbcda83f0	-0.02667424
196	0xbeb080c3	-0.34473237
197	0xbddfedb0	-0.10934007
198	0x3e785450	0.24250913
199	0x3e3f2040	0.18664646
200	0xbda2e695	-0.07954136
201	0xbecd6f89	-0.40124157
202	0xbd3b42d5	-0.045718033
203	0x3ecbb8c4	0.39789402
204	0xbd8041f0	-0.062625766
205	0x3e9eaafd	0.3098983
206	0x3e888242	0.2666188
207	0xbd68d234	-0.05684109
208	0xbd8e3876	-0.06944363
209	0x3da8533c	0.08219001
210	0x3e39c7fb	0.18142693
211	0xbe8ef8b0	-0.27924109
212	0x3e8812a1	0.26576713
213	0x3db4ca9b	0.088277064
214	0x3e8ecc56	0.2789027
215	0xbed93ea8	-0.42430615
216	0x3d9d3907	0.07676893
217	0xbe84d42d	-0.25943127
218	0x3e19c4d2	0.15016487
219	0x3dfc2982	0.123126045
220	0xbdfa53a8	-0.122229874
221	0xbf82f1be	-1.0230024
222	0x3ceb9cc0	0.028761268
223	0x3e920490	0.28519106
224	0x3db6f600	0.089336395
225	0xbea6a6f8	-0.32549262
226	0xbea52cd9	-0.3226078
227	0x3e95ed9e	0.2928285
228	0x3e3d2f52	0.18475083
229	0xbd802ad3	-0.06258168
230	0x3e6095c3	0.2193213
231	0x3e39dd51	0.18150832
232	0xbee27960	-0.44233227
233	0x3eca5fcf	0.3952622
234	0x3e7428ab	0.23843639
235	0x3cc5c737	0.024142845
236	0xbea1ef3d	-0.31627837
237	0xbea77ec1	-0.32713893
238	0x3e1722d0	0.14759374
239	0xbf39fe23	-0.72653407
240	0xbeda6138	-0.42652297
241	0xbe00b64d	-0.12569542
242	0x3e965a47	0.2936575
243	0x3e563ad3	0.20920877
244	0xbee72fd6	-0.45153683
245	0x3bc6872e	0.006058595
246	0xbead7a35	-0.338823
247	0x3e0363e0	0.12831068
248	0x3d196f50	0.03745967
249	0xbdfd597c	-0.123705834
250	0xbe7d3aab	-0.24729411
251	0x3e772444	0.24134928
252	0xbebfec05	-0.37484756
253	0xbe038860	-0.12844992
254	0xbe62fdd6	-0.22167143
255	0x3e8e8b78	0.2784078

main_model.InputLayer.bias f4 [256]
0	0x3ea14178	0.3149526
1	0x3ebf7ae2	0.3739844
2	0xbe9bd8e0	-0.304389
3	0x3e2cf4d1	0.16890265
4	0x3d970959	0.0737483
5	0x3ed798ec	0.42108858
6	0x3eb9e2e4	0.36305916
7	0xbe9a16f0	-0.30095625
8	0xbef40c5b	-0.47665676
9	0xbee263bb	-0.44216713
10	0xbd0082d6	-0.031374775
11	0x3e8f9009	0.28039578
12	0xbeafff01	-0.3437424
13	0xbe4967df	-0.1966853
14	0x3d701484	0.058613315
15	0x3e262a99	0.16227187
16	0xbe554313	-0.20826368
17	0x3e6aecbc	0.2294187
18	0x3e368d8b	0.17827432
19	0xbee18915	-0.44049898
20	0xbde5df3e	-0.11224221
21	0xbdc4026b	-0.09570774
22	0x3d91ef31	0.071257
23	0xbf00fa85	-0.5038226
24	0xbd797241	-0.060899977
25	0xbef8d14c	-0.4859718
26	0xbecaf48a	-0.39639693
27	0x3e9ef897	0.31049034
28	0xbee22ad1	-0.4417329
29	0xbe31edf3	-0.17375927
30	0xbe02090a	-0.1269876
31	0xbeed7119	-0.4637535
32	0x3eef1551	0.4669595
33	0x3e47b9b6	0.19504437
34	0xbcc66ced	-0.024221862
35	0xbecea092	-0.4035688
36	0x3cf12942	0.029438619
37	0xbe94abf3	-0.29037437
38	0xbecd0e01	-0.40049747
39	0x3ece5341	0.40297893
40	0xbed54826	-0.41656607
41	0xbe9dde5a	-0.30833703
42	0xbd8723e8	-0.065986454
43	0xbed5dde3	-0.4177085
44	0x3d1d4956	0.038400017
45	0x3ebb7834	0.36615145
46	0x3f0b31dc	0.54372954
47	0x3d45cb88	0.048289806
48	0xbdae2ab8	-0.08504242
49	0xbd6c38de	-0.05767142
50	0xbea629b5	-0.32453695
51	0xbeb58d59	-0.35459402
52	0x3e1db790	0.15402055
53	0xbeadd027	-0.3394787
54	0x3e378eae	0.17925522
55	0xbdfa898e	-0.12233268
56	0x3e5b9670	0.21444106
57	0xbd294250	-0.041323006
58	0x3ea34736	0.31890267
59	0x3e4a0b37	0.1973084
60	0xbea2e888	-0.31818032
61	0x3e0c7d9c	0.13719791
62	0x3dce5ba8	0.10076076
63	0xbeb8576b	-0.36004195
64	0x3ec1b9d2	0.37837082
65	0xbde93e2c	-0.113888115
66	0xbe9af94a	-0.30268317
67	0x3f102617	0.5630812
68	0x3f024838	0.5089145
69	0xbea1b96e	-0.31586784
70	0xbe5eb5a6	-0.21748981
71	0xbe6370ae	-0.22210953
72	0x3ecb099d	0.39655772
73	0xbe150147	-0.14551269
74	0xbea52e0b	-0.3226169
75	0xbec6576e	-0.3873858
76	0xbe952929	-0.29132965
77	0x3e204329	0.1565062
78	0x3edf0d1b	0.43564686
79	0xbe0744c9	-0.13209833
80	0xbecebe78	-0.4037969
81	0x3edbd391	0.4293485
82	0x3e4b7337	0.1986817
83	0x3ef06de0	0.46958828
84	0xbdd47370	-0.103735805
85	0xbc755680	-0.0149742365
86	0x3e9588bc	0.29205883
87	0x3e5f8127	0.21826611
88	0xbd1a4bea	-0.037670054
89	0xbea47544	-0.32120717
90	0xbd552d38	-0.052045077
91	0xbecc499f	-0.39899918
92	0xbe9a1f88	-0.3010218
93	0xbea1a0e0	-0.3156805
94	0xbe50a848	-0.20376694
95	0x3f050bcb	0.5197112
96	0xbeb5de0d	-0.35520974
97	0xbe4e667c	-0.20156282
98	0xbebb7a19	-0.3661659
99	0x3cc49aa8	0.023999527
100	0x3d67104e	0.056412034
101	0x3ea8e24f	0.3298516
102	0xbe6ffc79	-0.23436154
103	0x3e9c59af	0.30537173
104	0x3e0acf68	0.13555682
105	0xbeadeefa	-0.33971387
106	0x3e1f4433	0.1555336
107	0xbe3b7f31	-0.18310238
108	0xbe1f5b25	-0.15562113
109	0xbe808e71	-0.25108674
110	0x3e16e9db	0.14737646
111	0xbe893268	-0.2679627
112	0xbeb5c089	-0.35498455
113	0xbd9c2d3c	-0.07625815
114	0x3ee0acf8	0.43881965
115	0x3e18d6a6	0.14925632
116	0x3da5c4dd	0.08094189
117	0x3ee579c0	0.4481945
118	0x3e9f33fd	0.3109435
119	0x3dac6b5e	0.08418916
120	0xbe7fb663	-0.24971919
121	0x3e0e9cbd	0.13926978
122	0x3eb56a59	0.354327
123	0x3e987f7f	0.29784772
124	0xbf060a94	-0.5235989
125	0xbe801e08	-0.25022912
126	0xbecebc1c	-0.4037789
127	0x3e856fd2	0.26061875
128	0xbd8cb3bd	-0.0687022
129	0xbe02373e	-0.12716386
130	0xbc19f9c0	-0.009397924
131	0x3edb7139	0.4285982
132	0x3efdea0f	0.49592635
133	0x3ebd31c9	0.36952046
134	0x3e5eb55f	0.21748875
135	0xbe4a9cd0	-0.19786382
136	0x3cfed312	0.031106506
137	0xbc8fdc25	-0.017561028
138	0x3e7aaaaf	0.24479173
139	0xbea38f43	-0.31945238
140	0xbdf324d6	-0.1187226
141	0x3e216905	0.15762718
142	0xbea222e9	-0.3166726
143	0x3e1dcff9	0.15411367
144	0xbebdecc3	-0.37094697
145	0x3e673376	0.22578225
146	0x3e87768a	0.26457626
147	0xbe8ca092	-0.27466255
148	0xbec69257	-0.38783523
149	0xbd2e91a8	-0.042619377
150	0xbe6dbe55	-0.23217137
151	0xbdef51bb	-0.11685511
152	0x3f0c6cdb	0.548536
153	0xbe45d834	-0.19320756
154	0xbe0de9dd	-0.13858743
155	0xbe534345	-0.2063113
156	0xbbee4432	-0.007271313
157	0xbf0f9c11	-0.56097513
158	0x3eb7b816	0.35882634
159	0x3ef21b8d	0.47286645
160	0xbd0ab9a0	-0.033868432
161	0xbe3f76de	-0.18697688
162	0xbe960d73	-0.29307136
163	0x3efc2f03	0.49254617
164	0xbe902eaf	-0.28160617
165	0xbe7a7814	-0.24459869
166	0xbe08c6b4	-0.13357049
167	0xbdd43bcc	-0.10362968
168	0xbead7e27	-0.3388531
169	0xbeced648	-0.4039786
170	0x3ebd3da1	0.36961082
171	0xbd2c3eb9	-0.042052004
172	0xbe7a5345	-0.24445827
173	0xbdee0030	-0.116211295
174	0x3eabfcaa	0.33591205
175	0xbe8ed033	-0.27893218
176	0x3eb6a56d	0.35673085
177	0xbebe82ab	-0.37209067
178	0xbed842ba	-0.42238408
179	0x3eaddad5	0.33956018
180	0x3e601732	0.21883848
181	0xbd84fc1c	-0.064933985
182	0xbe9ce97c	-0.30646884
183	0xbec441b8	-0.3833139
184	0x3eb9bd83	0.36277398
185	0xbeb30055	-0.3496119
186	0x3e295810	0.165375
187	0xbe103e0a	-0.14086166
188	0xbcba1141	-0.022713305
189	0xbe1e6805	-0.15469368
190	0x3e37b34f	0.17939495
191	0x3ed66bfb	0.41879258
192	0xbe6c2909	-0.23062529
193	0xbbed4ae9	-0.007241596
194	0x3e38217f	0.17981528
195	0xbe06acc1	-0.13151838
196	0x3e0aa61f	0.13539933
197	0xbefaa1fe	-0.48951715
198	0xbea0306d	-0.31286946
199	0xbf0332c5	-0.51249343
200	0xbe6521e0	-0.22376204
201	0x3f002bd8	0.500669
202	0xbe3f92d5	-0.18708356
203	0x3e392c1a	0.1808323
204	0xbebf9aad	-0.37422696
205	0x3e54db4b	0.20786779
206	0x3ea9f137	0.33191845
207	0xbe84dac9	-0.2594817
208	0xbe541d4c	-0.20714301
209	0x3e8ef78c	0.27923238
210	0x3e67b1f6	0.2262648
211	0xbd745758	-0.05965361
212	0xbe10a8ca	-0.14126888
213	0xbd3a3ceb	-0.045468252
214	0xbe3baa1a	-0.18326607
215	0xbdf62cec	-0.12020287
216	0xbea19682	-0.3156014
217	0x3c21b6ce	0.009870244
218	0xbe8b5a39	-0.27217272
219	0x3ea204e8	0.31644368
220	0xbd698b96	-0.057017885
221	0x3eca12b8	0.39467406
222	0xbe39d8a8	-0.18149054
223	0xbd93655e	-0.07197069
224	0xbec745ea	-0.38920528
225	0xbee89677	-0.45427296
226	0xbc9bb830	-0.019008726
227	0x3e5f064e	0.21779749
228	0xbeddbfb7	-0.4331033
229	0x3be8677a	0.0070924135
230	0xbb5652e5	-0.0032703218
231	0xbe9f311c	-0.31092155
232	0x3cb1ebc8	0.021718875
233	0xbc4f614c	-0.012657475
234	0xbd9d2d76	-0.076746866
235	0x3e9d4ce2	0.3072272
236	0x3f0f8a28	0.56070185
237	0x3dd8621b	0.10565587
238	0x3e2995f3	0.16561107
239	0xbe72e555	-0.23720296
240	0xbe9651bc	-0.29359233
241	0x3dfd7549	0.12375886
242	0x3ee4588b	0.44598803
243	0x3e9dd06d	0.3082308
244	0xbed0d66d	-0.40788594
245	0x3e28ef1d	0.16497464
246	0xbd97eb7a	-0.074179605
247	0xbe8af6ab	-0.27141318
248	0x3ec55bec	0.38546693
249	0x3e76bb6e	0.24094936
250	0xbc9e1e40	-0.019301534
251	0x3efe854a	0.49711066
252	0xbd2758d0	-0.040856183
253	0xbd7aebd8	-0.061260074
254	0x3de21637	0.110393934
255	0x3eb76db1	0.35825875

main_model.hiddenlayer_0.weight f4 [256, 256]
0	0xbd966de6	-0.0734518
1	0xbcd85491	-0.026407512
2	0x3cecfd2b	0.028929314
3	0x3bfe7fce	0.0077667003
4	0xbccd68ad	-0.025074327
5	0xbc640cd0	-0.01391907
6	0xbd721f82	-0.05911208
7	0xbd4fe7d9	-0.050758217
8	0xbd0851d7	-0.033281174
9	0xbd2bada2	-0.041913636
10	0xbd89cfa9	-0.06729061
11	0xbd1b74f9	-0.03795335
12	0x3d05f670	0.032705724
13	0xbd83c500	-0.06434059
14	0x3d0de0b8	0.034638137
15	0xbcc4c2d1	-0.024018677
16	0x3d2e1eda	0.04250989
17	0xbc8a8b15	-0.016912023
18	0xbd306c5f	-0.0430721
19	0x3d4d2488	0.050083667
20	0x3cc63eb4	0.024199821
21	0x3d10e274	0.035372213
22	0x3b14f462	0.0022728671
23	0xbace8bd5	-0.0015758226
24	0x3ba86480	0.0051389337
25	0x3d1e7544	0.038686052
26	0xbc69ee70	-0.014278039
27	0x3c691f0e	0.014228595
28	0x3cea19e1	0.028576793
29	0x3cb06c44	0.021536
30	0xbd0453ee	-0.032306604
31	0xbd08dc7a	-0.033413388
32	0xbd8b3f56	-0.0679919
33	0xbc72904a	-0.014804909
34	0xbc4fb4c2	-0.012677373
35	0xbcb7f68b	-0.022456428
36	0xbbdb282a	-0.0066881375
37	0xbc16a188	-0.0091937855
38	0xbd78c9c0	-0.06073928
39	0x3d280617	0.041021433
40	0x3cfbed2c	0.03075274
41	0xbd789c50	-0.060695946
42	0xbcdb7520	-0.026789248
43	0x3cf422e8	0.0298018
44	0xbd1a12ed	-0.037615705
45	0xbd3c7c66	-0.046017073
46	0xbd01f720	-0.031729817
47	0x3d36cd45	0.044629354
48	0xbcb6261f	-0.022234974
49	0xbcb26968	-0.021778777
50	0x3c8f2f2f	0.017478554
51	0x3d4c912a	0.049943127
52	0x3ccb4482	0.02481294
53	0xbcb091ca	-0.021553893
54	0x3d3581e2	0.04431332
55	0xbc8bae71	-0.017050954
56	0x3d31ac04	0.043376938
57	0xbd4c63ee	-0.049899988
58	0x3a01c3f4	0.0004950159
59	0x3d278bab	0.040904682
60	0x3bfbc4fb	0.007683394
61	0xbd903395	-0.070410885
62	0xbd60729b	-0.054796796
63	0xbd3caa32	-0.04606075
64	0xbd8f8ea3	-0.07009628
65	0xbd15ee1b	-0.03660403
66	0x3cd0bef4	0.025481679
67	0x3ca21be3	0.019788688
68	0xbd93689b	-0.07197686
69	0xbd214152	-0.039368935
70	0x3b22ae55	0.0024823148
71	0xbc206b4c	-0.009791207
72	0xbd0c5e01	-0.034269337
73	0x3ca45dc5	0.020064244
74	0xba26e180	-0.00063659996
75	0xbcf98d4b	-0.030462882
76	0xbd050d98	-0.032483667
77	0xbc2360ba	-0.009971792
78	0xbb7a9b07	-0.0038239376
79	0xbd41bd98	-0.04729995
80	0xbd209ced	-0.039212156
81	0xbd956a47	-0.072956614
82	0xbc45e317	-0.012078068
83	0xbd90cb24	-0.07069996
84	0xbd506bf6	-0.05088421
85	0x3d3d8158	0.04626593
86	0xbc96f209	-0.018425958
87	0x3cb5dfee	0.022201505
88	0x3cda822f	0.026673404
89	0xbd26ced7	-0.0407246
90	0x3cd244c4	0.025667556
91	0xbcad5224	-0.021157332
92	0xbce4a4b8	-0.027910575
93	0xbd19611a	-0.03744612
94	0x3ce40fd2	0.027839575
95	0xbcb1caa3	-0.02170307
96	0xbc10017f	-0.008789419
97	0xbbac8b60	-0.005265638
98	0xbc12663f	-0.00893551
99	0x3d38ed82	0.04514838
100	0x3cfdd6f0	0.03098628
101	0xbce61507	-0.028086198
102	0xbac40280	-0.0014954358
103	0xbcb7ab87	-0.022420658
104	0x3d3a578c	0.045493647
105	0xbcf6a500	-0.030107975
106	0x3ac99b10	0.0015381295
107	0x3c38cee0	0.011279792
108	0x3d784558	0.060613006
109	0x3bd814a0	0.0065942556
110	0x3d0c3f90	0.034240305
111	0x3d693454	0.05693467
112	0xbd396f1c	-0.045271978
113	0x3cf1dc98	0.029524133
114	0xbd39008a	-0.04516653
115	0xbb5c8a41	-0.0033651742
116	0x3d36bbde	0.044612758
117	0xbd60d7ea	-0.05489341
118	0x3d3712ff	0.04469585
119	0x3b7d26a1	0.003862776
120	0x3b03bc9d	0.0020101436
121	0xbd5c8f07	-0.05384734
122	0x3c56e27e	0.013115523
123	0xbd4de7c8	-0.050269872
124	0x3c1c1b34	0.00952797
125	0x3d10f252	0.035387345
126	0xba4c2f80	-0.00077890605
127	0x3cf8aa59	0.030354666
128	0x3ca9952b	0.020701012
129	0x3cf87534	0.030329324
130	0x3d10ad2a	0.035321392
131	0xbd7bc4f9	-0.061467145
132	0x3d316097	0.043305006
133	0x3d3e8f24	0.04652323
134	0xbca3f544	-0.020014413
135	0xb9fa1800	-0.00047701597
136	0xbd64c61f	-0.055853005
137	0xbbaabaf0	-0.005210273
138	0x3c91509b	0.017738631
139	0xbd47744e	-0.0486949
140	0x3c0f2938	0.008737855
141	0x3d0e292b	0.03470723
142	0xbcf21d17	-0.029554887
143	0xbd917def	-0.07104098
144	0x3c65c069	0.014022925
145	0x3cace975	0.021107415
146	0xbd2187f6	-0.039436303
147	0xbd150d26	-0.036389492
148	0x3ceb3714	0.028712787
149	0x3d2a1e24	0.04153265
150	0x3d0f9e70	0.035063207
151	0x3d082a45	0.033243436
152	0x3ccc547b	0.024942627
153	0xbcc04d2d	-0.0234743
154	0x3d4fa074	0.05069013
155	0x3bb6c530	0.005577706
156	0xbcf6de9d	-0.030135447
157	0xbc5496de	-0.012975423
158	0xbd8a9f86	-0.06768708
159	0x3d1a6605	0.03769495
160	0xbccaf508	-0.024775043
161	0x3acab38f	0.001546489
162	0xbcdf9056	-0.027290504
163	0x3b501f77	0.0031757036
164	0xbd6e2d38	-0.058148593
165	0xbca9d84b	-0.02073302
166	0xbc2edeb0	-0.01067321
167	0xbd876d55	-0.0661265
168	0x3d4fb507	0.05070975
169	0xbc7f6a38	-0.015589289
170	0x3d3055fc	0.04305075
171	0xb9eeb2ad	-0.0004552802
172	0xbc9e58c2	-0.019329432
173	0xbc17cdb0	-0.009265348
174	0x3d26cdee	0.040723734
175	0xbc885ae3	-0.0166449
176	0xbd9652b8	-0.07339996
177	0x3d1947b6	0.037421905
178	0x39b94852	0.00035339833
179	0xbd5f9a38	-0.054590434
180	0x3d36be0a	0.04461483
181	0x3c4b90b8	0.01242464
182	0x3d26956c	0.040669844
183	0xbceba718	-0.0287662
184	0x3c96f024	0.018425055
185	0x3d30f02a	0.04319779
186	0x3cae55a8	0.021281078
187	0x3c8218ec	0.015881024
188	0xbd12ed67	-0.035870936
189	0x3d29c005	0.04144289
190	0xbd6f93c9	-0.05849055
191	0xbcc89909	-0.024487035
192	0x3d1833b6	0.03715869
193	0xbd944cbc	-0.072411984
194	0x3ab32f63	0.0013670739
195	0x3cd3f565	0.02587385
196	0xbcbf2f4e	-0.023337986
197	0xbd80fb77	-0.06297963
198	0x3c23f061	0.010006041
199	0x3d0c4676	0.034246884
200	0x3ca6ec36	0.020376306
201	0x3c2121f2	0.009834753
202	0xbc929656	-0.017893951
203	0xbd60f6a6	-0.054922722
204	0xbc2a1450	-0.010380819
205	0xbc1059ef	-0.008810504
206	0x3ce484c1	0.027895333
207	0x3d1fa41a	0.03897486
208	0x3c7c07d0	0.015382722
209	0x3d29252f	0.041295227
210	0x3ae8b248	0.0017753327
211	0xbd7d67df	-0.061866637
212	0x3d458c12	0.048229285
213	0xbd0c1a2b	-0.034204643
214	0x3cbe33c7	0.023218049
215	0x3d36dd42	0.0446446
216	0xbd7e176e	-0.062034063
217	0xbd8c5035	-0.06851236
218	0x3d13d358	0.036090225
219	0xbd8af056	-0.06784122
220	0xbcece8a4	-0.028919525
221	0x3ca7d5dd	0.02048772
222	0x3a5cd93a	0.0008424703
223	0x3d68ccca	0.056835927
224	0xbd3bd360	-0.04585588
225	0xbcda3b2f	-0.026639549
226	0x3c527ba8	0.012846865
227	0xbd7cb3a0	-0.06169474
228	0xbd005aaa	-0.031336464
229	0xbd7cd2e0	-0.061724544
230	0xbd85185e	-0.06498788
231	0x3d66f4a6	0.05638566
232	0xbcd82428	-0.026384428
233	0xbd94428b	-0.072392546
234	0xbd2d9387	-0.04237702
235	0xbca0ae38	-0.019614324
236	0x3c177156	0.00924333
237	0x3c81ca9c	0.015843682
238	0xbd336454	-0.043796852
239	0x3cd2b8f8	0.025722966
240	0xbd6cd1f7	-0.057817426
241	0xbca574d9	-0.020197319
242	0xbd9e3f21	-0.07726885
243	0x3d022584	0.03177406
244	0x3d439d6c	0.04775755
245	0xbbf4de19	-0.007472765
246	0xbd7891c5	-0.06068589
247	0xbcc83631	-0.024439903
248	0x3c5dd544	0.013539616
249	0xbd1f5fa1	-0.03890956
250	0xbd2e5fa8	-0.042571694
251	0xbce40254	-0.027833141
252	0x3d29e66e	0.04147952
253	0x3c91fd39	0.017820941
254	0xbbfa84e6	-0.0076452373
255	0x3c689048	0.014194556

main_model.hiddenlayer_0.bias f4 [256]
0	0x3c84f12a	0.016228277
1	0xbd9d2622	-0.07673289
2	0xbba3ccda	-0.0049987854
3	0xbd0b537c	-0.034015164
4	0xbd9a5ed5	-0.07537619
5	0x3cb3aca2	0.021932904
6	0xbd20f8f4	-0.03929992
7	0xbd7d0c95	-0.061779577
8	0xbd703c75	-0.058651406
9	0x3c80d5c1	0.015726926
10	0x3d045861	0.032310847
11	0x3da72324	0.081609994
12	0x3d0767da	0.033058025
13	0xbd5e7572	-0.054311223
14	0xbd07da2f	-0.03316706
15	0xbb8b7440	-0.0042558014
16	0xbd0c57f5	-0.03426357
17	0x3d6068f4	0.05478759
18	0xbd53d09f	-0.05171263
19	0x3cc88d1a	0.024481345
20	0x3c8cd7b0	0.017192692
21	0xbc38e11f	-0.011284142
22	0xbd424335	-0.047427375
23	0x3d16ec18	0.03684625
24	0x3c8a116d	0.016854012
25	0xbd976de7	-0.07394009
26	0xbd59c1f0	-0.05316347
27	0xbd803216	-0.06259553
28	0x3b8c5fc1	0.0042838757
29	0xbd250eb3	-0.04029722
30	0xbde1082d	-0.109878875
31	0xbbc76830	-0.006085418
32	0x3d832d79	0.064051576
33	0xbd5a51ad	-0.05330055
34	0xbce00f58	-0.027351066
35	0xbd2e193e	-0.04250454
36	0xbcce7278	-0.025201067
37	0xbd36395b	-0.044488292
38	0xbb7bdd52	-0.0038431478
39	0xbd60ed95	-0.054914076
40	0xbcba2049	-0.022720473
41	0x3d77d282	0.06050349
42	0xbad7cf66	-0.0016465008
43	0x3ceda6ec	0.029010259
44	0xbd0b7518	-0.034047216
45	0x3cd8fcb2	0.026487682
46	0xbcf5cf24	-0.030005999
47	0x3dd0fd86	0.10204606
48	0xbdc9abc8	-0.09847218
49	0x3d1149bb	0.035470705
50	0xbd167e46	-0.036741517
51	0xbda47668	-0.08030397
52	0xbca60a4e	-0.020268586
53	0xba911ec3	-0.001107179
54	0xbb7ece90	-0.0038880445
55	0xbcba5cdb	-0.022749355
56	0x3ba4e819	0.005032551
57	0x3bfebca0	0.0077739507
58	0x3be13720	0.0068730265
59	0x3d15e926	0.0365993
60	0xbd19513e	-0.037430994
61	0x3d498ef2	0.04920859
62	0x3cf8b207	0.030358328
63	0xbcbea918	-0.02327399
64	0xbd74641b	-0.05966578
65	0x3c0d4f0f	0.008624806
66	0x3d9102cb	0.07080611
67	0xbd95af9a	-0.07308884
68	0xbdba45f6	-0.09095375
69	0xbd13a6e6	-0.03604784
70	0xbd95448b	-0.07288464
71	0xbd972b75	-0.07381336
72	0x3cd8d44e	0.026468422
73	0xbd2805d9	-0.0410212
74	0x3d49d260	0.049272895
75	0xbd3995b5	-0.045308787
76	0x3c832b1c	0.016011767
77	0xbcbc607f	-0.022995232
78	0xbd7f90ab	-0.062393826
79	0xbd8d2384	-0.0689154
80	0x3ac24a29	0.0014823127
81	0x3cddda3d	0.027081603
82	0x3dfa43ee	0.12219988
83	0xbc2ec4b1	-0.010667012
84	0x3de41f3b	0.11138769
85	0xbc9bfccd	-0.019041443
86	0x3d4622fd	0.04837321
87	0x3e3e32ad	0.18574019
88	0xbd4812fb	-0.048846226
89	0x3e7dc8d5	0.24783643
90	0xbcdb38a5	-0.026760409
91	0xbc60701b	-0.013698603
92	0x3c8b5cca	0.017012019
93	0xbc42a833	-0.011880922
94	0x3c4cc74f	0.012498691
95	0x3d1e9871	0.0387196
96	0xbd850474	-0.0649499
97	0x3d6cc9fe	0.057809822
98	0x3cb04aa9	0.021519976
99	0x3c826338	0.015916452
100	0xbd4f19e9	-0.05056182
101	0xbc911710	-0.017711192
102	0xbbe5bb59	-0.007010859
103	0xbd1d22f5	-0.038363416
104	0xbdd51091	-0.104035504
105	0xbd4569d0	-0.048196614
106	0xbbcb0f90	-0.0061969236
107	0x3e6dc207	0.23218547
108	0xbd74861e	-0.059698217
109	0xbc61720c	-0.013760101
110	0x3daebd95	0.08532254
111	0x3d27ca17	0.040964212
112	0x3ae7b952	0.0017679131
113	0xbdb17717	-0.08665293
114	0x3c518944	0.012789074
115	0x3d9a0196	0.07519834
116	0x3d7d5310	0.061846793
117	0xbbdb1dec	-0.0066869166
118	0x3eaced55	0.3377482
119	0xbd85da44	-0.065357715
120	0x3cf2ebf7	0.029653532
121	0xbd372467	-0.04471245
122	0xbdea9f14	-0.11456123
123	0xbd60e5db	-0.054906707
124	0x3d98b1a1	0.07455755
125	0x3d48e485	0.04904606
126	0xbd885e9b	-0.066586696
127	0xbd72f2b8	-0.059313506
128	0x3cf219f2	0.029553387
129	0xbd1fb024	-0.03898634
130	0xbd40bffd	-0.047058094
131	0xbd5b10a7	-0.053482678
132	0xbd97f86e	-0.07420431
133	0x3c95b155	0.018273035
134	0xbd1af52d	-0.037831474
135	0xbae583a0	-0.0017510541
136	0xba30e461	-0.00067478983
137	0xbd6fc9d3	-0.058542084
138	0xbd47e60b	-0.04880337
139	0xbd5b9ce7	-0.05361643
140	0xbcb76cdf	-0.022390781
141	0xbd376540	-0.044774294
142	0xbd0a77ef	-0.033805784
143	0x3d205171	0.03914017
144	0x3bc3e0ce	0.0059777265
145	0x3c3eb6b5	0.01164024
146	0x3a9155fe	0.001108825
147	0xbc81e35e	-0.015855487
148	0xbc254576	-0.010087362
149	0x3ce626be	0.028094646
150	0x3d4ab0a7	0.049484875
151	0x3d0898d1	0.033348862
152	0x3d305a81	0.04305506
153	0xbca8afa9	-0.020591574
154	0xbd5aed92	-0.05344922
155	0x3d473ff7	0.048644986
156	0x3d0832d4	0.0332516
157	0xbd62953b	-0.0553181
158	0x3e119d63	0.14220195
159	0x3cd5c3f2	0.02609441
160	0xbd00ff85	-0.031493682
161	0xbca9ade7	-0.020712806
162	0x3b8435b3	0.0040347218
163	0x3c56850d	0.013093245
164	0xbcd44f38	-0.02591668
165	0xbdf7aaa8	-0.12093097
166	0xbd65443d	-0.05597328
167	0xbd46a619	-0.048498247
168	0x3bbe1fc4	0.0058021266
169	0xbd84e7b3	-0.064895056
170	0xbbcefccb	-0.0063167564
171	0xbd336a7c	-0.043802723
172	0xbc876c3a	-0.016531099
173	0xbbc053fa	-0.005869386
174	0xbd1ae45b	-0.037815433
175	0x3d0ba8f5	0.034096677
176	0x3d173be4	0.03692235
177	0x3cbe6bd3	0.023244774
178	0x3c8e9ad4	0.017407812
179	0xbc6e26b6	-0.014535597
180	0x3e0cc6dc	0.13747734
181	0xbd12f1a2	-0.03587497
182	0x3da5f577	0.08103459
183	0x3cf7982c	0.030223928
184	0x3a75ca0a	0.00093761145
185	0x3cc572e7	0.024102641
186	0x3c4e6245	0.0125966715
187	0xbd8ff30c	-0.070287794
188	0x3cae8d4c	0.02130761
189	0xbc993705	-0.018702993
190	0xbc1e4b3a	-0.00966149
191	0x3d2724fc	0.040806755
192	0x3d410682	0.047125347
193	0xbd4fe6f9	-0.050757382
194	0x3de6647b	0.11249634
195	0x3d31041b	0.043216806
196	0x3ccf759f	0.02532464
197	0x3cba39c7	0.022732629
198	0x3d29a5b5	0.041417796
199	0xbd824166	-0.0636013
200	0x3c6f6884	0.014612321
201	0x3d13400c	0.03594975
202	0x3d2a3dab	0.041562717
203	0x3c841859	0.016124891
204	0x3de6b5cd	0.112651445
205	0x3e216e24	0.15764672
206	0x3d437657	0.04772028
207	0x3ca6ce9c	0.02036219
208	0x3b89adb2	0.0042016143
209	0x3d03b0e7	0.03215113
210	0x3af1d39c	0.0018449905
211	0x3ca48f23	0.020087784
212	0xbd48069f	-0.04883444
213	0x3b789b20	0.0037934259
214	0x3d131016	0.035904013
215	0x3d6fac42	0.058513887
216	0x3c15ed46	0.009150809
217	0xbd8cc92d	-0.06874309
218	0xbcc97fe4	-0.024597116
219	0xbd1663de	-0.036716335
220	0x3cb3837f	0.021913288
221	0x3d421335	0.0473816
222	0xbd1d0598	-0.038335413
223	0xbd8a69d3	-0.067584656
224	0x3d8cfa65	0.068836965
225	0xbc85e524	-0.016344614
226	0x3c3c003a	0.011474663
227	0x3d223ab6	0.039606772
228	0x3d4d6d8e	0.050153308
229	0x3c51e38a	0.012810597
230	0x3c1614a4	0.009160195
231	0x3dbcd07a	0.09219451
232	0x3d4f01c0	0.05053878
233	0x3db86142	0.090029255
234	0xbc8f7f28	-0.017516688
235	0x3b39544f	0.0028279012
236	0xbd904597	-0.07044523
237	0x3d97c2b1	0.07410181
238	0xbd836857	-0.064163856
239	0xbd3a6dd1	-0.045514885
240	0x3c8abe8d	0.016936565
241	0xbd11e845	-0.0356219
242	0x3d64f0cb	0.0558937
243	0xbc84b188	-0.016197935
244	0xbd49ad1e	-0.049237363
245	0xbca3939f	-0.019967852
246	0xbcd1fec4	-0.025634177
247	0xbd3b9344	-0.04579474
248	0xbc5b3602	-0.013379576
249	0xbd6efc75	-0.05834623
250	0xbc3ed5c1	-0.011647643
251	0xbd0f17e7	-0.034934904
252	0xbc3d631f	-0.011559277
253	0x3e4aa1ff	0.19788359
254	0x3d24cbc3	0.040233385
255	0xbd580944	-0.05274321

main_model.OutputLayer.weight f4 [3, 256]
0	0xbbf5772f	-0.0074910144
1	0xbc00b75b	-0.007856215
2	0x3cf466ec	0.029834233
3	0xbd1fb9e6	-0.038995646
4	0x3cbeb898	0.02328138
5	0xbcc692e1	-0.02423996
6	0x395fb1c5	0.00021333162
7	0xbbb04240	-0.0053789914
8	0xbd59e2bb	-0.053194743
9	0x3c305740	0.0107629895
10	0xbb1af33c	-0.0023643514
11	0x3d0c41df	0.034242507
12	0xbcc4773d	-0.023982638
13	0x3d3426c2	0.043982275
14	0x3c5d1114	0.013492841
15	0xbd7ab496	-0.061207376
16	0x3c371b44	0.011175934
17	0x3da192eb	0.078893505
18	0x3da8eac7	0.08247905
19	0xbd1e5ad1	-0.038660828
20	0xbd37206a	-0.044708647
21	0xbc95a51e	-0.01826721
22	0x3c919db1	0.017775388
23	0x3c1c4671	0.009538279
24	0xbac173d1	-0.0014759247
25	0x3b192426	0.0023367493
26	0x3c7c8a71	0.015413866
27	0x3b416513	0.0029509708
28	0xbc897e33	-0.01678381
29	0xbc9c25ee	-0.019061055
30	0xbcc07a5c	-0.023495845
31	0x3c9fcc69	0.01950665
32	0x3de0b286	0.10971551
33	0xbd1aae30	-0.037763774
34	0xbac54e9e	-0.0015053337
35	0xbc009c95	-0.007849832
36	0xbd1e6176	-0.038667165
37	0xbd263332	-0.040576167
38	0x3c21a115	0.009865065
39	0x3b40a869	0.0029397255
40	0xbd00c476	-0.03143736
41	0x3d722750	0.059119523
42	0x3c77eafc	0.015131708
43	0x3d71f3e8	0.059070498
44	0xbcba19f0	-0.022717446
45	0xbb4a4267	-0.0030862333
46	0x3d1a1916	0.03762158
47	0x3d2e5bcb	0.04256801
48	0x3d298100	0.04138279
49	0x3de69229	0.112583466
50	0xbd808e6c	-0.06277165
51	0xbaff2a99	-0.0019467651
52	0xbd5d9aaf	-0.054102596
53	0xbd398c6b	-0.04529993
54	0xbca7d969	-0.020489411
55	0x3bcdf5b2	0.0062853927
56	0xbcf389ff	-0.029728888
57	0xbceee4bc	-0.029161803
58	0x3d7940a8	0.060852677
59	0xbc2a6a6f	-0.010401352
60	0xbd16abb4	-0.036784843
61	0x3d9f29e5	0.077716626
62	0x3d171578	0.03688571
63	0xbd1e68a3	-0.038674008
64	0xbd435a11	-0.047693316
65	0xbda6556e	-0.08121763
66	0x3c7f6877	0.015588871
67	0x3c0d6c64	0.008631799
68	0xbc12001c	-0.008911159
69	0x3bc2bdde	0.005943044
70	0x3d33e070	0.043915212
71	0xbca25aa8	-0.019818619
72	0x3d10c922	0.035348065
73	0xbc1bbba0	-0.0095051825
74	0x3c7783b0	0.01510708
75	0x3d848064	0.06469801
76	0xbd0de925	-0.034646172
77	0xbd1511bf	-0.036393877
78	0x3d27bb82	0.040950306
79	0xbc87b205	-0.016564379
80	0xbd43a622	-0.04776586
81	0xbd737931	-0.05944175
82	0x3d1aeefe	0.037825577
83	0x3c8e905a	0.017402817
84	0x3d2b5314	0.041827276
85	0x3bf4083e	0.0074472716
86	0x3aa7b66b	0.0012795454
87	0x3dd654f4	0.10465422
88	0xbb0d6533	-0.0021575212
89	0x3e0bcc02	0.13652042
90	0x3c881008	0.016609207
91	0x3b5c46c0	0.0033611506
92	0x3b8bb410	0.0042634085
93	0x3d06de79	0.03292701
94	0xbc53f61e	-0.012937097
95	0xbc8850c9	-0.016640084
96	0x3c85cefb	0.016334048
97	0x3d512c1a	0.05106745
98	0xbcafe313	-0.021470582
99	0xbd1e7d24	-0.038693562
100	0x3cb5b425	0.022180626
101	0xbd0494ee	-0.032368593
102	0x3d28c543	0.04120375
103	0x3bb3acf8	0.005483266
104	0xbd576f51	-0.052596394
105	0x3b5cf05e	0.0033712606
106	0x3b8acd90	0.0042359307
107	0x3deb0f50	0.1147753
108	0x3cdb9dd0	0.02680865
109	0xbc145b60	-0.009054989
110	0x3dc2a73d	0.095045544
111	0xbaaef185	-0.0013347125
112	0x3c805937	0.015667541
113	0xbd820cd9	-0.06350107
114	0xbd3f0b0f	-0.046641406
115	0x3d4a009a	0.04931698
116	0x3c8b5602	0.017008785
117	0xbc3d01f7	-0.011536113
118	0x3e02c697	0.12771069
119	0x3d0409cd	0.03223591
120	0xbd1bdb0e	-0.038050704
121	0xbd01d80c	-0.03170018
122	0x3ca54b07	0.020177377
123	0x3d0784ca	0.033085622
124	0x3cbfd31d	0.023416096
125	0xbc491423	-0.012272867
126	0xbd3c8bee	-0.046031885
127	0xbc8069a2	-0.01567537
128	0x3d57e28a	0.05270628
129	0x3d9459a8	0.07243663
130	0x3d315b04	0.04329969
131	0xbb5c627a	-0.0033628033
132	0xbd1b0662	-0.037847884
133	0xbd0efadc	-0.034907207
134	0x3c26a2db	0.010170664
135	0x3c8465ef	0.016161887
136	0x3cf8b4ba	0.030359615
137	0x3beda5e2	0.007252441
138	0x3d0093e4	0.03139104
139	0xbaefd375	-0.0018297272
140	0xbd8e1bc7	-0.06938892
141	0xbcb8578e	-0.022502687
142	0x3c26af06	0.010173565
143	0x3deecc15	0.11660019
144	0xbccb86b1	-0.0248445
145	0xbd0fa993	-0.035073828
146	0xbc60d241	-0.013722003
147	0xbd267e3c	-0.04064773
148	0xbd297dfd	-0.041379917
149	0xbd40efc1	-0.047103647
150	0x3d66dc76	0.05636259
151	0xbac60a90	-0.0015109349
152	0xbd026b71	-0.031840745
153	0x3d147bd8	0.03625092
154	0xbd7a69b5	-0.061135966
155	0x3c550640	0.013001978
156	0x3c1a135c	0.00940403
157	0x3b6fb035	0.0036573533
158	0x3e13fc5d	0.14451738
159	0xbcc119e3	-0.023571914
160	0xbcda1ae5	-0.026624152
161	0x3ce2f3a0	0.02770406
162	0x3c1c0fa2	0.0095252115
163	0xbd21a3c8	-0.039462835
164	0xbc9dba00	-0.01925373
165	0xbd2fa6c0	-0.042883635
166	0x3b65705b	0.0035009596
167	0xbd001298	-0.031267732
168	0x3d79d0b8	0.060990065
169	0xbb92679e	-0.0044679185
170	0xbcf67cb7	-0.030088766
171	0x3cbd498a	0.023106355
172	0x3cad9db1	0.021193357
173	0x3d7625f1	0.060094777
174	0xbd1ec953	-0.038766216
175	0x3b6f7b58	0.0036542024
176	0xbd060cca	-0.03272704
177	0xbc9cc9be	-0.019139167
178	0x3e37dd84	0.17955595
179	0xbd0c6f82	-0.03428603
180	0x3ddb5791	0.10710061
181	0xbd85f69d	-0.065411784
182	0x3cd2f8a5	0.025753329
183	0xbd2f7f50	-0.042846024
184	0x3cc74098	0.024322793
185	0xbd4c03d5	-0.049808342
186	0xbd4c2e94	-0.049849108
187	0x3c903e6c	0.01760789
188	0x3b78eaa8	0.0037981663
189	0xbc72f56d	-0.014829022
190	0xbcd8faf7	-0.026486857
191	0x3cd6b0e8	0.026207402
192	0xbbc2f7d5	-0.005949954
193	0xbb9fe227	-0.0048792544
194	0x3df4c168	0.11950952
195	0x3c41816b	0.011810641
196	0x3da4a312	0.08038916
197	0x3b512b06	0.0031916513
198	0x3cb12e86	0.02162863
199	0xbcd1bc1e	-0.025602397
200	0xbce27a8e	-0.02764633
201	0xbd1646d1	-0.03668863
202	0xbcf4f4e4	-0.02990193
203	0xbb5b1b10	-0.0033432879
204	0x3dc52378	0.09625906
205	0x3e1edd13	0.1551402
206	0xbcbfc46e	-0.023409095
207	0x3c8f8d94	0.017523564
208	0xbd3b3706	-0.04570677
209	0x3c90f1ec	0.017693482
210	0xbc6aa56d	-0.014321667
211	0x3d89b66e	0.06724249
212	0xbd2f1fb4	-0.042754844
213	0x3d5aad2e	0.053387813
214	0xbbf191c1	-0.0073721115
215	0xbd437ee4	-0.047728434
216	0xbd9b662f	-0.07587849
217	0x3cd3c029	0.025848465
218	0x3b8c29fd	0.0042774663
219	0xbc45f680	-0.012082696
220	0x3d96fbe1	0.07372261
221	0x39b39880	0.00034255162
222	0x3d10e548	0.03537491
223	0xbbf71466	-0.0075402735
224	0x3d6842a2	0.05670417
225	0xbb600976	-0.0034185327
226	0xbd05476c	-0.032538816
227	0x3cfff104	0.031242855
228	0x3cc54114	0.024078883
229	0xbcc9c743	-0.024631148
230	0xbd08779e	-0.0333172
231	0x3d4c722d	0.049913574
232	0x3aec1cc4	0.0018013944
233	0x3dd8aedf	0.10580229
234	0x3ce37e78	0.027770266
235	0x3cbe8c4a	0.023260254
236	0x3ca17ab2	0.019711826
237	0x3be67672	0.0070331628
238	0x3c31caae	0.010851545
239	0xbbc5f5fd	-0.006041287
240	0x3ac3f191	0.0014949312
241	0xbc81c6b3	-0.015841817
242	0x3d70964b	0.05873708
243	0x3d293806	0.041313194
244	0xbbb0a080	-0.005390227
245	0x3d02bab9	0.031916354
246	0x3c59a898	0.013284825
247	0x3cf382ca	0.029725451
248	0xbaf302be	-0.0018540246
249	0x3c37b6c4	0.011213008
250	0x3c5f4f61	0.013629765
251	0xbb5e7d29	-0.0033949113
252	0x3d7b8267	0.06140366
253	0x3e017b93	0.12644796
254	0x3d495e11	0.049161974
255	0x3d620e1d	0.05518924

main_model.OutputLayer.bias f4 [3]
0	0x3e373158	0.17889917
1	0x3db057cc	0.08610496
2	0x3d4e09b2	0.050302215
