DQN/DQN_incomplete/save/main_model_000005.pth (torch_old, 274727 bytes, 6 tensors)

main_model.InputLayer.weight f4 [256, 6]
0	0xbe545a86	-0.20737657
1	0xbe7040ca	-0.23462215
2	0x3d89fe8c	0.06738004
3	0xbe18855e	-0.14894626
4	0xbeac8050	-0.33691645
5	0xbdb6a7c4	-0.089187175
6	0xbe88b564	-0.2670089
7	0xbecdf479	-0.4022558
8	0xbeaffc6d	-0.34372273
9	0x3e2659c0	0.16245174
10	0xbe8b4a3d	-0.27205077
11	0x3eb5e19c	0.3552369
12	0xbe6785e8	-0.22609675
13	0x3c7efb18	0.015562795
14	0xbdd3aef5	-0.10336105
15	0x3d77029d	0.060305227
16	0x3e948ad9	0.29012182
17	0x3d5bd5ff	0.05367088
18	0x3d10f2ed	0.035387922
19	0x3d9e5b26	0.07732229
20	0x3dbac974	0.091204554
21	0x3e9ef412	0.31045586
22	0x3e05c478	0.13063228
23	0xbe0f3025	-0.1398321
24	0xbe771aa8	-0.24131262
25	0x3c08834a	0.008332083
26	0x3ea3d809	0.3200076
27	0xbc98fb31	-0.018674465
28	0xbb7e2068	-0.003877664
29	0x3eab212f	0.33423755
30	0x3db0faaf	0.08641564
31	0x3e970a77	0.29500172
32	0xbe73be68	-0.23803103
33	0xbeae0e72	-0.33995396
34	0x3dd2f94d	0.103014566
35	0xbe3f8445	-0.187028
36	0x3e656a06	0.22403726
37	0x3e3b305c	0.18280166
38	0x3e587e03	0.2114182
39	0xbe970253	-0.2949396
40	0xbe0b6e5a	-0.13616315
41	0xbf01dbd8	-0.5072608
42	0x3e3cc971	0.18436219
43	0xbecf8b1e	-0.40535825
44	0x3e3b5455	0.18293889
45	0xbedcdde0	-0.43138027
46	0x3e80744a	0.25088722
47	0x3e43cd13	0.19121198
48	0xbe35a647	-0.17739211
49	0xbe884f48	-0.26622987
50	0x3e08468a	0.13308159
51	0xbdddba9e	-0.1082661
52	0x3dc71fac	0.09722838
53	0xbe51f5c0	-0.20503902
54	0xbee46bdc	-0.4461354
55	0xbdc2863c	-0.094982594
56	0xbeb2cdaa	-0.34922534
57	0xbdc0191d	-0.0937979
58	0x3e30adca	0.17253795
59	0xbece844d	-0.40335312
60	0x3e559aff	0.20859908
61	0x3d052e68	0.03251496
62	0xbca0a743	-0.019611007
63	0x3e91dd4f	0.28489158
64	0x3dc85da6	0.09783487
65	0x3e95fde2	0.2929526
66	0x3e57e5d4	0.21083766
67	0xbe852d4a	-0.26011115
68	0x3e1cf9bc	0.15329641
69	0xbe80b106	-0.25135058
70	0xbebcef1e	-0.36901182
71	0xbd8458a0	-0.064622164
72	0x3ec3b625	0.38224903
73	0xbecfced4	-0.40587485
74	0x3dec52cd	0.115392305
75	0xbec143ce	-0.37747043
76	0x3ebb687d	0.36603156
77	0xbd91972b	-0.07108911
78	0x3ea47a7e	0.32124704
79	0xbec8c25c	-0.39210784
80	0x3e7101e6	0.2353588
81	0xbd13bd8c	-0.036069438
82	0x3e43a4ea	0.19105878
83	0x3e62ea16	0.22159609
84	0x3e997e6a	0.2997926
85	0xbe6193aa	-0.22028986
86	0x3e71b501	0.23604204
87	0xbd787abe	-0.06066393
88	0xbe8139ad	-0.25239316
89	0x3dcf37a6	0.10118036
90	0x3d35905d	0.04432713
91	0xbe63e32f	-0.22254632
92	0x3e2b6d3e	0.16740891
93	0x3e5b622a	0.21424165
94	0x3d8d4a58	0.068989456
95	0x3cc1ca30	0.02365598
96	0x3e254f64	0.16143566
97	0x3e503a51	0.20334746
98	0xbee93f30	-0.4555602
99	0x3ea3e545	0.32010856
100	0x3e7f1536	0.24910435
101	0x3e7f92a0	0.24958277
102	0xbe465d79	-0.19371594
103	0x3d12ee38	0.035871714
104	0xbe18d260	-0.14924002
105	0x3e262e2c	0.1622855
106	0xbea494da	-0.32144815
107	0xbe0a5738	-0.13509834
108	0xbe70c953	-0.23514299
109	0x3dc968e0	0.098344564
110	0xbec53c10	-0.38522387
111	0x3da9d8b8	0.08293289
112	0xbe0a2132	-0.13489226
113	0x3ebb3c0a	0.36569244
114	0x3defbba0	0.117057085
115	0xbd168490	-0.036747515
116	0xbe9b4a80	-0.30330276
117	0x3d962a98	0.07332343
118	0xbcae4030	-0.021270841
119	0xbebdc853	-0.37066898
120	0xbea3b6b9	-0.31975344
121	0x3e4caa66	0.19986877
122	0xbd5d0f3c	-0.053969607
123	0xbbd98f0f	-0.0066393684
124	0x3e989b19	0.2980583
125	0x3e4bb581	0.19893457
126	0x3efa7bbf	0.48922536
127	0xbe9bf1f1	-0.30458024
128	0xbea7e294	-0.32790053
129	0xbec7c774	-0.39019358
130	0xbc645b43	-0.013937774
131	0xbee69e97	-0.4504287
132	0x3e9523d9	0.29128912
133	0x3e3c3710	0.1838038
134	0x3e9b20b0	0.30298376
135	0xbe5887f1	-0.21145608
136	0xbdc52fd2	-0.096282616
137	0x3e205c8e	0.15660307
138	0xbe709af3	-0.23496608
139	0xbe64571c	-0.22298855
140	0x3cbe68e4	0.023243375
141	0x3e993f34	0.29931033
142	0x3dbe9c79	0.093071885
143	0xbe581a04	-0.21103674
144	0xbe65f724	-0.22457558
145	0xbea7a247	-0.32740995
146	0xbe123674	-0.14278585
147	0x3e9360f0	0.28784895
148	0xbd9bb8a8	-0.0760358
149	0xbe458bcc	-0.1929161
150	0xbe97b3e9	-0.29629448
151	0x3eb4eb87	0.35335943
152	0x3eabd9b2	0.33564526
153	0x3d85d264	0.065342695
154	0x3d75f867	0.060051348
155	0xbd8b3b17	-0.0679838
156	0xbe45a486	-0.19301042
157	0xbe977bc4	-0.29586613
158	0x3ea34df8	0.31895423
159	0xbe942589	-0.28934887
160	0x3d01b818	0.031669706
161	0xbe5d98be	-0.21640298
162	0xbe01a836	-0.12661824
163	0xbe6d10c7	-0.23150931
164	0xbe77e08f	-0.24206756
165	0xbeabd4ff	-0.3356094
166	0xbd7cd930	-0.061730564
167	0x3ec60494	0.38675368
168	0xbeb0365a	-0.34416467
169	0x3de26918	0.11055201
170	0x3e9685d8	0.2939899
171	0x3eab45ed	0.33451787
172	0x3c0a5a8e	0.0084444415
173	0xbea2669e	-0.31718916
174	0xbe7812c6	-0.24225911
175	0xbddced58	-0.10787457
176	0x3e083730	0.13302302
177	0xbeaaa3e5	-0.33328167
178	0xbe9983ce	-0.29983371
179	0xbdb738e0	-0.08946395
180	0x3de97e60	0.11401057
181	0xbe46d562	-0.19417337
182	0x3dc0d828	0.094162285
183	0xbecc4b88	-0.39901376
184	0xbe9f6ba7	-0.3113682
185	0x3e51fa34	0.20505601
186	0xbea6eef6	-0.32604188
187	0x3d4377ea	0.04772178
188	0x3e5b21f0	0.21399665
189	0x3e837a77	0.2567937
190	0xbe911d0e	-0.2834248
191	0xbe9be17e	-0.30445474
192	0xbd2ef9c8	-0.04271868
193	0x3c1ad260	0.009449571
194	0x3d7fb5d0	0.06242925
195	0xbcda83f0	-0.02667424
196	0xbeb080c3	-0.34473237
197	0xbddfedb0	-0.10934007
198	0x3e5959de	0.21225688
199	0x3e2bee09	0.16790022
200	0xbdb2c407	-0.087287955
201	0xbecd1b80	-0.40060043
202	0xbda135a7	-0.078715615
203	0x3eb561e3	0.35426244
204	0xbd9a1784	-0.075240165
205	0x3ea0b34f	0.31386802
206	0x3e909726	0.28240317
207	0xbd008b41	-0.031382803
208	0xbd834441	-0.06409503
209	0x3e500ffb	0.20318596
210	0x3e799451	0.24372984
211	0xbe68bcb0	-0.22728229
212	0x3ea7f20d	0.32801858
213	0x3e10cf4f	0.14141582
214	0x3eb09b93	0.34493694
215	0xbededc5e	-0.43527502
216	0x3e49035b	0.19630186
217	0xbe399953	-0.18124895
218	0x3e6f3263	0.23359065
219	0x3e510de3	0.20415454
220	0xbdb3449e	-0.08753322
221	0xbeacd82d	-0.3375868
222	0x3ceb9cc0	0.028761268
223	0x3e920490	0.28519106
224	0x3db6f600	0.089336395
225	0xbea6a6f8	-0.32549262
226	0xbea52cd9	-0.3226078
227	0x3e95ed9e	0.2928285
228	0x3e5a4090	0.21313691
229	0xbd8d1b57	-0.0688998
230	0x3e4f8a23	0.20267539
231	0x3e4e5a14	0.2015155
232	0xbed8f53e	-0.42374605
233	0x3e5566e4	0.20840031
234	0x3e51b044	0.20477396
235	0x3db296ff	0.087202065
236	0xbe7eaf90	-0.2487166
237	0xbea4260c	-0.32060277
238	0x3e36c2f7	0.1784781
239	0xbeee8096	-0.46582478
240	0xbec097a6	-0.376157
241	0xbe061cf8	-0.13096988
242	0x3e8f5aec	0.27999055
243	0x3e35b805	0.17745979
244	0xbee3f82f	-0.44525287
245	0x3e7ae66f	0.24501966
246	0xbead7a35	-0.338823
247	0x3e0363e0	0.12831068
248	0x3d196f50	0.03745967
249	0xbdfd597c	-0.123705834
250	0xbe7d3aab	-0.24729411
251	0x3e772444	0.24134928
252	0xbebfec05	-0.37484756
253	0xbe038860	-0.12844992
254	0xbe62fdd6	-0.22167143
255	0x3e8e8b78	0.2784078

main_model.InputLayer.bias f4 [256]
0	0x3ea81147	0.32825682
1	0x3ec6c8ab	0.38824973
2	0xbe5524c9	-0.20814814
3	0x3e3843c6	0.17994604
4	0x3e79eb31	0.24406125
5	0x3ebd1c27	0.3693554
6	0x3ea6f53e	0.3260898
7	0xbe972144	-0.29517567
8	0xbec72a11	-0.38899282
9	0xbeac030f	-0.33596084
10	0x3d5d5d15	0.054043848
11	0x3e970eab	0.29503378
12	0xbe990a4b	-0.29890665
13	0xbe60c51c	-0.21950191
14	0x3da6090a	0.08107193
15	0x3e6cd0c1	0.23126508
16	0xbd50a3bd	-0.050937403
17	0x3e7de03c	0.2479257
18	0x3e42774d	0.18990822
19	0xbec0f3f4	-0.3768612
20	0xbd164559	-0.03668723
21	0xbe86ae14	-0.26304686
22	0x3d4fe58c	0.050756022
23	0xbed2a028	-0.41137815
24	0xbc2c0b00	-0.0105006695
25	0xbec7432d	-0.3891844
26	0xbeafbc6a	-0.34323436
27	0x3ea5b985	0.32368103
28	0xbedb4a33	-0.42830047
29	0xbe31edf3	-0.17375927
30	0xbe02090a	-0.1269876
31	0xbedb7501	-0.42862704
32	0x3ef6a6e6	0.48174208
33	0x3e5ab033	0.21356277
34	0xbd598960	-0.053109527
35	0xbeae0dc7	-0.33994886
36	0x3e075ef2	0.13219813
37	0xbe94abf3	-0.29037437
38	0xbecf2868	-0.40460515
39	0x3eb93765	0.36175075
40	0xbec43806	-0.38323992
41	0xbe9dde5a	-0.30833703
42	0xbd8723e8	-0.065986454
43	0xbea56086	-0.32300204
44	0x3aed529d	0.0018106286
45	0x3ede7fbb	0.43456826
46	0x3f0ea18d	0.55715257
47	0x3d12f969	0.035882387
48	0xbd988a50	-0.07448256
49	0xbbbd0700	-0.0057686567
50	0xbe9fa6f5	-0.31182066
51	0xbebbd1d5	-0.36683527
52	0x3e5289e4	0.20560414
53	0xbe065c36	-0.13121113
54	0x3e467f26	0.19384441
55	0xbdc54abf	-0.09633397
56	0x3e4155e2	0.18880418
57	0xbd294250	-0.041323006
58	0x3eaff767	0.3436844
59	0x3e585126	0.21124706
60	0xbe52fb45	-0.20603664
61	0x3e434841	0.19070531
62	0x3dff478a	0.12464817
63	0xbeb39dad	-0.35081235
64	0x3ed2f721	0.4120417
65	0xbbc43048	-0.005987201
66	0xbe9af94a	-0.30268317
67	0x3f1306f4	0.57432485
68	0x3f05c73a	0.5225712
69	0xbe6be4c1	-0.23036481
70	0xbe482a52	-0.19547394
71	0xbe14762b	-0.14498203
72	0x3ed127e9	0.40850762
73	0xbded32a7	-0.11581927
74	0xbe4fcb3f	-0.20292376
75	0xbe36b96e	-0.17844173
76	0xbe5f3024	-0.21795708
77	0x3e31c50b	0.17360322
78	0x3ead0130	0.33789968
79	0xbdc3e86c	-0.09565815
80	0xbea1627b	-0.31520447
81	0x3ee2f825	0.44329944
82	0x3e3b307d	0.18280216
83	0x3ef74d41	0.48301128
84	0xbdc972f0	-0.09836376
85	0xbc755680	-0.0149742365
86	0x3ea534ac	0.32266748
87	0x3e804029	0.2504895
88	0xbc93d488	-0.018045679
89	0xbe95a58c	-0.29227865
90	0xbd552d38	-0.052045077
91	0xbecc499f	-0.39899918
92	0xbe6ac7ec	-0.22927827
93	0xbeb29c21	-0.34884742
94	0xbda36ba8	-0.07979518
95	0x3f095832	0.536502
96	0xbeb568ce	-0.35431522
97	0xbe0affb6	-0.13574108
98	0xbeb0b220	-0.345109
99	0x3c32f9d7	0.010923824
100	0x3dd7418a	0.105105475
101	0x3eb0cca7	0.34531137
102	0xbe6ffc79	-0.23436154
103	0x3ea4f43b	0.32217583
104	0x3e35292e	0.1769149
105	0xbe79ea7d	-0.24405856
106	0x3e2f72df	0.17133664
107	0xbe0e6c80	-0.13908577
108	0xbe1cbe95	-0.15307076
109	0xbe49dd59	-0.19713344
110	0x3e31fb01	0.17380907
111	0xbe6c99f0	-0.23105597
112	0xbe6c8d33	-0.23100738
113	0xbd9c2d3c	-0.07625815
114	0x3ef17203	0.47157297
115	0x3db29c5b	0.08721229
116	0x3dc4b66f	0.09605109
117	0x3ef1aa1e	0.47200102
118	0x3eb17dad	0.34666196
119	0x3dceed42	0.10103847
120	0xbcc39ad6	-0.023877542
121	0x3e1d7d45	0.15379818
122	0x3ebd12eb	0.36928496
123	0x3eac4b2d	0.33651105
124	0xbeda2f7f	-0.42614362
125	0xbe8378c4	-0.25678074
126	0xbecebc1c	-0.4037789
127	0x3eba94ff	0.364418
128	0xbcecb753	-0.02889601
129	0xbe0c6fb6	-0.1371449
130	0xbc19f9c0	-0.009397924
131	0x3f09f7ba	0.53893626
132	0x3f07722e	0.529086
133	0x3ed24656	0.41069287
134	0x3e6bd75b	0.2303137
135	0xbe2f8c69	-0.17143406
136	0x3d9183cd	0.07105217
137	0xbda9ada0	-0.082850695
138	0x3e7bb021	0.24578907
139	0xbe9b733a	-0.30361348
140	0xbdf02b7f	-0.11727046
141	0x3e5b7748	0.21432221
142	0xbe9377b5	-0.28802267
143	0x3ded47ac	0.11585936
144	0xbec8e4a9	-0.39236954
145	0x3e69881d	0.2280583
146	0x3e8ec4c3	0.27884492
147	0xbd487de0	-0.04894817
148	0xbec69257	-0.38783523
149	0xbdcc2830	-0.09968603
150	0xbe6dbe55	-0.23217137
151	0xbe588961	-0.21146156
152	0x3f117e1b	0.56833047
153	0xbe13080d	-0.1435854
154	0xbe0de9dd	-0.13858743
155	0xbe534345	-0.2063113
156	0x3ccd1e31	0.02503881
157	0xbeeaeb96	-0.45882863
158	0x3eb473b4	0.35244524
159	0x3efde3e8	0.4958794
160	0xbd0ab9a0	-0.033868432
161	0xbe0b95ce	-0.13631365
162	0xbe6a756e	-0.22896358
163	0x3f024f86	0.50902593
164	0xbe878b8d	-0.26473656
165	0xbe83a4ac	-0.25711572
166	0xbe08c6b4	-0.13357049
167	0xbe06a175	-0.13147528
168	0xbe4668d1	-0.19375922
169	0xbebb166b	-0.3654054
170	0x3ec86056	0.39135998
171	0xbe390a34	-0.18070298
172	0xbe7a5345	-0.24445827
173	0xbd3eb198	-0.046556085
174	0x3eb627d3	0.35577258
175	0xbe7c54a6	-0.24641666
176	0x3eb16b0e	0.3465199
177	0xbebe82ab	-0.37209067
178	0xbeaa8528	-0.33304715
179	0x3eb4ed95	0.3533751
180	0x3e7125eb	0.23549621
181	0xbd84fc1c	-0.064933985
182	0xbe975d80	-0.29563522
183	0xbe7c63a6	-0.24647388
184	0x3ec0b25c	0.37636077
185	0xbe9c7292	-0.3055616
186	0x3e3f1ed3	0.18664102
187	0xbdb5e498	-0.088814914
188	0xbb99614e	-0.004680789
189	0xbdb3e84b	-0.08784541
190	0x3e448968	0.19193041
191	0x3edc87a1	0.43072227
192	0xbe67159e	-0.2256684
193	0x3caf5418	0.021402404
194	0x3e4668a3	0.19375853
195	0xbdb6bd1f	-0.08922791
196	0x3dd33e0a	0.103145674
197	0xbec2b36f	-0.38027522
198	0xbe72352a	-0.23653093
199	0xbec5fcc2	-0.386694
200	0xbe1f9515	-0.15584214
201	0x3f048234	0.51761174
202	0xbe2a00a6	-0.1660181
203	0x3e456b76	0.19279274
204	0xbebf9aad	-0.37422696
205	0x3e80a236	0.25123757
206	0x3eb73b3a	0.35787374
207	0xbeac71f8	-0.336807
208	0xbe541d4c	-0.20714301
209	0x3eab9d75	0.33518568
210	0x3e79ba89	0.24387564
211	0xbd7aa309	-0.06119064
212	0xbe10a8ca	-0.14126888
213	0x3a8ca31e	0.0010729765
214	0xbdfe6969	-0.12422449
215	0xbddbda68	-0.10735017
216	0xbea19682	-0.3156014
217	0x3d89708b	0.06710919
218	0xbe8b5a39	-0.27217272
219	0x3ea5f226	0.32411307
220	0x3d83418e	0.06408988
221	0x3ed22f48	0.41051698
222	0xbe959fdb	-0.29223523
223	0xbd93d4ea	-0.072183445
224	0xbeb56b78	-0.35433555
225	0xbe6b377d	-0.22970386
226	0xbd358768	-0.044318587
227	0x3e971921	0.2951136
228	0xbed53eee	-0.41649574
229	0xbe035c66	-0.12828216
230	0x3d48a637	0.04898664
231	0xbe96fa22	-0.2948771
232	0x3e70589f	0.23471306
233	0x3daa79d1	0.08324016
234	0xbda07d31	-0.07836378
235	0x3eb7a26e	0.35866112
236	0x3f129ce5	0.5727065
237	0x3e35ad95	0.17741998
238	0x3e37c19f	0.17944954
239	0xbe72e555	-0.23720296
240	0xbe9e4048	-0.30908418
241	0x3e13f3dd	0.14448495
242	0x3eeeb145	0.4661962
243	0x3eb7984b	0.35858378
244	0xbec55ef5	-0.3854901
245	0x3e441ebc	0.19152349
246	0xbdd367cc	-0.10322532
247	0xbe229ed0	-0.15880895
248	0x3ebbad4d	0.36655656
249	0x3e823c3b	0.25436577
250	0xbd8e6386	-0.06952576
251	0x3f02cf76	0.5109781
252	0xba8a9375	-0.001057251
253	0x3c633333	0.013867187
254	0x3dc1c795	0.094618954
255	0x3eb32fe2	0.3499747

main_model.hiddenlayer_0.weight f4 [256, 256]
0	0xbd966de6	-0.0734518
1	0xbcd85491	-0.026407512
2	0x3cecfd2b	0.028929314
3	0x3bfe7fce	0.0077667003
4	0xbccd68ad	-0.025074327
5	0xbc640cd0	-0.01391907
6	0xbd721f82	-0.05911208
7	0xbd4fe7d9	-0.050758217
8	0xbd0851d7	-0.033281174
9	0xbd2bada2	-0.041913636
10	0xbd89cfa9	-0.06729061
11	0xbd1b74f9	-0.03795335
12	0x3d05f670	0.032705724
13	0xbd83c500	-0.06434059
14	0x3d0de0b8	0.034638137
15	0xbcc4c2d1	-0.024018677
16	0x3d2e1eda	0.04250989
17	0xbc8a8b15	-0.016912023
18	0xbd306c5f	-0.0430721
19	0x3d4d2488	0.050083667
20	0x3cc63eb4	0.024199821
21	0x3d10e274	0.035372213
22	0x3b14f462	0.0022728671
23	0xbace8bd5	-0.0015758226
24	0x3ba86480	0.0051389337
25	0x3d1e7544	0.038686052
26	0xbc69ee70	-0.014278039
27	0x3c691f0e	0.014228595
28	0x3cea19e1	0.028576793
29	0x3cb06c44	0.021536
30	0xbd0453ee	-0.032306604
31	0xbd08dc7a	-0.033413388
32	0xbd8b3f56	-0.0679919
33	0xbc72904a	-0.014804909
34	0xbc4fb4c2	-0.012677373
35	0xbcb7f68b	-0.022456428
36	0xbbdb282a	-0.0066881375
37	0xbc16a188	-0.0091937855
38	0xbd78c9c0	-0.06073928
39	0x3d280617	0.041021433
40	0x3cfbed2c	0.03075274
41	0xbd789c50	-0.060695946
42	0xbcdb7520	-0.026789248
43	0x3cf422e8	0.0298018
44	0xbd1a12ed	-0.037615705
45	0xbd3c7c66	-0.046017073
46	0xbd01f720	-0.031729817
47	0x3d36cd45	0.044629354
48	0xbcb6261f	-0.022234974
49	0xbcb26968	-0.021778777
50	0x3c8f2f2f	0.017478554
51	0x3d4c912a	0.049943127
52	0x3ccb4482	0.02481294
53	0xbcb091ca	-0.021553893
54	0x3d3581e2	0.04431332
55	0xbc8bae71	-0.017050954
56	0x3d31ac04	0.043376938
57	0xbd4c63ee	-0.049899988
58	0x3a01c3f4	0.0004950159
59	0x3d278bab	0.040904682
60	0x3bfbc4fb	0.007683394
61	0xbd903395	-0.070410885
62	0xbd60729b	-0.054796796
63	0xbd3caa32	-0.04606075
64	0xbd8f8ea3	-0.07009628
65	0xbd15ee1b	-0.03660403
66	0x3cd0bef4	0.025481679
67	0x3ca21be3	0.019788688
68	0xbd93689b	-0.07197686
69	0xbd214152	-0.039368935
70	0x3b22ae55	0.0024823148
71	0xbc206b4c	-0.009791207
72	0xbd0c5e01	-0.034269337
73	0x3ca45dc5	0.020064244
74	0xba26e180	-0.00063659996
75	0xbcf98d4b	-0.030462882
76	0xbd050d98	-0.032483667
77	0xbc2360ba	-0.009971792
78	0xbb7a9b07	-0.0038239376
79	0xbd41bd98	-0.04729995
80	0xbd209ced	-0.039212156
81	0xbd956a47	-0.072956614
82	0xbc45e317	-0.012078068
83	0xbd90cb24	-0.07069996
84	0xbd506bf6	-0.05088421
85	0x3d3d8158	0.04626593
86	0xbc96f209	-0.018425958
87	0x3cb5dfee	0.022201505
88	0x3cda822f	0.026673404
89	0xbd26ced7	-0.0407246
90	0x3cd244c4	0.025667556
91	0xbcad5224	-0.021157332
92	0xbce4a4b8	-0.027910575
93	0xbd19611a	-0.03744612
94	0x3ce40fd2	0.027839575
95	0xbcb1caa3	-0.02170307
96	0xbc10017f	-0.008789419
97	0xbbac8b60	-0.005265638
98	0xbc12663f	-0.00893551
99	0x3d38ed82	0.04514838
100	0x3cfdd6f0	0.03098628
101	0xbce61507	-0.028086198
102	0xbac40280	-0.0014954358
103	0xbcb7ab87	-0.022420658
104	0x3d3a578c	0.045493647
105	0xbcf6a500	-0.030107975
106	0x3ac99b10	0.0015381295
107	0x3c38cee0	0.011279792
108	0x3d784558	0.060613006
109	0x3bd814a0	0.0065942556
110	0x3d0c3f90	0.034240305
111	0x3d693454	0.05693467
112	0xbd396f1c	-0.045271978
113	0x3cf1dc98	0.029524133
114	0xbd39008a	-0.04516653
115	0xbb5c8a41	-0.0033651742
116	0x3d36bbde	0.044612758
117	0xbd60d7ea	-0.05489341
118	0x3d3712ff	0.04469585
119	0x3b7d26a1	0.003862776
120	0x3b03bc9d	0.0020101436
121	0xbd5c8f07	-0.05384734
122	0x3c56e27e	0.013115523
123	0xbd4de7c8	-0.050269872
124	0x3c1c1b34	0.00952797
125	0x3d10f252	0.035387345
126	0xba4c2f80	-0.00077890605
127	0x3cf8aa59	0.030354666
128	0x3ca9952b	0.020701012
129	0x3cf87534	0.030329324
130	0x3d10ad2a	0.035321392
131	0xbd7bc4f9	-0.061467145
132	0x3d316097	0.043305006
133	0x3d3e8f24	0.04652323
134	0xbca3f544	-0.020014413
135	0xb9fa1800	-0.00047701597
136	0xbd64c61f	-0.055853005
137	0xbbaabaf0	-0.005210273
138	0x3c91509b	0.017738631
139	0xbd47744e	-0.0486949
140	0x3c0f2938	0.008737855
141	0x3d0e292b	0.03470723
142	0xbcf21d17	-0.029554887
143	0xbd917def	-0.07104098
144	0x3c65c069	0.014022925
145	0x3cace975	0.021107415
146	0xbd2187f6	-0.039436303
147	0xbd150d26	-0.036389492
148	0x3ceb3714	0.028712787
149	0x3d2a1e24	0.04153265
150	0x3d0f9e70	0.035063207
151	0x3d082a45	0.033243436
152	0x3ccc547b	0.024942627
153	0xbcc04d2d	-0.0234743
154	0x3d4fa074	0.05069013
155	0x3bb6c530	0.005577706
156	0xbcf6de9d	-0.030135447
157	0xbc5496de	-0.012975423
158	0xbd8a9f86	-0.06768708
159	0x3d1a6605	0.03769495
160	0xbccaf508	-0.024775043
161	0x3acab38f	0.001546489
162	0xbcdf9056	-0.027290504
163	0x3b501f77	0.0031757036
164	0xbd6e2d38	-0.058148593
165	0xbca9d84b	-0.02073302
166	0xbc2edeb0	-0.01067321
167	0xbd876d55	-0.0661265
168	0x3d4fb507	0.05070975
169	0xbc7f6a38	-0.015589289
170	0x3d3055fc	0.04305075
171	0xb9eeb2ad	-0.0004552802
172	0xbc9e58c2	-0.019329432
173	0xbc17cdb0	-0.009265348
174	0x3d26cdee	0.040723734
175	0xbc885ae3	-0.0166449
176	0xbd9652b8	-0.07339996
177	0x3d1947b6	0.037421905
178	0x39b94852	0.00035339833
179	0xbd5f9a38	-0.054590434
180	0x3d36be0a	0.04461483
181	0x3c4b90b8	0.01242464
182	0x3d26956c	0.040669844
183	0xbceba718	-0.0287662
184	0x3c96f024	0.018425055
185	0x3d30f02a	0.04319779
186	0x3cae55a8	0.021281078
187	0x3c8218ec	0.015881024
188	0xbd12ed67	-0.035870936
189	0x3d29c005	0.04144289
190	0xbd6f93c9	-0.05849055
191	0xbcc89909	-0.024487035
192	0x3d1833b6	0.03715869
193	0xbd944cbc	-0.072411984
194	0x3ab32f63	0.0013670739
195	0x3cd3f565	0.02587385
196	0xbcbf2f4e	-0.023337986
197	0xbd80fb77	-0.06297963
198	0x3c23f061	0.010006041
199	0x3d0c4676	0.034246884
200	0x3ca6ec36	0.020376306
201	0x3c2121f2	0.009834753
202	0xbc929656	-0.017893951
203	0xbd60f6a6	-0.054922722
204	0xbc2a1450	-0.010380819
205	0xbc1059ef	-0.008810504
206	0x3ce484c1	0.027895333
207	0x3d1fa41a	0.03897486
208	0x3c7c07d0	0.015382722
209	0x3d29252f	0.041295227
210	0x3ae8b248	0.0017753327
211	0xbd7d67df	-0.061866637
212	0x3d458c12	0.048229285
213	0xbd0c1a2b	-0.034204643
214	0x3cbe33c7	0.023218049
215	0x3d36dd42	0.0446446
216	0xbd7e176e	-0.062034063
217	0xbd8c5035	-0.06851236
218	0x3d13d358	0.036090225
219	0xbd8af056	-0.06784122
220	0xbcece8a4	-0.028919525
221	0x3ca7d5dd	0.02048772
222	0x3a5cd93a	0.0008424703
223	0x3d68ccca	0.056835927
224	0xbd3bd360	-0.04585588
225	0xbcda3b2f	-0.026639549
226	0x3c527ba8	0.012846865
227	0xbd7cb3a0	-0.06169474
228	0xbd005aaa	-0.031336464
229	0xbd7cd2e0	-0.061724544
230	0xbd85185e	-0.06498788
231	0x3d66f4a6	0.05638566
232	0xbcd82428	-0.026384428
233	0xbd94428b	-0.072392546
234	0xbd2d9387	-0.04237702
235	0xbca0ae38	-0.019614324
236	0x3c177156	0.00924333
237	0x3c81ca9c	0.015843682
238	0xbd336454	-0.043796852
239	0x3cd2b8f8	0.025722966
240	0xbd6cd1f7	-0.057817426
241	0xbca574d9	-0.020197319
242	0xbd9e3f21	-0.07726885
243	0x3d022584	0.03177406
244	0x3d439d6c	0.04775755
245	0xbbf4de19	-0.007472765
246	0xbd7891c5	-0.06068589
247	0xbcc83631	-0.024439903
248	0x3c5dd544	0.013539616
249	0xbd1f5fa1	-0.03890956
250	0xbd2e5fa8	-0.042571694
251	0xbce40254	-0.027833141
252	0x3d29e66e	0.04147952
253	0x3c91fd39	0.017820941
254	0xbbfa84e6	-0.0076452373
255	0x3c689048	0.014194556

main_model.hiddenlayer_0.bias f4 [256]
0	0x3c84f12a	0.016228277
1	0xbd91f415	-0.07126633
2	0xbba3ccda	-0.0049987854
3	0xbd0b537c	-0.034015164
4	0xbcdce2d0	-0.026963621
5	0x3cb3aca2	0.021932904
6	0xbd13502f	-0.03596514
7	0xbd7d0c95	-0.061779577
8	0xbd703c75	-0.058651406
9	0x3d6a59fd	0.057214726
10	0x3d060c78	0.032726735
11	0x3d85b31c	0.06528303
12	0x3d0767da	0.033058025
13	0xbd5e7572	-0.054311223
14	0x3b06167e	0.0020460184
15	0xbb8b7440	-0.0042558014
16	0xbc55421e	-0.013016252
17	0x3d7f2583	0.062291633
18	0xbd4c4200	-0.04986763
19	0x3cc88d1a	0.024481345
20	0x3c8cd7b0	0.017192692
21	0xbc38e11f	-0.011284142
22	0xbd2792fc	-0.04091166
23	0x3d117af8	0.035517663
24	0x3cb3d905	0.021954069
25	0xbd874dc8	-0.066066325
26	0xbd317c6b	-0.043331545
27	0x3c282cd9	0.010264599
28	0x3b8c5fc1	0.0042838757
29	0xbd1a34d5	-0.03764804
30	0xbd6cfb42	-0.057856806
31	0x3d44d7ca	0.048057355
32	0x3d800e71	0.062527545
33	0xbd5a51ad	-0.05330055
34	0xbce00f58	-0.027351066
35	0x3a9fb540	0.0012184754
36	0xbcce7278	-0.025201067
37	0x3c378458	0.011200987
38	0x3afbbe4c	0.0019206493
39	0xbd5fa6f6	-0.054602586
40	0xbcba2049	-0.022720473
41	0x3d68c9aa	0.056832947
42	0x3d385f2c	0.045012638
43	0x3ceda6ec	0.029010259
44	0xbd0b7518	-0.034047216
45	0x3d06bc05	0.032894153
46	0x39242078	0.00015652354
47	0x3d7133f2	0.05888743
48	0xbdc9a89f	-0.09846615
49	0x3d070617	0.032964792
50	0x3b768b60	0.0037619695
51	0xbd869a46	-0.06572394
52	0x3c81393c	0.015774362
53	0xba911ec3	-0.001107179
54	0xbb7ece90	-0.0038880445
55	0xbcb16784	-0.021655805
56	0xbaa5beb5	-0.0012645336
57	0x3bfebca0	0.0077739507
58	0x3be13720	0.0068730265
59	0x3d15e926	0.0365993
60	0xbd19513e	-0.037430994
61	0x3d686137	0.056733336
62	0x3c56ebc7	0.013117737
63	0xbcbea918	-0.02327399
64	0xbc0393f9	-0.008030885
65	0x3c50a1f5	0.012733926
66	0x3d815339	0.063147016
67	0xbd85406f	-0.0650643
68	0xbd6aac72	-0.057293363
69	0xbd11d6b0	-0.035605133
70	0xbd95448b	-0.07288464
71	0xbd85f730	-0.06541288
72	0x3cd8d44e	0.026468422
73	0xbd0c6ce2	-0.034283526
74	0x3d52bfd1	0.05145246
75	0xbd1ffb01	-0.039057735
76	0x3c832b1c	0.016011767
77	0xbcbc607f	-0.022995232
78	0xbd7f90ab	-0.062393826
79	0xbd8d2384	-0.0689154
80	0x3ac24a29	0.0014823127
81	0x3cddda3d	0.027081603
82	0x3e066cef	0.13127492
83	0xbc724341	-0.014786542
84	0x3e0beb22	0.13663915
85	0xbc9bfccd	-0.019041443
86	0x3d8611c7	0.065463595
87	0x3e3b770f	0.18307136
88	0xbd44cb3c	-0.048045382
89	0x3e69fbf7	0.22850023
90	0xbcdb38a5	-0.026760409
91	0xbc60701b	-0.013698603
92	0x3c9800ac	0.018555008
93	0x3bd2a648	0.0064285137
94	0x3c9ae629	0.018908577
95	0x3d1e9871	0.0387196
96	0x3c60e5f8	0.013726704
97	0x3d6cc9fe	0.057809822
98	0x3cc755ff	0.024332998
99	0x3c826338	0.015916452
100	0xbd38e7e4	-0.045143023
101	0xbc911710	-0.017711192
102	0xbbe5bb59	-0.007010859
103	0xbd24be84	-0.040220752
104	0xbd1a902f	-0.03773516
105	0xbd13dacb	-0.03609733
106	0x3d2d6e24	0.042341366
107	0x3e679145	0.2261401
108	0xbd74861e	-0.059698217
109	0xbc61720c	-0.013760101
110	0x3db29b26	0.087209985
111	0x3d27ca17	0.040964212
112	0x3c9e5139	0.01932584
113	0xbdb17717	-0.08665293
114	0x3c518944	0.012789074
115	0x3dc31e14	0.09527221
116	0x3d1b740f	0.03795248
117	0x3a2bad72	0.00065489777
118	0x3ea363b7	0.31912014
119	0xbd85da44	-0.065357715
120	0x3cf2ebf7	0.029653532
121	0xbd372467	-0.04471245
122	0xbd6f4704	-0.058417335
123	0xbd60e5db	-0.054906707
124	0x3de7a022	0.1130984
125	0x3d48e485	0.04904606
126	0xbd84d859	-0.064865775
127	0xbd72f2b8	-0.059313506
128	0x3cc46c8e	0.023977544
129	0xbd1fb024	-0.03898634
130	0xbd40bffd	-0.047058094
131	0xbd4ee8f4	-0.05051513
132	0xbcbbf408	-0.022943512
133	0x3c95b155	0.018273035
134	0xbcf15fd0	-0.029464632
135	0xbae583a0	-0.0017510541
136	0x3b07c8ba	0.0020719008
137	0xbd45f94a	-0.048333444
138	0xbbbc91d0	-0.005754687
139	0xbd44288a	-0.047890224
140	0xbcb76cdf	-0.022390781
141	0xbd376540	-0.044774294
142	0xbccc5029	-0.024940567
143	0x3d225859	0.039635036
144	0x3bc3e0ce	0.0059777265
145	0x3c3eb6b5	0.01164024
146	0xbb04ab59	-0.0020243733
147	0xbc81e35e	-0.015855487
148	0xbc254576	-0.010087362
149	0x3c9cb16e	0.019127574
150	0x3d48cf7e	0.049026005
151	0x3d13f33e	0.036120646
152	0x3d305a81	0.04305506
153	0xbbbfb93f	-0.0058509405
154	0xbcf0053b	-0.02929937
155	0x3d473ff7	0.048644986
156	0x3d187d35	0.03722878
157	0xbb588480	-0.003303796
158	0x3d1d4c11	0.03840262
159	0x3cd5c3f2	0.02609441
160	0xbccbd848	-0.024883404
161	0xbb5f09a1	-0.003403284
162	0x3b8435b3	0.0040347218
163	0x3c56850d	0.013093245
164	0xbcd44f38	-0.02591668
165	0xbd297ff2	-0.041381784
166	0xbd65443d	-0.05597328
167	0xbc9f9d01	-0.019484045
168	0x3bbe1fc4	0.0058021266
169	0xbd6f1f37	-0.05837938
170	0xb9741068	-0.00023275765
171	0xbd336a7c	-0.043802723
172	0xbc5c4734	-0.0134447105
173	0x3ce289e9	0.027653651
174	0xbce0cae9	-0.027440505
175	0x3d1d211d	0.038361657
176	0x3d173be4	0.03692235
177	0x3c97084e	0.018436577
178	0x3c1d1334	0.009587098
179	0xbc6e26b6	-0.014535597
180	0x3e1332fc	0.14374918
181	0xbcce844e	-0.025209572
182	0x3d9dd50c	0.07706651
183	0x3cf7982c	0.030223928
184	0x3cb537f8	0.022121415
185	0x3cc572e7	0.024102641
186	0x3c53eaba	0.012934381
187	0xbd8ff30c	-0.070287794
188	0x3d0feced	0.03513806
189	0xbc67cbea	-0.014147738
190	0xbc1e4b3a	-0.00966149
191	0x3d934530	0.07190931
192	0x3d410682	0.047125347
193	0xbd4fe6f9	-0.050757382
194	0x3debd65a	0.11515494
195	0x3d40aa28	0.047037274
196	0x3d035258	0.03206095
197	0x3c67ca88	0.014147408
198	0x3d2dfe70	0.04247898
199	0xbd80eae2	-0.062948
200	0x3c6f6884	0.014612321
201	0x3d19d5ba	0.03755734
202	0x3d2a3dab	0.041562717
203	0x3ca6a99b	0.020344546
204	0x3dc2bc56	0.095085785
205	0x3e1e6e59	0.15471782
206	0x3d470f16	0.04859837
207	0x3ca6ce9c	0.02036219
208	0x3b89adb2	0.0042016143
209	0x3d03b0e7	0.03215113
210	0x3af1d39c	0.0018449905
211	0x3c96339d	0.018335158
212	0xbd432283	-0.047640335
213	0x3b789b20	0.0037934259
214	0x3d131016	0.035904013
215	0x3d6fac42	0.058513887
216	0x3d2329f7	0.039834943
217	0xbd8cc92d	-0.06874309
218	0xbcc97fe4	-0.024597116
219	0xbd1663de	-0.036716335
220	0x3a110ca2	0.00055331935
221	0x3d42f3cd	0.047595788
222	0x3ca3c27b	0.019990196
223	0xbd71d10b	-0.05903725
224	0x3dc131bf	0.094333164
225	0xbc00c988	-0.007860549
226	0x3c3c003a	0.011474663
227	0x3d223ab6	0.039606772
228	0x3d4d6d8e	0.050153308
229	0x3c51e38a	0.012810597
230	0x3bac1b06	0.005252245
231	0x3dac5a3c	0.08415648
232	0x3d5465a3	0.05185474
233	0x3dcf4eba	0.10122438
234	0xbcdbed6c	-0.02684661
235	0xbd3e5312	-0.04646594
236	0xbd865c68	-0.06560594
237	0x3d7ae264	0.06125106
238	0xbd120948	-0.035653383
239	0xbd3a6dd1	-0.045514885
240	0x3cc56aa0	0.024098694
241	0xbd0b6c81	-0.034039024
242	0x3d64f0cb	0.0558937
243	0xbc84b188	-0.016197935
244	0xbd49ad1e	-0.049237363
245	0xbca3939f	-0.019967852
246	0xbcd1fec4	-0.025634177
247	0xbd3b9344	-0.04579474
248	0xbc5b3602	-0.013379576
249	0xbd6efc75	-0.05834623
250	0xbb698478	-0.0035631936
251	0xbd0f17e7	-0.034934904
252	0xbc5d3f18	-0.013503812
253	0x3e3f0081	0.18652536
254	0x3d2e15e2	0.042501338
255	0xbd580944	-0.05274321

main_model.OutputLayer.weight f4 [3, 256]
0	0xbbf5772f	-0.0074910144
1	0xbc74f697	-0.01495137
2	0x3cf466ec	0.029834233
3	0xbd1fb9e6	-0.038995646
4	0xbd02e74c	-0.031958863
5	0xbcc692e1	-0.02423996
6	0xbcb83597	-0.022486491
7	0xbbb04240	-0.0053789914
8	0xbd59e2bb	-0.053194743
9	0x3caa7fc0	0.02081287
10	0xbb1af33c	-0.0023643514
11	0xbb84e394	-0.0040554497
12	0xbcc4773d	-0.023982638
13	0x3d3426c2	0.043982275
14	0xbcdb8d65	-0.02680082
15	0xbd7ab496	-0.061207376
16	0x3cb08636	0.021548372
17	0x3dbd2900	0.09236336
18	0x3da8c3f5	0.08240501
19	0xbd1e5ad1	-0.038660828
20	0xbd37206a	-0.044708647
21	0xbc95a51e	-0.01826721
22	0x3cb7b0b1	0.02242312
23	0x3b97e321	0.00463523
24	0x3c595b51	0.0132664
25	0x3c9e13be	0.019296523
26	0xbc840a05	-0.016118059
27	0x3c193f8d	0.009353531
28	0xbc897e33	-0.01678381
29	0xbcca77dd	-0.024715358
30	0xbcc07a5c	-0.023495845
31	0x3cd36665	0.025805661
32	0x3dd03546	0.10166411
33	0xbd1aae30	-0.037763774
34	0xbac54e9e	-0.0015053337
35	0x3d2931f6	0.041307412
36	0xbd1e6176	-0.038667165
37	0xbd263332	-0.040576167
38	0x3c7ae138	0.015312485
39	0x3b98f821	0.004668251
40	0xbd00c476	-0.03143736
41	0x3d5b33cd	0.053516198
42	0x3d3bcf5e	0.045852058
43	0x3d71f3e8	0.059070498
44	0xbcba19f0	-0.022717446
45	0xb94a04a8	-0.00019265956
46	0x3d15b3c4	0.03654839
47	0x3c4b3a63	0.012404057
48	0x3d297a95	0.04137667
49	0x3e159f90	0.1461165
50	0xbc389750	-0.011266544
51	0xbca56168	-0.020188048
52	0x3b17e7a0	0.002317883
53	0xbd398c6b	-0.04529993
54	0xbca7d969	-0.020489411
55	0x3be3512c	0.0069371667
56	0x3c95c5a1	0.018282713
57	0xbceee4bc	-0.029161803
58	0x3d7940a8	0.060852677
59	0xbc2a6a6f	-0.010401352
60	0xbd16abb4	-0.036784843
61	0x3dd6a5cb	0.10480841
62	0x3d41acc3	0.0472839
63	0xbd1e68a3	-0.038674008
64	0xbcaaf7af	-0.020870058
65	0xbc94371e	-0.018092688
66	0x3ca466e7	0.020068599
67	0x3c1f6d56	0.009730658
68	0xbd694928	-0.056954533
69	0xbc52db4b	-0.012869666
70	0x3d33e070	0.043915212
71	0xbc96e8b0	-0.0184215
72	0x3d10c922	0.035348065
73	0xbc1bbba0	-0.0095051825
74	0x3cb0d2d0	0.021584898
75	0x3dfb613a	0.12274404
76	0xbd0de925	-0.034646172
77	0xbd1511bf	-0.036393877
78	0x3d27bb82	0.040950306
79	0xbc87b205	-0.016564379
80	0xbd43a622	-0.04776586
81	0xbd737931	-0.05944175
82	0x3d902349	0.0703798
83	0x3afa9632	0.0019118248
84	0x3d24f988	0.040277034
85	0x3bf4083e	0.0074472716
86	0x3c6b7319	0.014370703
87	0x3d906e38	0.070522726
88	0xbba5b9f4	-0.0050575677
89	0x3dc83144	0.09775022
90	0x3c881008	0.016609207
91	0x3b5c46c0	0.0033611506
92	0xba6c6e94	-0.0009019163
93	0x3ba07072	0.004896217
94	0x3b964fbc	0.004587142
95	0xbc8850c9	-0.016640084
96	0xbcb66f10	-0.022269756
97	0x3d512c1a	0.05106745
98	0xbbd0ef80	-0.006376207
99	0xbd1e7d24	-0.038693562
100	0x3cca2c7c	0.024679415
101	0xbd0494ee	-0.032368593
102	0x3d28c543	0.04120375
103	0x3c0dd9fa	0.008657927
104	0xba3e5b77	-0.0007261554
105	0xbbc56e8f	-0.0060251425
106	0x3d783b64	0.060603514
107	0x3da37f9c	0.07983324
108	0x3cdb9dd0	0.02680865
109	0xbc145b60	-0.009054989
110	0x3d8ca0a5	0.06866578
111	0xbaaef185	-0.0013347125
112	0x3d714ceb	0.058911245
113	0xbd820cd9	-0.06350107
114	0xbd3f0b0f	-0.046641406
115	0x3d598dd6	0.05311378
116	0x3c4360f1	0.011924968
117	0xbc4a827e	-0.012360213
118	0x3dd529ba	0.10408349
119	0x3d0409cd	0.03223591
120	0xbd1bdb0e	-0.038050704
121	0xbd01d80c	-0.03170018
122	0xbd0c21f2	-0.03421206
123	0x3d0784ca	0.033085622
124	0x3d378b98	0.04481086
125	0xbc491423	-0.012272867
126	0xbd3c8bee	-0.046031885
127	0xbc8069a2	-0.01567537
128	0x3d844f01	0.06460381
129	0x3d9459a8	0.07243663
130	0x3d315b04	0.04329969
131	0xbb89f262	-0.0042098025
132	0x3c97d010	0.01853183
133	0xbd0efadc	-0.034907207
134	0xbd32e89e	-0.043678872
135	0x3c8465ef	0.016161887
136	0x3cfd344f	0.030908732
137	0xbbbfaa97	-0.0058491933
138	0xbca923c0	-0.02064693
139	0xbaefd375	-0.0018297272
140	0xbd8e1bc7	-0.06938892
141	0xbcb8578e	-0.022502687
142	0x3c75dfa4	0.015006933
143	0x3dbe9661	0.09306026
144	0xbccb86b1	-0.0248445
145	0xbd0fa993	-0.035073828
146	0x3c0fc451	0.008774833
147	0xbd267e3c	-0.04064773
148	0xbd297dfd	-0.041379917
149	0xbda61210	-0.08108914
150	0x3d38c493	0.045109343
151	0xbac60a90	-0.0015109349
152	0xbd026b71	-0.031840745
153	0x3b8e214a	0.0043374645
154	0x3b25f960	0.002532564
155	0x3c550640	0.013001978
156	0x3c3e342b	0.0116091175
157	0x3d641a80	0.055689335
158	0x3db05cc5	0.086114444
159	0xbcc119e3	-0.023571914
160	0xbcdd0e6c	-0.026984416
161	0x3dbd8fd7	0.09255951
162	0x3c1c0fa2	0.0095252115
163	0xbd21a3c8	-0.039462835
164	0xbc9dba00	-0.01925373
165	0x3c5f3765	0.013624047
166	0x3b65705b	0.0035009596
167	0x3ccb1c92	0.024793897
168	0x3d79d0b8	0.060990065
169	0xbb92679e	-0.0044679185
170	0x3b943e46	0.004524025
171	0x3cbd498a	0.023106355
172	0x3d2913fc	0.041278824
173	0x3de86fc4	0.113494426
174	0xbd292494	-0.04129465
175	0xbac700fb	-0.0015182787
176	0xbd060cca	-0.03272704
177	0x3c0ea53d	0.008706388
178	0x3c3a6863	0.011377427
179	0xbd0c6f82	-0.03428603
180	0x3dbdf8e7	0.0927599
181	0xbd0ba1a2	-0.034089692
182	0x3d1b2187	0.03787377
183	0xbd2f7f50	-0.042846024
184	0x3cb2201c	0.021743827
185	0xbd4c03d5	-0.049808342
186	0xbd4c2e94	-0.049849108
187	0x3c903e6c	0.01760789
188	0x3c9507b4	0.01819215
189	0xbcb8eca4	-0.022573777
190	0xbcd8faf7	-0.026486857
191	0x3d4106af	0.047125515
192	0xbbc2f7d5	-0.005949954
193	0xbb9fe227	-0.0048792544
194	0x3dd15c7d	0.10222719
195	0x3c996b0b	0.0187278
196	0x3db17ea0	0.0866673
197	0x3d386bcd	0.04502468
198	0x3caf49bd	0.021397466
199	0xbcd30043	-0.02575696
200	0xbce27a8e	-0.02764633
201	0xbd1646d1	-0.03668863
202	0xbcf4f4e4	-0.02990193
203	0xbd2a1c44	-0.041530862
204	0x3dca2504	0.098703414
205	0x3df61b71	0.12016953
206	0xbcbfc46e	-0.023409095
207	0x3c8f8d94	0.017523564
208	0xbd3b3706	-0.04570677
209	0x3c90f1ec	0.017693482
210	0xbc6aa56d	-0.014321667
211	0x3da1d4c1	0.07901908
212	0xbd2f1fb4	-0.042754844
213	0x3d5aad2e	0.053387813
214	0xbbf191c1	-0.0073721115
215	0xbd437ee4	-0.047728434
216	0xbccba541	-0.024859073
217	0x3cd3c029	0.025848465
218	0x3b8c29fd	0.0042774663
219	0xbc45f680	-0.012082696
220	0x3d4f2078	0.050568074
221	0x3b8beed4	0.004270414
222	0xbafb29dc	-0.0019162255
223	0xbbf71466	-0.0075402735
224	0x3d5c3a4c	0.053766534
225	0x3ceb0fcb	0.028694054
226	0xbd05476c	-0.032538816
227	0x3cfff104	0.031242855
228	0x3cc54114	0.024078883
229	0xbcc9c743	-0.024631148
230	0xbd0fb44d	-0.035084058
231	0x3d61be28	0.055112988
232	0x3ac99694	0.0015379959
233	0x3e126b0e	0.1429865
234	0x3d13cec4	0.03608586
235	0x3c28bf73	0.010299551
236	0x3c8e0760	0.017337501
237	0xbc9edfcd	-0.019393826
238	0xbb2ddce5	-0.0026529368
239	0xbbc5f5fd	-0.006041287
240	0x37372070	1.0915202e-05
241	0xbc81c6b3	-0.015841817
242	0x3d70964b	0.05873708
243	0x3d293806	0.041313194
244	0xbbb0a080	-0.005390227
245	0x3d02bab9	0.031916354
246	0x3c59a898	0.013284825
247	0x3cf382ca	0.029725451
248	0xbaf302be	-0.0018540246
249	0x3c37b6c4	0.011213008
250	0x3c8b6bbf	0.01701915
251	0xbb5e7d29	-0.0033949113
252	0x3bfe9490	0.007769175
253	0x3db93a71	0.0904435
254	0x3d67be10	0.056577742
255	0x3d620e1d	0.05518924

main_model.OutputLayer.bias f4 [3]
0	0x3e04740a	0.1293489
1	0xba512c77	-0.0007979343
2	0xbd5feb7b	-0.05466793
