DQN/DQN_complete/save/main_model_000023.pth (torch_old, 809026 bytes, 10 tensors)

main_model.InputLayer.weight f4 [256, 7]
000000 9f fb 74 be 89 23 0a be b6 86 85 be c4 82 88 3d
       -0.23924111 -0.13490118 -0.2607934 0.066655666
000010 52 f0 a5 be c6 38 0d be 96 19 05 3e d5 bc 6b be
       -0.32409912 -0.13791189 0.12998042 -0.23021252
000020 59 f1 4c be 74 58 b9 3e 69 19 34 be b8 4d 04 3c
       -0.20013942 0.36200297 -0.17587818 0.00807517
000030 fc 0f a9 3c 36 8d 03 3e dc 96 c2 3d 5a 31 7b be
       0.020637505 0.12846836 0.095014304 -0.24530545
000040 07 5f b6 be 0d 26 c8 3d 8d 44 05 bd dc 07 06 bd
       -0.35619375 0.097728826 -0.03253608 -0.03272234
000050 50 a8 ba be 0c 56 66 3e 17 d2 a5 be 1c 28 dd 3c
       -0.36456537 0.22493762 -0.32386848 0.026996665
000060 08 94 de bd 82 fe 8e 3e a9 d4 6f be 11 ee bf 3e
       -0.108680785 0.2792855 -0.23420967 0.37486318
000070 2a 1c 8a be 2c 04 dd bd 0e a5 72 3e f0 2e af be
       -0.26974612 -0.10791811 0.23695776 -0.34215498
000080 63 14 64 be c2 dc 32 3e 75 d3 b2 be 2d ee be be
       -0.22273402 0.17467025 -0.34926954 -0.3729109
000090 dc 3a c4 bd a2 47 7f 3e 21 94 72 be a5 c7 ad be
       -0.09581539 0.2492967 -0.23689319 -0.3394138
0000a0 48 de d2 bd d0 0a 27 3d 10 57 db 3c 70 a2 d8 bc
       -0.10296303 0.040781796 0.026774913 -0.026444644
0000b0 14 df 83 bd 36 4a 0c 3e 12 7b 84 be d6 d7 49 3e
       -0.06439033 0.13700184 -0.25875145 0.19711241
0000c0 37 c9 08 be 9a 4e 54 3e 8d be 85 3e 54 ce 87 3e
       -0.13358007 0.20733109 0.2612194 0.26524603
0000d0 a8 fc 03 bd 89 5a 83 3e 79 63 ab 3d c6 21 9f be
       -0.032223374 0.2565501 0.08368582 -0.31080455
0000e0 e9 e7 84 3e a5 23 45 be f1 9f 73 3e db 32 8a 3e
       0.25958183 -0.19251879 0.23791482 0.26991925
0000f0 a1 c5 68 bd 01 6e 5d 3e a0 dd 53 bd 82 c4 9b bc
       -0.0568291 0.21623994 -0.05172503 -0.0190146
000100 64 ad 4c be 57 b9 7e 3e 84 d2 9a 3e 80 f8 5b 3e
       -0.19988018 0.24875389 0.30238736 0.21481514
000110 69 05 c6 bd 89 ac 80 3e 06 b3 40 be 82 1a 5c 3e
       -0.09669001 0.25131634 -0.18818292 0.21494487
000120 40 8f 77 bd 57 7d 88 be 0c 40 ab be b9 72 b7 be
       -0.06043935 -0.26658127 -0.334473 -0.35829714
000130 d2 3c 0d 3e e9 d9 5e 3e 45 77 93 3e 47 86 3c be
       0.13792732 0.21762814 0.28801933 -0.18410598
000140 a7 27 30 bc 53 3d a7 be 78 99 fd 3d 5c 97 f9 bd
       -0.010751641 -0.32663974 0.123827875 -0.12187073
000150 f5 1d a8 be f3 82 89 be 8a ab ae be 28 36 a6 3d
       -0.32835355 -0.2685772 -0.3411525 0.08115798
000160 ac b1 ae bd de 5c 33 3e 37 14 b2 3e f3 20 a5 3e
       -0.08529982 0.17515895 0.34781048 0.322517
000170 c9 2d a9 be a4 ca 4e be fd 39 90 3e 6b d4 aa be
       -0.33042744 -0.20194489 0.28169242 -0.33365187
000180 e1 01 29 bc bd a6 a1 be d0 64 11 3d d1 59 65 be
       -0.010315389 -0.31572524 0.035496533 -0.22397543
000190 b9 a8 27 be 38 8f b2 bd 78 a7 90 3d e7 25 4a be
       -0.16372956 -0.08718723 0.07063192 -0.19741021
0001a0 e8 36 18 bd b0 f5 c4 3c 44 84 91 bd 00 ee 1f bd
       -0.037161738 0.024042934 -0.07105306 -0.039045334
0001b0 cc a3 d5 bd 40 6e 53 3c b0 8d bf be 48 35 c2 bd
       -0.104316324 0.012904704 -0.37412786 -0.09482819
0001c0 d9 e0 8c 3d d1 54 00 3d 55 d4 b3 3e 01 61 9d 3e
       0.06878824 0.031330887 0.35122934 0.3073807
0001d0 93 e5 83 3e 99 d9 c9 3e 80 f5 d4 3b 92 0b 0a be
       0.2576109 0.39423826 0.0064989924 -0.13480976
0001e0 dd 6c 92 be bc 62 e5 bd 1c c0 a7 be 30 c5 a9 3c
       -0.2859868 -0.11200473 -0.32763755 0.02072391
0001f0 78 d1 95 bd e6 1a 33 3e d8 41 7b 3d e0 9d 7b be
       -0.073153436 0.1749073 0.06134209 -0.24571943
000200 08 bd 43 bd 80 47 99 bb f0 a5 9d be c2 07 a4 be
       -0.047787696 -0.004677713 -0.30790663 -0.3203717
000210 b1 95 92 3e 15 a2 a6 be ea 09 1e 3e b0 f4 14 be
       0.2862983 -0.32545534 0.1543347 -0.14546466
000220 80 e4 82 3e 3d 22 02 3e cb 7f 14 bf fc d6 02 be
       0.25564957 0.12708373 -0.58007497 -0.12777323
000230 25 29 40 3e 67 fa 9b be ac ba a7 bc 41 a5 48 3e
       0.18765695 -0.3046448 -0.020474754 0.1959429
000240 2f b7 a9 be 29 20 4f be b8 fa 20 be 2b b0 2f 3e
       -0.3314757 -0.20227112 -0.15720642 0.17157046
000250 e6 a5 5e be e9 7c 3e 3d c0 5e 17 3e 47 8c c4 b8
       -0.21742973 0.046505842 0.14782238 -9.372137e-05
000260 a2 88 aa be be e6 6b 3e d8 75 8a bd 14 94 22 be
       -0.33307368 0.2303724 -0.06760758 -0.158768
000270 69 53 b2 3e dd a9 76 be 0c 4f c1 be 94 f9 b0 be
       0.34829262 -0.24088235 -0.3775562 -0.34565413
000280 8a 34 82 be 8b 77 92 bd 47 77 ab 3e 21 c4 b2 3e
       -0.2543071 -0.07151707 0.3348944 0.3491526
000290 a7 db 84 3e 2e 22 75 3d 4e c5 a3 3e 03 11 8f be
       0.2594883 0.05984705 0.3198647 -0.27942666
0002a0 3e 2a 2e 3e be b4 a8 be 28 25 08 be 80 6b a9 bc
       0.17008302 -0.32950395 -0.13295424 -0.020681143
0002b0 eb 43 6a be 47 8d 8e 3e c7 9c 82 3e 65 a0 a0 3e
       -0.22877471 0.2784216 0.25510237 0.3137237
0002c0 a6 54 88 be 43 c9 13 3e 99 f1 8a be d6 f4 f6 3a
       -0.26627082 0.14432244 -0.2713745 0.0018841277
0002d0 07 22 a0 3d d0 6e 2e 3d bd 4e 1e be 3b d0 83 3e
       0.0781899 0.042586148 -0.15459724 0.25744805
0002e0 e6 32 83 3e 26 49 8c 3c 65 15 43 be 1e a9 02 be
       0.2562477 0.017124724 -0.1905113 -0.12759826
0002f0 b2 d2 3b 3e 05 cf 3a 3e a8 b9 af be e7 02 2f be
       0.18342093 0.18243034 -0.34321332 -0.17090951
000300 21 ac 1b 3e 68 b7 c0 bd 37 2f bf 3d d7 51 44 be
       0.1520238 -0.09409982 0.093351774 -0.19171844
000310 ef 3c 23 be 96 51 30 3c 20 bb 98 be 65 9f 90 3e
       -0.15941213 0.010761639 -0.29830265 0.28246608
000320 96 de 70 be cb 5f 86 be 62 0b a0 be d3 2b 1a bc
       -0.2352241 -0.2624496 -0.31258684 -0.009409863
000330 5b 3b 87 be 60 ca 74 3e 0a be 23 3e 9e d5 6d 3e
       -0.26412472 0.23905325 0.15990463 0.2322602
000340 d1 82 97 3e 70 6c b5 bd 1c e4 bc 3d a8 e1 81 be
       0.29591992 -0.088585734 0.09223196 -0.25367475
000350 15 ad b3 be 03 3b 97 be 8a d4 2f 3e ef 96 9e 3e
       -0.3509299 -0.2953721 0.17170921 0.30974528
000360 86 d5 77 3e 6c 25 a6 be 91 fe e9 3d 13 2d 3a be
       0.24202546 -0.32450426 0.11425508 -0.18181257
000370 69 77 3e 3e e7 a9 06 bd 44 b7 69 3d f6 43 be be
       0.18600239 -0.032876875 0.05705954 -0.37161225
000380 95 ad 83 be bc 1f 2b be b8 e5 bd bd 80 1b 93 bc
       -0.2571837 -0.16711324 -0.09272331 -0.017957449
000390 6a c4 b4 be ec 61 80 bd 52 bf 3b 3e f4 3f 4c 3d
       -0.35306102 -0.06268677 0.18334702 0.049865678
0003a0 4e ba be 3c a3 c8 aa be 28 d0 2f bd d6 b7 7b 3e
       0.023282196 -0.333562 -0.042923123 0.24581847
0003b0 2c 6b 41 3e 38 fa ad bd 67 11 82 be 84 d5 84 3e
       0.18888539 -0.08494991 -0.25403902 0.2594415
0003c0 18 6f 7f 3e 52 40 2a 3e 36 68 27 3d 53 a8 68 bd
       0.24944723 0.16626099 0.040870868 -0.05680115
0003d0 3f 6c 87 be 57 86 5a 3e e7 4b 28 3a 72 02 4c 3e
       -0.26449773 0.21340309 0.0006420002 0.19922808
0003e0 b1 b6 f9 bb 8d 6a ed bd df 38 b7 3e 74 75 87 bd
       -0.0076206555 -0.115925886 0.35785577 -0.06614199
0003f0 d3 0c a5 bd 33 08 63 3d bd 3a 5a be 28 30 ce 3d
       -0.08059087 0.05542774 -0.2131147 0.10067779

main_model.InputLayer.bias f4 [256]
000000 ec 79 2e 3d 1d e5 1d 3e 83 ec bb be 2a ea 6a be
       0.042596743 0.15419431 -0.36703882 -0.22940889
000010 49 69 b1 be 46 06 82 3e f8 01 92 3e 99 22 d2 3c
       -0.3465064 0.2539541 0.28517127 0.025651263
000020 36 38 a9 be 44 89 65 be fc 17 a0 bd 07 8a bb be
       -0.33050698 -0.22415644 -0.07817075 -0.36628744
000030 6b b6 a0 3e 06 b2 11 3e 96 c1 72 3e 68 60 86 3e
       0.31389174 0.14228067 0.2370666 0.26245427
000040 e3 66 a5 3e ee 06 9e be d3 d5 d4 3e 15 8c 0f 3e
       0.3230506 -0.30864662 0.41569385 0.14018281
000050 77 98 52 3d 71 8a c8 be dc 5c 29 be e1 aa af bc
       0.051414933 -0.39168122 -0.1653933 -0.021443786
000060 a0 c8 76 bc 6d a1 7a be 14 26 e9 bd bc a0 7a be
       -0.015062481 -0.24475642 -0.11384216 -0.24475378
000070 77 a6 77 be 0a 19 89 3e c3 6b c5 3e a4 08 21 3e
       -0.24184595 0.26776916 0.38558778 0.15725952
000080 ba e2 96 3d ca 3c f7 bd 79 e3 76 3e 4e cf c8 3e
       0.073674634 -0.120721415 0.24110211 0.3922066
000090 dd 7f b2 3e da 20 7c 3e 64 eb 27 3e db 79 2b be
       0.34863177 0.24621907 0.16398388 -0.16745703
0000a0 a4 ab c9 3e 8e 2f 79 be 73 ca b8 3d 15 cf 1d 3e
       0.39388764 -0.24334547 0.09022989 0.15411027
0000b0 6c 77 55 3e fa cd 0e be b0 ce 92 bd 9d 35 29 bd
       0.20846337 -0.13945761 -0.07168329 -0.041310895
0000c0 75 6e 25 be 7d 55 da 3d 08 4b 72 bd ee a4 9f 3d
       -0.16155417 0.10660837 -0.059153587 0.0779513
0000d0 ea 7c b9 3e 68 ec c0 3e a2 6a 99 be fd b5 43 3e
       0.36228114 0.37680364 -0.29964167 0.19112392
0000e0 a0 50 34 be 51 0a ad be ef 9c 68 bd 81 0d a5 3e
       -0.17608881 -0.33796933 -0.05679029 0.32236865
0000f0 62 2e be be c5 cb 74 3e ab 46 6b 3e 5c 4b ae be
       -0.37144762 0.23905857 0.22976176 -0.3404187
000100 f7 af cf 3d bc 9d 3d 3e 8b 67 81 3d 9f d3 4c 3e
       0.101409845 0.18517202 0.063185774 0.20002602
000110 c0 c2 55 3e 72 17 7f bd f9 0d df 3d e9 4d 91 3e
       0.20875072 -0.06227822 0.10891337 0.28379753
000120 f7 5a 8f 3e 60 c3 ba 3c 4a 82 fe 3d 50 4e 30 3e
       0.27999088 0.02279824 0.124271944 0.17217374
000130 6f 2d 0a be 84 84 97 3e bf e9 9b bb 7d af 7c 3e
       -0.13493894 0.2959329 -0.0047580893 0.24676318
000140 a3 1b 42 be a2 24 04 be 00 46 7e bc fb f6 82 be
       -0.18955855 -0.129046 -0.015519619 -0.25579056
000150 66 43 53 be 44 ca c1 be c1 9b 16 3e 97 c6 96 3d
       -0.20631179 -0.3784963 0.14707853 0.07362097
000160 50 5c ab be a5 20 90 bd de 4e cc be e1 52 30 be
       -0.33468866 -0.070374765 -0.3990392 -0.17219116
000170 8d a4 99 3e 48 50 56 be 66 41 af 3e 69 cf 0c be
       0.30008355 -0.20929062 0.34229583 -0.13750996
000180 83 ca f1 bd 0c f0 a1 bd 80 af a9 bd 23 af 69 3e
       -0.11806204 -0.079071134 -0.08285427 0.22820716
000190 47 19 70 be b7 e2 49 3e f6 6e 2c 3e 1c 55 aa 3e
       -0.23447143 0.19715391 0.16839203 0.33268058
0001a0 ea 68 a6 bd 83 3c 0e 3e 79 e0 5b 3e e0 85 b9 3d
       -0.081254795 0.13890271 0.21472348 0.09058738
0001b0 3d 9f 4c 3d 24 d2 02 bd 45 e2 af be 74 b1 b8 3e
       0.04995655 -0.031938687 -0.34352317 0.36072886
0001c0 7c af 13 be 7d fb 24 be 4a ce 03 3e b3 06 be 3e
       -0.1442241 -0.1611156 0.12871662 0.37114486
0001d0 f2 15 a4 be b5 09 1e be b1 1a 1c 3e 26 eb bc 3e
       -0.32047993 -0.1543339 0.15244557 0.36898154
0001e0 a1 ba b6 3d 46 1f b2 bd fc 13 9c 3e 61 1a c8 3e
       0.089223154 -0.08697371 0.30483997 0.39082626
0001f0 29 51 c2 3e e9 2c 1f 3e b5 1d 91 3e 76 cc 95 be
       0.37952545 0.15544476 0.28342977 -0.29257554
000200 e1 5c b5 3e b7 96 84 be 15 64 c1 3e 1c 09 5f be
       0.35422423 -0.25896236 0.3777167 -0.21780819
000210 da 18 ff bd 28 2f cb 3e 21 70 62 3e ac 57 86 3e
       -0.12455912 0.39684415 0.22113086 0.26238763
000220 c3 0c db bd 89 8f ac be 1f ea a5 3e 7e 49 89 be
       -0.106957935 -0.3370326 0.32405183 -0.26813883
000230 74 f2 91 be 00 7e 58 3e 42 84 79 be 43 28 91 3e
       -0.2850529 0.21141815 -0.24366859 0.2835103
000240 cf d6 fd bd e0 de a7 bd 89 80 77 3e b1 ba be 3e
       -0.12394487 -0.08196807 0.24170126 0.3725181
000250 c0 e4 7e bc 56 71 ef bd e0 ee 0b 3e bb 8b b0 3d
       -0.015557468 -0.11691539 0.13665342 0.086204015
000260 90 93 b0 3e 04 94 02 3e 3e fd 11 be 9e 28 1f 3e
       0.3448758 0.12751776 -0.1425676 0.15542838
000270 02 f6 da bd 14 1b 1b bd 2d cb 0c be 6f 26 6d 3e
       -0.106914535 -0.03786762 -0.1374938 0.23159193
000280 25 03 28 3e a6 53 cb be 57 e3 86 3e 96 dd 9a 3d
       0.1640745 -0.39712256 0.26345322 0.075617954
000290 eb fd 93 3e 90 e7 53 3e 12 e9 0a be e8 d7 1a be
       0.28904662 0.20693803 -0.13565472 -0.15121424
0002a0 4a b5 a9 bd 36 34 87 be bc 87 b3 3e 8a f6 98 be
       -0.08286531 -0.2640702 0.35064495 -0.29875594
0002b0 3b 8e fa bc 89 a5 b9 3e 10 14 74 be 3b dd a1 bc
       -0.030585399 0.36259106 -0.23835778 -0.019758811
0002c0 05 52 0b 3e cf 2a 88 3e 92 3a 6c 3e 46 d7 85 3e
       0.13605507 0.2659516 0.23069218 0.26140803
0002d0 eb a4 42 3e 0f c8 15 be 06 f0 9a 3e da 63 6d be
       0.19008224 -0.14627098 0.30261248 -0.23182622
0002e0 41 4d 8e 3d 65 ea b8 3e 52 61 12 3e ac 59 b1 be
       0.06948329 0.3611633 0.14294937 -0.34638727
0002f0 2d db 95 bd fe f2 5c 3e 3c b9 7e be b7 a0 2b 3e
       -0.07317195 0.21577069 -0.24875349 0.16760527
000300 36 d3 48 be 50 19 64 be 98 cf db 3c aa da 26 3e
       -0.1961182 -0.22275281 0.026832387 0.16294351
000310 94 33 27 3e 11 28 bd 3e 07 b6 8e 3e 38 7b 97 be
       0.16328269 0.3694463 0.2787325 -0.29586196
000320 76 19 29 bc bc 89 e0 3d f1 59 b5 3e f9 ec 5a bc
       -0.010321012 0.10963771 0.35420182 -0.013362163
000330 69 78 95 3d 9f 61 7b 3e 8d 98 50 be 7f 60 23 3e
       0.07298357 0.24548958 -0.20370694 0.15954779
000340 9b f5 4b 3e 80 45 7f be c6 12 ac be 99 5c 2d 3e
       0.1991791 -0.24928856 -0.33608073 0.16929854
000350 2a 02 8e 3c bd 89 d7 3d fc 81 33 bc 94 1b a9 bd
       0.017335016 0.10524318 -0.010956284 -0.08257213
000360 d8 ce 8c be 32 9d 09 be c9 b0 b8 be c5 63 d9 3e
       -0.2750156 -0.13438872 -0.36072376 0.4245893
000370 47 ac 77 be 83 4a 9f 3e cf 0f 23 3e 1c c3 e3 bd
       -0.24186812 0.31111535 0.15923999 -0.111211985
000380 b4 07 99 3e ca f5 d7 bd 8a b0 2f 3e 5b 92 3f be
       0.2988869 -0.105449274 0.17157188 -0.18708174
000390 b8 4d 81 3e 77 ff b6 3e 5e 65 a9 be 49 ec 3d be
       0.25254607 0.3574178 -0.3308515 -0.18547167
0003a0 69 0b 48 be d5 8d 78 be 13 8e 07 bd df 53 a0 be
       -0.19535603 -0.24272855 -0.033094477 -0.3131399
0003b0 bf d3 2e 3e 2e c5 50 3d f9 bb f1 bd 75 b6 70 be
       0.17072962 0.050969295 -0.11803431 -0.23507102
0003c0 88 fd e9 3d cc bd b5 3d de 53 f9 3c 87 db 51 bd
       0.114253104 0.088740915 0.030435499 -0.05123475
0003d0 c3 c6 0b 3e 98 ac 85 bc 1b 97 05 bc 24 bf 06 be
       0.1365004 -0.01631765 -0.008153702 -0.13158852
0003e0 54 89 1b be 60 12 46 be 89 04 d8 3e 38 4d 6f 3e
       -0.15189105 -0.19342947 0.4219096 0.233693
0003f0 b4 75 cb bd 72 ef aa 3e e1 e4 5c bd 5c d7 8f 3e
       -0.099345595 0.33385807 -0.053929213 0.28093994

main_model.hiddenlayer_0.weight f4 [256, 256]
000000 68 8a 9a bc 7c eb f3 3c a0 d9 48 3c 74 75 4b bd
       -0.018864825 0.029775374 0.012258917 -0.04967256
000010 88 17 0c 3c 7c cc db bc f6 10 33 bd 3a 8c 20 bd
       0.008550532 -0.026830904 -0.043717347 -0.03919623
000020 70 5b 56 3c b8 e4 58 bd 40 79 7c bb 60 7f 93 3c
       0.013083324 -0.0529525 -0.003852442 0.018005073
000030 22 24 63 bd ac d7 5e bd a6 93 69 bd b4 08 cf 3c
       -0.05545438 -0.0544049 -0.057025574 0.025272705
000040 18 55 e9 bc 3c 8b b0 bc 64 cd 2f bd 16 e2 06 3d
       -0.028482959 -0.021550767 -0.042920485 0.032930456
000050 e0 d6 3d bb 78 61 90 bc 00 5e 49 3b 8c c5 58 3d
       -0.0028967187 -0.017624602 0.0030726194 0.05292277
000060 6e 53 78 3d b0 ed 52 bd 5c 4c 11 3d 9a 9a 1a bd
       0.06062644 -0.051496208 0.035473213 -0.037745096
000070 e0 8e 9d 3c e8 5c 34 3c e4 5c ef bc d8 a2 ad bc
       0.019233167 0.011008479 -0.029219098 -0.021195814
000080 f2 9a 0a 3d 48 46 ee bc 2e cf 67 bd 78 c5 1a bd
       0.033839174 -0.029086247 -0.056594066 -0.037785977
000090 bc 38 a7 bc 70 a1 1d bc 50 4a a4 3b da cb 58 3d
       -0.020412795 -0.009621009 0.0050137416 0.052928783
0000a0 f6 08 67 bd 54 97 6d 3d b0 92 8b 3b 4e 48 03 bd
       -0.05640503 0.058005646 0.00425943 -0.032051377
0000b0 00 50 96 b8 e8 4c 22 bc d0 71 9e 3c c0 50 9e bc
       -7.1674585e-05 -0.009906031 0.01934138 -0.019325614
0000c0 d4 6b 92 3c e8 ae 7c 3d d0 94 89 3c 20 ef 54 bb
       0.017873682 0.06169024 0.016794592 -0.0032491162
0000d0 48 af dd bc 00 d1 19 3b b8 9c ee bc 48 15 7d bc
       -0.02706112 0.002347052 -0.029127464 -0.015446968
0000e0 f4 7c f9 3c b6 d5 5c bd 16 fa 26 bd 1e ab 76 3d
       0.03045509 -0.053914748 -0.040765844 0.060221784
0000f0 88 4f 23 3d 1e fd 0d bd 5c 77 6c bd 10 28 68 3c
       0.03987077 -0.03466522 -0.057731017 0.014169708
000100 00 5b 51 bc 08 bf a3 3c 90 08 e4 3c 0c 0d b4 3c
       -0.012778044 0.019988552 0.027836114 0.021978877
000110 42 4e 40 bd 60 b7 40 3c 8c 98 22 bd 40 fb f4 3a
       -0.046949632 0.01176247 -0.03969626 0.0018690601
000120 e2 a3 7b bd 88 87 54 bc ea 08 44 3d 48 85 a7 3c
       -0.061435588 -0.012971766 0.047860064 0.020449296
000130 94 18 27 3d d6 70 79 bd da 33 76 bd 80 7a 01 3b
       0.040794924 -0.060898624 -0.060108043 0.0019756854
000140 80 4a 08 bd 36 56 47 3d 44 c9 48 bd 18 f0 73 3d
       -0.033274174 0.0486662 -0.049020067 0.059555143
000150 b4 67 c2 bc 3a 4c 73 3d 6a 7a 10 3d 8c 67 65 3d
       -0.02373109 0.059398867 0.035272993 0.056006953
000160 10 9a eb bc 60 74 08 bb a2 64 19 bd 74 e9 7d bd
       -0.028759986 -0.0020821318 -0.037449487 -0.061990216
000170 06 62 5d bd e0 be d9 bb ac 72 a4 3c 2a 8e 07 3d
       -0.05404856 -0.0066450685 0.020074211 0.033094563
000180 e8 cd d9 bc 8c 65 5c bd e0 eb d4 3c 8e ff 16 bd
       -0.026587442 -0.05380778 0.02599138 -0.03686481
000190 70 7e 6a 3d d8 9a 16 bd 6c 02 fe bc c8 3e b2 bc
       0.057249486 -0.036768764 -0.031007014 -0.021758452
0001a0 d6 7d 51 bd 98 ec aa 3c 00 60 95 3a 80 9b 4b ba
       -0.051145397 0.02086477 0.0011396408 -0.0007767007
0001b0 ec 2b e3 bc 98 f5 57 bd f8 3d 07 3c 88 da 00 bd
       -0.027730905 -0.05272445 0.008254521 -0.031458408
0001c0 c8 13 b0 3c 28 69 8c bc 9a 21 09 bd e2 61 3b 3d
       0.021493807 -0.017139986 -0.03347931 0.045747645
0001d0 a8 e4 2f bc 00 d4 81 ba b0 21 2b 3c 72 45 76 3d
       -0.010735668 -0.00099051 0.010445043 0.060124822
0001e0 00 0c fb b9 f8 9b c8 3c 00 00 09 b6 ea 1e 3f 3d
       -0.0004788339 0.024488434 -2.041459e-06 0.04666034
0001f0 e8 78 0f 3c ea f5 4b bd a4 7b f3 3c be f1 5e 3d
       0.008756854 -0.04979507 0.029722042 0.054429762
000200 d0 59 01 3c 80 aa a3 ba a0 ef e1 bc 00 8f 0b 3d
       0.007894948 -0.0012486726 -0.027580082 0.034071922
000210 5e 01 62 bd 90 98 82 3c 24 bf f2 bc e2 c0 27 bd
       -0.055177085 0.015941888 -0.029632159 -0.04095543
000220 38 74 2c bc 14 60 d7 3c d8 7f 74 3c e0 5f ac 3b
       -0.010525756 0.02629093 0.014923058 0.0052604526
000230 f8 53 e0 bc d4 1d 80 bc 40 02 a7 ba d8 2c dd bc
       -0.02738379 -0.015639223 -0.001274176 -0.026998922
000240 00 2f ff 39 60 f4 5b bb 94 c6 06 bd b6 c7 59 3d
       0.00048672408 -0.0033562407 -0.032904223 0.053168975
000250 0a 62 12 bd 98 8b 11 3c e4 7b 4d 3d 90 1c c1 3b
       -0.03573803 0.008883379 0.05016698 0.0058932975
000260 64 74 c6 3c c8 11 1d 3c b4 68 f0 3c 3a 90 12 3d
       0.024225421 0.009586759 0.029346801 0.035782076
000270 d4 69 7a 3d 1e 2b 56 bd a8 e7 13 3c b4 2e 89 bc
       0.06113608 -0.052287214 0.009027399 -0.016745903
000280 30 28 52 3c f4 8e b2 3c 38 a7 cc 3c 24 71 16 bd
       0.012826964 0.021796681 0.02498208 -0.036728993
000290 d0 c0 49 bd 92 98 33 bd 9e ea 5e 3d e2 c6 20 3d
       -0.049256146 -0.043846674 0.054422967 0.03925217
0002a0 20 38 3b bb c0 06 dc ba 3e 15 17 3d 4c 81 a4 bc
       -0.0028567389 -0.001678668 0.036885493 -0.020081185
0002b0 16 38 42 bd ca ff 2e 3d e0 e4 32 bc cc 56 85 3c
       -0.04741677 0.04272441 -0.010918826 0.01627674
0002c0 e6 e4 24 bd 80 f2 c9 bc 0c 03 e0 3c 4c c9 bc 3c
       -0.040257357 -0.024651766 0.027345203 0.023045205
0002d0 68 55 14 3c f4 4a c6 3c e4 bd 3a bd ce fb 07 bd
       0.009053566 0.024205662 -0.04559125 -0.033199124
0002e0 ac 6e 94 bc f0 9b f3 3b a8 7b c9 3c ac 85 85 3c
       -0.018119179 0.0074343607 0.024595097 0.016299091
0002f0 be 53 55 3d 50 46 88 bb 0c 8a b2 bc 8a ba 6c bd
       0.052081816 -0.0041587725 -0.021794342 -0.057795085
000300 c2 6d 05 bd 1c 84 7f 3d 9a ad 1c bd 6a f7 1b 3d
       -0.032575376 0.06238185 -0.038251497 0.03807775
000310 52 92 2e 3d d8 20 b5 3c f8 4f 0e bc 68 b3 b5 3c
       0.04262001 0.022110388 -0.008686058 0.022180274
000320 e4 f8 cc 3c 84 bf 28 3d 76 e2 7c 3d 46 99 34 bd
       0.025021024 0.04119827 0.061739407 -0.044091485
000330 74 37 52 3d 26 80 14 bd 8c e3 7c 3d 64 4b 4d bd
       0.051322415 -0.036255024 0.061740443 -0.050120726
000340 a6 a8 55 3d 0a f6 2c bd bc db c2 bc 2e 66 46 3d
       0.05216279 -0.04222683 -0.023786418 0.04843729
000350 c0 db 88 3b b0 c9 b5 3b 24 aa 86 bc 2e 33 5f 3d
       0.004176587 0.0055477247 -0.016438551 0.054492168
000360 7c bb bd bc 50 41 7c bc 30 02 b6 3c f4 33 e7 3c
       -0.023160689 -0.015396431 0.02221784 0.028223015
000370 d6 9d 44 bd 30 3c bb bb 5a 9f 0b bd c0 ed 8c 3a
       -0.048002087 -0.005713962 -0.034087516 0.0010752007
000380 2e 3e 12 bd 50 68 e1 bc 46 d3 23 3d 0a db 77 bd
       -0.03570383 -0.02751556 0.039996408 -0.060511626
000390 70 19 fb 3b 66 89 25 3d d6 03 15 bd 9e 03 20 bd
       0.0076629445 0.040414236 -0.03638061 -0.03906595
0003a0 12 08 33 bd bc 0b df bc 52 f6 7f 3d e2 d0 6c 3d
       -0.04370887 -0.027227275 0.06249077 0.057816394
0003b0 88 3c 89 3c 50 f6 89 bc 74 5b e1 bc d0 64 f6 bb
       0.016752496 -0.016841084 -0.027509429 -0.007519342
0003c0 00 8b 55 bb 8c 7d 06 bd a0 12 71 bd f0 a1 88 3c
       -0.003258407 -0.032834575 -0.058855653 0.01667878
0003d0 6a 9c 73 3d f0 db 33 3c 60 18 79 bc 6e 98 4c 3d
       0.05947534 0.01097773 -0.015203565 0.049950056
0003e0 c0 1c 8e 3c 5a bb 04 bd 60 9b ef 3b 4a 31 09 3d
       0.017347693 -0.032405235 0.0073122233 0.03349427
0003f0 e4 eb 57 3d 8e 17 19 3d c0 6f a2 3b 02 95 10 3d
       0.052715197 0.03737598 0.0049571693 0.035298355

main_model.hiddenlayer_0.bias f4 [256]
000000 a2 eb 1d 3d 99 ec cc 3c 34 9b 34 3d 8e 75 b8 3d
       0.038554795 0.025015162 0.044093326 0.09006797
000010 1b 15 c9 3c 4f ff 4d bd 47 a4 87 3d 77 8d 80 bd
       0.024546197 -0.05029231 0.0662313 -0.06276982
000020 d6 66 79 bd fa 67 05 3d 1c 52 0f 3d 08 99 92 bd
       -0.060889088 0.032569863 0.034990415 -0.07158095
000030 20 80 ac bb 47 86 3d 3d 30 a7 9c bb f6 c5 06 bd
       -0.005264297 0.046270635 -0.0047806725 -0.032903634
000040 c4 38 0e bd 8c 4c 64 bd 7e 17 31 3d d1 cf 5e 3d
       -0.034722105 -0.055737063 0.043235295 0.054397408
000050 3d ed cc bc 80 b3 87 ba f9 7d 49 bd e1 55 98 3d
       -0.025015468 -0.0010353178 -0.049192403 0.07438255
000060 3b 0e a7 3d 11 9f 99 3c 65 90 9c 3d 84 7c 78 3d
       0.08157011 0.018752607 0.076447286 0.060665622
000070 c8 f4 1b 3d c8 19 93 3c 24 23 00 bb bf 7a 80 39
       0.03807524 0.01795663 -0.0019552195 0.00024505515
000080 d1 57 89 3d e0 58 d0 bb b2 1c 7b 3d bc b6 4e 3d
       0.06706203 -0.006358251 0.061306663 0.050467238
000090 d6 40 82 3d 62 79 79 bd fd 26 59 bc 08 8b c3 bc
       0.06360023 -0.060906775 -0.013253924 -0.023870006
0000a0 53 8b ca bb c4 ae 89 3c 63 56 82 3c df 86 a9 3c
       -0.0061811595 0.016806968 0.015910333 0.020694194
0000b0 c1 19 a6 bc 8c a7 97 bd 24 8b 1c 3d cf 8a 53 3d
       -0.020275952 -0.07405004 0.038218632 0.05164605
0000c0 96 65 52 bd 74 87 1d bd 1c 15 9b bc e3 72 3c 3d
       -0.05136641 -0.038459256 -0.018930964 0.046008002
0000d0 48 39 29 bd bb c5 cf bc e2 37 85 3d 69 e7 d5 3b
       -0.041314393 -0.02536284 0.065047994 0.0065278304
0000e0 67 9a d2 3d e2 81 60 bd bf 1e b0 bc 59 73 26 3d
       0.10283356 -0.054811366 -0.021499036 0.040637348
0000f0 8e 3e 65 bd 4c 63 45 3d 1d be 8c bc 87 e3 8f 3d
       -0.05596786 0.0481904 -0.017180497 0.07025819
000100 69 49 a7 3d 0e 9a 22 3d 6e 0d a9 3a 46 a4 84 3d
       0.08168299 0.0396977 0.0012897679 0.06476645
000110 cf 31 2e 3b 0f 73 1e 3d 28 35 f3 3c a8 94 ee bc
       0.0026579981 0.038683947 0.029688433 -0.02912362
000120 f9 5a 50 3d 31 a6 4e bd 9e 04 1a bd 26 96 82 3c
       0.05086801 -0.05045146 -0.03760206 0.015940737
000130 30 e9 fe 3c 44 0c 42 bc 64 6c c9 3c ce 5c 13 bd
       0.031117052 -0.011843745 0.024587817 -0.035977177
000140 f8 6a ef bc 78 9d a0 3c b5 10 c7 bc 19 26 d7 3b
       -0.029225811 0.019606337 -0.024299959 0.006565821
000150 22 99 44 bd 8f 86 7f bc 02 8e 38 3d d1 0b 94 3b
       -0.0479976 -0.015596046 0.045057304 0.00451801
000160 73 b4 ee bb aa b2 33 3d 41 24 26 bb e5 a9 61 bc
       -0.007284695 0.04387156 -0.00253512 -0.013773416
000170 86 af 13 bc 44 fa fd bc bc bf 6f 3d c0 f6 65 bd
       -0.009014016 -0.031003125 0.05853246 -0.056143522
000180 00 38 51 3d 97 4d 64 bd 0c 4a d3 bc 8f 52 af 3b
       0.051078796 -0.055738058 -0.025792144 0.005350418
000190 58 e9 ad 3d 8c 48 ae 3d a8 ab 29 3c 55 02 1a 3d
       0.084917724 0.08509931 0.010355867 0.03759988
0001a0 fd 6b 8f 3d b3 d8 da 3d 7b d3 8e 3d dc c7 1a bd
       0.07003019 0.10685863 0.069739304 -0.037788257
0001b0 ec 03 85 bb be 58 30 bd 4c 81 5d 3d 55 d4 0c bd
       -0.0040593054 -0.04305338 0.054078385 -0.034382183
0001c0 e4 ac c5 3d 85 e5 f4 3d 93 12 09 bd aa 85 19 3d
       0.09652117 0.1195784 -0.03346498 0.037480988
0001d0 8d 3a af 3c a3 2c 84 bd d9 f0 6a bd a7 db f5 bc
       0.021390224 -0.06453826 -0.057358596 -0.030011965
0001e0 20 dd 6b bc a7 bd 34 bd 70 b4 5f 3d 0c a6 a9 bc
       -0.014395982 -0.04412618 0.054615438 -0.02070906
0001f0 78 58 2b 3c da d2 6f bd d8 b8 7b 3c 38 64 66 bd
       0.010458104 -0.058550693 0.015363894 -0.05624792
000200 8c 40 2a 3d b9 3b b3 bc af f7 04 bd 03 77 22 bd
       0.041565463 -0.021879064 -0.032462772 -0.03966428
000210 e4 73 5d 3d 77 99 a1 3d 6a 5a 84 3b e5 e4 98 3b
       0.0540656 0.07890599 0.0040390985 0.004665958
000220 fa 59 82 bd dd 95 2c 3d 23 1d 02 bc f0 31 61 3d
       -0.06364818 0.04213511 -0.007941517 0.054979265
000230 b0 e6 8f bb 82 78 dc bb 18 c0 37 bc 6f 5c 02 3d
       -0.0043915138 -0.006728233 -0.011215232 0.031826433
000240 00 86 29 3d 05 23 03 bd f1 ae a1 3c 38 dc c2 bb
       0.041387558 -0.03201582 0.019736739 -0.0059466623
000250 ce f2 04 bd d1 8b 26 bd c3 91 30 3d d2 ac fc bc
       -0.03245812 -0.040660683 0.04310776 -0.030844126
000260 7a 69 87 bd 30 66 23 3c e4 c3 04 bd f1 0e 3a 3d
       -0.06611915 0.009973094 -0.03241338 0.045424405
000270 95 d9 cd bb 8e ea 7e 3c e1 b5 4b 3c 42 2c 5b 3d
       -0.0062820413 0.015558852 0.0124335 0.053509004
000280 3a 4f f3 bc 48 f2 d5 3c 22 0d be 3c 66 a5 20 3d
       -0.029700864 0.026116505 0.023199622 0.039220236
000290 50 07 a6 3c 9d ea 88 bd 4d e9 b8 3d be 2b a2 3d
       0.020267159 -0.06685374 0.090288736 0.079184994
0002a0 3d e5 b0 bc 54 b4 44 bc f2 70 f4 3c 58 4b 78 3d
       -0.021593684 -0.012005884 0.029839013 0.06061873
0002b0 52 0e 74 bd 8d 68 95 3c 5b da 06 bd bf c4 b6 ba
       -0.05958397 0.01823833 -0.032923084 -0.0013944133
0002c0 15 2c 76 3c 6f f6 55 3d d7 7c b5 3d 20 3f d5 3c
       0.015025158 0.05223697 0.08861702 0.026031077
0002d0 a2 73 ae 3c 45 dd ab 3d 12 18 4c bd 55 fd bd bc
       0.021295372 0.08391813 -0.049827643 -0.023192087
0002e0 c0 92 89 3d 06 24 ae 3c 3a 95 7e bd 54 a5 49 3b
       0.067174435 0.021257412 -0.062154032 0.003076871
0002f0 3e 93 11 3d fc 66 8a 3c c0 8b a1 3d e7 79 9b bd
       0.03554081 0.01689481 0.07887983 -0.075916104
000300 f8 6f 26 bd 4d ac 8b bc 36 f4 cd bc e0 0c 17 3c
       -0.040634125 -0.017049933 -0.025140863 0.009219378
000310 8c 2f cf 3d 3f 3a 21 3d 30 cb e4 bc 02 e6 83 bd
       0.10116491 0.03936219 -0.027928919 -0.06440355
000320 fd 03 20 3d e7 3f d6 3c d5 4c 77 bd de 1f 04 3d
       0.039066304 0.026153518 -0.060376007 0.032256953
000330 d2 7d 7e bd 17 0a 49 bd 0e df 45 bc 7c 83 17 3d
       -0.06213171 -0.049081888 -0.012077106 0.036990628
000340 04 e6 df 3b 3c 08 02 3d 4e 77 8e bb da 2a 4d 3c
       0.00683284 0.031746134 -0.0043477183 0.012522424
000350 3d ae 35 bd 8b 68 ef 3b 7c a5 39 3d 3f e3 cb bc
       -0.04435562 0.0073061637 0.045323834 -0.024888633
000360 e1 c2 64 bd 3e bd c1 3d fc 19 55 bc cd 7d a0 3c
       -0.055849914 0.09459923 -0.013006683 0.019591236
000370 95 56 12 bd 60 72 79 3d 97 0f 98 3d 51 66 0a bd
       -0.035727102 0.060900092 0.074248485 -0.033788983
000380 a1 4b 31 ba 8c f0 6a 3c 22 70 4d 3d 0b 60 b6 3d
       -0.0006763284 0.014339577 0.050155766 0.089050375
000390 a1 87 3f bc 1c 03 d8 bc 22 9c 56 3d 20 c6 d4 3d
       -0.011690051 -0.02636867 0.052394994 0.10389352
0003a0 1d 08 bc ba 88 83 7c bd a6 87 88 3d 91 1f bc 3c
       -0.001434568 -0.061648875 0.06666498 0.02296427
0003b0 22 99 36 bd 79 cb 9e 3c f0 1e 12 3d 0b 1f b8 bc
       -0.044579633 0.019384133 0.035674036 -0.02247574
0003c0 cb da 68 3d da d8 c6 bd 48 9a 8b bc da ab 8b 3d
       0.056849282 -0.0970933 -0.01704134 0.068198875
0003d0 71 db a4 bc ba 20 66 bd 72 43 83 bc 82 dc 71 bd
       -0.020124169 -0.056183554 -0.016023371 -0.059048183
0003e0 ce c8 91 3c d5 ff 89 bc eb 5e c2 3d 6a 19 a6 3c
       0.017795946 -0.016845623 0.094907604 0.02027579
0003f0 b6 6f 28 3d d3 3c 85 bd 0b c0 46 3c 17 e1 a6 3d
       0.04112216 -0.06505742 0.012130748 0.08148401

main_model.hiddenlayer_1.weight f4 [256, 256]
000000 5e 03 7a bd 1b c5 2b 3d fe 08 56 3d 96 b2 01 bd
       -0.061038367 0.04193602 0.05225467 -0.031664453
000010 d1 35 e1 bb 28 ab 87 3c fc 2d 64 3d 63 62 4a bd
       -0.0068728705 0.016561106 0.055707917 -0.049410235
000020 08 9d 6a bd b0 9a 0a bd 22 5f 0f 3d ba ec 8d 3b
       -0.057278663 -0.033838928 0.035002835 0.0043311985
000030 0b 95 ae bc 1b fd f5 bc b0 81 10 bc 3b 2e dc 3b
       -0.021311304 -0.030027917 -0.008819982 0.0067193783
000040 00 a4 c2 3b c4 82 ea bc 2c e2 bd bc a0 c0 a7 bc
       0.0059399605 -0.028626807 -0.023179136 -0.020477593
000050 06 cd 66 3d 76 2b 36 bd 6b 13 50 3c 60 80 4e bc
       0.05634787 -0.04447504 0.012699942 -0.012603849
000060 f6 c7 5d bc 59 c4 e2 3c 04 08 02 3d 67 0c 6d bd
       -0.013536444 0.027681516 0.031745926 -0.057873156
000070 2e c4 68 bd 78 4f 1b bc 28 1d a9 3c 46 88 4f bd
       -0.056827717 -0.009479396 0.020643786 -0.05066707
000080 54 ef 08 bd 08 cf 73 3d 4e 7e 16 3d 5e fd 1c bd
       -0.033431366 0.059523612 0.036741547 -0.038327567
000090 b0 26 1a bd 74 80 06 bd 7d 57 6f bd 66 b1 2e 3d
       -0.03763455 -0.032837346 -0.058433045 0.04264965
0000a0 88 56 e3 3b 70 dd e8 bb f5 2a a0 bc d8 09 2d bc
       0.0069378056 -0.0071064755 -0.019551734 -0.010561429
0000b0 3d f7 13 bd b0 e0 34 3c f0 a7 46 3c 12 9b 7e 3c
       -0.036124457 0.011039898 0.012125 0.015539901
0000c0 5e be 41 bd d5 20 1d bd 0c 2b 1c 3d 86 42 f9 3c
       -0.04730069 -0.03836139 0.03812699 0.030427229
0000d0 ae 9f 3c bc bd b5 6f bd a7 2f 7b bd 70 5a 0c bd
       -0.01151268 -0.05852293 -0.06132474 -0.034265935
0000e0 02 1e 51 3d 44 f1 b7 3c 33 e5 25 3d 18 c9 15 3c
       0.05105401 0.022453912 0.040501785 0.009142183
0000f0 5b 20 16 3d c0 65 15 3c c0 02 af bc 6a ab 1e bd
       0.03665195 0.009118497 -0.021363616 -0.038737692
000100 72 6f 65 3d 80 c5 fe 3a b2 29 03 3d 75 9c 0e bc
       0.056014486 0.0019437522 0.032022186 -0.008704294
000110 80 91 58 bd 65 01 07 bd 36 f9 13 3d 13 3b 0c 3d
       -0.052873135 -0.032960314 0.036126338 0.034236025
000120 34 f0 b9 bb 82 b6 1d 3b 40 05 dd bc d4 85 9b bd
       -0.0056743864 0.0024065082 -0.026980042 -0.07593885
000130 ac 4d 4d 3d 80 8b 4e bc 80 8b 9d ba 2c b0 93 3c
       0.0501229 -0.012606502 -0.0012019724 0.018028341
000140 6c 24 95 3c 00 c8 1c b9 c3 2e 4d 3d 7a f1 4e bd
       0.018205844 -0.00014951825 0.050093424 -0.05052326
000150 e8 b6 c1 bc c7 e6 e8 bb 8a 63 75 3d 42 fc 84 bd
       -0.023646787 -0.007107589 0.05990938 -0.06493427
000160 18 ac 21 bd 8e ea 2a bd 38 82 dd bc 59 47 92 bd
       -0.039470762 -0.041727595 -0.027039632 -0.07142515
000170 52 42 15 3d dc 31 e6 3c 90 0d a6 3c 7a d4 42 3d
       0.0364402 0.028099947 0.020270139 0.047565915
000180 07 78 cc bc 74 bf 7d bd b6 b6 18 bd 89 00 7c bd
       -0.024959577 -0.061950162 -0.03728362 -0.061523948
000190 0c ae a9 bc ec a8 42 3d 1c 9b ee bc 66 7b c0 3c
       -0.020712875 0.047524378 -0.029126696 0.023496341
0001a0 b8 1c 42 bc 24 45 90 bd ff 1f 21 bc 38 85 23 3d
       -0.011847667 -0.070444375 -0.009834289 0.03992197
0001b0 aa d0 65 bd 77 4e f5 3a 3d a7 53 3d 80 f3 a4 3c
       -0.0561072 0.0018715401 0.051673163 0.020135641
0001c0 8d 57 77 bc 00 80 47 ba a0 13 3b bd ad 07 70 3c
       -0.015096557 -0.0007610321 -0.045673013 0.014650268
0001d0 ec 74 97 3c fc 68 0d 3d f6 61 75 bd 08 b0 8b 3b
       0.01848837 0.03452395 -0.059907876 0.004262928
0001e0 90 34 54 bc f1 55 90 bd 48 af a1 bc ca c3 49 bd
       -0.012951985 -0.07047642 -0.0197369 -0.049258985
0001f0 f6 50 3d 3d fe 9c 0c bd 28 cc b5 bc 06 34 19 3d
       0.04621979 -0.034329407 -0.022192076 0.03740313
000200 24 e5 b0 bc b0 00 0b bc 2c fb d6 3c 1e 66 7a bd
       -0.021593638 -0.008484051 0.026242815 -0.061132543
000210 16 3b 55 3d f3 a1 ce bc bf 0c 0b 3c f4 c4 f7 bc
       0.052058302 -0.025223708 0.008486926 -0.030245282
000220 33 0a 9d 3c 14 42 77 bd 53 36 de bc 6d 09 33 3d
       0.019169902 -0.06036575 -0.027125513 0.04371016
000230 e8 0c 08 bc 62 ce 91 3c 50 18 fd bb 2b b4 86 3c
       -0.008303858 0.017798606 -0.0077238455 0.016443333
000240 e9 01 39 bd 5a 05 4d bd f0 15 f3 bc 03 ab 65 3a
       -0.045167837 -0.05005393 -0.029673547 0.00087611395
000250 fd e3 12 bd 32 39 a9 3c 59 2d 27 ba 39 93 a5 bc
       -0.035861958 0.020657156 -0.0006377302 -0.020211803
000260 9d 3b 27 ba 20 e6 59 bc 5c 8b ba 3c 20 80 17 3d
       -0.00063794275 -0.013299495 0.02277153 0.036987424
000270 2c 51 55 bd 18 9f 1d bd bb d7 0c bc e8 ec 0a 3c
       -0.052079365 -0.0384818 -0.008596356 0.008479334
000280 55 70 6e bc 9f 5e d0 3b d4 a2 8b 3c 1a 78 2f 3d
       -0.014553149 0.006358936 0.017045416 0.042839147
000290 5b bd 23 3d ba 19 6c bd d8 a3 b7 3c 64 b8 79 bd
       0.039975505 -0.057641722 0.022416994 -0.060966864
0002a0 a4 f1 96 3c 01 65 48 3c 8e 86 1d bd a0 d5 04 bd
       0.01842577 0.012231112 -0.0384584 -0.03243029
0002b0 fc 3f 5c bd 8f 0d ce 3c 29 9c 30 3d 1a ac 9a bc
       -0.053771958 0.02515295 0.043117676 -0.018880893
0002c0 3a 84 67 3c 7e 17 81 bd eb e8 d3 3c d2 97 11 3d
       0.014130646 -0.06303309 0.0258679 0.035545178
0002d0 bb c8 f7 3c 3e 10 2b bd 0e 13 15 bd 51 cf 12 bd
       0.030247083 -0.041763537 -0.036395125 -0.035842244
0002e0 98 e1 34 3d dc 43 72 bd 53 bf 68 bd 00 6e 72 bb
       0.044160455 -0.059146747 -0.056823086 -0.0036991835
0002f0 5e e7 93 bd 31 8c 56 bd 02 e2 66 bd 3e cc 06 bd
       -0.07221864 -0.05237979 -0.05636788 -0.032909624
000300 90 5c b2 3c 2c a5 3e bd fa c9 ff 3b 00 ea 97 39
       0.021772653 -0.04654424 0.00780606 0.00028975308
000310 28 ef fa bc 5c 26 14 3d d7 23 8d bd 56 ac 5d bd
       -0.030631617 0.036169395 -0.068916015 -0.05411943
000320 0e b3 0a bd 8a 01 e5 3c d0 36 ff bc 20 e2 4f bb
       -0.033862166 0.027954835 -0.031154066 -0.0031720474
000330 14 d6 a8 3c 2c 01 1a 3d e4 b2 89 bc b0 df 2e bd
       0.020609893 0.037598774 -0.016808935 -0.042693794
000340 d0 ac 30 3d a0 d8 b3 bc b0 46 af bb d2 08 be bc
       0.043133557 -0.02195388 -0.005349003 -0.023197565
000350 d1 5b e8 3a 56 92 69 3c 02 d8 75 3d c8 78 ef 3c
       0.0017727559 0.014256081 0.060020454 0.029232398
000360 c8 77 31 3d 86 77 1d bd 90 6b 06 3c fd 1f ed bc
       0.043327123 -0.038444065 0.008204356 -0.028945917
000370 b8 87 6a 3c af ea ec 3c d7 ad 2d bd 60 a3 16 3b
       0.014314584 0.0289205 -0.042402115 0.0022985563
000380 10 52 a9 3c 34 e8 2b bd f0 8f a9 bc 36 ba 63 3d
       0.020669013 -0.041969493 -0.020698518 0.055597506
000390 74 78 8f bd 20 75 97 bb 8c b5 99 3c 49 bd a1 3c
       -0.070053965 -0.0046221167 0.018763326 0.019743579
0003a0 13 97 48 3b 43 13 9a bc cc 77 9e 3c a1 aa 4d 3c
       0.0030607625 -0.018808013 0.019344233 0.012552888
0003b0 8c 9d 74 3d f9 17 6c 3c af 6a 80 bd 38 a0 82 3c
       0.05972056 0.014410012 -0.06270348 0.015945539
0003c0 dc 78 3c 3c a1 0e 31 3d 70 23 ac 3b dc 20 09 bd
       0.0115034245 0.04322684 0.005253248 -0.033478603
0003d0 0a 15 2c 3d 9d 0d 3f 3d a1 d8 24 bd de c5 42 3d
       0.042012252 0.046643842 -0.040245656 0.047551982
0003e0 3a 9d 4f bd 90 15 0f bd 9d 45 80 3c 16 99 72 bd
       -0.050687052 -0.034932673 0.015658194 -0.059228025
0003f0 10 24 a1 3b 2c 45 91 bb ca 46 0d 3d 79 78 c6 3c
       0.004917629 -0.0044332948 0.034491338 0.024227368

main_model.hiddenlayer_1.bias f4 [256]
000000 b5 f9 90 bd 05 23 25 bd ca df 44 bd 28 08 00 3c
       -0.07078878 -0.0403166 -0.048064984 0.007814445
000010 87 49 00 3d d5 5c 0b 3d d8 56 3e 3d 72 83 1c bd
       0.03132012 0.03402408 0.04646954 -0.038211294
000020 12 c2 16 bd 7f 8a 24 3d a3 9d 61 3a 1f 15 03 bd
       -0.036806174 0.040171143 0.00086065585 -0.032002565
000030 06 64 c7 3d 5e 95 8a bd 1f dd a9 bb a8 47 4f bb
       0.09735875 -0.06766771 -0.0051838304 -0.0031628404
000040 b8 b3 ef 3c 37 b8 c9 ba f6 92 d1 3d d1 3e 96 bb
       0.029260501 -0.0015389983 0.10233109 -0.004585125
000050 46 85 5c ba 2b 93 51 bd 41 28 78 bd 67 77 84 bd
       -0.0008412193 -0.05116574 -0.060585264 -0.06468087
000060 08 b8 1b 3c 6c 48 8d bc 8c d9 cd 38 95 73 77 bc
       0.009504326 -0.017246448 9.815683e-05 -0.0151032405
000070 60 3f ba 3d c6 0d a7 3c d7 95 98 3d b8 67 94 bc
       0.09094119 0.02039231 0.07450455 -0.018115863
000080 5c a3 f0 bc 48 cd 32 bd 24 d2 89 3d 91 83 3b 3c
       -0.02937477 -0.043652803 0.06729534 0.011444942
000090 ee 48 fa 3b f6 e7 d4 3c 4e 09 2a 3d bf 88 df 3c
       0.0076380884 0.025989514 0.04151278 0.027286885
0000a0 4c c0 94 bb bb e4 e7 bc 78 9f 8d bd 5c 1f 1a bd
       -0.004539525 -0.02830731 -0.06915182 -0.037627563
0000b0 c4 1c 1d bd 16 69 8a bd 51 fd 18 3d 6b 5e f0 bc
       -0.03835751 -0.06758325 0.037350956 -0.029341897
0000c0 85 9f 66 3d b8 09 db bc 0a 93 a4 bb b7 f2 b3 bc
       0.056304473 -0.026738033 -0.0050224112 -0.021966321
0000d0 99 26 82 bd 80 6f 17 bd 20 55 fb bc bb af 42 3d
       -0.06355018 -0.03697157 -0.03068024 0.04753087
0000e0 4c 75 c3 3d 12 46 5c bd c7 b4 3f bc b4 40 05 3d
       0.09543857 -0.05377776 -0.0117008155 0.03253241
0000f0 3e 8d 55 bc be 6b 6c bd 31 b7 59 3c fd aa d5 3d
       -0.013034163 -0.05771994 0.013288305 0.10433004
000100 b7 c7 d0 3d 02 89 45 3d 77 52 18 3d 50 f8 0e bc
       0.101943426 0.048226364 0.03718802 -0.0087261945
000110 80 56 47 bd 3b 34 88 3d 08 18 ba 3b 59 39 03 bd
       -0.048666477 0.06650587 0.0056791343 -0.032037113
000120 65 11 2e 3d 99 21 67 3d 17 e6 76 bd 55 30 9e 3d
       0.042497057 0.056428526 -0.060278025 0.07724062
000130 9b 54 b0 3d 76 74 12 3d 3f 4a cb 3b 13 90 82 bd
       0.08609887 0.035755597 0.006203919 -0.06375136
000140 64 9e f0 bc 11 35 5a bd 62 3c 9c bc c4 25 03 bc
       -0.029372402 -0.053273264 -0.019071762 -0.0080046095
000150 c3 68 a9 3d 88 f0 45 3c f8 77 1f bd 1e aa 2a 3d
       0.08271935 0.012081273 -0.03893277 0.041666143
000160 8e ab 1f bd 75 a4 a8 3d bc 01 9d bc a8 1b ae bc
       -0.038981967 0.08234493 -0.019165866 -0.021253422
000170 14 83 d0 3c cc 72 f9 3c bb eb ee bc e1 ff 50 bb
       0.025453128 0.030450247 -0.02916514 -0.0031890797
000180 66 00 16 3d 55 05 69 3b e5 78 dd bc 1e 52 a7 bc
       0.036621474 0.0035556157 -0.027035186 -0.020424899
000190 1b 6e af 3c ec f2 cb bc 82 7e fc bc ec e8 b8 bd
       0.021414807 -0.024896108 -0.030822042 -0.09028801
0001a0 75 e7 ce 3d 4a 4b 82 bc 23 ad 17 bd f8 77 4d bd
       0.10102741 -0.015905041 -0.03703035 -0.05016324
0001b0 eb 77 00 3d 17 ac 91 3a 0e 15 c6 bc 40 8f 2e bd
       0.031364363 0.0011113909 -0.024179962 -0.042617083
0001c0 c0 a5 7f bd c1 a7 34 3d 5c 43 f0 bc 57 af 0d bd
       -0.06241393 0.044105295 -0.029328994 -0.034591045
0001d0 36 d2 b8 3c 45 81 8d 3d 21 e3 ad 3c 99 25 ac 3d
       0.022561174 0.06909422 0.021226468 0.08405609
0001e0 3a f3 0e 3d 53 fe 48 3d 47 ed 80 3c 8c 6d 1f bd
       0.034899928 0.049070667 0.015738143 -0.03892283
0001f0 41 1f c1 bc d8 dc 72 3d dd 07 07 bd f6 5a 5d 3d
       -0.023574473 0.059292644 -0.032966483 0.054041825
000200 c9 37 49 bd 18 02 d8 3d 0a 8e 14 3d 6a 5c e9 3d
       -0.049125466 0.10547274 0.03626827 0.1139458
000210 43 ce 84 bd 11 b1 9b 3d d1 15 4f 3d 49 b7 1f bd
       -0.06484654 0.07602132 0.050557915 -0.038993154
000220 9e 58 87 bc 9b 91 ed bc ba 5f 45 bd 02 4a 6a 3b
       -0.016521748 -0.029000094 -0.048186995 0.0035749678
000230 e7 b7 a5 3a 1d c2 13 bd 88 ab e6 3d 4b a8 43 bd
       0.0012643308 -0.036073793 0.11263186 -0.04776792
000240 e4 ae 8c bc 0b 87 64 bd 5e 3f 63 3d be 0d 8b bd
       -0.017173238 -0.05579285 0.055480354 -0.067897305
000250 25 70 4d bd 1b 39 be 3c 44 1d 75 bd 57 74 ae 3d
       -0.050155777 0.02322059 -0.059842363 0.08518284
000260 13 bc 24 3d e2 f5 d2 bc 06 53 de bc 46 6c 30 3d
       0.040218424 -0.025752012 -0.027139198 0.043072008
000270 eb 37 16 3d b6 a0 b7 3c 21 d1 2e bd db 31 40 3c
       0.03667442 0.0224155 -0.04267991 0.0117306365
000280 37 b6 a1 3d 26 34 97 b9 a5 c9 45 3a 67 82 c2 bd
       0.07896083 -0.00028839818 0.0007545001 -0.094975285
000290 48 86 68 bd e8 04 ad 3d 72 c3 b2 bd 69 88 17 3d
       -0.056768686 0.084482014 -0.087286845 0.036995325
0002a0 8b af d8 bc 7d 7e a1 3d 69 b9 52 3d e3 26 02 bd
       -0.026450893 0.07885454 0.051446352 -0.031775367
0002b0 9e 4c 3c bc ae 53 70 bd 4f a1 85 bc 9f 3f 92 3c
       -0.011492876 -0.058673553 -0.01631227 0.017852603
0002c0 7c d4 28 bd 1a 07 9a 3d 2f 96 86 bc 84 72 30 3d
       -0.041218266 0.07520886 -0.016429035 0.04307796
0002d0 24 78 1c 3c 50 e7 d4 3c 2d c9 2d 3d 10 3f c1 bb
       0.009550128 0.025989205 0.042428184 -0.00589741
0002e0 05 dd 2b 3d 41 17 91 bd be c7 6d bd b8 9e 94 3d
       0.041958828 -0.070845135 -0.058051817 0.07256836
0002f0 41 43 20 3d e2 e6 cc 3d 9c 96 97 3d 30 6b 72 3d
       0.03912664 0.10004975 0.07401773 0.059184253
000300 b2 e8 50 3d fb 73 80 3d 25 24 09 3d 1e aa 45 bd
       0.051003166 0.062721215 0.033481736 -0.04825794
000310 14 34 24 3d fd ec 20 3d af 1d a8 3a a8 29 7a bc
       0.040088728 0.03928851 0.0012826229 -0.015268721
000320 ec b3 0a 3d 3f c1 23 bc a1 cb 2a bd 2c 90 db 3d
       0.033862993 -0.009994804 -0.041698102 0.10720858
000330 8d 44 b7 3d 85 40 a2 bd 1e 7b 13 bd 1a 05 3d 3d
       0.08948622 -0.079224624 -0.036006086 0.046147443
000340 fc 24 7b 3d f2 80 c5 3d da d9 78 bd 81 e4 ce 3b
       0.061314568 0.09643735 -0.060754634 0.006313861
000350 b3 9a d0 bc 60 de 91 3c e5 49 2f bd 6e be 03 bc
       -0.025464391 0.017806232 -0.04279508 -0.008041007
000360 71 8a a5 bc 70 3d 81 bd 81 5d 8c 3d 11 77 a0 3c
       -0.020207616 -0.063105464 0.06853772 0.019588025
000370 c0 d3 01 3d 5e 40 7d bd 52 c0 6d bb fd 72 3b 3d
       0.03169608 -0.061828963 -0.0036277962 0.04576396
000380 c7 ee b5 3b b6 6a 2f bd 06 29 12 3d f1 3a 66 3d
       0.005552146 -0.042826377 0.035683654 0.056208555
000390 a5 9c 59 bc 12 b6 2f bd 80 2d 7b bc 97 ad a5 3c
       -0.013281976 -0.042898245 -0.015330672 0.020224376
0003a0 d7 60 b9 3c 0e ec be 3c fc 38 07 bb 3f 68 45 bd
       0.022629185 0.023305919 -0.002063333 -0.04819512
0003b0 ed 6b 57 bd a2 2d 2c 3d 58 cf be 3d 22 e1 8c bd
       -0.05259316 0.042035706 0.093168914 -0.06878878
0003c0 55 88 99 3d be 6e c7 bc ea e4 4a bd 1c 63 92 bd
       0.074967064 -0.024344798 -0.049534716 -0.0714781
0003d0 6e 65 1c 3b 1f d5 0c 3d d2 c7 cf bc ae 69 48 bc
       0.0023864168 0.034382936 -0.025363836 -0.012232227
0003e0 a5 6b 11 3d 49 11 31 bd f3 da 8b bd b4 34 0a bd
       0.03550305 -0.043229375 -0.068288706 -0.033741668
0003f0 e7 3a ec 37 19 65 20 bd 70 e9 fb 3c 99 1a 4f 3d
       2.816082e-05 -0.039158914 0.03075096 0.050562475

main_model.hiddenlayer_2.weight f4 [256, 256]
000000 86 6d 30 3d 54 76 16 3d 54 82 1d 3d d8 fb 9d bc
       0.0430732 0.03673394 0.03845437 -0.019285128
000010 60 c2 ac bb 04 33 cc 3c 22 f1 b0 bb bf dd 52 3c
       -0.0052721947 0.02492667 -0.005399839 0.012870251
000020 f6 51 c2 bc f3 52 8a bd 54 96 00 bc 08 b9 36 3d
       -0.023720723 -0.067541026 -0.007848341 0.044610053
000030 6d 3c 76 bc 67 0c 2e bc 66 e7 68 bd 47 3a b3 3b
       -0.015029055 -0.010623074 -0.056861304 0.0054695937
000040 60 0f 07 bc f3 e9 34 3b 58 aa d9 bc 90 8f 40 3c
       -0.008243412 0.0027605265 -0.026570484 0.011752978
000050 f4 93 6d bc 60 69 cd 3b 6e 57 4a bd 16 6b 65 bd
       -0.014500607 0.006268665 -0.049399786 -0.05601033
000060 8b c4 5d bd b0 05 4e 3d 89 42 6b bd f7 fd 88 bd
       -0.054142516 0.050298393 -0.0574365 -0.06689065
000070 0b 28 42 3d 4c be bb 3c 60 3e f8 3b fc b4 49 3d
       0.04740147 0.022917889 0.007575795 0.049244866
000080 6c 99 3c 3d 5c 15 4f bd 50 b5 42 bd 48 9b f2 3c
       0.046044752 -0.05055748 -0.047536194 0.02961506
000090 61 21 62 bc f8 af 75 bd de 40 84 bd 07 3e 60 3d
       -0.013801903 -0.05998227 -0.06457685 0.054746654
0000a0 bb 92 bf 3c 22 58 a3 3c 5c bd 82 bc d9 2a 33 bd
       0.023385396 0.019939486 -0.015959434 -0.043742035
0000b0 68 10 ec 3c f4 88 aa 3c 6f d3 af 3b ca e3 2a 3d
       0.028816417 0.020817257 0.005365781 0.041721143
0000c0 1f 40 fa 3c 24 de 24 3d 74 2d 3d bd e4 28 32 3d
       0.030548153 0.040250912 -0.046185926 0.043496028
0000d0 4c 73 2d 3d 38 3b 21 bc 39 10 fb bc 1c af 3c bc
       0.042346284 -0.009840779 -0.030647384 -0.011516359
0000e0 a9 89 c2 bc 1e fa 1a 3d 1a 52 61 3d 39 fa 44 3c
       -0.023747282 0.037836187 0.05500994 0.012022548
0000f0 2a 73 22 3d ba 95 79 3c ea 9a 02 bc 7e 43 21 bd
       0.03966061 0.0152334515 -0.007971505 -0.039371006
000100 f1 9c b9 bb 34 7f ac bc 35 1d ad bb 04 03 b8 3c
       -0.005664461 -0.021056749 -0.0052830228 0.022462375
000110 64 d0 20 bd 60 95 77 3c bc 31 2b bd 9a 4d e4 3c
       -0.039261237 0.015111297 -0.041795477 0.027869035
000120 4b 30 4d bd 68 fc 9e bc 46 b7 65 3d e6 51 d9 3c
       -0.050094884 -0.019407466 0.056082986 0.02652831
000130 e3 d4 80 bd 3b d6 2d bd 82 ce 5d bd bc 3c 4a 3d
       -0.06290605 -0.042440634 -0.05415202 0.049374327
000140 90 cd 9d 3b 88 88 eb 3c 50 a6 8f bd ea f9 7f bd
       0.0048157647 0.028751627 -0.070141435 -0.062494196
000150 96 85 3b 3d 38 d9 25 bd 7c 54 c2 3c 10 89 6c 3c
       0.045781694 -0.04049036 0.023721926 0.014436975
000160 b0 7f 3f 3d e9 cd c0 3b 75 a2 dc bc a0 24 55 3c
       0.04675263 0.0058839214 -0.026932934 0.01300922
000170 38 60 76 bd ba e9 15 3d 95 39 be 3c ca 79 fb 3c
       -0.060150355 0.036599852 0.023220817 0.030697722
000180 c8 08 1b bd dc 33 c9 3c df 83 a0 bc f8 cb 1d 3c
       -0.03785017 0.024560861 -0.019594131 0.0096311495
000190 49 22 21 bd ea d9 7a bd 58 17 52 3d 10 85 28 bd
       -0.039339337 -0.061242975 0.051291794 -0.041142523
0001a0 9b 1f 37 3d e8 92 96 3c a0 89 19 3d e7 3e 59 3d
       0.044707876 0.018380597 0.037484765 0.053038504
0001b0 bf 7f 36 bd 09 cb 83 bd 22 65 36 bd f8 be c0 3b
       -0.044555422 -0.0643521 -0.04453004 0.0058821402
0001c0 ba b9 37 3d 3a 9e 2b 3d f0 d4 89 3c a8 1a 4a 3d
       0.044854857 0.041898943 0.01682517 0.049341828
0001d0 d8 98 0d 3c ac e6 e9 3c 38 64 a7 bc 35 62 8e bd
       0.008642398 0.028552376 -0.02043353 -0.06952325
0001e0 94 02 3a bd 79 68 95 bb 50 43 04 bc 40 d6 24 bd
       -0.045412615 -0.0045595733 -0.008072689 -0.040243387
0001f0 68 e9 72 3c 54 e4 fd bc b2 a4 13 3d 9e 24 61 3c
       0.014826156 -0.030992664 0.036045738 0.01374164
000200 98 04 4f 3c 16 f6 2b 3c 00 0f 84 bd 7a da 70 bd
       0.012635373 0.010495683 -0.064481735 -0.058802105
000210 55 20 d1 ba 35 78 11 3d d9 e6 10 bd 32 a1 2a ba
       -0.001595507 0.03551503 -0.035376403 -0.00065090053
000220 dc 0c 58 bc 30 6b 2c 3c 48 fe 9e bc 00 3c 81 38
       -0.01318666 0.010523602 -0.01940836 6.162375e-05
000230 58 c1 ad 3c 59 b7 e2 3c 80 76 5d bd 18 ca cf bb
       0.021210358 0.027675318 -0.05406809 -0.00634123
000240 02 28 6c bd 9f 78 82 3b e6 d5 16 3d 1c 0c 9b 3c
       -0.057655342 0.0039816643 0.036825083 0.018926673
000250 b4 84 af bc bc 4d 7d bd aa 14 52 bd b7 1a 5e bd
       -0.021425582 -0.06184171 -0.051289238 -0.054224696
000260 75 75 48 bd f6 7a 0d 3d 98 5f ba bc 30 14 b2 bc
       -0.04894014 0.034541093 -0.02275066 -0.021738142
000270 f4 9d d1 3c 13 ac 43 bd bb d0 b7 3b e0 75 e3 3c
       0.025588013 -0.047771525 0.0056095994 0.027766168
000280 91 56 73 3c 14 3c 61 3b 38 3b 1a 3d 40 b2 86 bb
       0.014852182 0.0034368085 0.03765413 -0.0041106045
000290 fc b7 38 3d b0 df 9b bc c2 66 13 bd 4b 90 ce bb
       0.045097336 -0.019027561 -0.03598667 -0.006303822
0002a0 27 42 01 bd 29 10 ef 3b 77 9a d7 3c c9 b2 ef bc
       -0.03155723 0.0072956276 0.026318772 -0.029260056
0002b0 cc 5d 72 bd 8b 60 a6 3c 70 27 3e bd 4c f1 8a bd
       -0.059171483 0.020309707 -0.04642433 -0.06784305
0002c0 30 99 2f bd a8 17 c5 bc 91 1a 6b bd 6f 59 ea 3c
       -0.0428707 -0.024059132 -0.057398383 0.028607098
0002d0 f4 c6 d9 3c c4 32 d9 3c 3a 8a 65 3d 41 88 c5 3c
       0.026584126 0.026513465 0.056040026 0.024112822
0002e0 e0 ea 71 bd 84 50 52 3d 24 13 58 3d 8c a6 83 3c
       -0.059061885 0.051346317 0.05275263 0.016070627
0002f0 4b ff 37 3c bc 57 db bb 04 5c 56 bd 5a 38 3c bd
       0.0112303 -0.0066938084 -0.052333847 -0.04595218
000300 a0 ad 17 3c 6a c9 bd 3b 8f cc 24 3d 10 dc ad 3c
       0.009257704 0.0057918327 0.040234145 0.021223098
000310 02 1a 29 bd a8 8f 3c 3c 20 8b 7f bd 3a 85 19 bd
       -0.04128457 0.01150886 -0.06238854 -0.03748057
000320 e3 de f3 ba 80 50 59 ba 3e e9 68 bd 01 30 45 3d
       -0.0018605854 -0.00082898885 -0.056863062 0.048141483
000330 df b7 5d bc 9a ce 55 3d de 92 3d 3d 43 88 dc 3c
       -0.013532608 0.052198984 0.04628264 0.026920443
000340 e1 34 5e bd ee cf 6f bc 98 36 0a 3d 79 bb 35 3b
       -0.054249648 -0.014636977 0.03374347 0.002773015
000350 cc 0d 02 bd 54 93 7f bd 45 1d ba bc a8 7c 47 bd
       -0.03175144 -0.062396362 -0.022719035 -0.048702866
000360 68 39 0e 3d 50 b8 4e 3d 58 bd 51 bd 00 af b0 bc
       0.034722716 0.050468743 -0.051205963 -0.021567822
000370 fc 94 e9 bc 4a c2 75 3d b9 8b 8b bc b8 09 31 bd
       -0.028513424 0.05999974 -0.017034398 -0.04322216
000380 21 b7 76 3c 84 a5 a1 bc 6f 5d 2f bd 16 06 3c 3c
       0.01505831 -0.019732244 -0.042813715 0.01147606
000390 60 16 1f 3d 02 62 f6 3c 60 37 13 3d 58 dd b6 bc
       0.038839698 0.03007603 0.03594148 -0.022322342
0003a0 a9 0f 04 bb 67 26 03 bd bd 58 8a bc 98 39 ed 3c
       -0.0020150936 -0.032019045 -0.016888017 0.028958127
0003b0 8d 44 b5 bc e4 e0 0f 3c e0 d1 08 3d 5a bc 51 3d
       -0.022127414 0.008781645 0.033403277 0.051205017
0003c0 62 94 14 bd 59 98 08 bc d4 60 32 bd 30 ec e3 3c
       -0.03627432 -0.008337104 -0.043549374 0.027822584
0003d0 66 91 1c 3d f0 ad 2f bb d6 ff 46 3d 26 ce 0a 3d
       0.0382246 -0.0026806556 0.048583828 0.033888005
0003e0 dd 52 7e bd b7 57 32 3b a0 bd 39 3c e0 3b 4a 3c
       -0.062090743 0.0027212927 0.011336714 0.012343377
0003f0 6f 5c 03 3d c4 7b ca bb 12 0c 57 bd 3a 99 44 bd
       0.032070573 -0.006179305 -0.052501746 -0.04799769
