DQN/DQN_complete/save/main_model_000024.pth (torch_old, 809026 bytes, 10 tensors)

main_model.InputLayer.weight f4 [256, 7]
000000 76 4a b8 3d fc 48 d7 bd ce aa 7a bc 75 41 87 3d
       0.08998577 -0.105119675 -0.015299512 0.06604282
000010 1b c6 7d 3e 1f 38 20 bf 50 69 99 bd a9 92 61 3e
       0.24782602 -0.62585634 -0.0749079 0.22028603
000020 92 1f c0 be 2e 00 89 be 38 bf 25 3d e3 00 8c 3d
       -0.37524086 -0.2675795 0.040465564 0.06836107
000030 41 8a aa bf 06 f6 aa be 56 07 5e be f2 ae 94 be
       -1.3323442 -0.33390826 -0.21682486 -0.29039723
000040 66 dd 1e bc 8f b3 4e be fb 91 8d 3e c2 eb 53 bd
       -0.00969634 -0.20185684 0.27650437 -0.051738508
000050 07 ae 80 3e df c8 40 3e d3 81 fa 3d e1 79 d0 bd
       0.25132772 0.18826626 0.12231793 -0.101794966
000060 23 7c a0 bd 24 52 4c 3e 5e 2b 9e be 26 31 58 be
       -0.07836177 0.19953209 -0.30892462 -0.21112499
000070 c7 1c 99 be 29 a9 5e 3e 0b 05 98 be 3e c7 46 3e
       -0.29904768 0.21744217 -0.29691347 0.19411942
000080 0a 99 46 bd bc c2 63 be 12 1c 1e 3e 0d 24 0d 3c
       -0.048485793 -0.22242254 0.15440395 0.008614552
000090 9c 5c 20 3e 74 fe a2 3d 60 be 1f bf c8 87 dd be
       0.15660328 0.07958689 -0.62399864 -0.43267655
0000a0 2c 83 28 bf e2 f4 79 3e dc bc f5 3b 64 94 e9 bd
       -0.6582515 0.24409822 0.0074993204 -0.114052564
0000b0 eb 2a fc bd 93 ab eb 3d 14 e2 62 3d 82 f6 df be
       -0.123128735 0.115073346 0.055391386 -0.43742758
0000c0 79 ae b9 3e 81 03 45 3e 39 e6 14 be 7f 37 aa 3e
       0.36265925 0.19239618 -0.14540948 0.33245465
0000d0 90 71 8e 3e f2 d8 96 be 63 01 18 3d 40 57 5c bc
       0.27821016 -0.2946239 0.037110697 -0.013448536
0000e0 13 ec 8c be 15 40 93 be c6 13 2b 3e ed d2 94 3e
       -0.2752386 -0.28759828 0.16706762 0.29067174
0000f0 1d 40 e6 bd f1 ee d6 3e 7b 4a 2c be 83 52 ef 3d
       -0.112426974 0.41979173 -0.16825287 0.1168566
000100 92 2e 8a 3e 81 7c ac bc 31 ad 8b 3e fb 0f 41 3e
       0.26988655 -0.021055462 0.27280572 0.18853752
000110 93 45 24 bd 47 fe a1 3e 15 1f a1 3e 0c 6d b1 3e
       -0.040105414 0.3163931 0.31469026 0.3465351
000120 71 bf 9c bc ba 1f bd 3d 6d 1e 1f be 08 fb e5 3e
       -0.019134255 0.09234567 -0.1553895 0.44918084
000130 01 7d 84 3e 81 39 b6 be b4 05 d9 3d 80 04 dc bd
       0.2587662 -0.35590747 0.10596791 -0.10743046
000140 7a d6 b2 be 76 6d 42 3d 9f 10 8a 3e 2d b8 a0 3e
       -0.34929258 0.04746767 0.26965806 0.31390515
000150 d7 01 e0 be 00 fa fb be 70 05 a1 bd aa 2f 72 3e
       -0.43751404 -0.49214172 -0.07862365 0.23650995
000160 18 da 81 be 53 1b fe 3c 98 80 68 be cb eb ff 3d
       -0.25361705 0.031018889 -0.22705305 0.12496146
000170 98 a6 a2 be ca fe a1 be a3 27 0a 3d 53 a7 0b be
       -0.31767726 -0.316397 0.033729207 -0.13638048
000180 6d 57 80 3e e8 c7 68 3d 5a a9 36 be 34 35 d1 3d
       0.250667 0.05683127 -0.1783804 0.10215226
000190 e0 76 b1 be 00 1c 35 3c f8 42 9e be de 6e 08 3e
       -0.34661007 0.011054039 -0.30910468 0.13323542
0001a0 b0 6c 84 bc 1a 09 8d be ba bb ee be 1f 46 18 3e
       -0.016165107 -0.27546006 -0.466276 0.14870499
0001b0 c0 ec 4c 3b e8 2e 98 3b d4 d1 20 be 9a 3c ae be
       0.0031269044 0.0046442635 -0.15705043 -0.3403061
0001c0 08 ca ca bd 10 f7 88 bd e5 76 80 be fc 5f ce bd
       -0.09901816 -0.066877484 -0.2509071 -0.10076901
0001d0 58 a1 0a 3d 0c 11 e4 3d 58 47 8d 3d 14 a3 00 3e
       0.033845276 0.11136064 0.06898373 0.1256221
0001e0 a3 ad 1d be 6c ff 60 bd 3a ee 4f 3e 5c 59 3b 3e
       -0.15398268 -0.05493109 0.2030572 0.18295807
0001f0 72 da ee bd f8 db 13 3d f5 f5 88 3e de aa 47 be
       -0.11662759 0.03609845 0.2675015 -0.19498774
000200 d8 dc 6f 3e 39 9d e3 3d 31 be 63 be 70 c3 1e bf
       0.23424089 0.11113972 -0.22240521 -0.62016964
000210 70 95 cf 3c 3b 43 4b 3e 84 51 a9 3e 1b 80 64 3e
       0.025339812 0.19849865 0.33070004 0.22314493
000220 f1 81 8d 3d e5 ca 2f be 91 61 b3 3e e2 f1 5f 3e
       0.0690955 -0.17167242 0.35035375 0.21869615
000230 26 1d 0e be 5e 47 6b be 87 c3 2f be f3 7c 32 be
       -0.13878307 -0.22976443 -0.17164432 -0.17430477
000240 55 8a 6e 3d 42 36 93 be 94 f1 9c 3d 2b 39 49 be
       0.058237392 -0.28752333 0.07663265 -0.19650714
000250 0c 60 91 be 00 f7 17 3d 08 90 76 be 00 aa c8 3b
       -0.2839359 0.037100792 -0.24078381 0.006123781
000260 b8 16 be bd 53 63 a9 3e cc d4 1b be 42 a2 9b 3e
       -0.09281677 0.3308359 -0.15217894 0.3039723
000270 bc 1f e7 bd 7f 29 09 3e f5 38 95 be 4d e8 b5 bd
       -0.1128535 0.13394736 -0.29145017 -0.088821985
000280 1b 10 8b 3e 71 b2 7f 3e 4b 44 2b 3e d6 9f 94 3e
       0.27160725 0.24970414 0.1672527 0.29028195
000290 20 40 46 bd f8 c1 87 bd ef cf e4 3e 52 ee 19 3e
       -0.048400998 -0.066287935 0.4468989 0.15032318
0002a0 76 6d 71 3e 5d b6 be be 73 13 47 be 04 3f c9 be
       0.23576912 -0.37248507 -0.19441013 -0.3930589
0002b0 b2 0f 8e 3d 4b 28 92 3e 91 02 ab 3e 91 ef e1 bd
       0.069365874 0.28546366 0.33400396 -0.11032022
0002c0 16 eb 8a bd cd 83 ab bc e2 4a 5d be c0 f8 4f 3e
       -0.0678312 -0.020936871 -0.21610597 0.20309734
0002d0 7d d5 fd be 74 c1 fd 3d fa 8d 59 be d7 e1 5c 3d
       -0.4957694 0.12390414 -0.21245566 0.053926315
0002e0 5e 99 83 3e be 36 bc be d7 17 78 be 49 99 6c 3f
       0.25702947 -0.36760515 -0.24227844 0.92421395
0002f0 2b 40 b8 3e 9e f6 86 3d bf 3f a9 3d 4b 00 96 bd
       0.35986456 0.06590007 0.08264112 -0.07324275
000300 3d 85 ae 3d df 76 2a be 7b db ff bd 44 be e9 bd
       0.08521507 -0.16646908 -0.124930345 -0.114132434
000310 40 31 5b bd a3 73 a0 bd 82 b4 57 3e 0a 84 94 be
       -0.053513765 -0.07834556 0.21064952 -0.29006988
000320 a8 7e 46 be 8c 1c 18 3f 78 64 78 3d c0 5f 9c 3e
       -0.19384253 0.5941856 0.06064269 0.305418
000330 69 ff 4c be cb 2f e6 3b d5 62 9f 3e d2 2a 15 3e
       -0.20019306 0.0070247403 0.3113009 0.14567116
000340 7c 14 40 be 5f 20 1a be e1 b2 47 bd f5 2f 4f bd
       -0.18757814 -0.15051411 -0.048754577 -0.050582845
000350 b4 47 c0 3d d5 90 2b 3e 38 13 36 3e b5 26 eb 3e
       0.09388676 0.16754468 0.17780769 0.4592797
000360 a4 de 9f be 4d 88 94 3e 04 b9 fa bc 92 a2 80 be
       -0.3122455 0.2901024 -0.0306058 -0.2512403
000370 b1 e0 8a be 97 18 3d 3c fa fc 52 3e 9d 1c ba be
       -0.2712455 0.011541507 0.20604315 -0.36349955
000380 e0 a2 09 be f2 69 6f 3e 99 84 98 3e bc b8 86 be
       -0.13441038 0.23380259 0.29788664 -0.26312816
000390 6d d2 f9 bd c4 d9 08 bd 1e b9 61 3e 21 ef a5 bd
       -0.12198339 -0.033410802 0.22043273 -0.08102251
0003a0 e1 5b 68 3e 20 00 b1 be 96 cf 2a 3e 3b 9f 16 3e
       0.22691299 -0.34570408 0.1668075 0.14709179
0003b0 62 8b 86 be 10 06 9f 3c 35 2b 87 3d 22 41 59 be
       -0.26278216 0.01941207 0.06600038 -0.21216252
0003c0 ba 89 a8 be 00 4b 19 be 87 e6 02 be 46 cd 71 3d
       -0.32917577 -0.14970016 -0.12783252 0.059033655
0003d0 f0 d4 df bc 8f 21 c5 be 9b 84 e7 be 31 a5 98 3e
       -0.027323216 -0.38502166 -0.45218357 0.2981353
0003e0 56 56 ac bd fb 6a e5 bd 45 c7 91 bf 05 de 53 be
       -0.08414905 -0.112020455 -1.1388937 -0.20690162
0003f0 ce 8c c3 bd 0f f0 a9 3e 6f cf 64 3e 0d ba a6 3e
       -0.09548341 0.33190963 0.22344755 0.3256382

main_model.InputLayer.bias f4 [256]
000000 71 ba b7 be fd 43 74 be 34 8a 3f 3e d0 66 a4 be
       -0.3588443 -0.2385406 0.18705064 -0.3210969
000010 ed 80 6e 3d 4c 80 a1 3e 9e 2f 03 3e 6f bf 9b be
       0.058228422 0.31543195 0.12811133 -0.3041949
000020 01 c7 83 3e 67 89 bc bd 69 09 d3 bd c2 47 b8 3e
       0.25737765 -0.09205895 -0.10304529 0.35992247
000030 76 31 7d be 78 b3 c6 3d e8 91 8a be b0 fd 8b 3e
       -0.24725899 0.097022 -0.27064443 0.27341986
000040 f5 7a 43 3e 4f 6b 14 be 05 d6 2c be 7a 87 14 3d
       0.19089873 -0.1449406 -0.16878517 0.036262013
000050 5c 1b 25 3e a6 6b e0 3e 78 dd 6b be 57 28 cb bc
       0.16123718 0.4383213 -0.23033702 -0.024799509
000060 d5 e2 85 3e 6f 16 06 3b 45 f1 10 3e 90 47 9d bd
       0.26149622 0.0020460149 0.14154537 -0.07679665
000070 87 ac 99 3e 4d 74 10 3e f8 17 b3 3d 70 c5 78 bc
       0.3001444 0.14106865 0.08744806 -0.0151837915
000080 e6 75 28 bb 49 74 e0 3d 8f 80 81 3e 82 07 56 be
       -0.0025705039 0.1095968 0.25293395 -0.20901302
000090 a9 ab 8e be 6e 9d 7d 3d 53 8a ba 3d 13 de 6c bd
       -0.2786534 0.061917715 0.091084145 -0.057828974
0000a0 d4 ff 1c bb 50 65 d2 bd 6a 47 90 bd b0 78 78 bc
       -0.0023956196 -0.1027323 -0.07044871 -0.015165493
0000b0 7e f0 bb be b6 09 7d be 16 3b d3 be 10 06 99 bd
       -0.36706918 -0.24710736 -0.41256016 -0.074718595
0000c0 59 ca 83 3c 25 ec 7c 3e bc 78 a1 bc 35 07 63 3d
       0.016087698 0.24699457 -0.019710891 0.055426795
0000d0 e4 fd cf bd 13 54 24 3e dd c9 90 3e de 2c 0a be
       -0.10155848 0.16047697 0.2827901 -0.13493678
0000e0 98 c5 c7 bd a2 7d 8d be b9 a5 b0 3d 08 12 27 3e
       -0.09754485 -0.27634913 0.08625359 0.16315472
0000f0 b0 2d b9 3e f0 85 14 3e cf b9 94 3d 22 0d b1 3d
       0.3616767 0.14504218 0.07262003 0.08645083
000100 47 7b 8b 3e eb e5 a8 be c9 24 9e bc 80 df 62 3e
       0.2724249 -0.32987913 -0.01930465 0.22155571
000110 cc 2d 95 be d2 8e 65 3e c7 f8 d4 3e 55 9b 92 bd
       -0.29136503 0.22417763 0.41596052 -0.071585335
000120 b0 6f 98 be b7 0e ae be 40 df e3 bd e9 84 93 be
       -0.2977271 -0.33995602 -0.11126566 -0.2881234
000130 3c 82 87 3e ed c5 73 bd 76 7f 0a 3e 3a bb 2f 3d
       0.26466548 -0.05951493 0.13525185 0.042903163
000140 e8 5d 0f 3c 74 71 a5 3e a0 a3 58 3c e4 23 c2 bd
       0.008750416 0.3231312 0.013222605 -0.09479502
000150 64 88 34 3e 29 23 ca be 0a 4f 8b 3e c4 52 2f be
       0.17630154 -0.3947995 0.2720874 -0.17121416
000160 1a 92 32 bd f9 02 f6 be f4 c2 b4 3d 9e 3c 22 be
       -0.043596365 -0.48049143 0.08826247 -0.15843436
000170 a4 07 c4 bb 92 f9 87 be 89 01 84 be 5f e2 9a be
       -0.005982356 -0.26557595 -0.2578242 -0.30250832
000180 79 c2 83 be 78 1d 0c bd fd b9 a8 be 80 9c 7f 3e
       -0.25734308 -0.03420779 -0.32954398 0.24962044
000190 2a 00 da be 7a d2 8e 3e 4a da 1f be e4 f1 bd 3e
       -0.4257825 0.27894956 -0.15610614 0.3709861
0001a0 c3 2b e5 3d e0 5c 68 3e 61 18 bb 3d fc b9 46 3e
       0.111899875 0.22691679 0.09135509 0.19406885
0001b0 32 fb 56 bd a1 b6 87 3e 8f 16 86 3e c2 7f a0 be
       -0.052485652 0.26506522 0.26189086 -0.3134747
0001c0 24 61 46 be 28 fd ee be 74 67 03 3d db 02 d4 be
       -0.19372994 -0.46677518 0.032081082 -0.4140843
0001d0 67 54 70 be bd 52 54 be 57 2d cf be 49 be 5c be
       -0.23469697 -0.20734687 -0.4046428 -0.21556963
0001e0 96 23 05 be 02 44 c9 be 6f 11 e1 bd 87 8f 2d 3e
       -0.13001856 -0.39309698 -0.10989653 0.16949283
0001f0 42 ea 51 bd b6 3e 7b 3d bd c9 1b 3e c3 7e b5 3d
       -0.051248796 0.061339103 0.15213676 0.088620685
000200 c8 bd 4c bd fa 5f c8 3e a0 b4 cc 3e da a9 11 3e
       -0.049985677 0.39135724 0.39981556 0.1422495
000210 14 d4 3d bc e1 db 76 be 76 48 e1 bd e7 59 d7 bd
       -0.011586208 -0.24107315 -0.11000149 -0.105151944
000220 35 7e a0 be ad 0f ac 3e e8 a8 3b bc fa 69 cf 3e
       -0.31346288 0.3360571 -0.011453845 0.4051054
000230 94 cf 8a be b7 90 77 3d 2b e1 67 3e f4 c5 53 3e
       -0.27111495 0.060440745 0.22644489 0.20680982
000240 f9 0e 3f bd 39 2c 67 be 19 6d b4 3e f5 df c7 3e
       -0.04664514 -0.22575463 0.35239485 0.39038053
000250 b0 6a f2 3d 1a 24 e0 bd 5a 9e 9f be 49 a2 8a be
       0.11836755 -0.10944386 -0.311755 -0.2707694
000260 aa d2 c7 be fd 5b a8 3e ba b7 29 be 98 c7 82 3d
       -0.3902791 0.3288268 -0.16573992 0.06385726
000270 ea 4f 96 3e b8 d8 59 be e9 fd 12 be c8 dd 2a 3e
       0.29357845 -0.21274078 -0.14354672 0.16686165
000280 0e 09 a3 3e 34 26 9a be b8 93 f6 3d d6 cf 9f 3e
       0.31842846 -0.30107272 0.12039894 0.31213254
000290 ab 48 05 be 40 e7 b8 3d 71 6b 58 be aa a3 32 be
       -0.13016002 0.090284824 -0.21134736 -0.17445245
0002a0 06 cc 86 be 4f 52 a8 be 31 b9 db 3e 9d 63 bb be
       -0.26327533 -0.32875296 0.42914727 -0.36599436
0002b0 b9 16 83 3e 10 46 42 3d 87 04 a4 be 7c f0 54 3e
       0.25603274 0.047430098 -0.32034704 0.20794863
0002c0 4c fa 2f be 06 f2 44 bb e5 22 ad bd 0d a0 d8 3e
       -0.17185324 -0.0030051484 -0.08453921 0.4230961
0002d0 2d b9 27 bd b0 4c 06 be 18 9f 9f 3e ec b3 7f 3e
       -0.04094808 -0.13115191 0.31176066 0.24970978
0002e0 ee f3 aa be eb d9 c7 3e ed 25 81 3e 44 64 b5 be
       -0.3338923 0.39033446 0.25224248 -0.3542806
0002f0 12 8b c7 3e c4 e9 d4 bd 9e 00 40 3d 13 7f 9a be
       0.3897329 -0.1039615 0.04687559 -0.30175075
000300 d3 c7 46 3d ed 13 d5 3e 80 b3 51 3e e3 02 8b 3e
       0.04853041 0.41616765 0.2047863 0.2715064
000310 72 69 9f 3e 23 25 2d 3e ea 5b 93 be b3 d3 34 3e
       0.31135136 0.16908698 -0.28781062 0.17658882
000320 20 d5 1d bd ac c2 36 3e d9 ad 29 3e fd 7d 55 3e
       -0.03853333 0.17847699 0.16570224 0.20848842
000330 02 05 89 be 85 56 bf 3d 05 b2 af be d2 42 3a be
       -0.26761633 0.09342674 -0.34315506 -0.18189552
000340 32 97 66 bc 89 87 b6 be 63 b1 f7 bb 43 fd 33 3d
       -0.014074134 -0.3565028 -0.007558988 0.0439427
000350 0f 7a b4 be fa 6a 84 be b7 c4 bd be d9 5a de be
       -0.35249373 -0.25862867 -0.37064144 -0.43428686
000360 ea 2f 27 be e6 f5 37 3e 77 23 f2 3c 1c 2f 94 be
       -0.16326872 0.17964897 0.029557927 -0.28942192
000370 12 3b e1 3d df 03 54 be 27 3d 29 3e 83 61 9e 3e
       0.10997595 -0.20704602 0.16527234 0.3093377
000380 2f 4d 86 3e 1f b3 05 3d e7 ec 90 be 14 0f 1a be
       0.2623076 0.032641526 -0.28305742 -0.15044814
000390 a6 07 b1 3e 22 10 c4 bd 55 7a ae bc 78 bf 9e be
       0.34576148 -0.095733896 -0.021298567 -0.31005454
0003a0 a7 8c 63 3e 07 f1 29 bc 52 ac 7e 3e 5a 93 6d 3e
       0.22221623 -0.010372407 0.24870422 0.23200741
0003b0 d2 87 b8 be 4b e2 17 bd fa e9 2d bd dc 7f b5 bd
       -0.36041123 -0.037081044 -0.042459466 -0.08862278
0003c0 e9 22 fc bd ba f4 6f be 63 da f1 bd b9 49 8d 3e
       -0.12311346 -0.234332 -0.11809232 0.27595308
0003d0 c6 8f 10 3e 3e f4 dd bd c9 c6 df 3d 63 d0 f9 3d
       0.14117345 -0.10837601 0.10926587 0.1219795
0003e0 26 35 70 3c 66 f6 ab 3e 3c bb fd bd 45 f0 98 be
       0.014661109 0.33586425 -0.12389228 -0.2987081
0003f0 a4 54 10 3e 85 00 07 bf 5e e7 ab be f7 e1 a3 3e
       0.14094788 -0.5273517 -0.33574957 0.32008335

main_model.hiddenlayer_0.weight f4 [256, 256]
000000 70 48 a0 bb 3e 27 7c bd f4 90 48 bd 48 b4 53 bc
       -0.0048914477 -0.06156086 -0.048966363 -0.0129214
000010 ee 35 1a 3d a8 41 73 bd 28 96 07 3d 1e c8 2e 3d
       0.037649088 -0.059388787 0.033102185 0.042671315
000020 38 6b 2d bd 80 77 f6 bc 16 87 23 bd 50 4d 02 3d
       -0.04233858 -0.030086279 -0.03992375 0.031812012
000030 f0 cd d2 3b d2 b5 76 bd 02 19 66 3d 20 b2 bc bb
       0.006433241 -0.06023199 0.056176193 -0.005758539
000040 b8 9a 4c 3d 80 05 92 3a f8 ec 63 3d 8a f0 72 bd
       0.04995224 0.0011140555 0.055645913 -0.059311427
000050 64 03 66 3d 70 d8 77 3c 80 1f c1 3b 12 1a 55 bd
       0.056155577 0.015127286 0.0058936477 -0.052026816
000060 c6 df 29 3d 2c 29 96 bc f0 54 0a 3d 56 fb 27 bd
       0.041473173 -0.01833018 0.03377241 -0.041011177
000070 7e 87 24 bd 14 ac 99 bc 08 a4 dd 3c d8 94 b0 bc
       -0.040168278 -0.018758811 0.027055755 -0.02155535
000080 00 97 55 bb 88 1e 7d bd 60 0a 7f bb 20 b1 a8 3b
       -0.0032591224 -0.061796695 -0.0038916096 0.005148068
000090 c0 5d e5 bc 20 61 90 bc 08 fc dd bc 92 a2 7b 3d
       -0.027998805 -0.017624438 -0.027097717 0.061434336
0000a0 00 7a 89 b9 e0 5e 1e 3c dc 8e d6 3c 18 b6 1f 3c
       -0.00026221573 0.009666175 0.026191168 0.009748004
0000b0 94 65 4c bd f6 fa 44 3d f2 06 00 bd 68 87 5e 3c
       -0.04990156 0.048090898 -0.031256624 0.013582088
0000c0 10 48 c2 bc 7a b5 7e 3d c2 bb 21 3d 42 d1 57 3d
       -0.023716003 0.06218479 0.0394857 0.0526898
0000d0 fa 73 0d 3d 64 40 66 bd 28 7b 0a 3c 3c 76 ba bc
       0.034534432 -0.05621375 0.008452214 -0.022761457
0000e0 98 b8 e0 3c 60 11 32 bc 38 1f d4 bc 2a 04 11 3d
       0.027431771 -0.0108684 -0.025893793 0.03540436
0000f0 2c 42 b2 bc 40 91 3a 3b f0 00 39 bd 46 32 75 3d
       -0.021760069 0.0028467923 -0.04516691 0.059862398
000100 46 20 48 bd 08 ce 4c 3d 6a 0f 07 3d 00 08 63 bb
       -0.048858903 0.050001174 0.032973684 -0.003464222
000110 00 d5 1f bb 58 68 0a bc 7e a5 57 bd 38 f2 d7 3c
       -0.0024388433 -0.008447729 -0.05264806 0.026360616
000120 08 00 7b bc 9a e3 43 bd 2c ea b3 bc f8 ff 3b bd
       -0.015319832 -0.04782448 -0.021962248 -0.045898408
000130 48 8a 66 3c 44 14 4d 3d 8e 3a 45 bd d8 46 66 bc
       0.014071055 0.050068155 -0.048151545 -0.014054976
000140 00 80 ea 38 b2 b7 5d 3d c4 08 ec bc 00 1f 23 3b
       0.00011181831 0.054130264 -0.028812774 0.0024890304
000150 a8 7b 11 bd 1e 48 3c bd a0 b8 37 bd d8 ca 76 bd
       -0.03551832 -0.045967214 -0.044853806 -0.06025204
000160 30 b8 24 3c 30 f7 ef 3c 8e b8 09 3d bc b7 07 bd
       0.010053679 0.029292673 0.03362327 -0.033134207
000170 40 e8 0b bd ee 0c 52 3d f8 0a 09 bd 80 7b 1e ba
       -0.034157038 0.051281862 -0.033457726 -0.00060456246
000180 44 8a 5f 3d 4e ed 6b bd 78 cb 58 bc d8 cd 7d bc
       0.05457522 -0.05759936 -0.0132321045 -0.0154909715
000190 60 64 7b 3d 2a 73 53 bd 9e b5 02 bd 6a 49 04 bd
       0.061375022 -0.0516235 -0.031911485 -0.032296576
0001a0 6c d9 40 3d 80 97 6d ba 18 36 75 3c e2 a9 59 bd
       0.04708235 -0.0009063408 0.01496651 -0.05314053
0001b0 5c ad 8f bc 8c 4e 33 3d 76 cf 51 3d 58 e1 7d 3d
       -0.017538719 0.04377608 0.05122324 0.061982483
0001c0 84 86 51 3d 50 2a 42 3d 00 66 3b ba a2 01 43 bd
       0.051153675 0.047403634 -0.0007148683 -0.04760898
0001d0 c0 9a dd 3c e4 26 f4 bc 6c fc 48 bd e4 a8 1f bd
       0.02705133 -0.0298037 -0.049068853 -0.038979426
0001e0 50 22 b3 3b 9e 49 73 bd 7a dd 70 bd 64 51 dd bc
       0.005466737 -0.05939638 -0.058804967 -0.02701635
0001f0 80 46 5c ba 88 f4 21 3d a0 5a 4e bd 40 6d e6 bb
       -0.00084028393 0.039539844 -0.050379395 -0.0070320666
000200 68 dd 55 3d 54 8c a7 3c a0 12 ab 3c a6 aa 1a bd
       0.052213103 0.020452656 0.020882905 -0.0377604
000210 fc 9e fd bc 6a d5 25 3d 64 4a 0d bd 58 64 17 3c
       -0.030959599 0.04048673 -0.034494773 0.009240232
000220 00 61 00 3a f4 de 8c bc 90 2e 1e 3c 9e b9 75 3d
       0.00048972666 -0.017196156 0.009654656 0.05999147
000230 a0 e0 37 bc fe 7d 6b 3d f6 05 01 bd 00 ae e6 3c
       -0.011222988 0.057493202 -0.031499825 0.028159142
000240 ac 02 7a bd 80 ae a9 ba b2 21 0b bd 9c 51 b3 3c
       -0.061037704 -0.0012945682 -0.03396768 0.0218895
000250 b8 6d f6 3c 2c 04 57 3d 32 bc 37 3d 0e c3 19 3d
       0.030081615 0.052494213 0.04485721 0.037539534
000260 50 49 94 bb 6a fc 63 bd 06 30 1c 3d 48 41 f2 3c
       -0.004525341 -0.055660643 0.038131736 0.029572144
000270 20 71 7e bc 04 ff b6 3c 94 82 7a bd f8 20 6e bd
       -0.015529901 0.022338398 -0.061159685 -0.05813691
000280 46 c6 0b 3d 8c c1 cf 3c 80 d9 ae 3a c0 66 87 3a
       0.034124635 0.025360845 0.0013339967 0.0010330305
000290 d0 ad 57 bd 0c 30 8b bc b6 10 34 3d 98 62 9a bc
       -0.052655995 -0.016990684 0.04396125 -0.018845841
0002a0 12 46 75 bd f8 07 d0 bc 00 6c e7 3c a0 dd cc bb
       -0.059881277 -0.025394425 0.02824974 -0.0062520057
0002b0 88 de 54 bd f0 54 79 3c bc 48 b8 bc a0 81 c8 3c
       -0.051970035 0.015218005 -0.02249562 0.024475873
0002c0 f8 73 7e bc 90 d9 d4 bc 70 62 06 3c a8 ed 81 bc
       -0.015530579 -0.025982648 0.00820218 -0.015860394
0002d0 f8 2b 72 3c 0c b9 6d 3d 96 35 2c 3d 58 69 bc bc
       0.014780991 0.058037803 0.04204329 -0.02299945
0002e0 14 16 4e bd a0 87 5d 3d c0 a9 56 3c d8 6b 97 bc
       -0.050314024 0.05408442 0.013101995 -0.018484041
0002f0 f4 5c 9c 3c 38 12 df 3c e6 0d 43 3d f6 4b 12 3d
       0.019087292 0.027230367 0.047620676 0.035716973
000300 00 b5 b1 bc e4 fa a5 3c 90 07 06 bd 2c 2e c2 bc
       -0.021692753 0.020261236 -0.032722056 -0.023703657
000310 a4 56 ee 3c b0 8d a2 bc 4a 58 48 3d e0 5d 30 bb
       0.029094048 -0.019842952 0.048912324 -0.0026911423
000320 1c 55 bc 3c 02 a6 68 3d ea c7 65 bd 1a 2a 18 bd
       0.022989802 0.056798942 -0.056098856 -0.037149526
000330 c2 13 7e 3d 00 89 45 bd 62 15 1b 3d fc 7b 2a 3d
       0.06203056 -0.048226357 0.03786219 0.041622147
000340 88 6b 6d bd 0e ae 7f 3d 90 1f e2 3b d0 ae 58 3c
       -0.057963878 0.06242185 0.006900735 0.013225272
000350 b4 71 34 bd 58 30 e1 bc ba e4 78 3d 1c b9 ca bc
       -0.04405375 -0.027488872 0.060765006 -0.02474647
000360 80 da 1d bc 76 56 3e bd 60 91 34 bb ae 07 5f 3d
       -0.009634614 -0.046469174 -0.002755247 0.054450683
000370 00 44 a6 bc 10 37 cc bb 5c 71 d8 bc a0 cc 66 bd
       -0.020296097 -0.00623215 -0.026421241 -0.05634749
000380 c0 35 6d 3d a0 6d c5 3b 42 ba 0a bd b4 18 52 3d
       0.057912588 0.006025031 -0.033869036 0.05129309
000390 ae 46 55 3d 80 d4 32 ba 62 34 71 bd 54 b0 cf bc
       0.05206936 -0.0006821826 -0.058887847 -0.025352634
0003a0 94 46 07 bd 4a bb 6e 3d 82 ce 60 bd 40 16 3c bb
       -0.033026293 0.05828408 -0.05488444 -0.0028699785
0003b0 c4 cb 4f bd 50 31 4b 3d 10 a9 55 bd b8 56 04 3c
       -0.050731435 0.049607575 -0.052163184 0.008077316
0003c0 46 7f 29 3d 40 7b f4 3c 4c ad ef bc 12 95 0f 3d
       0.041381143 0.029843926 -0.02925744 0.035054274
0003d0 a0 4b f2 3b 20 87 2a bd a0 70 24 bc 72 20 2e bd
       0.007394269 -0.04163277 -0.0100366175 -0.04251141
0003e0 dc cb cd bc 4c 33 86 bc 48 14 7e bc 5a 58 21 bd
       -0.025121622 -0.016381882 -0.015507765 -0.0393909
0003f0 58 99 3c bc 26 20 02 3d 38 2f 09 3d d2 db 21 bd
       -0.011511169 0.03176894 0.033492297 -0.039516278

main_model.hiddenlayer_0.bias f4 [256]
000000 3c 00 5a 3d 68 b7 92 bd a9 0c 66 bd a3 f0 3e 3d
       0.05322288 -0.07163888 -0.056164417 0.046616208
000010 ed c1 24 bc a9 3a 50 3d 79 71 22 3d 52 35 26 bc
       -0.010056001 0.050837193 0.039658997 -0.0101445485
000020 71 1f 00 3e c3 44 70 bd 08 0d ba 3c 8c f1 c9 3c
       0.12511994 -0.058659326 0.022711292 0.024651311
000030 e0 97 9c bc 6e 35 38 3d d5 24 af 3c b9 f3 0c bc
       -0.019115388 0.04497283 0.021379868 -0.00860303
000040 4d 28 8a bd 5d c3 3b bd 30 e2 3c bd 58 27 e6 bc
       -0.06745968 -0.04584061 -0.046114147 -0.028094932
000050 09 c6 f2 bc a6 2e 30 bd 91 aa 78 bd c2 cc 57 3d
       -0.029635446 -0.043013237 -0.06070954 0.052685507
000060 d5 91 62 bb af e9 db 3c ce 8c f2 bc 07 32 50 3d
       -0.0034571786 0.026844827 -0.029608157 0.05082896
000070 dd 2d b7 bc 99 45 4b bd 0a 18 7d bc 00 db 32 bb
       -0.022360737 -0.04962692 -0.015447626 -0.0027291179
000080 e2 00 1c bd c9 ad 40 bd ff bd 06 3e d2 8e 77 b9
       -0.03808678 -0.047040734 0.13158415 -0.0002360896
000090 7e 26 1d 3d 88 66 20 bc 49 52 58 bd 0e 74 25 3c
       0.038366787 -0.00979007 -0.05281285 0.01009847
0000a0 28 fa cb 3d 2a d6 d8 3d a1 55 c8 3d 32 35 0b 3e
       0.09959823 0.105877236 0.097819574 0.13594511
0000b0 55 7a 01 3e 9c de 43 bc ce d9 13 bd c1 05 90 bd
       0.12644322 -0.01195493 -0.036096387 -0.070323475
0000c0 f3 00 1c bd ba 41 84 3d 2a 84 c2 bb 25 3c a6 3d
       -0.038086843 0.06457849 -0.0059361653 0.081169404
0000d0 d4 f7 60 3c 56 5c 0c bd d6 b1 17 bd 20 81 ff 3d
       0.013730962 -0.034267746 -0.037034832 0.124758005
0000e0 18 3f 97 3c 9f 1d 40 3c 49 ec 33 3d 68 04 9f bd
       0.018462703 0.011725812 0.04392651 -0.07764512
0000f0 02 84 c9 3c df 11 9b 3d b6 61 b1 bc c8 7e 50 3d
       0.024599079 0.07571768 -0.021653038 0.050902158
000100 e4 7c 44 bd 50 49 ab bb 87 7a e6 3b 74 8e 54 bd
       -0.047970667 -0.0052272454 0.0070336494 -0.051893666
000110 25 50 c7 bc a0 0b c2 bc 73 4b 65 bd 58 39 ab bd
       -0.024330208 -0.023687184 -0.055980157 -0.08360547
000120 15 b3 5c 3d e1 6a 90 bd da 05 2d 3b 6a bb 3e 3c
       0.053881723 -0.070516355 0.0026401193 0.011641363
000130 1d 36 5f bd 38 fa df 3b ce 7c b9 3d 01 27 9b 3c
       -0.054494966 0.0068352483 0.09057008 0.018939497
000140 e4 38 60 bd 58 2e d0 3c 4c 54 55 bd a3 b2 d9 3c
       -0.054741755 0.025412723 -0.052082345 0.026574438
000150 82 34 a7 3c 35 c9 c6 3d 6f 4f 60 3b 01 3f 52 3d
       0.02041078 0.09706346 0.0034227034 0.051329616
000160 b5 e5 24 3c a0 d4 04 3e 5a 76 01 bd fc f9 aa 3c
       0.010064532 0.12971735 -0.03160701 0.020871155
000170 24 c6 39 bd f4 80 f5 bc 46 25 97 3d 1d 95 27 3d
       -0.045354977 -0.029968716 0.07380156 0.04091369
000180 79 b5 0d bb 09 ea a4 3c d0 19 e1 3b 01 b3 93 bd
       -0.0021623059 0.020131128 0.006869532 -0.07211877
000190 b1 61 d2 3d 73 f5 13 3d 11 d3 8f 3c 86 d4 c4 3d
       0.102725394 0.03612275 0.017556699 0.09610848
0001a0 78 4f 6e bd 28 88 87 3d 3e b3 86 bc 4b 33 8e bd
       -0.058181256 0.066177666 -0.016442891 -0.06943377
0001b0 a4 e3 8b 3c f6 b5 86 3c 4d 65 91 bd 30 46 26 bc
       0.017076321 0.016444188 -0.070994 -0.01014857
0001c0 3e e7 fb 3b 75 34 1b bc 94 ea 87 3d 15 7e f0 3d
       0.0076874783 -0.009472956 0.06636539 0.11742798
0001d0 28 a1 2c 3c a1 34 3f bd f3 09 9d 3c ee c1 69 3b
       0.0105364695 -0.04668105 0.019169783 0.003566857
0001e0 94 7c 86 3d fe 09 9a 3c b0 9a 98 3a 38 fd 92 bd
       0.0656673 0.018803593 0.001164278 -0.07177204
0001f0 7b 82 2d bc 98 c2 77 bc b2 6a fe 3d 48 de 08 bd
       -0.010590191 -0.015122078 0.12422694 -0.03341511
000200 3d 1e 4d 3d e1 db 01 bd 2c 04 1d 3d 88 2f 5f bc
       0.050077666 -0.031703833 0.038334057 -0.013622172
000210 2a 93 ed bc 9a db a5 3c c9 e1 8f 3d 42 15 68 bd
       -0.029000837 0.020246316 0.07025487 -0.056660898
000220 8e 97 25 ba 58 be 61 3d 42 c3 18 bc ed 69 2f bc
       -0.0006316834 0.055113167 -0.009323897 -0.010706407
000230 a7 8d 75 ba 92 d2 cb 3d 28 6c 55 3d 75 73 47 bd
       -0.0009367116 0.099522725 0.0521051 -0.048694093
000240 d3 0a e6 3b 69 eb 2d bc 2e c8 50 3c 95 0f 99 3c
       0.0070203333 -0.010615208 0.012743039 0.018684188
000250 60 1e ef 3c 81 6d 11 bd 98 0f c7 3d 83 b0 3d 3d
       0.029189289 -0.03550482 0.09719771 0.046310913
000260 a3 f0 5b bd 14 c7 c3 bc 58 03 5f 3d 15 4d 88 bd
       -0.053696286 -0.023898639 0.05444655 -0.06655327
000270 69 3f 1b 3d f5 1e ef 3c e2 e9 ef bb 5d 23 05 3d
       0.03790227 0.029189566 -0.007321582 0.03250443
000280 01 25 c9 bc 66 b0 03 bc aa 2d c7 bb 17 58 1e bd
       -0.024553778 -0.008037662 -0.0060784416 -0.038658228
000290 26 4e 81 bc 19 61 66 3d 41 9d ba 3d 59 0d 86 bc
       -0.015784334 0.056244943 0.09112025 -0.016363787
0002a0 ba b9 76 3d c4 6e 6a 3b 32 d1 df bd a7 8f a9 3c
       0.060235716 0.0035771588 -0.10928573 0.020698382
0002b0 ed 6a 5f bc 66 5d 93 bc ec 9a 26 bc c0 d8 1b 3d
       -0.013636333 -0.017988872 -0.010168772 0.038048506
0002c0 52 fb 31 3d b3 26 f7 3c b6 5c 04 bd 38 72 5a bd
       0.04345257 0.03016982 -0.03231498 -0.053331584
0002d0 cc 4d e1 3d 7d 91 77 3d fd 10 87 bd 2a 79 70 3c
       0.11001167 0.060441483 -0.06595037 0.014677325
0002e0 3d bf ee bc 73 df 23 3d 60 48 a6 bd 2a 69 92 bc
       -0.029143924 0.04000802 -0.08119273 -0.017872412
0002f0 4f da f4 bb 0e 47 af 3c 78 af 0b 3c 0d e1 9f 3d
       -0.0074723135 0.021396186 0.008525722 0.07806597
000300 70 ec 2d 3d a1 b5 a8 3d 2b 4a 31 bd 57 b9 4b 3d
       0.042461812 0.08237768 -0.043283623 0.0497373
000310 08 b7 13 3c f7 f0 a6 bd 2b 25 6e bd 1a 14 7b bd
       0.009015806 -0.08151429 -0.058140915 -0.061298467
000320 eb 66 9b 3d 5c 98 be bc df 32 a0 3d 9a 88 30 3d
       0.075879894 -0.02326601 0.07822203 0.043099023
000330 41 cb e1 bc e2 8d ab 3d 83 e6 ef 3c 9b 4f 56 bd
       -0.02756274 0.083766714 0.029284721 -0.05232201
000340 5d 9e 8c bd 8f 1f a5 bc 4c 5d 97 3c 82 1a 7b bd
       -0.06866143 -0.02015665 0.018477105 -0.061304577
000350 e1 3c 6e 3d 60 a4 a0 bc 47 06 b6 3c 6b 2d f1 3c
       0.058163527 -0.01960963 0.02221979 0.029440602
000360 5f 51 b2 3d 17 d2 8c 3d cc 8a 55 bd a6 e4 d5 3d
       0.087069266 0.06876009 -0.05213432 0.10444002
000370 12 26 87 bc 2f f2 9e bd ce 52 82 3c 27 0a 54 3d
       -0.016497646 -0.077610366 0.015908625 0.051767495
000380 90 f6 5c 3d 6f b7 ca 3c a1 97 67 bc 59 18 60 3d
       0.053946078 0.024745671 -0.014135272 0.05471072
000390 8d 7e ca 3d e6 ba 21 bd c6 46 08 3c 63 a3 38 bd
       0.09887419 -0.03948488 0.008317655 -0.045077693
0003a0 12 a2 65 bb 56 e3 a2 bc 17 f4 0a bd 88 20 9f 3c
       -0.0035039228 -0.019883793 -0.03392419 0.019424692
0003b0 1e 03 34 bd 99 e2 08 3d 54 44 fc bc b2 32 0b 3d
       -0.043948285 0.033419225 -0.0307943 0.033983894
0003c0 3d b7 37 bc 08 9d c6 bc da a5 19 bd 69 c6 18 3d
       -0.011213121 -0.0242448 -0.037511684 0.037298594
0003d0 97 7c 07 3d 1e 82 43 bc 70 2d 12 bc a6 03 5b 3d
       0.033077803 -0.011932878 -0.008921966 0.053470276
0003e0 3f ad 98 bc 65 f6 60 3c 90 6b d9 bc 3e 42 5d bd
       -0.018637298 0.01373062 -0.026540548 -0.05401825
0003f0 d6 a8 3a bc bf c0 36 bd 85 82 94 bd 72 9a e1 3d
       -0.011392793 -0.04461741 -0.07251457 0.11015786

main_model.hiddenlayer_1.weight f4 [256, 256]
000000 a0 6d 31 bd ce cf 04 bd 52 df 2c 3c c6 18 53 3d
       -0.043317437 -0.03242474 0.010551291 0.051537298
000010 8b 3d 6d 3c a2 79 07 3d f2 99 c2 ba d6 6a 04 3d
       0.014480005 0.033074982 -0.0014846905 0.03232845
000020 9c 66 1b bd b8 8f 3e bd 0e b4 64 3d 80 77 06 3c
       -0.037939653 -0.04652378 0.055835776 0.008207202
000030 00 74 6b ba 51 80 35 3c 9c e4 6c 3d ce 73 ad bc
       -0.0008981824 0.011077956 0.057835206 -0.021173384
000040 e5 3a 99 bd 11 69 21 bd 50 dc 7b 3d 20 5a 72 3c
       -0.07481936 -0.03940684 0.061489403 0.014791995
000050 40 95 24 3d b6 4c 87 3d d6 a7 18 bd cc 36 a6 3c
       0.0401814 0.06606428 -0.037269436 0.020289801
000060 c6 29 88 3a 0c 9f 2c bd d3 57 d4 bc 6f 6f f4 3c
       0.0010388426 -0.042143866 -0.025920784 0.029838292
000070 e5 a6 04 3c b8 c2 c3 bd 64 e0 1e bd 42 11 18 bd
       0.008096431 -0.09558624 -0.038788214 -0.037125833
000080 4d 4f 92 3d b6 3d 55 bd 28 df c0 3c 40 3d 8b ba
       0.07144032 -0.052060805 0.02354391 -0.0010623112
000090 94 cc 1b bd 14 d1 4a bd b2 ce 46 bd 3f 22 ea bb
       -0.038036898 -0.0495158 -0.048536964 -0.0071451957
0000a0 02 07 bd bc 16 88 4b 3d 87 a4 60 3d b4 37 27 3c
       -0.02307463 0.04969033 0.054844406 0.010206152
0000b0 49 d2 bb bd 36 0e 28 bd 54 7a af 3c 40 94 c3 ba
       -0.09170968 -0.041029178 0.021420635 -0.0014921501
0000c0 4d ac 74 3c 64 d3 5f 3c 63 c9 82 bd 79 97 9c 3d
       0.014933658 0.013661239 -0.06386068 0.076460786
0000d0 29 b5 84 3d 36 4a 52 bd a2 b3 14 bd 3d 5b b1 bc
       0.06479866 -0.051340304 -0.036304124 -0.021649951
0000e0 95 d0 d3 bd dc 89 91 bc 08 23 ac 3d ce 00 25 3d
       -0.10342518 -0.017765932 0.08405119 0.04028397
0000f0 7b 9c 0e 3d 2f b2 62 3c 3c d9 44 bd 0a f7 42 3d
       0.0348172 0.013836428 -0.048058733 0.047598876
000100 a3 30 b2 3c 00 a1 43 3c 52 2a 58 bd 50 38 de 3b
       0.021751707 0.011940241 -0.052774735 0.0067816153
000110 0a e1 7f 3d 6c 35 24 3d 6f 00 b2 3c bc 6c 6c bc
       0.062470473 0.04009001 0.021728722 -0.014430221
000120 8b b4 a0 3d b5 17 06 3d e9 ed 96 bd 0d 87 c0 bc
       0.07846936 0.032737453 -0.073695965 -0.023501897
000130 90 c1 90 bd e3 cc 17 bd e4 36 ef ba 01 7f d6 bc
       -0.07068169 -0.03706063 -0.0018250612 -0.026183607
000140 8a 5c ce bd 14 5b e1 3c eb b7 93 bd 32 2c 02 3d
       -0.10076244 0.02750925 -0.07212814 0.03178043
000150 a2 bf 6f bd 68 bb e8 3d cd b0 30 3c 91 6d 96 3d
       -0.058532365 0.1136387 0.01078434 0.07345117
000160 52 7d a3 3c 48 7f d7 3c 0e 0d 2f bc 54 29 21 3d
       0.019957218 0.02630581 -0.010684265 0.039346054
000170 5a 58 85 3c 1c d7 93 3b 53 50 86 bd aa 88 78 3d
       0.01627748 0.004511727 -0.065582894 0.060677208
000180 8b 3e 60 bd a3 38 23 3d d4 aa 31 bd 8f 1b 71 3c
       -0.054747146 0.039848935 -0.043375805 0.014716043
000190 de 19 df bd a0 15 98 3c db 86 30 bd a5 f5 b3 bc
       -0.10893606 0.018565 -0.04309736 -0.021967718
0001a0 78 80 01 be 4d 7e d4 bd a2 28 5e bd e9 3e b0 bd
       -0.12646663 -0.103756525 -0.05423797 -0.08605749
0001b0 d6 2d ca 37 70 bb 51 bd 78 be 92 bd c8 c0 3f 3d
       2.410162e-05 -0.051204145 -0.07165235 0.04681471
0001c0 f4 e5 86 bc ce 37 74 3d ae ff 62 bd 33 1c 36 3c
       -0.016467072 0.059623532 -0.055419616 0.011115122
0001d0 04 51 05 bd 61 91 6f bd 51 49 ff bc 07 60 af bc
       -0.032547966 -0.058488254 -0.03116289 -0.021408094
0001e0 e5 80 80 3c f5 be 66 bd 2f a8 82 3d c0 35 ef bc
       0.015686462 -0.056334455 0.06379735 -0.029200435
0001f0 90 31 43 3d 08 ca ca 3c 68 6a c3 bd 23 05 4d 3d
       0.04765469 0.02475454 -0.0954178 0.050053727
000200 12 1e 65 3d d6 06 6a 3d 4b f5 5e 3d 36 91 43 bd
       0.05593688 0.057135426 0.05443315 -0.047745906
000210 2b f9 f1 bb c1 2d 7b bd 99 c6 93 bd 30 86 4e bc
       -0.0073844395 -0.06132293 -0.07215614 -0.012605235
000220 4d 4d dc bc 2e 3a 3c bd f7 ac dd 3c 6a 0b 58 3d
       -0.026892329 -0.045953922 0.027060015 0.05274526
000230 65 61 a6 3c fe 2b e4 3b 3b 7d d8 bd ac e9 fa 3c
       0.020310113 0.006963252 -0.10570761 0.030629002
000240 cd 06 03 be 81 68 de 3a c3 51 26 3d 29 d5 79 bc
       -0.12795563 0.00169684 0.040605318 -0.015248575
000250 0f 30 77 bd 4d 3b 5e bd c8 f8 9e 3d 44 12 99 3d
       -0.060348567 -0.054255772 0.07762295 0.07474187
000260 bb d7 4b bd f8 0a 35 3d d6 0f 09 bd a6 5e 62 bd
       -0.049766283 0.044199914 -0.033462368 -0.055266045
000270 66 30 8a bd 2a 1e 06 3d ce 21 b5 bd 65 c4 78 3c
       -0.067475125 0.03274361 -0.08844338 0.015183543
000280 e0 84 29 3d 61 fd 02 bd a7 78 06 bd 84 f0 11 bc
       0.041386485 -0.031979922 -0.032829907 -0.008907441
000290 04 d4 94 3d 5c 17 ca 3c a0 10 80 bd 5e 70 bc bb
       0.07267001 0.024669342 -0.06253171 -0.0057507
0002a0 39 b6 e3 bc d0 e3 7e 3b ca 1b f7 3b 73 db c0 3c
       -0.027796851 0.003889311 0.0075411545 0.023542142
0002b0 bc 4b ba 3c a9 c9 40 bd d0 59 1a 3d 00 95 0c 3d
       0.022741191 -0.047067318 0.037683308 0.034321785
0002c0 00 2a 4b 3c 48 d6 fd bc c3 b4 7c 3d 2f cd 75 bd
       0.01240015 -0.030985966 0.061695825 -0.06001013
0002d0 d5 ce 6c bc 65 1a ba 3c 19 f9 97 bc 52 07 7f 3d
       -0.0144536095 0.022717664 -0.018551396 0.06226284
0002e0 64 dd 95 bc 49 cd 88 3d cd c7 87 3d 2b 2b 42 3d
       -0.018294044 0.0667978 0.06629906 0.04740445
0002f0 90 7c 00 3d fe ab 21 3d 68 8e fb bc 65 b8 a6 bd
       0.031368792 0.039470665 -0.030707553 -0.08140639
000300 0e 12 f8 bc 25 da 09 bd d8 70 a9 ba 87 04 71 3d
       -0.030282047 -0.033655304 -0.0012927307 0.05884221
000310 61 38 75 bd d5 41 14 be 39 5d d8 bc fa 62 3f bd
       -0.05986822 -0.14478238 -0.02641164 -0.04672525
000320 9c d7 0a 3c 74 e6 a9 bd 9d fc 92 3d 84 5e 55 bd
       0.008474257 -0.082959086 0.071770884 -0.05209209
000330 d5 a5 85 3d 58 3e 93 3c fb 2f a8 bc 7e 41 22 3d
       0.065257706 0.017974064 -0.020530691 0.03961324
000340 e0 31 49 bc e5 db 79 bd c7 4b 49 be 88 07 aa bc
       -0.0122799575 -0.061000723 -0.19657813 -0.020755544
000350 59 75 39 3d 65 60 4b bc 60 9b 39 bd 68 e5 92 ba
       0.045277927 -0.012413119 -0.045314193 -0.0011207284
000360 d9 07 53 ba a7 ed d2 bc 7a aa 12 3c a1 f4 25 bd
       -0.00080501806 -0.025748087 0.008951778 -0.0405165
000370 c4 eb 44 bd 33 64 41 bd e4 f5 62 3d 5c 9d 9c 3c
       -0.048076406 -0.047214698 0.05541028 0.019118004
000380 0c 30 b7 3c 5e 03 30 bd d2 14 8b 3c 8a c3 f5 3c
       0.022361778 -0.04297196 0.016977701 0.030000467
000390 ea 7b 4b 3d 9e 50 28 bc a8 fc 64 3c c4 30 2e 3c
       0.04967872 -0.010273127 0.013976254 0.010631744
0003a0 51 7a f4 bc c2 93 96 bd b1 b6 64 bd e2 03 81 bc
       -0.029843481 -0.07352401 -0.05583829 -0.015748922
0003b0 f9 8a cd 3c 15 cf 06 bd 1c cf ea 3c b2 aa b5 bd
       0.025090681 -0.032912333 0.02866321 -0.08870448
0003c0 fd 4c 81 bd 1a c5 ab bd 29 44 9a bd fd 1c 02 3e
       -0.063135125 -0.083872035 -0.07532532 0.1270637
0003d0 3a b5 99 bd 4b f4 b2 bc 8e 0d f0 bc 55 99 07 bd
       -0.07505269 -0.021845004 -0.029303338 -0.033105213
0003e0 03 5c c8 bd 50 38 78 bc 2a 90 44 3d 78 00 61 3d
       -0.09783175 -0.015150145 0.047989048 0.054932088
0003f0 7d 1e 23 3d c5 88 f8 bc ed e1 86 bd ae 44 91 bc
       0.039823998 -0.030338654 -0.06586061 -0.017732944

main_model.hiddenlayer_1.bias f4 [256]
000000 45 bd e1 3c 2c a4 56 3d 1b 27 01 bd f2 bf 24 bd
       0.027556071 0.05240266 -0.031531435 -0.040222116
000010 52 5c 73 bd 5e 63 94 bd 0e e7 4b bd cb 05 44 3e
       -0.059414215 -0.07245515 -0.049780898 0.19142835
000020 f3 a5 78 bd 21 fd 4c 3d c3 9a 47 3d 6d f6 ba bd
       -0.060705137 0.05004609 0.048731577 -0.09129033
000030 da 3b 5a bc 1c cc 68 3d af ce 6d bd 57 a1 df 3d
       -0.013319934 0.05683528 -0.058058437 0.10919445
000040 be 8d a2 bd a1 f4 83 bd ff c5 54 bc 2c 6c f0 3b
       -0.079371914 -0.06443144 -0.012986659 0.007337114
000050 90 3e 67 3b 30 aa 11 3e da 5f 1c 3d 3a d1 3d bd
       0.0035285093 0.14225078 0.03817735 -0.046342112
000060 e3 ef 8f 3d ce 86 97 3b 3a 64 b3 bb 33 bc 48 3d
       0.07028177 0.0046242243 -0.0054745944 0.049007606
000070 b7 3b 11 bd 0d 52 96 3d ed 05 06 3e 74 a1 ac 3d
       -0.03545734 0.07339869 0.13088198 0.08429232
000080 13 2f d2 bd 83 d1 64 3d 40 df 19 bd c6 fa 0a bd
       -0.10262885 0.05586387 -0.037566423 -0.033930562
000090 1d 2f 3e bd 94 b2 33 3d 5d 2a 98 bc 90 e7 45 bd
       -0.04643165 0.043871477 -0.018574888 -0.04831654
0000a0 9f 5e 37 3d ba ea a2 bd cb 26 9a 3b 47 e4 08 bd
       0.044767972 -0.07954927 0.0047043315 -0.033420827
0000b0 83 e1 b5 bd bd 8d 88 bd 5d a9 03 3e a5 9d b6 ba
       -0.088809036 -0.066676594 0.12857576 -0.001393248
0000c0 3d 8f a5 bc 8f 05 b5 3d 4b 0b b3 bd c1 3a 4c bd
       -0.020209903 0.08838951 -0.08742388 -0.04986072
0000d0 b4 f6 4c 3c e1 ed 77 bd d3 eb b2 bd 52 25 8d bd
       0.0125099905 -0.060529593 -0.08736386 -0.06891884
0000e0 74 88 1c 3e b2 09 3b bb 74 e2 7e 3d 21 07 46 3d
       0.15286428 -0.0028539714 0.06222768 0.048346642
0000f0 f0 7c 17 bd 44 af 53 3c 35 62 28 bd 5f 8d 48 bd
       -0.036984384 0.012920205 -0.041109283 -0.048962947
000100 22 ca 82 bc 71 64 f6 bc 80 86 9b bd 05 a5 c8 ba
       -0.015965525 -0.030077191 -0.07594013 -0.0015307969
000110 cd 37 29 bd cc 26 ab bd 5c d3 d1 3b 4a 51 52 ba
       -0.04131298 -0.08357009 0.00640337 -0.0008022977
000120 c1 eb de 3c e1 a2 f9 3d 74 66 f4 bc 02 d2 58 3d
       0.027212026 0.1218927 -0.02983401 0.052934654
000130 14 34 60 3d c6 7f ac bd 5e 48 12 3e 54 65 f7 3d
       0.054737166 -0.08422808 0.14285418 0.12079874
000140 8b 88 1c bd e2 d1 10 bd 00 1b dc bd a1 d5 af 3c
       -0.038216155 -0.03535641 -0.10747337 0.02146417
000150 2b 3b 0a bd e4 8b e5 bc 63 08 25 3d d9 ad 01 bd
       -0.033747833 -0.028020807 0.0402912 -0.031659935
000160 dc 3e 91 3b 47 3a 4f bd 99 b1 91 3b fc f6 76 3d
       0.0044325422 -0.050592687 0.00444622 0.060294136
000170 20 ca e0 3d b8 d1 bc 3c ea 7b b3 3d b0 24 46 bd
       0.10976052 0.02304922 0.08763869 -0.04837483
000180 08 ea 52 3d 70 58 9e 3d e5 b9 21 bb 4f 53 e5 3c
       0.05149272 0.07731712 -0.0024677452 0.027993826
000190 b0 fc b9 3d 0a d3 ed 3d e2 a3 86 bd 7c 57 8d 3c
       0.090813994 0.11612518 -0.06574227 0.01725363
0001a0 96 1d de 3d 21 e6 1f bd 3c 8b 00 bd a6 0e 0f bd
       0.10845487 -0.039037827 -0.031382784 -0.03492608
0001b0 b7 a8 09 ba 17 e2 89 bd 40 43 a7 3d 50 39 53 3c
       -0.0005251276 -0.06732576 0.08167124 0.012892082
0001c0 d8 26 9a 3d e7 14 00 bd 48 08 d9 bd a9 09 04 bd
       0.0752694 -0.031269934 -0.10597283 -0.032235775
0001d0 2b 9c a3 bd df cf 60 bd 28 12 ac bb 44 99 02 3d
       -0.07988771 -0.05488574 -0.005251188 0.031884447
0001e0 93 d0 4c bc c5 7c 34 bd 34 50 3c 3d 00 77 ef bb
       -0.0125009 -0.044064302 0.045974925 -0.007307887
0001f0 bf 4c 3e 3c 24 38 01 3d e9 75 4d bd 7c 16 37 3e
       0.011614977 0.03154768 -0.050161276 0.17879671
000200 e0 73 9a bd fd 77 31 bd 1d d9 12 3d b9 cc 46 bd
       -0.07541633 -0.04332732 0.035851587 -0.048535082
000210 6c 7a 52 3e 65 0a ea 3d 80 5c 43 bd 2d e6 89 bd
       0.20554513 0.11427764 -0.047695637 -0.06733356
000220 00 61 ed 3d 82 29 52 3d 59 e1 9f 3c 06 45 77 bd
       0.11590767 0.051309116 0.019516634 -0.06036856
000230 fe 25 db ba 1e 49 06 3d c0 2c fb 3c 27 98 f7 3b
       -0.0016719697 0.032784574 0.030660987 0.00755598
000240 af 3a ff ba 8b 2c 81 3c cc e8 86 3d eb 75 ec bb
       -0.0019472445 0.01576831 0.06587371 -0.0072162054
000250 34 39 1e bd 24 65 49 3d c1 67 ff bb 5e 9d 73 bd
       -0.038628772 0.04916872 -0.007794351 -0.05947625
000260 0b c0 1f bb ce 0f 43 bc 81 6f 38 3d b9 bd 22 bc
       -0.002437594 -0.011905624 0.045028213 -0.009932929
000270 09 eb d8 3d 0a 62 9e bd e2 db 1a bd 69 1a 51 bc
       0.105917044 -0.07733543 -0.037807353 -0.012762644
000280 30 ea bd bc a6 d8 c2 bd ca 87 a2 bd e5 a7 ca ba
       -0.023182958 -0.09513979 -0.07936056 -0.0015461413
000290 d0 63 29 3d 24 b9 45 bd 0b cd b3 3b 5b a2 57 bd
       0.041354954 -0.048272267 0.0054870895 -0.05264507
0002a0 99 52 13 bd 74 ca 5c 3d 3e a8 8c 3d 6c e6 f5 bc
       -0.035967443 0.05390401 0.06868027 -0.0300171
0002b0 d8 67 8f bd 91 6e 90 3c bd 76 2e 3e d9 43 68 bd
       -0.070022285 0.017630847 0.17037483 -0.05670533
0002c0 50 b1 de 3a aa b1 d2 3d b6 3b c5 3b 1e f5 3a bd
       0.0016990099 0.10287793 0.006019081 -0.04564392
0002d0 fd 16 6c bd ec b2 7c bd 83 23 91 bd 63 a5 ad 3c
       -0.05763911 -0.06169407 -0.070868514 0.021197027
0002e0 f7 27 02 bd c2 4f ed ba 12 62 61 bd e8 b8 7d bd
       -0.031776395 -0.0018105435 -0.055025168 -0.06194392
0002f0 20 47 0d 3d 65 ca 9c 3d 0f 64 c3 bc 87 b8 d5 3d
       0.03449166 0.07655791 -0.023851423 0.104355864
000300 45 06 8c 3d 33 bb 78 bc 98 52 07 bd c1 a5 80 3d
       0.06837133 -0.0151813505 -0.033037752 0.06281615
000310 2a dc 54 bd 0a e5 48 bd 58 a7 5f 3d 5a 46 3d bc
       -0.051967777 -0.049046554 0.05460295 -0.011552418
000320 09 ed 8c bd b7 7b 7b 3d dd 1b ad bb 05 82 f7 3c
       -0.06881148 0.06139728 -0.0052828626 0.030213365
000330 81 ba 8b bc 33 a1 40 3d 01 70 ee 3c 00 b5 8c 3c
       -0.017056705 0.04702873 0.029106142 0.017176151
000340 53 f9 b4 bb 32 d3 a6 bd 58 43 04 bd 89 1c 84 bd
       -0.005522886 -0.08145751 -0.032290787 -0.06450755
000350 10 9d 0b 3d 6f 88 4d 39 6b a5 1e bd 03 22 f6 bc
       0.034085333 0.00019601149 -0.038731974 -0.030045515
000360 8a 64 3e 3c 4d 5a 04 bc d2 e9 d3 3a 7e c8 4b bd
       0.01162065 -0.00807817 0.0016167706 -0.04975175
000370 62 d7 f8 3d 3e eb 3e bc 59 32 35 3b 9a a5 05 3e
       0.12150456 -0.011652766 0.0027648418 0.13051453
000380 ff 42 9e 3c 91 a4 7a bd 13 3a d3 bd 8b 3c 4e bc
       0.019319056 -0.0611921 -0.10313811 -0.012587677
000390 0e cc 1d 3c 9d 52 36 bc 32 14 0e 3b ca 17 c2 bc
       0.00963117 -0.011128095 0.0021679518 -0.023692984
0003a0 55 c1 ce bd f6 82 80 3c 67 49 bd bc d1 d4 8f 3c
       -0.10095469 0.015687447 -0.02310629 0.017557533
0003b0 c7 12 fd bc e0 cf f1 bc 57 38 e6 3d 94 06 81 3d
       -0.030892743 -0.029518068 0.11241215 0.06300083
0003c0 6c 2f cd 3d 18 5f 61 bd dc 84 b3 bc 96 5e db bc
       0.10018811 -0.05502233 -0.021913938 -0.0267785
0003d0 a2 e6 3b 3d 10 a4 90 bd c2 05 8d 3d 8e c0 03 3e
       0.045874245 -0.070625424 0.06885864 0.12866423
0003e0 0d 7b ca bd 52 bc 4d bd cc 27 e3 3d d3 c7 4e bc
       -0.09886751 -0.050228424 0.11091575 -0.012620884
0003f0 36 b7 02 bd 5b 5a f6 3c a1 fa af bd ad 36 9a bd
       -0.031913005 0.030072382 -0.085927255 -0.0752996

main_model.hiddenlayer_2.weight f4 [256, 256]
000000 78 f2 d5 3d 85 54 87 3c f0 c4 1d 3c 9f a0 31 bd
       0.10446638 0.016519794 0.009629473 -0.04336607
000010 8e 21 19 bd 15 1f 91 bc eb 3b 55 bd 15 2d 85 bd
       -0.037385516 -0.017715016 -0.052059095 -0.06502739
000020 f1 8f 8b 3c e6 4d b0 3c fd f6 8a 3d 56 8c a7 bc
       0.01703641 0.02152152 0.067853905 -0.02045266
000030 2b f5 80 3d e0 fb 47 3c d7 7f 06 3d 3d d7 00 3b
       0.06296762 0.012206048 0.03283676 0.0019659542
000040 e7 d3 64 3d 6d dc e7 3c f3 4e 82 bd 49 0d 06 3d
       0.05586615 0.02830335 -0.063627146 0.032727513
000050 9c 4c 42 3d f1 78 2c bd 33 43 8e 3c c9 bf b0 bd
       0.04743634 -0.042107526 0.017366027 -0.0863033
000060 12 a9 e4 ba bb 45 3e bd 97 91 30 3d 03 85 8b 3b
       -0.0017445406 -0.04645322 0.043107595 0.0042577996
000070 12 59 da bc 5c 32 4e 3c fe b6 68 bd 18 46 6a 3c
       -0.0266538 0.012585249 -0.05681514 0.014298938
000080 c1 ab b5 3c e2 a5 4d 3d 40 4e a1 3b bd 6e 54 3c
       0.022176625 0.050207026 0.004922658 0.012965855
000090 82 20 68 bc d6 bb 62 bb d3 92 0f 3d 07 f1 dd bc
       -0.014167907 -0.0034596822 0.03505213 -0.02709247
0000a0 2a b1 8a bd c3 f2 81 bd 7a 69 22 bd 86 ff eb 39
       -0.067720726 -0.06345131 -0.03965137 0.00045013073
0000b0 c4 a4 89 3d 7b e1 17 bd fd 2b e9 bc f5 3b d7 3c
       0.0672088 -0.03708027 -0.028463358 0.026273707
0000c0 cb 30 aa 3c 32 0a 81 bd 20 f4 6f 3c a1 aa 03 bd
       0.02077522 -0.06300773 0.014645606 -0.032145146
0000d0 28 8a 4f bd 05 6e 5c 3c f2 96 49 3d 7b bf 0d 3c
       -0.050668865 0.013453965 0.04921622 0.0086516095
0000e0 ac 5b 3f 3c 26 9a 6f bd 4d 74 8f 3b 8f 7c c7 bc
       0.011679571 -0.058496617 0.004377878 -0.024351386
0000f0 7f 71 39 bc 94 cf 48 bd 21 40 c6 3c 85 ab 3d bc
       -0.0113185635 -0.049026087 0.0242005 -0.011576538
000100 8f 8d 3f bd a8 90 31 bc 73 38 59 3c d4 e1 09 3d
       -0.04676586 -0.010837711 0.013258087 0.033662632
000110 dc 65 31 3b 43 95 17 bd af d8 31 3c 48 75 72 3d
       0.002706877 -0.03700758 0.010854884 0.05919388
000120 0b bc a4 bc 46 39 21 3d 60 de c7 bc 7f 0d df 3b
       -0.020109197 0.03936126 -0.024398029 0.006807029
000130 09 30 93 3d 22 a6 10 bd ad 3b 8b bc 5b cc a9 3c
       0.07186896 -0.035314687 -0.016996229 0.020727327
000140 83 4b 38 3d 60 98 99 3d c5 c9 79 3b 2a 11 e7 bb
       0.04499389 0.07499766 0.0038114649 -0.0070516067
000150 ab f6 0a bd ae 8a a8 3c ea fd 46 3d 07 ea 14 bd
       -0.033926647 0.02057394 0.048581995 -0.036356
000160 35 8c 28 bd f2 a5 12 bd 24 23 55 bd dc 59 0b 3d
       -0.041149337 -0.03580279 -0.052035466 0.034021243
000170 35 12 2a 3d 0c ee 92 3c da 91 07 bd 82 d2 60 3d
       0.04152127 0.017935775 -0.03309808 0.054888256
000180 97 02 1b 3d 7f 69 b3 3d fd 5d 20 bd c6 84 60 bd
       0.037844267 0.08760356 -0.039152134 -0.054814123
000190 a4 c3 5f bc 62 26 29 3d e8 9e 23 bc fa d5 48 bd
       -0.013657484 0.04129637 -0.009986617 -0.04903219
0001a0 85 f7 88 3b a9 78 1a be 9d 80 1a 3d 00 2e e2 3c
       0.0041798973 -0.1508509 0.03772031 0.027609825
0001b0 bf 02 2a bd e7 d9 94 3d d3 02 9a bc 75 f8 1d 3d
       -0.041506525 0.07268124 -0.018800175 0.038567025
0001c0 81 9b 1a 3d b3 16 0b 3d 1b fb 94 bc b5 f0 52 3b
       0.037745956 0.033957195 -0.018186143 0.003218693
0001d0 cc ed 14 3d 64 11 67 3d e5 c8 13 3d 83 b1 ba 3d
       0.036359593 0.05641307 0.03608026 0.09115889
0001e0 71 85 81 bd 5c 67 67 3d ff 09 85 3d fc 35 81 bd
       -0.0632428 0.056495056 0.06496047 -0.06309125
0001f0 c4 d4 23 3d 41 74 a9 bc ce 54 15 bb 95 9f 96 bc
       0.03999783 -0.020685317 -0.0022786143 -0.018386642
000200 21 94 80 bc f1 e5 df 3c 25 a1 24 3d 1f e2 0e 3d
       -0.015695633 0.027331324 0.040192742 0.034883615
000210 bd 82 20 3d 26 c5 1f 3d a8 0c b1 bc 94 61 0f 3c
       0.03918718 0.039006375 -0.02161248 0.008751292
000220 ea e2 5b 3c 53 b4 91 3d be 2b 2e ba a1 c6 00 bd
       0.0134208 0.07114472 -0.00066440913 -0.031439427
000230 b5 72 00 bd 0a f6 e0 3c f9 be 58 bc 42 09 8e 3c
       -0.031359393 0.02746107 -0.013229125 0.017338399
000240 63 03 e7 3c 3c a5 88 bc 97 ee c7 bc 31 85 8d bc
       0.028199857 -0.016680352 -0.02440576 -0.017275425
000250 c6 e7 0b 3d 0e eb 98 bb 72 88 85 bd cd 11 07 bd
       0.034156583 -0.0046666926 -0.065201655 -0.03297596
000260 40 dd 84 3c d2 a4 69 3d 33 98 f7 bc 90 32 d4 bc
       0.016218781 0.05704195 -0.030223941 -0.025903016
000270 16 ec f8 bc ea 64 3a 3c cb 0a 0c bd 26 f0 70 bc
       -0.030386012 0.011376599 -0.03418998 -0.014705693
000280 d0 af 0d 3d a2 aa 63 bc 43 93 8d 3a df 31 51 bd
       0.034591496 -0.0138956625 0.0010801334 -0.05107295
000290 2f 25 29 bd ef fe 57 39 3f 02 98 3c 07 34 69 3d
       -0.041295227 0.00020598968 0.018555759 0.056934383
0002a0 52 50 38 bc 7c 8c c6 3c 91 82 1a 3d 97 9a cb 3b
       -0.011249619 0.02423691 0.037722174 0.006213497
0002b0 ec e7 21 3c 85 3f d6 bc af ee 96 bc a3 38 8a bc
       0.009881955 -0.026153335 -0.01842436 -0.01687271
0002c0 dd e5 ab bb bb 36 73 3c d0 08 c8 3b 28 08 84 bd
       -0.0052459077 0.014844592 0.006104566 -0.06446868
0002d0 f3 e7 30 3d 6e 66 23 3d 57 6c 43 3d 2f 99 04 3d
       0.043189954 0.039892606 0.047710743 0.03237265
0002e0 f8 a0 99 bc ea 6c 7e 3d e7 e8 3f bd 4e 41 7d 3d
       -0.018753514 0.062115587 -0.046852972 0.061829858
0002f0 68 3e 31 bd a1 cd 84 bd 5f f2 5a bc 41 55 c0 bc
       -0.043272406 -0.06484533 -0.01336345 -0.023478152
000300 af f0 67 3c 62 b5 7a bc e6 e3 2f 3d 98 5f c1 3c
       0.0141565045 -0.015302034 0.04294195 0.023605153
000310 2c 58 cb bc a0 35 ba 3c dc 38 a8 3c e0 4c 41 3b
       -0.024822317 0.022730649 0.020534925 0.0029495284
000320 65 2b 6c 3c ae 84 68 bd 2f 1e 2c 3d 33 d7 24 bb
       0.014414643 -0.05676716 0.042020973 -0.0025152683
000330 d1 87 7d 3c 71 e9 2a 3c 9b 64 4f 3b 32 a7 5c bd
       0.015474276 0.010431633 0.003164566 -0.053870387
000340 a3 7a 8a 3c 19 51 18 bd d7 c7 15 b9 a9 9b 32 3d
       0.01690418 -0.037186716 -0.00014284193 0.04360548
000350 a0 7b 00 3d ad 1f e2 3b 53 6b 01 bd 79 fc 4c bd
       0.031367898 0.0069007487 -0.031596493 -0.050045464
000360 fc 6e 81 3d ae e3 f7 3c 5b 9a 01 bd 16 e5 08 3d
       0.06319997 0.030259933 -0.031641345 0.0334216
000370 79 88 04 3d 5c ff c3 3c d2 8d fe bb d1 89 25 bd
       0.032356713 0.023925476 -0.007768371 -0.040414635
000380 46 fb 57 3c 23 70 21 3d f4 de 6b bd ad 2e 64 3c
       0.013182467 0.039413583 -0.05758567 0.013927144
000390 1a ba 6d bd 87 ee 6b bd 16 04 42 3d 32 de 8f bd
       -0.05803881 -0.057600524 0.047367178 -0.07024802
0003a0 b4 51 66 3c 90 b3 58 3d 4d df 6b 3c 0a 60 5a bd
       0.0140575655 0.05290562 0.014396501 -0.053314246
0003b0 92 7e ed 3b 7c f7 54 3d 1d 02 f8 bc 29 b1 76 bd
       0.0072477544 0.051993832 -0.030274445 -0.060227547
0003c0 c9 01 b6 ba c0 f8 4f 3d af 15 7d 3b 31 36 9b 3d
       -0.001388603 0.050774336 0.003861766 0.075786956
0003d0 c1 13 43 3d 2e 91 90 bc 3c b4 ad bc 74 72 d9 bb
       0.04762626 -0.017647352 -0.021204107 -0.0066359583
0003e0 38 1b 3e bd 46 3e 33 3c 99 85 17 bd ec eb 2d 3d
       -0.046412677 0.01094014 -0.036992643 0.04246132
0003f0 c4 46 84 bd b6 cf b2 bc 71 75 b6 3c cd 34 76 3d
       -0.0645881 -0.02182756 0.022272797 0.06010895
