DQN/DQN_complete/save/main_model_000007.pth (torch_old, 809026 bytes, 10 tensors)

main_model.InputLayer.weight f4 [256, 7]
0	0x3e04b416	0.12959322
1	0xbd66d7ad	-0.05635803
2	0x3d22084d	0.039558697
3	0x3e203ac5	0.15647419
4	0x3eabd06e	0.33557457
5	0xbecdc900	-0.40192413
6	0xbd996950	-0.0749079
7	0x3e9e3bd6	0.30905026
8	0xbe9d6830	-0.3074355
9	0xbe5fc931	-0.21854092
10	0x3d402b42	0.046916254
11	0x3d34f92f	0.044182952
12	0xbf56b3c2	-0.8386804
13	0xbeaaf606	-0.33390826
14	0xbe416ab2	-0.18888357
15	0xbe2de94d	-0.16983528
16	0x3ccd33c7	0.025049103
17	0xbe3d6ec6	-0.18499288
18	0x3e9f4503	0.3110734
19	0x3d41ad2e	0.047284298
20	0x3e80ae07	0.25132772
21	0x3e96bc4e	0.2944054
22	0x3e3782d3	0.17920999
23	0xbd8becd7	-0.06832283
24	0xbcdc988b	-0.026928207
25	0x3ea1d215	0.31605592
26	0xbe494377	-0.19654642
27	0xbe583126	-0.21112499
28	0xbe8152d3	-0.25258502
29	0x3e8e5e1a	0.2780617
30	0xbe99534e	-0.2994637
31	0x3e9cbaf5	0.30611387
32	0x3d369129	0.04457203
33	0xbd35dc9e	-0.04439985
34	0x3e1e1c12	0.15440395
35	0xbc9fef67	-0.019523336
36	0x3e037d32	0.12840727
37	0x3d9788b1	0.07399119
38	0xbec524ab	-0.38504538
39	0xbece7501	-0.40323642
40	0xbed38686	-0.4131357
41	0x3e79f4e2	0.24409822
42	0x3da5164a	0.08060892
43	0xbda0cacd	-0.07851181
44	0xbda9cac1	-0.08290625
45	0x3e613548	0.21992981
46	0x3e1ad190	0.15119004
47	0xbe6ba46a	-0.23011938
48	0x3eb9ae79	0.36265925
49	0x3e544837	0.20730673
50	0xbe03068a	-0.12795463
51	0x3eb54eff	0.35411832
52	0x3e9a8957	0.30182907
53	0xbe879dac	-0.26487482
54	0x3cf10d23	0.02942521
55	0xbc5c5740	-0.013448536
56	0xbe79a939	-0.2438096
57	0xbe9d9da4	-0.30784333
58	0x3e543ae7	0.20725594
59	0x3ea6b499	0.3255966
60	0xbdb4c41f	-0.0882647
61	0x3eb5758d	0.35441247
62	0xbe2c4a7b	-0.16825287
63	0x3e0aff1b	0.13573878
64	0x3e920499	0.28519133
65	0xbc05ce7a	-0.008166904
66	0x3e95eaa9	0.29280594
67	0x3e58aca5	0.21159609
68	0xbd467626	-0.04845252
69	0x3ea1fe47	0.3163931
70	0x3ea6e0a2	0.32593256
71	0x3eb3cc46	0.35116786
72	0x3c330569	0.010926583
73	0x3d8fc68f	0.07020294
74	0xbe2f093c	-0.17093366
75	0x3e97838f	0.2959256
76	0x3e847d01	0.2587662
77	0xbea52b5c	-0.32259643
78	0x3e0e9a92	0.13926151
79	0xbd97d510	-0.07413685
80	0xbea1d35b	-0.31606564
81	0x3da56634	0.08076134
82	0x3e99fc45	0.3007528
83	0x3ea0b82d	0.31390515
84	0xbe72c31d	-0.23707242
85	0xbeafa724	-0.34307206
86	0xbd23ae8d	-0.039961386
87	0x3e8cde74	0.27513468
88	0xbe5d8492	-0.21632603
89	0x3da05132	0.07827987
90	0xbe688098	-0.22705305
91	0x3e204f88	0.15655339
92	0xbe9042a5	-0.28175846
93	0xbe836238	-0.25660872
94	0x3cecc8d3	0.028904354
95	0xbe0354e9	-0.1282536
96	0x3e89b44d	0.2689537
97	0x3d68c7e8	0.05683127
98	0xbe36a95a	-0.1783804
99	0x3dd13534	0.10215226
100	0xbeb176e0	-0.34661007
101	0x3c351c00	0.011054039
102	0xbe9e42f8	-0.30910468
103	0x3e086ede	0.13323542
104	0xbc846cb0	-0.016165107
105	0xbe4e2274	-0.2013033
106	0xbe8020c3	-0.25024995
107	0x3e1a8d51	0.1509297
108	0xbd0a60a2	-0.033783562
109	0x3cd91cc2	0.02650297
110	0x3c1e05d1	0.009644941
111	0xbeae3c9a	-0.3403061
112	0xbdcaca08	-0.09901816
113	0xbd88f710	-0.066877484
114	0xbe8076e5	-0.2509071
115	0xbdce5ffc	-0.10076901
116	0x3d0aa158	0.033845276
117	0x3de4110c	0.11136064
118	0x3d8d4758	0.06898373
119	0x3e150c8b	0.14555566
120	0xbe0f782b	-0.14010684
121	0xbd0b3c42	-0.033993013
122	0x3e6df3bd	0.2323751
123	0x3e604698	0.2190193
124	0xbd9834df	-0.07431959
125	0x3d13dbf8	0.03609845
126	0x3ea2e88c	0.31818044
127	0xbe1c2c1f	-0.15251206
128	0x3ea21020	0.31652927
129	0x3e1ad805	0.15121467
130	0xbe3ac7f9	-0.18240346
131	0xbe8372ca	-0.25673515
132	0x3ccf9570	0.025339812
133	0x3e6aad16	0.2291759
134	0x3eb4c5d7	0.3530719
135	0x3e8211ad	0.2540411
136	0x3d3a6276	0.045504056
137	0xbe466db3	-0.19377784
138	0x3eafc996	0.34333485
139	0x3e5ff1e2	0.21869615
140	0xbe0e1d26	-0.13878307
141	0xbe6b475e	-0.22976443
142	0xbe2fc387	-0.17164432
143	0xbe327cf3	-0.17430477
144	0x3d6e8a55	0.058237392
145	0xbe933642	-0.28752333
146	0x3d9cf194	0.07663265
147	0xbe49392b	-0.19650714
148	0xbe91600c	-0.2839359
149	0x3d17f700	0.037100792
150	0xbe769008	-0.24078381
151	0x3bc8aa00	0.006123781
152	0xbdbe16b8	-0.09281677
153	0x3ea96353	0.3308359
154	0xbe0fcbd6	-0.14042601
155	0x3eac44cf	0.33646247
156	0xbd881630	-0.06644857
157	0x3e389c74	0.18028432
158	0xbe766058	-0.2406019
159	0xbd09cf35	-0.033644874
160	0x3e8b101b	0.27160725
161	0x3e911098	0.28332973
162	0x3e5a5bc3	0.21324067
163	0x3eb05731	0.34441522
164	0xbc6c74c5	-0.014432137
165	0xbd4e00fc	-0.050293908
166	0x3e9af4db	0.30264935
167	0x3e19ee52	0.15032318
168	0x3e6e5075	0.2327288
169	0xbea7b0d0	-0.32752085
170	0xbe4a4187	-0.19751559
171	0xbec2e8b0	-0.3806815
172	0x3d4a1c1e	0.04934322
173	0x3e9b8a20	0.3037882
174	0x3eab0291	0.33400396
175	0xbdbee743	-0.093214534
176	0xbcba3a96	-0.022733014
177	0x3d15a285	0.036531944
178	0xbe2a6786	-0.16641054
179	0x3e90403e	0.28174013
180	0xbec8430a	-0.39113647
181	0x3dfdc174	0.12390414
182	0xbe408b59	-0.18803157
183	0x3d8ef129	0.069795914
184	0x3e7c18e0	0.24618864
185	0xbea8fab6	-0.33003777
186	0xbe8e3ba0	-0.27779865
187	0x3f393359	0.72343975
188	0x3eb8402b	0.35986456
189	0x3de43fe9	0.111450024
190	0x3e0b4bfe	0.13603207
191	0xbbf1c52b	-0.0073782406
192	0x3e21c792	0.15798786
193	0xbded856a	-0.11597712
194	0x3e2cf0f0	0.16888785
195	0xbde9be44	-0.114132434
196	0xbd488863	-0.048958194
197	0xbd9c9f28	-0.07647544
198	0x3e5b565c	0.21419662
199	0xbe83c606	-0.25737017
200	0xbe2f9218	-0.17145574
201	0x3eea4132	0.45752865
202	0x3d786478	0.06064269
203	0x3ea30f37	0.31847546
204	0xbe43a253	-0.1910489
205	0x3cdd29f3	0.026997542
206	0x3eab8651	0.33500913
207	0x3e34efd8	0.17669618
208	0xbe82ce28	-0.2554791
209	0xbe1a205f	-0.15051411
210	0x3c2ffd26	0.010741508
211	0xbae915a0	-0.0017782934
212	0x3e55f9cc	0.20896071
213	0x3e8b7950	0.27240992
214	0x3e96b5d6	0.29435605
215	0x3d8dbdbc	0.069209546
216	0xbe9fdea4	-0.3122455
217	0x3e8d097f	0.27546307
218	0xbd6dee41	-0.058088545
219	0xbe94717c	-0.28992832
220	0xbe967874	-0.29388773
221	0xbaf8880d	-0.0018961445
222	0x3e9504ba	0.2910517
223	0xbeba1c9d	-0.36349955
224	0xbddeb680	-0.10874653
225	0x3e7e3db8	0.24828231
226	0x3ea65085	0.32483307
227	0xbe838457	-0.25686905
228	0xbdcc935e	-0.099890456
229	0x3c97c3a6	0.01852591
230	0x3e61b91e	0.22043273
231	0xbd9e6f50	-0.07736075
232	0x3e6fd104	0.23419577
233	0xbead9894	-0.3390547
234	0x3e638f85	0.22222717
235	0x3e4cc088	0.1999532
236	0xbed1801f	-0.4091806
237	0x3c9f0610	0.01941207
238	0x3d872b35	0.06600038
239	0xbe594122	-0.21216252
240	0xbea889ba	-0.32917577
241	0xbe194b00	-0.14970016
242	0xbe02e687	-0.12783252
243	0x3d71cd46	0.059033655
244	0xbcdfd4f0	-0.027323216
245	0xbebfc3ed	-0.37454167
246	0xbe893378	-0.2679708
247	0x3e893071	0.2679477
248	0xbdc4bbcf	-0.09606134
249	0xbdb112b0	-0.086461425
250	0xbf1a74e2	-0.603346
251	0xbe53de05	-0.20690162
252	0xbd8f40cf	-0.06994783
253	0x3eb3972a	0.35076267
254	0x3e810b87	0.25204107
255	0x3eada8ca	0.33917838

main_model.InputLayer.bias f4 [256]
0	0xbe9dcc8f	-0.30820128
1	0xbe850ee4	-0.25987923
2	0x3e55591e	0.20834777
3	0xbe5c1e14	-0.21495849
4	0x3daf97ef	0.08573901
5	0x3eab074e	0.3340401
6	0x3e2a8382	0.16651729
7	0xbeab0c3b	-0.3340777
8	0x3e9f9817	0.31170723
9	0xbdf6b144	-0.120455295
10	0xbe3251b5	-0.17413981
11	0x3ec2edc4	0.38072026
12	0xbe559b8c	-0.20860118
13	0x3df3884e	0.118912324
14	0xbe8a91e8	-0.27064443
15	0x3e9ccf9c	0.30627143
16	0x3e5941c0	0.21216488
17	0xbe2a2da1	-0.16618969
18	0xbe1991d0	-0.1499703
19	0x3d10c48f	0.035343703
20	0x3e3b91f4	0.18317395
21	0x3eea652d	0.45780316
22	0xbe44525d	-0.19172044
23	0xbc7c2cec	-0.01539157
24	0x3e9169da	0.2840107
25	0x3d9430a6	0.072358415
26	0x3e26f445	0.16304119
27	0xbd4f920e	-0.050676398
28	0x3ea4b9c2	0.32172972
29	0x3e0b3cb1	0.1359737
30	0x3dfb358c	0.12266073
31	0xbce3fda0	-0.027830899
32	0x3d82082e	0.063492164
33	0x3e00b23e	0.12567994
34	0x3e8cbd58	0.27488208
35	0xbe74f079	-0.23919858
36	0xbe9ab1dd	-0.30213824
37	0x3dc35f0c	0.09539613
38	0x3dd48e24	0.10378674
39	0xbd986dab	-0.074427925
40	0xbd2786c7	-0.040900018
41	0xbded1467	-0.11576157
42	0xbd475518	-0.048665136
43	0x3d94e9f3	0.07271185
44	0xbebec794	-0.3726164
45	0xbe7d09b6	-0.24710736
46	0xbea2f64d	-0.31828538
47	0xbc56b0c1	-0.013103665
48	0xbc1970d5	-0.00936528
49	0x3e893bcd	0.26803437
50	0x3bc753af	0.006082974
51	0x3d8794c6	0.06620173
52	0xbcc15ae5	-0.023602912
53	0x3e3b56dc	0.18294853
54	0x3e9e5194	0.30921614
55	0xbe15e2fd	-0.1463737
56	0xbdb59498	-0.08866233
57	0xbe7d1975	-0.24716742
58	0x3dde37ec	0.1085051
59	0x3e48aca9	0.19597115
60	0x3ec3c53c	0.38236415
61	0x3e2ca789	0.16860785
62	0x3dd44885	0.103653945
63	0x3ddbb71d	0.107282855
64	0x3e9dc445	0.30813804
65	0xbea8e5eb	-0.32987913
66	0xbc8aba0b	-0.016934415
67	0x3ea3b32b	0.31972632
68	0xbe952dcc	-0.29136503
69	0x3ea890ec	0.32923067
70	0x3ed3c562	0.4136153
71	0xbde5865a	-0.11207266
72	0xbe986fb0	-0.2977271
73	0xbea66226	-0.32496756
74	0xbde3df40	-0.11126566
75	0xbe7a35c8	-0.24434578
76	0x3eabbb41	0.335413
77	0xbd8cafb9	-0.06869454
78	0x3e229cbe	0.15880105
79	0x3dedfa0e	0.1161996
80	0xbac5d2ea	-0.0015092765
81	0x3eb54e15	0.35411134
82	0x3cf8f7ef	0.030391661
83	0xbdc223e4	-0.09479502
84	0x3e72c025	0.2370611
85	0xbe91d1a0	-0.28480244
86	0x3e95700b	0.29187045
87	0xbdf9f911	-0.12205709
88	0xbd3a416f	-0.04547256
89	0xbecd2f05	-0.40074936
90	0x3de0a170	0.10968292
91	0xbe2e7d54	-0.17039996
92	0xbd294b93	-0.04133184
93	0xbe7ce793	-0.24697714
94	0xbe2c813f	-0.16846178
95	0xbe8a1155	-0.26966348
96	0xbe262e61	-0.1622863
97	0xbd9b3528	-0.07578498
98	0xbea65edd	-0.3249425
99	0x3e89c4e4	0.26908028
100	0xbe802681	-0.25029376
101	0x3e9918ad	0.2990164
102	0xbe273808	-0.16329968
103	0x3ec9622c	0.39332712
104	0x3e03d596	0.12874445
105	0x3e7ffd08	0.24998868
106	0x3dd76800	0.10517883
107	0x3e50afe4	0.20379597
108	0xbd9d6fda	-0.076873496
109	0x3eb57534	0.3544098
110	0x3e9053a4	0.28188813
111	0xbea346d7	-0.31889984
112	0xbe1e70ff	-0.15472792
113	0xbebcaaf4	-0.36849177
114	0x3cddb750	0.02706495
115	0xbeb5023c	-0.35353267
116	0xbe6d2954	-0.23160297
117	0xbe45dcec	-0.19322556
118	0xbea56dfa	-0.32310468
119	0xbe45db29	-0.19321884
120	0xbe1750bd	-0.14776893
121	0xbe70306d	-0.23455973
122	0xbdfdc46e	-0.123909816
123	0x3e3abadf	0.18235348
124	0xbd2d273b	-0.04227374
125	0x3d8f565a	0.06998892
126	0x3e92f1fc	0.28700244
127	0x3e1c5275	0.1526583
128	0xbc99b8fa	-0.018764962
129	0x3ed3fdb5	0.414045
130	0x3ed7e956	0.4217021
131	0x3e968bf5	0.29403654
132	0xbcfdf4e9	-0.031000571
133	0xbe8df247	-0.27723905
134	0xbdfd09ef	-0.1235541
135	0xbe0964df	-0.13417386
136	0xbe7a8425	-0.24464472
137	0x3eb6ef27	0.35729334
138	0xbd1cd4ec	-0.038288996
139	0x3edaa17c	0.42701328
140	0xbe62e3e6	-0.22157249
141	0x3df63d56	0.12023418
142	0x3e8f058d	0.27933922
143	0x3e6d17f8	0.23153675
144	0xbd86753f	-0.06565332
145	0xbe6574c7	-0.22407828
146	0x3ebf5220	0.37367344
147	0x3ed21009	0.4102786
148	0x3e3e1ee3	0.1856647
149	0xbdf87138	-0.1213097
150	0xbe2e3b84	-0.17014891
151	0xbe14bdd4	-0.14525539
152	0xbec42321	-0.3830805
153	0x3ebcc2c6	0.3686735
154	0xbe31b73f	-0.17355059
155	0x3e053776	0.13009438
156	0x3ea2209d	0.31665507
157	0xbd0172b5	-0.031603534
158	0xbe196fe7	-0.14984094
159	0x3e89a72c	0.26885355
160	0x3ea66c4d	0.32504502
161	0xbea1b50a	-0.31583434
162	0x3e091d97	0.13390194
163	0x3ea8effc	0.32995594
164	0xbe0d5591	-0.13802172
165	0x3ddc1255	0.10745684
166	0xbde1fb94	-0.11034313
167	0xbe524df5	-0.20537551
168	0xbe925ce9	-0.2858651
169	0xbeb6de0f	-0.35716292
170	0x3ee5abce	0.4485764
171	0xbec18f40	-0.37804604
172	0x3ea6a280	0.32545853
173	0x3d3ae008	0.04562381
174	0xbeb2e331	-0.34938958
175	0x3e671713	0.22567396
176	0xbe43ba9c	-0.19114155
177	0x3d22bb0e	0.03972917
178	0xbd520d9f	-0.05128252
179	0x3ee4626f	0.4460635
180	0xbcb38b3c	-0.021916978
181	0xbdccc709	-0.099989004
182	0x3eaa8d17	0.33310768
183	0x3e96f326	0.29482383
184	0xbea97906	-0.33100146
185	0x3ece822e	0.40333694
186	0x3e8ca6cf	0.27471015
187	0xbe9d43b7	-0.30715725
188	0x3ecf2dab	0.4046453
189	0xbdd4e9c4	-0.1039615
190	0x3d9519e1	0.07280327
191	0xbe97ee40	-0.29673958
192	0x3e1d6b7a	0.1537303
193	0x3ee06d5d	0.43833438
194	0x3e64e7dc	0.22354072
195	0x3eb61c5b	0.35568509
196	0x3ea99cb2	0.33127362
197	0x3e412529	0.18861832
198	0xbe935bea	-0.28781062
199	0x3e4a77ef	0.19772314
200	0xbd236b13	-0.039897036
201	0x3e9f98dd	0.31171313
202	0x3e939edd	0.2883214
203	0x3e8daa31	0.27668908
204	0xbe890502	-0.26761633
205	0x3e8f0c91	0.27939275
206	0xbe8e5394	-0.2779814
207	0xbe29b816	-0.1657413
208	0x3d4a23fd	0.049350727
209	0xbeb44d8e	-0.3521542
210	0xbc013f56	-0.007888636
211	0x3e1d23f9	0.15345754
212	0xbead17e7	-0.338073
213	0xbe89f22a	-0.2694257
214	0xbebf8033	-0.37402496
215	0xbec5dc0a	-0.3864444
216	0xbe4b2358	-0.19837701
217	0x3e49e73d	0.19717117
218	0x3e30f327	0.17280255
219	0xbe8bbc60	-0.27292156
220	0x3e1cf3cd	0.15327378
221	0xbe3ff557	-0.18745933
222	0x3e3b301c	0.18280071
223	0x3eab09ed	0.3340601
224	0x3e9121db	0.28346142
225	0x3d0cbd19	0.034360025
226	0xbe4ca7ae	-0.1998584
227	0xbdb02965	-0.086016454
228	0x3ebbca07	0.36677572
229	0xbdc259ef	-0.0948981
230	0xbd8eb5c9	-0.069682665
231	0xbe8c1531	-0.27359918
232	0x3e943b75	0.28951612
233	0x3cc725d5	0.024310032
234	0x3e8b4111	0.2719808
235	0x3e817a4e	0.25288624
236	0xbeb4b68c	-0.35295522
237	0xbd5440f8	-0.05181977
238	0xbd9619aa	-0.07329114
239	0xbdb57fdc	-0.08862278
240	0xbe6204f4	-0.22072202
241	0xbe6ff4ba	-0.234332
242	0xbe051d27	-0.12999402
243	0x3e99bc39	0.30026415
244	0x3e276996	0.16348872
245	0xbe104510	-0.14088845
246	0x3e0cc340	0.13746357
247	0x3e13ab2a	0.14420763
248	0x3e8bf89a	0.27338105
249	0x3eb48ffa	0.35266095
250	0xbe16f017	-0.14740025
251	0xbeb0c116	-0.34522313
252	0x3e56bab7	0.20969664
253	0xbec1a894	-0.37823927
254	0xbe77d194	-0.24201041
255	0x3eaddd22	0.33957773

main_model.hiddenlayer_0.weight f4 [256, 256]
0	0xbba04870	-0.0048914477
1	0xbd7c273e	-0.06156086
2	0xbd4890f4	-0.048966363
3	0xbc53b448	-0.0129214
4	0x3d1a35ee	0.037649088
5	0xbd7341a8	-0.059388787
6	0x3d079628	0.033102185
7	0x3d2ec81e	0.042671315
8	0xbd2d6b38	-0.04233858
9	0xbcf67780	-0.030086279
10	0xbd238716	-0.03992375
11	0x3d024d50	0.031812012
12	0x3bd2cdf0	0.006433241
13	0xbd76b5d2	-0.06023199
14	0x3d661902	0.056176193
15	0xbbbcb220	-0.005758539
16	0x3d4c9ab8	0.04995224
17	0x3a920580	0.0011140555
18	0x3d63ecf8	0.055645913
19	0xbd72f08a	-0.059311427
20	0x3d660364	0.056155577
21	0x3c77d870	0.015127286
22	0x3bc11f80	0.0058936477
23	0xbd551a12	-0.052026816
24	0x3d29dfc6	0.041473173
25	0xbc96292c	-0.01833018
26	0x3d0a54f0	0.03377241
27	0xbd27fb56	-0.041011177
28	0xbd24877e	-0.040168278
29	0xbc99ac14	-0.018758811
30	0x3cdda408	0.027055755
31	0xbcb094d8	-0.02155535
32	0xbb559700	-0.0032591224
33	0xbd7d1e88	-0.061796695
34	0xbb7f0a60	-0.0038916096
35	0x3ba8b120	0.005148068
36	0xbce55dc0	-0.027998805
37	0xbc906120	-0.017624438
38	0xbcddfc08	-0.027097717
39	0x3d7ba292	0.061434336
40	0xb9897a00	-0.00026221573
41	0x3c1e5ee0	0.009666175
42	0x3cd68edc	0.026191168
43	0x3c1fb618	0.009748004
44	0xbd4c6594	-0.04990156
45	0x3d44faf6	0.048090898
46	0xbd0006f2	-0.031256624
47	0x3c5e8768	0.013582088
48	0xbcc24810	-0.023716003
49	0x3d7eb57a	0.06218479
50	0x3d21bbc2	0.0394857
51	0x3d57d142	0.0526898
52	0x3d0d73fa	0.034534432
53	0xbd664064	-0.05621375
54	0x3c0a7b28	0.008452214
55	0xbcba763c	-0.022761457
56	0x3ce0b898	0.027431771
57	0xbc321160	-0.0108684
58	0xbcd41f38	-0.025893793
59	0x3d11042a	0.03540436
60	0xbcb2422c	-0.021760069
61	0x3b3a9140	0.0028467923
62	0xbd3900f0	-0.04516691
63	0x3d753246	0.059862398
64	0xbd482046	-0.048858903
65	0x3d4cce08	0.050001174
66	0x3d070f6a	0.032973684
67	0xbb630800	-0.003464222
68	0xbb1fd500	-0.0024388433
69	0xbc0a6858	-0.008447729
70	0xbd57a57e	-0.05264806
71	0x3cd7f238	0.026360616
72	0xbc7b0008	-0.015319832
73	0xbd43e39a	-0.04782448
74	0xbcb3ea2c	-0.021962248
75	0xbd3bfff8	-0.045898408
76	0x3c668a48	0.014071055
77	0x3d4d1444	0.050068155
78	0xbd453a8e	-0.048151545
79	0xbc6646d8	-0.014054976
80	0x38ea8000	0.00011181831
81	0x3d5db7b2	0.054130264
82	0xbcec08c4	-0.028812774
83	0x3b231f00	0.0024890304
84	0xbd117ba8	-0.03551832
85	0xbd3c481e	-0.045967214
86	0xbd37b8a0	-0.044853806
87	0xbd76cad8	-0.06025204
88	0x3c24b830	0.010053679
89	0x3ceff730	0.029292673
90	0x3d09b88e	0.03362327
91	0xbd07b7bc	-0.033134207
92	0xbd0be840	-0.034157038
93	0x3d520cee	0.051281862
94	0xbd090af8	-0.033457726
95	0xba1e7b80	-0.00060456246
96	0x3d5f8a44	0.05457522
97	0xbd6bed4e	-0.05759936
98	0xbc58cb78	-0.0132321045
99	0xbc7dcdd8	-0.0154909715
100	0x3d7b6460	0.061375022
101	0xbd53732a	-0.0516235
102	0xbd02b59e	-0.031911485
103	0xbd04496a	-0.032296576
104	0x3d40d96c	0.04708235
105	0xba6d9780	-0.0009063408
106	0x3c753618	0.01496651
107	0xbd59a9e2	-0.05314053
108	0xbc8fad5c	-0.017538719
109	0x3d334e8c	0.04377608
110	0x3d51cf76	0.05122324
111	0x3d7de158	0.061982483
112	0x3d518684	0.051153675
113	0x3d422a50	0.047403634
114	0xba3b6600	-0.0007148683
115	0xbd4301a2	-0.04760898
116	0x3cdd9ac0	0.02705133
117	0xbcf426e4	-0.0298037
118	0xbd48fc6c	-0.049068853
119	0xbd1fa8e4	-0.038979426
120	0x3bb32250	0.005466737
121	0xbd73499e	-0.05939638
122	0xbd70dd7a	-0.058804967
123	0xbcdd5164	-0.02701635
124	0xba5c4680	-0.00084028393
125	0x3d21f488	0.039539844
126	0xbd4e5aa0	-0.050379395
127	0xbbe66d40	-0.0070320666
128	0x3d55dd68	0.052213103
129	0x3ca78c54	0.020452656
130	0x3cab12a0	0.020882905
131	0xbd1aaaa6	-0.0377604
132	0xbcfd9efc	-0.030959599
133	0x3d25d56a	0.04048673
134	0xbd0d4a64	-0.034494773
135	0x3c176458	0.009240232
136	0x3a006100	0.00048972666
137	0xbc8cdef4	-0.017196156
138	0x3c1e2e90	0.009654656
139	0x3d75b99e	0.05999147
140	0xbc37e0a0	-0.011222988
141	0x3d6b7dfe	0.057493202
142	0xbd0105f6	-0.031499825
143	0x3ce6ae00	0.028159142
144	0xbd7a02ac	-0.061037704
145	0xbaa9ae80	-0.0012945682
146	0xbd0b21b2	-0.03396768
147	0x3cb3519c	0.0218895
148	0x3cf66db8	0.030081615
149	0x3d57042c	0.052494213
150	0x3d37bc32	0.04485721
151	0x3d19c30e	0.037539534
152	0xbb944950	-0.004525341
153	0xbd63fc6a	-0.055660643
154	0x3d1c3006	0.038131736
155	0x3cf24148	0.029572144
156	0xbc7e7120	-0.015529901
157	0x3cb6ff04	0.022338398
158	0xbd7a8294	-0.061159685
159	0xbd6e20f8	-0.05813691
160	0x3d0bc646	0.034124635
161	0x3ccfc18c	0.025360845
162	0x3aaed980	0.0013339967
163	0x3a8766c0	0.0010330305
164	0xbd57add0	-0.052655995
165	0xbc8b300c	-0.016990684
166	0x3d3410b6	0.04396125
167	0xbc9a6298	-0.018845841
168	0xbd754612	-0.059881277
169	0xbcd007f8	-0.025394425
170	0x3ce76c00	0.02824974
171	0xbbccdda0	-0.0062520057
172	0xbd54de88	-0.051970035
173	0x3c7954f0	0.015218005
174	0xbcb848bc	-0.02249562
175	0x3cc881a0	0.024475873
176	0xbc7e73f8	-0.015530579
177	0xbcd4d990	-0.025982648
178	0x3c066270	0.00820218
179	0xbc81eda8	-0.015860394
180	0x3c722bf8	0.014780991
181	0x3d6db90c	0.058037803
182	0x3d2c3596	0.04204329
183	0xbcbc6958	-0.02299945
184	0xbd4e1614	-0.050314024
185	0x3d5d87a0	0.05408442
186	0x3c56a9c0	0.013101995
187	0xbc976bd8	-0.018484041
188	0x3c9c5cf4	0.019087292
189	0x3cdf1238	0.027230367
190	0x3d430de6	0.047620676
191	0x3d124bf6	0.035716973
192	0xbcb1b500	-0.021692753
193	0x3ca5fae4	0.020261236
194	0xbd060790	-0.032722056
195	0xbcc22e2c	-0.023703657
196	0x3cee56a4	0.029094048
197	0xbca28db0	-0.019842952
198	0x3d48584a	0.048912324
199	0xbb305de0	-0.0026911423
200	0x3cbc551c	0.022989802
201	0x3d68a602	0.056798942
202	0xbd65c7ea	-0.056098856
203	0xbd182a1a	-0.037149526
204	0x3d7e13c2	0.06203056
205	0xbd458900	-0.048226357
206	0x3d1b1562	0.03786219
207	0x3d2a7bfc	0.041622147
208	0xbd6d6b88	-0.057963878
209	0x3d7fae0e	0.06242185
210	0x3be21f90	0.006900735
211	0x3c58aed0	0.013225272
212	0xbd3471b4	-0.04405375
213	0xbce13058	-0.027488872
214	0x3d78e4ba	0.060765006
215	0xbccab91c	-0.02474647
216	0xbc1dda80	-0.009634614
217	0xbd3e5676	-0.046469174
218	0xbb349160	-0.002755247
219	0x3d5f07ae	0.054450683
220	0xbca64400	-0.020296097
221	0xbbcc3710	-0.00623215
222	0xbcd8715c	-0.026421241
223	0xbd66cca0	-0.05634749
224	0x3d6d35c0	0.057912588
225	0x3bc56da0	0.006025031
226	0xbd0aba42	-0.033869036
227	0x3d5218b4	0.05129309
228	0x3d5546ae	0.05206936
229	0xba32d480	-0.0006821826
230	0xbd713462	-0.058887847
231	0xbccfb054	-0.025352634
232	0xbd074694	-0.033026293
233	0x3d6ebb4a	0.05828408
234	0xbd60ce82	-0.05488444
235	0xbb3c1640	-0.0028699785
236	0xbd4fcbc4	-0.050731435
237	0x3d4b3150	0.049607575
238	0xbd55a910	-0.052163184
239	0x3c0456b8	0.008077316
240	0x3d297f46	0.041381143
241	0x3cf47b40	0.029843926
242	0xbcefad4c	-0.02925744
243	0x3d0f9512	0.035054274
244	0x3bf24ba0	0.007394269
245	0xbd2a8720	-0.04163277
246	0xbc2470a0	-0.0100366175
247	0xbd2e2072	-0.04251141
248	0xbccdcbdc	-0.025121622
249	0xbc86334c	-0.016381882
250	0xbc7e1448	-0.015507765
251	0xbd21585a	-0.0393909
252	0xbc3c9958	-0.011511169
253	0x3d022026	0.03176894
254	0x3d092f38	0.033492297
255	0xbd21dbd2	-0.039516278

main_model.hiddenlayer_0.bias f4 [256]
0	0x3d5a003c	0.05322288
1	0xbd92b768	-0.07163888
2	0xbc536d2f	-0.012904449
3	0x3d541df6	0.051786385
4	0xbbec35a4	-0.007208543
5	0x3d503aa9	0.050837193
6	0x3d227179	0.039658997
7	0x3c7e0e38	0.01550632
8	0x3dfd0d53	0.12356057
9	0xbd43a482	-0.04776431
10	0x3cba0d08	0.022711292
11	0x3cc989ca	0.024601836
12	0xbc9c97e0	-0.019115388
13	0x3d3a672c	0.04550855
14	0x3d405a7e	0.0469613
15	0x3c27a5fb	0.010232444
16	0xbd8a284d	-0.06745968
17	0xbd3ddc46	-0.046352647
18	0xbd3ce230	-0.046114147
19	0xbce62758	-0.028094932
20	0xbcf2c609	-0.029635446
21	0x3c2e3636	0.010633042
22	0xbd55affd	-0.05216979
23	0x3d537ff5	0.0516357
24	0xbb6291d5	-0.0034571786
25	0x3d04af8e	0.032393984
26	0xbc88176f	-0.016612737
27	0x3d503207	0.05082896
28	0xbcb72ddd	-0.022360737
29	0xbd4c7125	-0.04991259
30	0x3bc866e4	0.006115781
31	0xbb32db00	-0.0027291179
32	0xbd1c00e2	-0.03808678
33	0xbd05653d	-0.03256725
34	0x3df910b6	0.121613905
35	0xb9778ed2	-0.0002360896
36	0x3d1d267e	0.038366787
37	0xbc206688	-0.00979007
38	0xbd136fad	-0.035995174
39	0x3caca4e5	0.021074722
40	0x3ddcfb6d	0.10790143
41	0x3dee3530	0.116312385
42	0x3dccadf6	0.09994118
43	0x3e0cc7f9	0.13748159
44	0x3d8500eb	0.06494316
45	0xbca1253f	-0.01967108
46	0xbd13d9ce	-0.036096387
47	0xbd6ea56c	-0.058263227
48	0xbd189fd4	-0.0372618
49	0x3d7fad88	0.06242135
50	0xbbc2842a	-0.0059361653
51	0x3db73a20	0.08946633
52	0x3c60f7d4	0.013730962
53	0xbc1c07ce	-0.009523345
54	0xbd17b1d6	-0.037034832
55	0x3d8dc5be	0.06922482
56	0x3ca920d8	0.020645544
57	0x3c401d9f	0.011725812
58	0x3d1d2f44	0.038375154
59	0xbd644328	-0.055728108
60	0x3ce0e1b4	0.027451374
61	0x3d928e01	0.07155991
62	0xbcb161b6	-0.021653038
63	0x3d0797e6	0.033103846
64	0xbd447ce4	-0.047970667
65	0xbbab4950	-0.0052272454
66	0x3be67a87	0.0070336494
67	0xbd548e74	-0.051893666
68	0x3c3b0dce	0.0114168655
69	0xbcc20ba0	-0.023687184
70	0xbd654b73	-0.055980157
71	0xbd4c553f	-0.049885985
72	0x3d5cf4db	0.05394445
73	0xbd5d389d	-0.05400907
74	0xbce35b35	-0.027753452
75	0x3c3ebb6a	0.011641363
76	0xbd5f361d	-0.054494966
77	0x3be3db61	0.0069536422
78	0x3d34b6d3	0.044119667
79	0x3c8f26e8	0.017474607
80	0xbd544c67	-0.051830675
81	0x3c819815	0.015819589
82	0xbd3151b9	-0.043290827
83	0x3cd9b2a3	0.026574438
84	0x3cf332dc	0.029687338
85	0x3dbe1629	0.092815705
86	0x3b604f6f	0.0034227034
87	0x3d3c8766	0.046027564
88	0x3d5cdb43	0.05392004
89	0x3d73ba39	0.059503768
90	0xbd11e6b7	-0.035620417
91	0x3caaf9fc	0.020871155
92	0x3c3c3903	0.011488202
93	0xbcf580f4	-0.029968716
94	0x3d21eddf	0.039533492
95	0x3d4bed0f	0.049786624
96	0xbb0db579	-0.0021623059
97	0x3ca4ea09	0.020131128
98	0x3be119d0	0.006869532
99	0xbd20ac14	-0.039226606
100	0x3d6eea7d	0.058329094
101	0x3d42902d	0.047500778
102	0x3d2a4c1d	0.041576494
103	0x3d804e34	0.06264916
104	0xbd46682c	-0.04843919
105	0x3d3529f2	0.044229455
106	0x397f9832	0.00024375392
107	0xbd6839f0	-0.05669588
108	0x3cb0b36d	0.021569932
109	0x3c86b5f6	0.016444188
110	0xbd8d1627	-0.06888991
111	0xbc264630	-0.01014857
112	0x3c824509	0.01590206
113	0xbaabaf8e	-0.0013098584
114	0xbb7d9e5f	-0.0038699133
115	0x3dfb0bb6	0.12258093
116	0x3c2ca128	0.0105364695
117	0xbd3f34a1	-0.04668105
118	0x3cdb7533	0.026789283
119	0x3b69c1ee	0.003566857
120	0x3d8c4058	0.0684821
121	0x3c9a09fe	0.018803593
122	0x3cea35a5	0.028590033
123	0xbd92fd38	-0.07177204
124	0xbc2d827b	-0.010590191
125	0xbc77c298	-0.015122078
126	0x3d84731c	0.06467268
127	0xbd08de48	-0.03341511
128	0x3d662447	0.05618694
129	0xbd01dbe1	-0.031703833
130	0x3d36ca11	0.0446263
131	0xbc2b8ca2	-0.010470541
132	0xb92b8c00	-0.00016359985
133	0x3c841172	0.0161216
134	0x3d370ddb	0.044690948
135	0xbd681542	-0.056660898
136	0xba25978e	-0.0006316834
137	0x3d61be58	0.055113167
138	0xbbc9e8f2	-0.0061618024
139	0x3acb858a	0.0015527469
140	0xba758da7	-0.0009367116
141	0x3d471799	0.04860649
142	0x3d364cde	0.0445069
143	0xbd477375	-0.048694093
144	0x3be3ee24	0.006955879
145	0xbc2deb69	-0.010615208
146	0x3c50c82e	0.012743039
147	0x3c4e42fe	0.012589214
148	0x3d7a33e6	0.06108465
149	0xbd0491fb	-0.03236578
150	0x3dd93908	0.10606581
151	0x3d7015ba	0.05861447
152	0xbd5b6086	-0.05355885
153	0xbcc3c714	-0.023898639
154	0x3d3616e2	0.044455417
155	0xbc5cf4e4	-0.013486121
156	0x3d421976	0.047387563
157	0x3cfa1320	0.030526698
158	0x3c3df55b	0.011594142
159	0x3d85abc7	0.065269046
160	0xbc566c19	-0.013087296
161	0xbc03b066	-0.008037662
162	0x3b80d005	0.003931048
163	0xbd1e5817	-0.038658228
164	0x3c89c366	0.016816806
165	0x3d948822	0.07252528
166	0x3dae34c5	0.08506159
167	0x3a5d1fb7	0.0008435207
168	0x3d546045	0.051849622
169	0x3b9029cb	0.0043995134
170	0xbd88668d	-0.06660185
171	0x3ca98fa7	0.020698382
172	0xbc541b0e	-0.012945903
173	0xbc695d8b	-0.014243494
174	0xbc269aec	-0.010168772
175	0x3d1bd8c0	0.038048506
176	0x3d31fb52	0.04345257
177	0x3cf726b3	0.03016982
178	0xbd045cb6	-0.03231498
179	0xbd05ff3e	-0.03271412
180	0x3dda8402	0.1066971
181	0x3d6a4d80	0.057202816
182	0xbd8710fd	-0.06595037
183	0x3ca266a0	0.019824326
184	0xbceebf3d	-0.029143924
185	0x3d30f356	0.043200813
186	0xbd6e72a7	-0.05821481
187	0xbc92692a	-0.017872412
188	0xbbf4da4f	-0.0074723135
189	0x3d1793c2	0.037006147
190	0x3c0baf78	0.008525722
191	0x3d023b06	0.03179457
192	0xbbeece4b	-0.0072877756
193	0x3da92635	0.082592405
194	0xbd310e1c	-0.043226346
195	0x3d4bb957	0.0497373
196	0xbcbbbf8f	-0.02291849
197	0xbd76087c	-0.060066685
198	0xbd6e252b	-0.058140915
199	0xbd30bb80	-0.043147564
200	0x3dae8b1a	0.08522625
201	0x3b6380ab	0.0034714143
202	0x3d8bbfc6	0.06823687
203	0x3d30889a	0.043099023
204	0xbcaa1b0c	-0.02076485
205	0x3d97c430	0.07410467
206	0x3ce320b2	0.027725551
207	0xbd350488	-0.044193774
208	0xbd8c9e5d	-0.06866143
209	0xbca51f8f	-0.02015665
210	0xbc9f1024	-0.019416876
211	0xbd7b1a82	-0.061304577
212	0x3d4be1dd	0.049775947
213	0xbc8f51ac	-0.017494999
214	0xbb605bec	-0.0034234477
215	0x3cf12d6b	0.029440602
216	0x3ce2dddb	0.02769368
217	0x3d855ea7	0.06512194
218	0xbce4c9ed	-0.027928317
219	0x3d0d909b	0.034561735
220	0xbc872612	-0.016497646
221	0xbd9ef22f	-0.077610366
222	0x3cfc47c9	0.030795949
223	0x3d943c20	0.072380304
224	0x3d5e292b	0.05423848
225	0x3ccab76f	0.024745671
226	0xbc6797a1	-0.014135272
227	0x3d65ed3c	0.056134447
228	0x3dd47ee0	0.10375762
229	0xbc42e040	-0.011894286
230	0x3c0bce49	0.008533069
231	0xbd13cdbd	-0.03608488
232	0xbcce6f11	-0.025199445
233	0xbb95de62	-0.0045736292
234	0xbd071367	-0.032977488
235	0xbc7ac453	-0.015305596
236	0xbc210c02	-0.009829523
237	0x3d10b22d	0.03532617
238	0xbcfc4454	-0.0307943
239	0x3d0b32b2	0.033983894
240	0xbb4dc62e	-0.0031398642
241	0xbc640517	-0.013917229
242	0xbd19a5da	-0.037511684
243	0x3d6b01e1	0.05737484
244	0x3cf7af90	0.030235082
245	0xbb9282ec	-0.0044711735
246	0x3bd6f5f5	0.006560082
247	0x3d5b03a6	0.053470276
248	0xbcd76098	-0.026291177
249	0x3c60f665	0.01373062
250	0xbcd96b90	-0.026540548
251	0xbcc58a71	-0.024113866
252	0xbc2ca4d0	-0.010537341
253	0xbd16284f	-0.036659535
254	0xbd948285	-0.07251457
255	0x3d4dc2d0	0.050234616

main_model.hiddenlayer_1.weight f4 [256, 256]
0	0xbd316da0	-0.043317437
1	0xbd04cfce	-0.03242474
2	0x3c591cbb	0.013251479
3	0x3d5318c6	0.051537298
4	0x3c6d3d8b	0.014480005
5	0x3d0779a2	0.033074982
6	0xbac299f2	-0.0014846905
7	0xbbd96350	-0.0066341534
8	0xba3a2073	-0.0007100172
9	0xbd3e8fb8	-0.04652378
10	0x3d64b40e	0.055835776
11	0x3c0aead3	0.008478838
12	0xba6b7400	-0.0008981824
13	0xbbd6f512	-0.0065599764
14	0x3da2e35c	0.079535216
15	0xbcac1a74	-0.021008708
16	0xbd993ae5	-0.07481936
17	0xbc86f982	-0.016476396
18	0x3d7bdc50	0.061489403
19	0x3c725a20	0.014791995
20	0x3d249540	0.0401814
21	0x3d8db230	0.06918752
22	0xbcd7dca9	-0.026350336
23	0x3cff7c4b	0.031187197
24	0x3a8829c6	0.0010388426
25	0xbd2c9f0c	-0.042143866
26	0xbc888a6c	-0.016667567
27	0x3cf46f6f	0.029838292
28	0x3c04a6e5	0.008096431
29	0xbdbd5a9d	-0.09245799
30	0xbd1ee064	-0.038788214
31	0xbd181142	-0.037125833
32	0x3d924f4d	0.07144032
33	0xbc8421d9	-0.016129421
34	0x3d6762df	0.056490775
35	0xba8b3d40	-0.0010623112
36	0xbd1bcc94	-0.038036898
37	0xbd4ad114	-0.0495158
38	0xbd00c58c	-0.031438395
39	0x3cc692b0	0.024239868
40	0x3c7b560a	0.0153403375
41	0x3d85d6c3	0.06535103
42	0x3d9f0243	0.07764103
43	0x3d3857c3	0.04500557
44	0xbd1cd008	-0.03828433
45	0xbc5a5279	-0.013325327
46	0x3caf7a54	0.021420635
47	0xbac39440	-0.0014921501
48	0x3c6a5daa	0.014304558
49	0x3d72f930	0.059319675
50	0xbd82c963	-0.06386068
51	0x3dc2b799	0.09507675
52	0x3d84b529	0.06479866
53	0xbd524a36	-0.051340304
54	0xbd14b3a2	-0.036304124
55	0x3ba22a05	0.004948857
56	0xbd880920	-0.066423655
57	0xbc9189dc	-0.017765932
58	0x3df530ad	0.11972175
59	0x3d257807	0.04039767
60	0x3d8a14bf	0.06742238
61	0x3d4d1a32	0.05007381
62	0xbd44d93c	-0.048058733
63	0x3d88151a	0.0664465
64	0x3cb230a3	0.021751707
65	0x3c43a100	0.011940241
66	0xbd582a52	-0.052774735
67	0x3bde3850	0.0067816153
68	0x3d800676	0.06251232
69	0x3d24356c	0.04009001
70	0x3cb2006f	0.021728722
71	0xbc17f4d6	-0.009274682
72	0x3ddb5013	0.10708632
73	0x3d0617b5	0.032737453
74	0xbd2ff385	-0.042956848
75	0xbcc0870d	-0.023501897
76	0xbd90c190	-0.07068169
77	0xbd0c9f4c	-0.034331605
78	0x3d3329b2	0.043740936
79	0xbcbe6fa4	-0.023246594
80	0xbdcf2591	-0.10114587
81	0x3d5dff26	0.054198407
82	0x3d041f0b	0.032256167
83	0x3d022c32	0.03178043
84	0xbd6fbfa2	-0.058532365
85	0x3dd7b694	0.10532871
86	0x3c30b0cd	0.01078434
87	0x3ddd44fa	0.10804172
88	0x3d0fa375	0.035067994
89	0x3d8cbcd1	0.06871951
90	0x3cd41f1e	0.025893744
91	0x3d212954	0.039346054
92	0x3c888603	0.016665464
93	0x3b93d71c	0.004511727
94	0x3840723f	4.5882767e-05
95	0x3dc3159a	0.095256045
96	0xbd603e8b	-0.054747146
97	0x3d2338a3	0.039848935
98	0xbd31aad4	-0.043375805
99	0x3cad7749	0.021175044
100	0xbc4d83dc	-0.012543645
101	0x3d0577db	0.032585006
102	0xbcbcd4b4	-0.023050644
103	0x3c9dd56a	0.019266803
104	0xbd4496ee	-0.0479955
105	0xbcbbd10e	-0.022926833
106	0xbd5e28a2	-0.05423797
107	0xbd9a22fc	-0.07526204
108	0x3c810fd3	0.015754616
109	0xbd51bb70	-0.051204145
110	0xbd8cea6e	-0.068806514
111	0x3d3fc0c8	0.04681471
112	0xbc70e372	-0.014702665
113	0x3d7ba5c1	0.061437372
114	0xbc550c2d	-0.013003391
115	0x3d362448	0.044468194
116	0xbd055104	-0.032547966
117	0xbd6f9161	-0.058488254
118	0xbce2e36c	-0.027696334
119	0xbcaf6007	-0.021408094
120	0x3d10bdaf	0.035337146
121	0xbd66bef5	-0.056334455
122	0x3d82a82f	0.06379735
123	0xbcef35c0	-0.029200435
124	0x3d433190	0.04765469
125	0x3ccaca08	0.02475454
126	0xbd886a3f	-0.0666089
127	0x3d4d0523	0.050053727
128	0x3d651e12	0.05593688
129	0x3d6a06d6	0.057135426
130	0x3d5ef54b	0.05443315
131	0x3d42d3c9	0.047565255
132	0xbc9dfaec	-0.019284688
133	0x3cac8f0c	0.021064304
134	0xbcffdc00	-0.031232834
135	0xbc4e8630	-0.012605235
136	0xbcdc4d4d	-0.026892329
137	0xbd3c3a2e	-0.045953922
138	0x3cddacf7	0.027060015
139	0x3dac1665	0.08402709
140	0x3ca66165	0.020310113
141	0x3d12778b	0.035758536
142	0xbd4bd199	-0.049760435
143	0x3cfae9ac	0.030629002
144	0xbbe41efd	-0.006961702
145	0x3ade6881	0.00169684
146	0x3d2651c3	0.040605318
147	0xbb8353e1	-0.004007802
148	0xbb92315f	-0.004461452
149	0xbd5e3b4d	-0.054255772
150	0x3dd158e0	0.1022203
151	0x3ddc7fb4	0.10766545
152	0x3b97d322	0.0046333233
153	0x3d350af8	0.044199914
154	0xbc18313e	-0.009289084
155	0xbd1a0268	-0.03759995
156	0xbd98518f	-0.07437431
157	0x3d061e2a	0.03274361
158	0x3d1ac5ba	0.037786223
159	0x3d429f5a	0.04751525
160	0x3d2984e0	0.041386485
161	0xbd02fd61	-0.031979922
162	0xbc8992d9	-0.016793655
163	0xbc11f084	-0.008907441
164	0x3dbb2dd1	0.09139598
165	0x3d61ef1f	0.055159684
166	0xbcb4c947	-0.022068633
167	0xbbaf2463	-0.005344914
168	0x3b8b11ff	0.0042440887
169	0x3d0e743c	0.03477882
170	0x3c2fa3a7	0.01072017
171	0x3cc0db73	0.023542142
172	0x3cba4bbc	0.022741191
173	0xbd4f9c69	-0.050686274
174	0x3d1a59d0	0.037683308
175	0x3d0c9500	0.034321785
176	0x3c4b2a00	0.01240015
177	0xbcfdd648	-0.030985966
178	0x3d7cb4c3	0.061695825
179	0xbd75bee4	-0.0599965
180	0x3c6fd731	0.014638708
181	0x3d66e01d	0.056366075
182	0xbc97f919	-0.018551396
183	0x3db6afca	0.08920248
184	0xbc95dd64	-0.018294044
185	0x3dbd97c0	0.0925746
186	0xbce39400	-0.027780533
187	0x3d422b2b	0.04740445
188	0x3d007c90	0.031368792
189	0x3d848075	0.06469814
190	0xbcfb8e68	-0.030707553
191	0xbd0bf83a	-0.034172274
192	0xbc2f706e	-0.010707958
193	0xba4d5d96	-0.0007834075
194	0xbaa970d8	-0.0012927307
195	0x3d710487	0.05884221
196	0xbd780aa8	-0.060557038
197	0xbd60c623	-0.054876458
198	0xbcd85d39	-0.02641164
199	0xbd3f62fa	-0.04672525
200	0x3d0cfd0c	0.03442101
201	0xbd542074	-0.051788762
202	0x3ddeee46	0.10885291
203	0xbd555e84	-0.05209209
204	0x3dc5ca3c	0.09657714
205	0x3d403c91	0.04693276
206	0x3c290f90	0.010318652
207	0x3d22417e	0.03961324
208	0xbc4931e0	-0.0122799575
209	0xbd79dbe5	-0.061000723
210	0xbdbc6cf6	-0.0920047
211	0xbcaa0788	-0.020755544
212	0x3da4d2b5	0.08048002
213	0xbc4b6065	-0.012413119
214	0xbcc3f42c	-0.023920141
215	0xba92e568	-0.0011207284
216	0x3cf25a2f	0.029584019
217	0x3c0eaba7	0.008707917
218	0x3cfa6a53	0.030568277
219	0xbcb62f50	-0.022239357
220	0xbd44ebc4	-0.048076406
221	0xbd416433	-0.047214698
222	0x3d889fa8	0.06671077
223	0x3d0a70d7	0.03379902
224	0x3d136a40	0.03599
225	0xbd30035e	-0.04297196
226	0x3c8b14d2	0.016977701
227	0x3d48f22c	0.049059078
228	0x3d9b2151	0.07574714
229	0x3b8ae712	0.0042389715
230	0x3c64fca8	0.013976254
231	0x3d689491	0.05678231
232	0xbbc96cd0	-0.0061470047
233	0xbd9654d8	-0.073404014
234	0xbd6632d7	-0.05620083
235	0xbbebb52e	-0.007193229
236	0x3cdaac03	0.02669335
237	0xbd06cf15	-0.032912333
238	0x3ceacf1c	0.02866321
239	0xbdb5aab2	-0.08870448
240	0xbd814cfd	-0.063135125
241	0xbd8065bf	-0.062694065
242	0xbd9a4429	-0.07532532
243	0x3c1214ed	0.008916122
244	0xbd6bb352	-0.05754406
245	0xbc075f1d	-0.008262423
246	0xba64730e	-0.0008714654
247	0xbd079955	-0.033105213
248	0xbd1fd8a1	-0.039024953
249	0xbc783850	-0.015150145
250	0x3d44902a	0.047989048
251	0x3d610078	0.054932088
252	0x3d231e7d	0.039823998
253	0xbcf888c5	-0.030338654
254	0xbd86e1ed	-0.06586061
255	0xbcf07b53	-0.02935568

main_model.hiddenlayer_1.bias f4 [256]
0	0x3d20d80b	0.039268535
1	0x3cefa3aa	0.029252846
2	0xbca2bfc3	-0.01986683
3	0xbcc19f10	-0.023635417
4	0xbd735c52	-0.059414215
5	0xbd140b01	-0.036143307
6	0xbc98ced1	-0.018653305
7	0x3dafc326	0.085821435
8	0xbd623ea5	-0.055235524
9	0x3c738a04	0.014864448
10	0x3cab2a51	0.020894201
11	0xbd7621a8	-0.06009069
12	0x3c800c5e	0.015630897
13	0x3d68cc1c	0.05683528
14	0xbd2d9522	-0.042378552
15	0x3d4a4a7e	0.049387448
16	0xbd7a5a92	-0.06112153
17	0xbd83f4a1	-0.06443144
18	0xbc54c5ff	-0.012986659
19	0x3bf06c2c	0.007337114
20	0xbb8b6e66	-0.004255104
21	0x3d716894	0.058937624
22	0x3d31444a	0.043278016
23	0xbd3dd13a	-0.046342112
24	0x3d574159	0.052552555
25	0xbac29e15	-0.0014848138
26	0xbb7aa8b3	-0.0038247525
27	0xbd25f835	-0.04051991
28	0xbb89b20a	-0.004202132
29	0x3c828784	0.01593376
30	0x3d80824e	0.06274854
31	0x3d2064eb	0.039158743
32	0xbd95909d	-0.073029734
33	0x3cde5828	0.027141646
34	0xbcca5b81	-0.024701836
35	0xbcbbad3a	-0.02290975
36	0xbd0cddba	-0.034391142
37	0x3d0c082c	0.03418748
38	0xbd06d2cd	-0.03291588
39	0xbd820943	-0.06349423
40	0xbcaba9db	-0.020955017
41	0xbda2eaba	-0.07954927
42	0x3c8c969e	0.017161664
43	0xbc38400a	-0.011245737
44	0xbd9b84f0	-0.07593715
45	0xbd888dbd	-0.066676594
46	0x3d617ad6	0.055048786
47	0x3d411d74	0.04714723
48	0xbd292c9e	-0.041302316
49	0x3d704f61	0.05866945
50	0xbd8da14d	-0.06915531
51	0xbd49cd5d	-0.049268115
52	0x3c62e033	0.013847399
53	0xbd92547d	-0.07145021
54	0xbd7b176a	-0.061301626
55	0xbd590572	-0.05298371
56	0x3d872783	0.06599333
57	0xbb3b09b2	-0.0028539714
58	0x3d38b8f2	0.045098253
59	0x3c45d4b0	0.012074634
60	0xbccb4c44	-0.02481664
61	0xbc4521ff	-0.012032031
62	0xbd286235	-0.041109283
63	0xbd488d5f	-0.048962947
64	0x3d07528c	0.033037707
65	0xbc0d94ba	-0.008641416
66	0xbd359caf	-0.04433888
67	0xbac8a505	-0.0015307969
68	0xbc97e65d	-0.018542463
69	0xbcdbf794	-0.026851453
70	0xbbcbe55f	-0.0062224115
71	0xbcdf05fe	-0.027224537
72	0x3d1b72ad	0.03795116
73	0x3d3b97e1	0.04579914
74	0xbc4af9ae	-0.01238863
75	0xbbe6d817	-0.007044803
76	0x3d0dcd49	0.034619603
77	0xbd7fe915	-0.062478144
78	0x3d13e6e0	0.03610885
79	0x3da3dffa	0.080017045
80	0xbce00a11	-0.02734855
81	0xbacdbfa4	-0.0015697372
82	0xbda47a40	-0.0803113
83	0x3d3b2401	0.045688633
84	0xbce382e6	-0.027772378
85	0xbc98b072	-0.018638823
86	0x3d25dbdc	0.040492877
87	0xbc0b9f2d	-0.008521837
88	0x3c89a4ef	0.01680228
89	0xbd4f3a47	-0.050592687
90	0x3c73a35a	0.014870489
91	0xbcb9da92	-0.02268723
92	0x3da7ee58	0.08199757
93	0x3cbb9410	0.02289775
94	0x3d73f10b	0.05955605
95	0xbc93489c	-0.017978959
96	0x3d620b40	0.05518651
97	0x3d5c1599	0.053731535
98	0xbb21b9e5	-0.0024677452
99	0x3ce0e0ec	0.027451001
100	0xbc5300f8	-0.012878649
101	0x3c5cfdc5	0.013488238
102	0xbd345e3c	-0.04403518
103	0xbcb1d5c8	-0.021708384
104	0x3daa4831	0.08314551
105	0xbcce138f	-0.02515581
106	0xbcf81815	-0.03028492
107	0xbc845a88	-0.01615645
108	0xba09a8b7	-0.0005251276
109	0xbd8167f2	-0.06318654
110	0x3d876cfa	0.066125825
111	0x3c1dddd3	0.009635407
112	0x3d1747eb	0.03693382
113	0xbcce6286	-0.025193464
114	0xbd9a0f29	-0.07522423
115	0xbc63e8b8	-0.013910465
116	0xbd4747e4	-0.048652545
117	0xbd5fe587	-0.054662254
118	0xbbac1228	-0.005251188
119	0x3bfcecb0	0.007718645
120	0xbc4cd093	-0.0125009
121	0xbc574ee2	-0.013141366
122	0x3d2e8949	0.042611394
123	0x3c5c517a	0.01344716
124	0x3b33cc26	0.0027434914
125	0x3bc0d0af	0.005884252
126	0xbd1c4820	-0.03815472
127	0x3da559f1	0.080737956
128	0xbd5ceb38	-0.05393526
129	0xbd3177fd	-0.04332732
130	0x3d12d91d	0.035851587
131	0xbd46ccb9	-0.048535082
132	0x3e1ce775	0.15322669
133	0x3d9f7378	0.07785696
134	0xbd3a3818	-0.04546365
135	0xbd460ef9	-0.048354123
136	0x3da34235	0.07971612
137	0x3d2ae3a6	0.04172101
138	0x3c9fe159	0.019516634
139	0xbd4799f7	-0.048730817
140	0x3d1de62d	0.03854959
141	0x3bc45b14	0.0059923027
142	0x3cfb2cc0	0.030660987
143	0x3c454177	0.012039534
144	0xbaff3aaf	-0.0019472445
145	0x3c94875c	0.01813095
146	0x3d5c075f	0.053717967
147	0x3c4244bc	0.011857208
148	0xbc1e4655	-0.009660323
149	0xbce02caf	-0.027365057
150	0xbbff67c1	-0.007794351
151	0xbd25d42f	-0.040485557
152	0xbb1fc00b	-0.002437594
153	0xbbd62d38	-0.006536152
154	0x3be8d694	0.007105658
155	0x3c770b83	0.015078428
156	0x3daf4a97	0.08559149
157	0xbd5b240f	-0.053501185
158	0xbd1adbe2	-0.037807353
159	0xbc88cfa7	-0.016700579
160	0xbb3b4901	-0.002857745
161	0xbd922df7	-0.07137673
162	0xbda287ca	-0.07936056
163	0xbacaa7e5	-0.0015461413
164	0x3c571116	0.013126632
165	0xbd59e8db	-0.053200584
166	0xbce08ca2	-0.027410809
167	0xbd2c1fcd	-0.042022515
168	0xbcfdf4e7	-0.031000568
169	0x3d6bde25	0.0575849
170	0x3d202e6a	0.039106764
171	0xbc2b081d	-0.010438946
172	0xbd6503c9	-0.055911813
173	0x3ca53bf1	0.020170184
174	0x3d6a29fb	0.057168942
175	0xbd155cd7	-0.036465492
176	0x3cd0c291	0.025483401
177	0x3d980d0f	0.07424366
178	0x3d19b896	0.03752955
179	0xbce1b6cf	-0.02755299
180	0xbd6c16fd	-0.05763911
181	0xbd3e2740	-0.04642415
182	0xbd2d95bc	-0.042379126
183	0x3cada563	0.021197027
184	0xbcd84357	-0.026399298
185	0x3a9afe85	0.001182512
186	0xbb752d31	-0.003741097
187	0xbd3af1ef	-0.045640882
188	0x3a8508a2	0.0010149668
189	0x3d2dd342	0.0424378
190	0xbcc3640f	-0.023851423
191	0x3d980d92	0.07424463
192	0xbabf55fd	-0.001459777
193	0x3cb0a0d4	0.021561064
194	0xbd075298	-0.033037752
195	0x3b523c5f	0.003207944
196	0xbd34b558	-0.044118255
197	0xbd48e50a	-0.049046554
198	0x3ca3ccf1	0.019995185
199	0xbc3d465a	-0.011552418
200	0xbd419128	-0.047257572
201	0x3d4c9890	0.049950182
202	0x3c67ce8b	0.014148365
203	0x3d02c4d9	0.03192601
204	0x3c7ce184	0.0154346265
205	0x3d32f12b	0.043687027
206	0x3ac1c004	0.0014781957
207	0xbc14631e	-0.0090568345
208	0xbb87d4c6	-0.0041452376
209	0xbd2643f7	-0.04059216
210	0xbc59d529	-0.01329545
211	0xbd71ebef	-0.059062894
212	0xbcf5c024	-0.029998846
213	0x394d886f	0.00019601149
214	0xbcb24ccb	-0.021765133
215	0xbc311f8d	-0.010810745
216	0xbb713ba7	-0.0036809237
217	0xbc045a4d	-0.00807817
218	0x3ad3e9d2	0.0016167706
219	0xbd2674af	-0.040638622
220	0x3dbf6ad8	0.09346551
221	0x3ccc3721	0.024928631
222	0xbc36e9eb	-0.011164169
223	0x3d682e3e	0.056684725
224	0xbc393e64	-0.011306379
225	0xbccb3443	-0.024805194
226	0xbd65a300	-0.056063652
227	0xbc4e3c8b	-0.012587677
228	0x3c95a26d	0.018265927
229	0xbc36529d	-0.011128095
230	0x3b0e1432	0.0021679518
231	0xbd1ce6af	-0.038305935
232	0xbd8582a6	-0.0651906
233	0x3c5162b4	0.01277988
234	0xbcbd4967	-0.02310629
235	0x3ca59cad	0.02021631
236	0xbcfd12c7	-0.030892743
237	0xbca0861c	-0.019595198
238	0x3d8ec025	0.069702424
239	0x3cee3c9a	0.029081631
240	0x3d56ec29	0.052471314
241	0xbd8cb833	-0.06871071
242	0xbc0bbb38	-0.008528523
243	0xbad723cb	-0.0016413865
244	0x3d1cf999	0.038323972
245	0xbd7c8878	-0.061653584
246	0x3ceef907	0.02917148
247	0x3cfc7eb3	0.030822134
248	0xbd9616f7	-0.07328599
249	0xbd4dbc52	-0.050228424
250	0x3da0fa12	0.07860197
251	0xbc4ec7d3	-0.012620884
252	0xbd02b736	-0.031913005
253	0x3d09be67	0.033628847
254	0xbd978223	-0.073978685
255	0xbd9a36ad	-0.0752996

main_model.hiddenlayer_2.weight f4 [256, 256]
0	0x3d2b3bff	0.041805264
1	0x3c70a41e	0.014687566
2	0x3c1dc4f0	0.009629473
3	0xbd330a8c	-0.04371123
4	0xbd19218e	-0.037385516
5	0xbd4906ae	-0.049078636
6	0xbd553beb	-0.052059095
7	0xbd1b2b78	-0.037883252
8	0x3c93a6eb	0.018023929
9	0x3c9dc2ef	0.01925799
10	0x3d856501	0.065134056
11	0x3c29b9ca	0.010359237
12	0x3d7dcd1c	0.061963186
13	0x3c47fbe0	0.012206048
14	0x3d05fbe8	0.03271094
15	0x3c83bea1	0.01608211
16	0x3d4f37dc	0.05059038
17	0x3ce7dc6d	0.02830335
18	0xbd824ef3	-0.063627146
19	0x3d060d49	0.032727513
20	0x3d46a547	0.048497465
21	0xbc6b0584	-0.014344577
22	0x3cd294f6	0.025705796
23	0xbdb0bfc9	-0.0863033
24	0xbaa99944	-0.0012939353
25	0xbd2e784b	-0.04259519
26	0x3d345c60	0.04403341
27	0x3c6c3d9a	0.014418984
28	0xbcae8309	-0.021302717
29	0x3cf2b95d	0.029629404
30	0xbc9933e1	-0.018701496
31	0x3cf2fc65	0.029661367
32	0x3cbbff54	0.022948898
33	0x3d4a3b5a	0.04937301
34	0x3ba14e40	0.004922658
35	0x3c7524b6	0.014962366
36	0xbc7c532f	-0.015400692
37	0xbaadec3e	-0.0013269258
38	0x3d15c618	0.03656587
39	0xbcdcee95	-0.026969234
40	0xbd4be9d4	-0.049783543
41	0xbd81f2c3	-0.06345131
42	0xbc32aeaf	-0.010905906
43	0x39ebff86	0.00045013073
44	0x3d89a4c4	0.0672088
45	0xbd17e17b	-0.03708027
46	0xbc9ab86c	-0.018886767
47	0xbcac8cda	-0.021063257
48	0x3cda46ac	0.026645027
49	0xbd44285e	-0.04789006
50	0x3c6ff420	0.014645606
51	0xbcfbedb1	-0.030752989
52	0xbd4e686e	-0.05039256
53	0x3c42e05e	0.011894314
54	0x3d4dc4d9	0.050236557
55	0x3beac56e	0.0071646487
56	0x3cd7b201	0.026329996
57	0xbd6f9a26	-0.058496617
58	0x3bbf942b	0.0058465204
59	0xbcb16e7c	-0.021659128
60	0xbc39cd82	-0.011340501
61	0xbd2bf4ab	-0.04198138
62	0x3cc64021	0.0242005
63	0xbc3dab85	-0.011576538
64	0xbd28eefa	-0.04124353
65	0xbc02bb3a	-0.007979209
66	0x3c593873	0.013258087
67	0x3d09e1d4	0.033662632
68	0xbb5da960	-0.003382288
69	0xbc3a3b16	-0.011366626
70	0x3c6b99be	0.014379917
71	0x3d725fb8	0.059173316
72	0xbca60fe3	-0.020271247
73	0x3d399a2d	0.04531305
74	0xbcbc7a2d	-0.023007477
75	0x3cc95292	0.024575505
76	0x3d99a2fb	0.07501789
77	0xbcd14516	-0.025545638
78	0xba9de4fd	-0.0012046393
79	0x3c6f85d7	0.014619312
80	0x3d801f29	0.06255943
81	0x3d47c7b5	0.04877444
82	0x3b79c9c5	0.0038114649
83	0xbc17ac39	-0.00925737
84	0xbd09a29e	-0.03360235
85	0x3cb75839	0.022380935
86	0x3d488be4	0.048961535
87	0xbd1492ad	-0.036272693
88	0xbd25fbd3	-0.04052336
89	0xbd12a5f2	-0.03580279
90	0xbd695043	-0.05696131
91	0x3d2b0212	0.04175002
92	0x3cf037e0	0.029323518
93	0x3ca85ea7	0.020552946
94	0xbd01f199	-0.031724546
95	0x3d60d282	0.054888256
96	0x3d4ba634	0.04971905
97	0x3db0f627	0.086407
98	0xbd205dfd	-0.039152134
99	0xbd58f869	-0.052971277
100	0x3be6e440	0.0070462525
101	0x3d5c90b2	0.05384893
102	0xbc239ee8	-0.009986617
103	0xbd06ef07	-0.032942798
104	0x3b22da6e	0.0024849433
105	0xbd870a62	-0.06593777
106	0x3d1a809d	0.03772031
107	0x3ce22e00	0.027609825
108	0xbd2a02bf	-0.041506525
109	0x3d819e67	0.06329041
110	0xbc78a688	-0.015176423
111	0x3d21658d	0.039403487
112	0x3d31336d	0.043261934
113	0x3d0b16b3	0.033957195
114	0xbc80d8d7	-0.015728397
115	0x3bb3752d	0.005476615
116	0x3d14edcc	0.036359593
117	0x3d671164	0.05641307
118	0x3d13c8e5	0.03608026
119	0x3ccb3501	0.024805548
120	0xbd818571	-0.0632428
121	0x3d67675c	0.056495056
122	0x3d8957d6	0.067062065
123	0xbd85bbd0	-0.06529963
124	0x3d203ba1	0.039119367
125	0xbc970d20	-0.018438876
126	0xbb23744c	-0.0024941145
127	0x3b70d539	0.0036748184
128	0xbc809421	-0.015695633
129	0x3cdfe5f1	0.027331324
130	0x3d24a125	0.040192742
131	0x3d0ee21f	0.034883615
132	0x3cf1e522	0.029528204
133	0x3d207b67	0.039180186
134	0xbcb10ca8	-0.02161248
135	0x3bba5a49	0.0056870324
136	0x3c042099	0.0080644125
137	0x3d76a847	0.060219076
138	0xba2e2bbe	-0.00066440913
139	0xbd023f97	-0.031798925
140	0xbd016572	-0.031590886
141	0x3d2f2c75	0.042767007
142	0xbc58bef9	-0.013229125
143	0x3c8e0942	0.017338399
144	0x3ce70363	0.028199857
145	0xbca1ab4e	-0.019735005
146	0xbcbaf796	-0.022823136
147	0xbc58744f	-0.013211324
148	0x3cb524f0	0.02211234
149	0x3ac45a03	0.0014980439
150	0xbd858872	-0.065201655
151	0xbd0711cd	-0.03297596
152	0x3c84dd40	0.016218781
153	0x3d647292	0.055773325
154	0xbd00d285	-0.031450767
155	0xbd2b8c8c	-0.041882083
156	0xbcff7887	-0.031185402
157	0x3c3b8769	0.0114458585
158	0xbd0c0acb	-0.03418998
159	0xbc564502	-0.013077976
160	0x3d0dafd0	0.034591496
161	0xbcb679eb	-0.022274932
162	0x3a8d9343	0.0010801334
163	0xbd5131df	-0.05107295
164	0xbd602e44	-0.054731622
165	0x3bdb810d	0.0066987337
166	0x3ce9f064	0.02855701
167	0x3d693407	0.056934383
168	0xbd383426	-0.044971608
169	0x3cce59a7	0.025189234
170	0x3d465735	0.04842301
171	0x3c8e1fb2	0.017349098
172	0x3c33eb67	0.010981417
173	0xbcc64752	-0.02420393
174	0x3c5612b0	0.013065979
175	0xbc89eda8	-0.016836956
176	0xbbabe5dd	-0.0052459077
177	0x3c210976	0.009828916
178	0x3bc808d0	0.006104566
179	0xbd83e286	-0.0643969
180	0x3d30e7f3	0.043189954
181	0x3d25155e	0.04030358
182	0x3d418e94	0.047255114
183	0x3d04992f	0.03237265
184	0xbc99aafe	-0.018758293
185	0x3d7e68d2	0.062111683
186	0xbce997f6	-0.028514843
187	0x3d75bf69	0.059996996
188	0xbd3bc497	-0.04584178
189	0xbd5cc51b	-0.053898912
190	0xbc5af25f	-0.01336345
191	0xbcd070ab	-0.02544435
192	0x3c4aeaa6	0.012385046
193	0xbc83cd2a	-0.01608904
194	0x3d2fe3e6	0.04294195
195	0x3cf25060	0.029579341
196	0xbccb582c	-0.024822317
197	0x3cba35a0	0.022730649
198	0x3d045b5e	0.032313697
199	0x3b414ce0	0.0029495284
200	0xbcca9d60	-0.024733245
201	0xbd28bf71	-0.041198198
202	0x3d391016	0.045181356
203	0x3c7ac311	0.0153052965
204	0x3c6d0937	0.014467529
205	0x3c2e2c58	0.01063069
206	0x3c3f77f9	0.011686319
207	0xbd58ab14	-0.052897528
208	0x3c8a7aa3	0.01690418
209	0xbd0c4c50	-0.034252465
210	0x39628f12	0.00021606337
211	0x3d5e89e4	0.05433072
212	0x3d250a45	0.040292997
213	0x3be21fad	0.0069007487
214	0xbd04d860	-0.032432914
215	0xbd4dfca6	-0.050289772
216	0x3d4d15eb	0.05006973
217	0x3cf7e3ae	0.030259933
218	0xbd019a5b	-0.031641345
219	0x3d2685d2	0.040654965
220	0x3cfc34ac	0.030786835
221	0x3cf6fa3a	0.030148614
222	0x3c7f6cc1	0.015589894
223	0xbcf516c1	-0.029918076
224	0xbad2ad4e	-0.0016073377
225	0x3d24f6da	0.04027448
226	0xbd6f664d	-0.05844717
227	0x3c642ead	0.013927144
228	0xbd6fb8ac	-0.058525726
229	0xbd6bee87	-0.057600524
230	0x3d420416	0.047367178
231	0xbd895a4f	-0.06706678
232	0x3c6651b4	0.0140575655
233	0x3d86e49f	0.06586575
234	0x3c6bdf4d	0.014396501
235	0xbd5a600a	-0.053314246
236	0x3bed7e92	0.0072477544
237	0x3d5a3a53	0.05327828
238	0xbcf85268	-0.030312732
239	0xbd72ee1c	-0.05930911
240	0x3c65cfed	0.014026624
241	0x3d5ac581	0.05341101
242	0xbc4e3759	-0.012586438
243	0x3d9b3631	0.075786956
244	0x3d6aeaba	0.05735276
245	0xbc97e77a	-0.018542994
246	0xbd083ba1	-0.03325999
247	0x3cad8914	0.021183528
248	0xbd3fe03c	-0.046844706
249	0x3c333e46	0.01094014
250	0xbd2d0501	-0.0422411
251	0x3d2debec	0.04246132
252	0xbd8446c4	-0.0645881
253	0xbcb16312	-0.021653686
254	0x3cb67571	0.022272797
255	0x3d7634cd	0.06010895
