DQN/DQN_complete/save/main_model_000006.pth (torch_old, 809026 bytes, 10 tensors)

main_model.InputLayer.weight f4 [256, 7]
0	0x3e069479	0.13142575
1	0xbd5ccfea	-0.05390922
2	0x3d2c8a8d	0.04212432
3	0x3e219362	0.15778878
4	0x3ead96bc	0.33904064
5	0xbec79906	-0.38983935
6	0xbd996950	-0.0749079
7	0x3e9ab075	0.3021275
8	0xbea2d9a2	-0.31806666
9	0xbe623202	-0.22089389
10	0x3d3628bd	0.044472445
11	0x3d2f8bac	0.04285781
12	0xbf31b626	-0.6941856
13	0xbeaaf606	-0.33390826
14	0xbe44249b	-0.19154589
15	0xbe300a09	-0.17191328
16	0x3cdbb2cd	0.026818657
17	0xbe3b3246	-0.18280897
18	0x3e9f9d3d	0.3117465
19	0x3d707c97	0.058712568
20	0x3e80ae07	0.25132772
21	0x3e97a908	0.29621148
22	0x3e395274	0.1809786
23	0xbd85dccf	-0.065362565
24	0xbcc69788	-0.024242178
25	0x3ea3a9f6	0.31965607
26	0xbe3ee5dd	-0.18642373
27	0xbe583126	-0.21112499
28	0xbe80aa4e	-0.25129932
29	0x3e8e93c2	0.27847105
30	0xbe98e825	-0.29864612
31	0x3e9e8866	0.3096344
32	0x3d4803d6	0.048831783
33	0xbd16c40a	-0.03680805
34	0x3e1e1c12	0.15440395
35	0xbcafdc45	-0.021467337
36	0x3e0153c2	0.12629607
37	0x3daa8925	0.083269395
38	0xbeb532bd	-0.35390273
39	0xbece2f79	-0.40270594
40	0xbebd5ce7	-0.3698494
41	0x3e79f4e2	0.24409822
42	0x3da70eb3	0.081571005
43	0xbd9e25d9	-0.077220626
44	0xbda59be2	-0.08086373
45	0x3e6403b3	0.22267036
46	0x3e1cc695	0.15310128
47	0xbe61d502	-0.22053912
48	0x3eb9ae79	0.36265925
49	0x3e553eff	0.20824812
50	0xbe01530b	-0.12629335
51	0x3eb5d5c4	0.35514653
52	0x3e9b88f5	0.30377927
53	0xbe8641d5	-0.262221
54	0x3ce78c63	0.028265184
55	0xbc5c5740	-0.013448536
56	0xbe758cd9	-0.2397951
57	0xbe9ca9b4	-0.30598223
58	0x3e5a1e08	0.21300519
59	0x3ea8e3da	0.32986337
60	0xbdac50a1	-0.08413816
61	0x3ea55472	0.3229099
62	0xbe2c4a7b	-0.16825287
63	0x3e0b4c5f	0.13603352
64	0x3e925691	0.2858167
65	0xbc00a19e	-0.007851033
66	0x3e961a87	0.29317114
67	0x3e596b89	0.21232428
68	0xbd3bcd63	-0.04585017
69	0x3ea1fe47	0.3163931
70	0x3ea7386b	0.3266023
71	0x3eb40a13	0.35163936
72	0x3c1c3db3	0.009536195
73	0x3d8deb10	0.069296
74	0xbe2f0a4a	-0.17093769
75	0x3e91c9fd	0.28474417
76	0x3e847d01	0.2587662
77	0xbea52b5c	-0.32259643
78	0x3e0e9a92	0.13926151
79	0xbd97d510	-0.07413685
80	0xbea1d35b	-0.31606564
81	0x3da56634	0.08076134
82	0x3e99fc45	0.3007528
83	0x3ea0b82d	0.31390515
84	0xbe58a8e7	-0.21158181
85	0xbea2529b	-0.31703648
86	0xbccb7a6f	-0.024838654
87	0x3e923b3b	0.28560814
88	0xbe5953e1	-0.21223404
89	0x3c03a43b	0.008034761
90	0xbe688098	-0.22705305
91	0x3e22146a	0.158281
92	0xbe8e458d	-0.27787438
93	0xbe8422bf	-0.2580776
94	0x3cec2bee	0.028829541
95	0xbe033024	-0.12811333
96	0x3e8a5d3b	0.27024254
97	0x3d68c7e8	0.05683127
98	0xbe36a95a	-0.1783804
99	0x3dd13534	0.10215226
100	0xbeb176e0	-0.34661007
101	0x3c351c00	0.011054039
102	0xbe9e42f8	-0.30910468
103	0x3e086ede	0.13323542
104	0xbc846cb0	-0.016165107
105	0xbe4cde18	-0.20006597
106	0xbe7af75f	-0.24508427
107	0x3e20f3bf	0.15717982
108	0xbcfb4535	-0.030672649
109	0x3cc77970	0.024349898
110	0x3c3cbe22	0.011519941
111	0xbeae3c9a	-0.3403061
112	0xbdcaca08	-0.09901816
113	0xbd88f710	-0.066877484
114	0xbe8076e5	-0.2509071
115	0xbdce5ffc	-0.10076901
116	0x3d0aa158	0.033845276
117	0x3de4110c	0.11136064
118	0x3d8d4758	0.06898373
119	0x3e155a9c	0.14585346
120	0xbe0f0858	-0.13968027
121	0xbd0a55a2	-0.033773072
122	0x3e6e36e2	0.23263124
123	0x3e610b7b	0.21977036
124	0xbd9671cf	-0.07345926
125	0x3d13dbf8	0.03609845
126	0x3ea31139	0.31849077
127	0xbe1b4d7c	-0.15166277
128	0x3ea2f44a	0.31827003
129	0x3e1b12a1	0.15143825
130	0xbe3b43cc	-0.18287581
131	0xbe8364af	-0.25662753
132	0x3ccf9570	0.025339812
133	0x3e6b6dcd	0.22991104
134	0x3eb50ae9	0.35359886
135	0x3e8239b5	0.25434652
136	0x3d3b0690	0.045660555
137	0xbe455521	-0.19270755
138	0x3eaaabfd	0.33334342
139	0x3e5ff1e2	0.21869615
140	0xbe0e1d26	-0.13878307
141	0xbe6b475e	-0.22976443
142	0xbe2fc387	-0.17164432
143	0xbe327cf3	-0.17430477
144	0x3d6e8a55	0.058237392
145	0xbe933642	-0.28752333
146	0x3d9cf194	0.07663265
147	0xbe49392b	-0.19650714
148	0xbe91600c	-0.2839359
149	0x3d17f700	0.037100792
150	0xbe769008	-0.24078381
151	0x3bc8aa00	0.006123781
152	0xbdbe16b8	-0.09281677
153	0x3ea96353	0.3308359
154	0xbe0e65e9	-0.13906063
155	0x3ead18e4	0.33808053
156	0xbd85553e	-0.06510399
157	0x3e3a157f	0.18172263
158	0xbe74477f	-0.23855399
159	0xbd14b246	-0.036302827
160	0x3e8b101b	0.27160725
161	0x3e91bbdc	0.28463638
162	0x3e5becc0	0.21477032
163	0x3eb0baed	0.34517613
164	0xbc62cfd7	-0.013843498
165	0xbd4a68ff	-0.04941654
166	0x3e97fd0b	0.29685244
167	0x3e19ee52	0.15032318
168	0x3e6e1ae4	0.23252445
169	0xbea706e5	-0.32622448
170	0xbe4b2d9d	-0.19841619
171	0xbec2d588	-0.38053536
172	0x3d48bade	0.049006335
173	0x3e9bcf61	0.30431655
174	0x3eab0291	0.33400396
175	0xbdbfcd23	-0.093652986
176	0xbcbbdd77	-0.022932751
177	0x3d195bf9	0.037441228
178	0xbe296369	-0.16541828
179	0x3e90f35a	0.28310663
180	0xbec5ddb1	-0.386457
181	0x3dfdc174	0.12390414
182	0xbe3fd18b	-0.18732278
183	0x3d860632	0.065441504
184	0x3e7b3851	0.24533202
185	0xbea71277	-0.32631275
186	0xbe8db735	-0.27678838
187	0x3f32d562	0.69856846
188	0x3eb8402b	0.35986456
189	0x3de49e5e	0.11163019
190	0x3e0b4b53	0.13602953
191	0xbbe864b6	-0.007092084
192	0x3e22c6cd	0.15896149
193	0xbdec3e9a	-0.11535378
194	0x3e35f1af	0.17767976
195	0xbde9be44	-0.114132434
196	0xbd43899a	-0.04773865
197	0xbda40d09	-0.08010299
198	0x3e5cbb98	0.21555936
199	0xbe80f1f7	-0.25184605
200	0xbe2b7240	-0.16742802
201	0x3ee0a813	0.4387823
202	0x3d786478	0.06064269
203	0x3ea37eb4	0.31932604
204	0xbe428b01	-0.18998338
205	0x3ce0a4e4	0.027422376
206	0x3eabed53	0.33579502
207	0x3e363136	0.1779221
208	0xbe838694	-0.25688612
209	0xbe1a205f	-0.15051411
210	0x3c47e14b	0.01219971
211	0xba94805f	-0.0011329761
212	0x3e5896d8	0.21151292
213	0x3e8cee79	0.2752569
214	0x3e97a7e4	0.29620278
215	0x3d8f173b	0.06986853
216	0xbe9fdea4	-0.3122455
217	0x3e8ecc5d	0.27890292
218	0xbd4c7249	-0.04991368
219	0xbe8ded06	-0.27719897
220	0xbe972af4	-0.29524958
221	0x3b5adc42	0.0033395444
222	0x3e95bc2e	0.29245132
223	0xbeba1c9d	-0.36349955
224	0xbddcc518	-0.1077978
225	0x3e7f56bc	0.2493543
226	0x3ea69c32	0.32541043
227	0xbe839e79	-0.25706843
228	0xbdcb1f67	-0.09918099
229	0x3c89b996	0.016812127
230	0x3e61b91e	0.22043273
231	0xbd9c64d2	-0.076364174
232	0x3e70f215	0.23529847
233	0xbeacaac5	-0.33724037
234	0x3e671211	0.22565486
235	0x3e501cd5	0.20323499
236	0xbeceb7bf	-0.40374562
237	0x3c9f0610	0.01941207
238	0x3d872b35	0.06600038
239	0xbe594122	-0.21216252
240	0xbea889ba	-0.32917577
241	0xbe194b00	-0.14970016
242	0xbe02e687	-0.12783252
243	0x3d71cd46	0.059033655
244	0xbcdfd4f0	-0.027323216
245	0xbec116de	-0.3771276
246	0xbe85a397	-0.26101372
247	0x3e8971f3	0.2684475
248	0xbdc5be69	-0.096554585
249	0xbdb3ea7b	-0.08784958
250	0xbeed8944	-0.46393788
251	0xbe53de05	-0.20690162
252	0xbd8acb3a	-0.06777044
253	0x3eb42aa3	0.3518878
254	0x3e81403e	0.25244325
255	0x3eae1756	0.3400218

main_model.InputLayer.bias f4 [256]
0	0xbe9c9bdf	-0.3058767
1	0xbe859b8d	-0.26095238
2	0x3e5633e8	0.20918238
3	0xbe58baa3	-0.21164946
4	0x3db205a9	0.08692486
5	0x3eab863e	0.33500856
6	0x3e2b8d69	0.16753162
7	0xbeaabf19	-0.3334892
8	0x3ea0d4bd	0.31412306
9	0xbdf87dad	-0.12133346
10	0xbe34231c	-0.17591518
11	0x3ec37cc8	0.38181138
12	0xbe4adad6	-0.19810042
13	0x3df5a319	0.11993999
14	0xbe8a91e8	-0.27064443
15	0x3e9d4dfd	0.30723563
16	0x3e5a5e03	0.21324925
17	0xbe2b13e7	-0.16706811
18	0xbe18e0a5	-0.14929445
19	0x3d0cd844	0.034385934
20	0x3e3cb8d1	0.18429877
21	0x3eeaf005	0.45886245
22	0xbe42cb6a	-0.19022909
23	0xbc89051e	-0.016726073
24	0x3e91d121	0.28479865
25	0x3d970545	0.07374052
26	0x3e27fb09	0.16404356
27	0xbd4e50db	-0.05037008
28	0x3ea5414c	0.3227638
29	0x3e0b0144	0.13574702
30	0x3dff05fa	0.12452312
31	0xbcc863c8	-0.024461642
32	0x3d849130	0.06473005
33	0x3e015bc6	0.12632665
34	0x3e8d4f91	0.27599767
35	0xbe746d5f	-0.23869847
36	0xbe9a46a8	-0.3013203
37	0x3dc58872	0.096451655
38	0x3dd4e0c3	0.103944324
39	0xbd9a3814	-0.07530227
40	0xbd2d1e40	-0.042265177
41	0xbdef93e4	-0.1169813
42	0xbd41d8f0	-0.04732603
43	0x3da1172e	0.07865749
44	0xbebea97b	-0.37238678
45	0xbe7d09b6	-0.24710736
46	0xbe9f4614	-0.31108153
47	0xbc424763	-0.01185784
48	0xbc27d2f0	-0.0102431625
49	0x3e89b5ff	0.26896665
50	0x3bfeeb74	0.007779533
51	0x3d874222	0.06604411
52	0xbcb22092	-0.021744046
53	0x3e3c151f	0.18367432
54	0x3e9ee8c3	0.31036958
55	0xbe17ed62	-0.14836648
56	0xbdbbd35a	-0.091711715
57	0xbe7d1975	-0.24716742
58	0x3de066b6	0.109570906
59	0x3e4848c8	0.19559014
60	0x3ec46691	0.38359502
61	0x3e2dd86a	0.16977087
62	0x3dd879f6	0.10570137
63	0x3ddd868a	0.10816677
64	0x3e9e8f52	0.3096872
65	0xbea8e5eb	-0.32987913
66	0xbc68ee2b	-0.01421694
67	0x3ea500c9	0.32227162
68	0xbe952dcc	-0.29136503
69	0x3ea8da0f	0.32978866
70	0x3ed3c5b7	0.41361782
71	0xbe00799b	-0.12546389
72	0xbe986fb0	-0.2977271
73	0xbea5deff	-0.32396695
74	0xbde3df40	-0.11126566
75	0xbe78a0d8	-0.24280107
76	0x3eace9d2	0.3377214
77	0xbd8c5dc7	-0.06853824
78	0x3e23ccb5	0.15996058
79	0x3defeb38	0.11714786
80	0x3a47ad8c	0.0007617108
81	0x3eb500bf	0.35352132
82	0x3cfe545b	0.031046083
83	0xbdc223e4	-0.09479502
84	0x3e74a1b5	0.23889811
85	0xbe907f69	-0.28222206
86	0x3e95f8bd	0.29291335
87	0xbde84370	-0.11340988
88	0xbd38f4ed	-0.045155454
89	0xbec96412	-0.3933416
90	0x3de2bcab	0.11071142
91	0xbe29e3d1	-0.16590811
92	0xbd3f8fd8	-0.04676804
93	0xbe782195	-0.2423156
94	0xbe22c744	-0.15896326
95	0xbe882e17	-0.26597664
96	0xbe2356f6	-0.15951142
97	0xbd9e085c	-0.07716438
98	0xbea632af	-0.32460544
99	0x3e8a2b15	0.26985994
100	0xbe7dcd39	-0.24785317
101	0x3e99728e	0.2997021
102	0xbe29eb67	-0.16593705
103	0x3ec9e626	0.39433402
104	0x3e03ef88	0.12884343
105	0x3e8081fb	0.25099167
106	0x3dd8dcb4	0.10588971
107	0x3e51f2d3	0.20502786
108	0xbd9fc5ec	-0.078014225
109	0x3eb69400	0.3565979
110	0x3e90df3a	0.28295308
111	0xbea326bb	-0.31865487
112	0xbe1ea939	-0.15494241
113	0xbebb8f9f	-0.36633012
114	0x3ceeae83	0.029135948
115	0xbeb2e963	-0.34943685
116	0xbe6ca6b2	-0.23110464
117	0xbe455793	-0.19271688
118	0xbea42b56	-0.32064313
119	0xbe45db29	-0.19321884
120	0xbe16de7a	-0.14733306
121	0xbe6b478e	-0.22976515
122	0xbe01e40e	-0.12684652
123	0x3e3b4705	0.1828881
124	0xbd26c0cc	-0.04071121
125	0x3d8f5ef1	0.070005305
126	0x3e94048d	0.28909722
127	0x3e1c6001	0.15270998
128	0xbc964df6	-0.018347722
129	0x3ed48c26	0.41513175
130	0x3ed875e7	0.42277452
131	0x3e96d531	0.29459527
132	0xbd0274b1	-0.031849567
133	0xbe8e3b24	-0.27779496
134	0xbdfca040	-0.12335253
135	0xbe0f298a	-0.1398069
136	0xbe7b91c6	-0.24567327
137	0x3eb78af4	0.358482
138	0xbd1014e5	-0.035176177
139	0x3edb2c1c	0.4280709
140	0xbe5de319	-0.21668662
141	0x3dfd1c0d	0.12358866
142	0x3e8f4217	0.2798011
143	0x3e6d034c	0.23145789
144	0xbd5a210c	-0.053254172
145	0xbe606b0d	-0.21915837
146	0x3ebfda92	0.37471443
147	0x3ed275ab	0.411054
148	0x3e403627	0.18770657
149	0xbdf8da38	-0.12150997
150	0xbe2d9502	-0.16951373
151	0xbe0fedd5	-0.1405557
152	0xbec37983	-0.38178644
153	0x3ebcfc07	0.36911032
154	0xbe331fd4	-0.1749261
155	0x3e070844	0.13186747
156	0x3ea2b7d3	0.31780872
157	0xbcc9a8c8	-0.024616614
158	0xbe1987e1	-0.1499324
159	0x3e8b88f4	0.27252924
160	0x3ea61933	0.324411
161	0xbea1fcd2	-0.316382
162	0x3e09e2a2	0.1346536
163	0x3ea98fd2	0.3311754
164	0xbe0166e1	-0.12636901
165	0x3ddc55e5	0.107585706
166	0xbddd294a	-0.10798891
167	0xbe5294f5	-0.20564635
168	0xbe91ad62	-0.28452593
169	0xbeb5e7e1	-0.35528472
170	0x3ee61a55	0.44941965
171	0xbec0c8cf	-0.37653205
172	0x3ea7403b	0.3266619
173	0x3d35882e	0.044319324
174	0xbeb31daf	-0.34983584
175	0x3e680835	0.2265938
176	0xbe42575d	-0.18978639
177	0x3d29ebb4	0.04148455
178	0xbd4138c9	-0.047173295
179	0x3ee4f512	0.44718224
180	0xbcb0c8aa	-0.02158006
181	0xbdca9245	-0.0989118
182	0x3eab1ef4	0.33422053
183	0x3e97a406	0.29617327
184	0xbea85c57	-0.3288295
185	0x3ecdccc4	0.40195286
186	0x3e8d2a3e	0.2757129
187	0xbe9d4f9e	-0.30724806
188	0x3ecfc2df	0.40578362
189	0xbdd4e9c4	-0.1039615
190	0x3d956e50	0.07296431
191	0xbe972945	-0.29523674
192	0x3e1ef867	0.15524445
193	0x3ee0fff6	0.43945283
194	0x3e667124	0.22504097
195	0x3eb83aff	0.3598251
196	0x3eaa2a11	0.3323522
197	0x3e424e8b	0.18975274
198	0xbe935bea	-0.28781062
199	0x3e4b9076	0.19879326
200	0xbd112329	-0.035433922
201	0x3ea2082a	0.31646854
202	0x3e949e92	0.2902723
203	0x3e8ddfd6	0.27709836
204	0xbe890502	-0.26761633
205	0x3e90ac4b	0.2825645
206	0xbe8e8f74	-0.2784382
207	0xbe249166	-0.1607109
208	0x3d4f00cd	0.050537873
209	0xbeb369fb	-0.35041794
210	0xbc017293	-0.007900852
211	0x3e1e0d39	0.15434732
212	0xbeacc72e	-0.33745712
213	0xbe8c92a8	-0.2745564
214	0xbebe08b0	-0.37116003
215	0xbec50521	-0.38480476
216	0xbe4bdfb4	-0.19909555
217	0x3e4983dd	0.19679208
218	0x3e3666a2	0.17812589
219	0xbe8fdece	-0.28099674
220	0x3e1da0b1	0.1539333
221	0xbe40a95f	-0.1881461
222	0x3e3b42a9	0.18287148
223	0x3eaba655	0.3352534
224	0x3e919a7a	0.2843817
225	0x3d0a969d	0.033835042
226	0xbe4b51f7	-0.19855486
227	0xbdae0b41	-0.0849824
228	0x3ebc4c08	0.36776757
229	0xbdc57cbc	-0.09642932
230	0xbd8f7759	-0.07005186
231	0xbe8be76d	-0.27325
232	0x3e9555fc	0.29167163
233	0x3cc3d608	0.023905769
234	0x3e8bd5b0	0.27311468
235	0x3e820592	0.25394875
236	0xbeb332cf	-0.349997
237	0xbd5c51d3	-0.05378897
238	0xbd959620	-0.07304025
239	0xbdb57fdc	-0.08862278
240	0xbe620940	-0.22073841
241	0xbe6ff4ba	-0.234332
242	0xbe04acbb	-0.12956516
243	0x3e9a4e24	0.30137742
244	0x3e288eca	0.1646072
245	0xbe111907	-0.14169703
246	0x3e0d8ea5	0.13823946
247	0x3e14ca38	0.14530265
248	0x3e8d79cd	0.2763199
249	0x3eb49852	0.3527246
250	0xbe17c515	-0.14821275
251	0xbeb08977	-0.34479877
252	0x3e57d159	0.21075954
253	0xbebf00f5	-0.37305418
254	0xbe750010	-0.23925805
255	0x3eae7e60	0.3408079

main_model.hiddenlayer_0.weight f4 [256, 256]
0	0xbba04870	-0.0048914477
1	0xbd7c273e	-0.06156086
2	0xbd4890f4	-0.048966363
3	0xbc53b448	-0.0129214
4	0x3d1a35ee	0.037649088
5	0xbd7341a8	-0.059388787
6	0x3d079628	0.033102185
7	0x3d2ec81e	0.042671315
8	0xbd2d6b38	-0.04233858
9	0xbcf67780	-0.030086279
10	0xbd238716	-0.03992375
11	0x3d024d50	0.031812012
12	0x3bd2cdf0	0.006433241
13	0xbd76b5d2	-0.06023199
14	0x3d661902	0.056176193
15	0xbbbcb220	-0.005758539
16	0x3d4c9ab8	0.04995224
17	0x3a920580	0.0011140555
18	0x3d63ecf8	0.055645913
19	0xbd72f08a	-0.059311427
20	0x3d660364	0.056155577
21	0x3c77d870	0.015127286
22	0x3bc11f80	0.0058936477
23	0xbd551a12	-0.052026816
24	0x3d29dfc6	0.041473173
25	0xbc96292c	-0.01833018
26	0x3d0a54f0	0.03377241
27	0xbd27fb56	-0.041011177
28	0xbd24877e	-0.040168278
29	0xbc99ac14	-0.018758811
30	0x3cdda408	0.027055755
31	0xbcb094d8	-0.02155535
32	0xbb559700	-0.0032591224
33	0xbd7d1e88	-0.061796695
34	0xbb7f0a60	-0.0038916096
35	0x3ba8b120	0.005148068
36	0xbce55dc0	-0.027998805
37	0xbc906120	-0.017624438
38	0xbcddfc08	-0.027097717
39	0x3d7ba292	0.061434336
40	0xb9897a00	-0.00026221573
41	0x3c1e5ee0	0.009666175
42	0x3cd68edc	0.026191168
43	0x3c1fb618	0.009748004
44	0xbd4c6594	-0.04990156
45	0x3d44faf6	0.048090898
46	0xbd0006f2	-0.031256624
47	0x3c5e8768	0.013582088
48	0xbcc24810	-0.023716003
49	0x3d7eb57a	0.06218479
50	0x3d21bbc2	0.0394857
51	0x3d57d142	0.0526898
52	0x3d0d73fa	0.034534432
53	0xbd664064	-0.05621375
54	0x3c0a7b28	0.008452214
55	0xbcba763c	-0.022761457
56	0x3ce0b898	0.027431771
57	0xbc321160	-0.0108684
58	0xbcd41f38	-0.025893793
59	0x3d11042a	0.03540436
60	0xbcb2422c	-0.021760069
61	0x3b3a9140	0.0028467923
62	0xbd3900f0	-0.04516691
63	0x3d753246	0.059862398
64	0xbd482046	-0.048858903
65	0x3d4cce08	0.050001174
66	0x3d070f6a	0.032973684
67	0xbb630800	-0.003464222
68	0xbb1fd500	-0.0024388433
69	0xbc0a6858	-0.008447729
70	0xbd57a57e	-0.05264806
71	0x3cd7f238	0.026360616
72	0xbc7b0008	-0.015319832
73	0xbd43e39a	-0.04782448
74	0xbcb3ea2c	-0.021962248
75	0xbd3bfff8	-0.045898408
76	0x3c668a48	0.014071055
77	0x3d4d1444	0.050068155
78	0xbd453a8e	-0.048151545
79	0xbc6646d8	-0.014054976
80	0x38ea8000	0.00011181831
81	0x3d5db7b2	0.054130264
82	0xbcec08c4	-0.028812774
83	0x3b231f00	0.0024890304
84	0xbd117ba8	-0.03551832
85	0xbd3c481e	-0.045967214
86	0xbd37b8a0	-0.044853806
87	0xbd76cad8	-0.06025204
88	0x3c24b830	0.010053679
89	0x3ceff730	0.029292673
90	0x3d09b88e	0.03362327
91	0xbd07b7bc	-0.033134207
92	0xbd0be840	-0.034157038
93	0x3d520cee	0.051281862
94	0xbd090af8	-0.033457726
95	0xba1e7b80	-0.00060456246
96	0x3d5f8a44	0.05457522
97	0xbd6bed4e	-0.05759936
98	0xbc58cb78	-0.0132321045
99	0xbc7dcdd8	-0.0154909715
100	0x3d7b6460	0.061375022
101	0xbd53732a	-0.0516235
102	0xbd02b59e	-0.031911485
103	0xbd04496a	-0.032296576
104	0x3d40d96c	0.04708235
105	0xba6d9780	-0.0009063408
106	0x3c753618	0.01496651
107	0xbd59a9e2	-0.05314053
108	0xbc8fad5c	-0.017538719
109	0x3d334e8c	0.04377608
110	0x3d51cf76	0.05122324
111	0x3d7de158	0.061982483
112	0x3d518684	0.051153675
113	0x3d422a50	0.047403634
114	0xba3b6600	-0.0007148683
115	0xbd4301a2	-0.04760898
116	0x3cdd9ac0	0.02705133
117	0xbcf426e4	-0.0298037
118	0xbd48fc6c	-0.049068853
119	0xbd1fa8e4	-0.038979426
120	0x3bb32250	0.005466737
121	0xbd73499e	-0.05939638
122	0xbd70dd7a	-0.058804967
123	0xbcdd5164	-0.02701635
124	0xba5c4680	-0.00084028393
125	0x3d21f488	0.039539844
126	0xbd4e5aa0	-0.050379395
127	0xbbe66d40	-0.0070320666
128	0x3d55dd68	0.052213103
129	0x3ca78c54	0.020452656
130	0x3cab12a0	0.020882905
131	0xbd1aaaa6	-0.0377604
132	0xbcfd9efc	-0.030959599
133	0x3d25d56a	0.04048673
134	0xbd0d4a64	-0.034494773
135	0x3c176458	0.009240232
136	0x3a006100	0.00048972666
137	0xbc8cdef4	-0.017196156
138	0x3c1e2e90	0.009654656
139	0x3d75b99e	0.05999147
140	0xbc37e0a0	-0.011222988
141	0x3d6b7dfe	0.057493202
142	0xbd0105f6	-0.031499825
143	0x3ce6ae00	0.028159142
144	0xbd7a02ac	-0.061037704
145	0xbaa9ae80	-0.0012945682
146	0xbd0b21b2	-0.03396768
147	0x3cb3519c	0.0218895
148	0x3cf66db8	0.030081615
149	0x3d57042c	0.052494213
150	0x3d37bc32	0.04485721
151	0x3d19c30e	0.037539534
152	0xbb944950	-0.004525341
153	0xbd63fc6a	-0.055660643
154	0x3d1c3006	0.038131736
155	0x3cf24148	0.029572144
156	0xbc7e7120	-0.015529901
157	0x3cb6ff04	0.022338398
158	0xbd7a8294	-0.061159685
159	0xbd6e20f8	-0.05813691
160	0x3d0bc646	0.034124635
161	0x3ccfc18c	0.025360845
162	0x3aaed980	0.0013339967
163	0x3a8766c0	0.0010330305
164	0xbd57add0	-0.052655995
165	0xbc8b300c	-0.016990684
166	0x3d3410b6	0.04396125
167	0xbc9a6298	-0.018845841
168	0xbd754612	-0.059881277
169	0xbcd007f8	-0.025394425
170	0x3ce76c00	0.02824974
171	0xbbccdda0	-0.0062520057
172	0xbd54de88	-0.051970035
173	0x3c7954f0	0.015218005
174	0xbcb848bc	-0.02249562
175	0x3cc881a0	0.024475873
176	0xbc7e73f8	-0.015530579
177	0xbcd4d990	-0.025982648
178	0x3c066270	0.00820218
179	0xbc81eda8	-0.015860394
180	0x3c722bf8	0.014780991
181	0x3d6db90c	0.058037803
182	0x3d2c3596	0.04204329
183	0xbcbc6958	-0.02299945
184	0xbd4e1614	-0.050314024
185	0x3d5d87a0	0.05408442
186	0x3c56a9c0	0.013101995
187	0xbc976bd8	-0.018484041
188	0x3c9c5cf4	0.019087292
189	0x3cdf1238	0.027230367
190	0x3d430de6	0.047620676
191	0x3d124bf6	0.035716973
192	0xbcb1b500	-0.021692753
193	0x3ca5fae4	0.020261236
194	0xbd060790	-0.032722056
195	0xbcc22e2c	-0.023703657
196	0x3cee56a4	0.029094048
197	0xbca28db0	-0.019842952
198	0x3d48584a	0.048912324
199	0xbb305de0	-0.0026911423
200	0x3cbc551c	0.022989802
201	0x3d68a602	0.056798942
202	0xbd65c7ea	-0.056098856
203	0xbd182a1a	-0.037149526
204	0x3d7e13c2	0.06203056
205	0xbd458900	-0.048226357
206	0x3d1b1562	0.03786219
207	0x3d2a7bfc	0.041622147
208	0xbd6d6b88	-0.057963878
209	0x3d7fae0e	0.06242185
210	0x3be21f90	0.006900735
211	0x3c58aed0	0.013225272
212	0xbd3471b4	-0.04405375
213	0xbce13058	-0.027488872
214	0x3d78e4ba	0.060765006
215	0xbccab91c	-0.02474647
216	0xbc1dda80	-0.009634614
217	0xbd3e5676	-0.046469174
218	0xbb349160	-0.002755247
219	0x3d5f07ae	0.054450683
220	0xbca64400	-0.020296097
221	0xbbcc3710	-0.00623215
222	0xbcd8715c	-0.026421241
223	0xbd66cca0	-0.05634749
224	0x3d6d35c0	0.057912588
225	0x3bc56da0	0.006025031
226	0xbd0aba42	-0.033869036
227	0x3d5218b4	0.05129309
228	0x3d5546ae	0.05206936
229	0xba32d480	-0.0006821826
230	0xbd713462	-0.058887847
231	0xbccfb054	-0.025352634
232	0xbd074694	-0.033026293
233	0x3d6ebb4a	0.05828408
234	0xbd60ce82	-0.05488444
235	0xbb3c1640	-0.0028699785
236	0xbd4fcbc4	-0.050731435
237	0x3d4b3150	0.049607575
238	0xbd55a910	-0.052163184
239	0x3c0456b8	0.008077316
240	0x3d297f46	0.041381143
241	0x3cf47b40	0.029843926
242	0xbcefad4c	-0.02925744
243	0x3d0f9512	0.035054274
244	0x3bf24ba0	0.007394269
245	0xbd2a8720	-0.04163277
246	0xbc2470a0	-0.0100366175
247	0xbd2e2072	-0.04251141
248	0xbccdcbdc	-0.025121622
249	0xbc86334c	-0.016381882
250	0xbc7e1448	-0.015507765
251	0xbd21585a	-0.0393909
252	0xbc3c9958	-0.011511169
253	0x3d022026	0.03176894
254	0x3d092f38	0.033492297
255	0xbd21dbd2	-0.039516278

main_model.hiddenlayer_0.bias f4 [256]
0	0x3d5a003c	0.05322288
1	0xbd92b768	-0.07163888
2	0xbc4eed95	-0.012629886
3	0x3d541df6	0.051786385
4	0xbbec35a4	-0.007208543
5	0x3d503aa9	0.050837193
6	0x3d227179	0.039658997
7	0x3c7e0e38	0.01550632
8	0x3dfe10dd	0.1240556
9	0xbd43a482	-0.04776431
10	0x3cba0d08	0.022711292
11	0x3cc7d928	0.02439554
12	0xbc9c97e0	-0.019115388
13	0x3d388649	0.04504994
14	0x3d421dea	0.04739181
15	0x3c35476a	0.01106439
16	0xbd8a284d	-0.06745968
17	0xbd3f0567	-0.04663601
18	0xbd3ce230	-0.046114147
19	0xbce62758	-0.028094932
20	0xbcf2c609	-0.029635446
21	0x3c37bc74	0.011214364
22	0xbd56d5a1	-0.052449826
23	0x3d537020	0.051620603
24	0xbb6291d5	-0.0034571786
25	0x3d0553bc	0.03255056
26	0xbc89eaa9	-0.016835527
27	0x3d503207	0.05082896
28	0xbcb72ddd	-0.022360737
29	0xbd482c83	-0.048870575
30	0x3bc866e4	0.006115781
31	0xbb32db00	-0.0027291179
32	0xbd1c00e2	-0.03808678
33	0xbd032e38	-0.0320265
34	0x3df9ac23	0.121910356
35	0xb9778ed2	-0.0002360896
36	0x3d1d267e	0.038366787
37	0xbc206688	-0.00979007
38	0xbd132875	-0.035927255
39	0x3cafcc9c	0.02145987
40	0x3dde709a	0.10861321
41	0x3dee40eb	0.11633476
42	0x3dcd0413	0.10010543
43	0x3e0d4cdf	0.13798855
44	0x3d81cfea	0.063384846
45	0xbca06480	-0.019579172
46	0xbd13d9ce	-0.036096387
47	0xbd6ea56c	-0.058263227
48	0xbd189fd4	-0.0372618
49	0x3d810b0e	0.06300937
50	0xbbc2842a	-0.0059361653
51	0x3db79e2a	0.08965714
52	0x3c60f7d4	0.013730962
53	0xbc1c07ce	-0.009523345
54	0xbd17b1d6	-0.037034832
55	0x3d8a279f	0.067458384
56	0x3ca4712e	0.0200735
57	0x3c401d9f	0.011725812
58	0x3d1f7d8e	0.038938098
59	0xbd63328c	-0.055468127
60	0x3ce4249e	0.027849492
61	0x3d93ad66	0.072108075
62	0xbcb161b6	-0.021653038
63	0x3d0196eb	0.031638067
64	0xbd447ce4	-0.047970667
65	0xbbab4950	-0.0052272454
66	0x3be67a87	0.0070336494
67	0xbd548e74	-0.051893666
68	0x3c4e0832	0.012575196
69	0xbcc20ba0	-0.023687184
70	0xbd654b73	-0.055980157
71	0xbd4847b5	-0.04889651
72	0x3d5e21b4	0.05423136
73	0xbd5d389d	-0.05400907
74	0xbceb91fe	-0.028756138
75	0x3c3ebb6a	0.011641363
76	0xbd5f361d	-0.054494966
77	0x3be565c9	0.007000659
78	0x3d311a56	0.043238007
79	0x3c8ee049	0.017440932
80	0xbd544c67	-0.051830675
81	0x3c830820	0.015995085
82	0xbd2d7d18	-0.042355627
83	0x3cd9b2a3	0.026574438
84	0x3cfa2db6	0.030539375
85	0x3dbf2237	0.09332698
86	0x3b604f6f	0.0034227034
87	0x3d3e414e	0.046449
88	0x3d5a50eb	0.053299826
89	0x3d6be34f	0.057589825
90	0xbd16befe	-0.036803238
91	0x3caaf9fc	0.020871155
92	0x3c46f250	0.012142733
93	0xbcf580f4	-0.029968716
94	0x3d1e5e50	0.038664162
95	0x3d4e615b	0.050385814
96	0xbb0db579	-0.0021623059
97	0x3ca4ea09	0.020131128
98	0x3be119d0	0.006869532
99	0xbd20b228	-0.039232403
100	0x3d6bb114	0.05754192
101	0x3d434c24	0.047680035
102	0x3d27913d	0.040909994
103	0x3d7edaca	0.062220372
104	0xbd47aa4c	-0.048746392
105	0x3d2f70c6	0.04283216
106	0x397f9832	0.00024375392
107	0xbd636b63	-0.055522334
108	0x3cb171c4	0.021660693
109	0x3c86b5f6	0.016444188
110	0xbd8ad4f6	-0.067789
111	0xbc264630	-0.01014857
112	0x3c85e0e4	0.016342588
113	0xbb34a103	-0.002756179
114	0xbbc80a3a	-0.0061047347
115	0x3dfc235a	0.1231143
116	0x3c2ca128	0.0105364695
117	0xbd3f34a1	-0.04668105
118	0x3cda673f	0.02666056
119	0x3b69c1ee	0.003566857
120	0x3d8ccd47	0.06875091
121	0x3c9a09fe	0.018803593
122	0x3cea35a5	0.028590033
123	0xbd92fd38	-0.07177204
124	0xbc2d827b	-0.010590191
125	0xbc77c298	-0.015122078
126	0x3d8140ad	0.06311164
127	0xbd08de48	-0.03341511
128	0x3d662447	0.05618694
129	0xbd01dbe1	-0.031703833
130	0x3d36ca11	0.0446263
131	0xbc3e1f4e	-0.011604143
132	0xb92b8c00	-0.00016359985
133	0x3c873213	0.01650337
134	0x3d2d7aff	0.042353626
135	0xbd681542	-0.056660898
136	0xba25978e	-0.0006316834
137	0x3d61be58	0.055113167
138	0xbbc9e8f2	-0.0061618024
139	0x3b0c4480	0.0021403134
140	0xba758da7	-0.0009367116
141	0x3d4260c9	0.047455583
142	0x3d34b095	0.044113714
143	0xbd477375	-0.048694093
144	0x3bc794d8	0.0060907416
145	0xbc2deb69	-0.010615208
146	0x3c50c82e	0.012743039
147	0x3c38fc19	0.0112905735
148	0x3d800048	0.06250054
149	0xbd0491fb	-0.03236578
150	0x3dd9eb05	0.106405295
151	0x3d72df53	0.05929501
152	0xbd5e8dfc	-0.054334626
153	0xbcc3c714	-0.023898639
154	0x3d351050	0.04420501
155	0xbc4d3154	-0.012523968
156	0x3d421976	0.047387563
157	0x3cfa1320	0.030526698
158	0x3c46187e	0.0120908
159	0x3d8783b6	0.06616919
160	0xbc569b43	-0.013098541
161	0xbc03b066	-0.008037662
162	0x3b87cf7f	0.0041446085
163	0xbd1e5817	-0.038658228
164	0x3c8c8766	0.017154407
165	0x3d956b01	0.072958
166	0x3daf19c9	0.0854984
167	0x39f1e7e9	0.0004613989
168	0x3d5588ca	0.052132405
169	0x3ba18b13	0.004929909
170	0xbd884ccc	-0.06655273
171	0x3ca98fa7	0.020698382
172	0xbc541b0e	-0.012945903
173	0xbc695d87	-0.01424349
174	0xbc269aec	-0.010168772
175	0x3d1bd8c0	0.038048506
176	0x3d31fb52	0.04345257
177	0x3cf726b3	0.03016982
178	0xbd045cb6	-0.03231498
179	0xbcfc6a37	-0.030812366
180	0x3ddb15a5	0.10697488
181	0x3d6cca81	0.05781031
182	0xbd8710fd	-0.06595037
183	0x3ca54006	0.02017213
184	0xbceebf3d	-0.029143924
185	0x3d31db7c	0.043422207
186	0xbd741f4f	-0.05960017
187	0xbc92692a	-0.017872412
188	0xbbf4da4f	-0.0074723135
189	0x3d18c881	0.03730059
190	0x3c0baf78	0.008525722
191	0x3d03f394	0.032214716
192	0xbbe4bdfb	-0.0069806552
193	0x3daa02c6	0.0830131
194	0xbd310e1c	-0.043226346
195	0x3d4bb957	0.0497373
196	0xbcbbbf8f	-0.02291849
197	0xbd741906	-0.059594177
198	0xbd6e252b	-0.058140915
199	0xbd30bb80	-0.043147564
200	0x3daf15f0	0.08549106
201	0x3b6380ab	0.0034714143
202	0x3d8c3674	0.068463236
203	0x3d30889a	0.043099023
204	0xbca6e8f7	-0.020374758
205	0x3d98064c	0.07423076
206	0x3ce57d4f	0.028013853
207	0xbd350488	-0.044193774
208	0xbd8c9e5d	-0.06866143
209	0xbca51f8f	-0.02015665
210	0xbca5d288	-0.02024199
211	0xbd7b1a82	-0.061304577
212	0x3d4cf3d0	0.050037205
213	0xbc8f51ac	-0.017494999
214	0xbb85b401	-0.004080296
215	0x3cf12d6b	0.029440602
216	0x3cd6b953	0.026211416
217	0x3d860c57	0.065453224
218	0xbce1b000	-0.027549744
219	0x3d07264c	0.032995507
220	0xbc872612	-0.016497646
221	0xbd9ef22f	-0.077610366
222	0x3cff8a4f	0.03119388
223	0x3d980fd4	0.07424894
224	0x3d5e8ede	0.054335468
225	0x3ccab76f	0.024745671
226	0xbc6797a1	-0.014135272
227	0x3d68283f	0.056679007
228	0x3dd4ce27	0.10390883
229	0xbc4460a2	-0.01198593
230	0x3c0bce49	0.008533069
231	0xbd156a17	-0.03647813
232	0xbcd68d75	-0.026190499
233	0xbbb728e4	-0.0055895913
234	0xbcffa952	-0.031208668
235	0xbc71285c	-0.014719095
236	0xbc338986	-0.010958081
237	0x3d10b22d	0.03532617
238	0xbcfc4454	-0.0307943
239	0x3d0b32b2	0.033983894
240	0xbb4dc62e	-0.0031398642
241	0xbc6748d7	-0.0141164875
242	0xbd19a5da	-0.037511684
243	0x3d6c4332	0.05768127
244	0x3cf05332	0.029336546
245	0xbb941535	-0.0045191296
246	0x3bec9c50	0.0072207823
247	0x3d5b03a6	0.053470276
248	0xbce5e940	-0.028065324
249	0x3c60f665	0.01373062
250	0xbcd96b90	-0.026540548
251	0xbcc58a71	-0.024113866
252	0xbc2ca4d0	-0.010537341
253	0xbd16284f	-0.036659535
254	0xbd948285	-0.07251457
255	0x3d464333	0.04840393

main_model.hiddenlayer_1.weight f4 [256, 256]
0	0xbd316da0	-0.043317437
1	0xbd04cfce	-0.03242474
2	0x3c5ae4b9	0.013360196
3	0x3d5318c6	0.051537298
4	0x3c6d3d8b	0.014480005
5	0x3d0779a2	0.033074982
6	0xbac299f2	-0.0014846905
7	0xbbd96350	-0.0066341534
8	0x3a04fc97	0.0005073039
9	0xbd3e8fb8	-0.04652378
10	0x3d64b40e	0.055835776
11	0x3c0ebbd2	0.008711772
12	0xba6b7400	-0.0008981824
13	0xbbd6f512	-0.0065599764
14	0x3da37fba	0.07983346
15	0xbcaba201	-0.020951273
16	0xbd993ae5	-0.07481936
17	0xbc817d1a	-0.015806723
18	0x3d7bdc50	0.061489403
19	0x3c725a20	0.014791995
20	0x3d249540	0.0401814
21	0x3d8e77d6	0.06956451
22	0xbcd6faac	-0.026242577
23	0x3d002711	0.031287257
24	0x3a8829c6	0.0010388426
25	0xbd2c9f0c	-0.042143866
26	0xbc837403	-0.01604653
27	0x3cf46f6f	0.029838292
28	0x3c04a6e5	0.008096431
29	0xbdbd5a61	-0.09245754
30	0xbd1ee064	-0.038788214
31	0xbd181142	-0.037125833
32	0x3d924f4d	0.07144032
33	0xbc0856d2	-0.008321481
34	0x3d70026c	0.05859606
35	0xba8b3d40	-0.0010623112
36	0xbd1bcc94	-0.038036898
37	0xbd4ad114	-0.0495158
38	0xbd007bd6	-0.0313681
39	0x3ccbc160	0.024872482
40	0x3c88ddd1	0.016707333
41	0x3d8628b5	0.06550733
42	0x3d9fc808	0.07801825
43	0x3d3d4139	0.04620478
44	0xbd1a138f	-0.03761631
45	0xbc57f118	-0.01318004
46	0x3caf7a54	0.021420635
47	0xbac39440	-0.0014921501
48	0x3c6a5daa	0.014304558
49	0x3d7d6b89	0.06187013
50	0xbd82c963	-0.06386068
51	0x3dc32d2c	0.095301
52	0x3d84b529	0.06479866
53	0xbd524a36	-0.051340304
54	0xbd14b3a2	-0.036304124
55	0x3bbd3a74	0.0057747904
56	0xbd873c10	-0.06603253
57	0xbc9189dc	-0.017765932
58	0x3df8d49e	0.121499285
59	0x3d257807	0.04039767
60	0x3d8c01b1	0.0683626
61	0x3d557e79	0.052122567
62	0xbd44d93c	-0.048058733
63	0x3d89d8e1	0.067308195
64	0x3cb230a3	0.021751707
65	0x3c43a100	0.011940241
66	0xbd582a52	-0.052774735
67	0x3bde3850	0.0067816153
68	0x3d809504	0.062784225
69	0x3d24356c	0.04009001
70	0x3cb2006f	0.021728722
71	0xbc193139	-0.0093501145
72	0x3ddcaebd	0.10775516
73	0x3d0617b5	0.032737453
74	0xbd2e38fd	-0.042534817
75	0xbcc0870d	-0.023501897
76	0xbd90c190	-0.07068169
77	0xbd0c4922	-0.034249432
78	0x3d3329b2	0.043740936
79	0xbcbe3cca	-0.023222346
80	0xbdcf2591	-0.10114587
81	0x3d6010f8	0.054703683
82	0x3d2d344f	0.042286213
83	0x3d022c32	0.03178043
84	0xbd6fbfa2	-0.058532365
85	0x3ddbfb87	0.107413344
86	0x3c30b0cd	0.01078434
87	0x3de0f641	0.10984469
88	0x3d106d78	0.035260648
89	0x3d8e9db1	0.06963671
90	0x3cd50668	0.026004031
91	0x3d212954	0.039346054
92	0x3c88b628	0.016688421
93	0x3b93d71c	0.004511727
94	0x39c4782d	0.0003747357
95	0x3dc4c9c3	0.096087955
96	0xbd603e8b	-0.054747146
97	0x3d2338a3	0.039848935
98	0xbd31aad4	-0.043375805
99	0x3cad03b3	0.021119928
100	0xbc48eba1	-0.01226321
101	0x3d0601f4	0.032716706
102	0xbcb9d247	-0.022683276
103	0x3ca46050	0.020065457
104	0xbd4496ee	-0.0479955
105	0xbcba55a7	-0.02274592
106	0xbd5e28a2	-0.05423797
107	0xbd9a299b	-0.07527467
108	0x3c827a4e	0.01592746
109	0xbd51bb70	-0.051204145
110	0xbd8cea6e	-0.068806514
111	0x3d3fc0c8	0.04681471
112	0xbc70e1e1	-0.014702291
113	0x3d7ddaf6	0.061976396
114	0xbc4ba033	-0.012428331
115	0x3d3a0b95	0.0454212
116	0xbd055104	-0.032547966
117	0xbd6f9161	-0.058488254
118	0xbce2a6f4	-0.0276675
119	0xbcaf6007	-0.021408094
120	0x3d11c138	0.03558466
121	0xbd66bef5	-0.056334455
122	0x3d82a82f	0.06379735
123	0xbcef35c0	-0.029200435
124	0x3d433190	0.04765469
125	0x3ccaca08	0.02475454
126	0xbd84d1cd	-0.06485329
127	0x3d4d0523	0.050053727
128	0x3d651e12	0.05593688
129	0x3d6a06d6	0.057135426
130	0x3d5ef54b	0.05443315
131	0x3d44110e	0.047867827
132	0xbc9dfaec	-0.019284688
133	0x3d14d419	0.036335085
134	0xbcfb98d6	-0.030712526
135	0xbc4e8630	-0.012605235
136	0xbcdc4d4d	-0.026892329
137	0xbd3c3a2e	-0.045953922
138	0x3cddacf7	0.027060015
139	0x3dada9fa	0.08479686
140	0x3ca66165	0.020310113
141	0x3d12d551	0.035847966
142	0xbd4480da	-0.047974445
143	0x3cfae9ac	0.030629002
144	0xbbe15960	-0.0068771094
145	0x3ade6881	0.00169684
146	0x3d2651c3	0.040605318
147	0xbb681ebe	-0.0035418714
148	0xbb82201f	-0.0039711143
149	0xbd5e3b4d	-0.054255772
150	0x3dd25c37	0.10271495
151	0x3dde315f	0.108492605
152	0x3ba466c5	0.005017134
153	0x3d350af8	0.044199914
154	0xbc18313e	-0.009289084
155	0xbd1940c0	-0.037415266
156	0xbd98518f	-0.07437431
157	0x3d061e2a	0.03274361
158	0x3d365125	0.04451098
159	0x3d4631f4	0.048387483
160	0x3d2984e0	0.041386485
161	0xbd02fd61	-0.031979922
162	0xbc883749	-0.016627925
163	0xbc11f084	-0.008907441
164	0x3dbb9e76	0.091610834
165	0x3d641c63	0.055691134
166	0xbca23654	-0.019801296
167	0xbbaf165b	-0.005343241
168	0x3ba8d249	0.005152021
169	0x3d125e88	0.035734683
170	0x3c2d7f53	0.0105894385
171	0x3cc0db73	0.023542142
172	0x3cba4bbc	0.022741191
173	0xbd4f9c69	-0.050686274
174	0x3d1a59d0	0.037683308
175	0x3d0c9500	0.034321785
176	0x3c4b2a00	0.01240015
177	0xbcfdd648	-0.030985966
178	0x3d7cb4c3	0.061695825
179	0xbd75bee4	-0.0599965
180	0x3c7ab21b	0.015301253
181	0x3d6e1fe4	0.058135882
182	0xbc97f919	-0.018551396
183	0x3db80a93	0.08986392
184	0xbc95dd64	-0.018294044
185	0x3dbe7613	0.092998646
186	0xbce5b2b9	-0.028039323
187	0x3d422b2b	0.04740445
188	0x3d007c90	0.031368792
189	0x3d84aeb4	0.064786345
190	0xbcfb8e68	-0.030707553
191	0xbd0b92d8	-0.034075588
192	0xbc2b104a	-0.010440895
193	0x39dbe63e	0.0004194248
194	0xbaa970d8	-0.0012927307
195	0x3d710487	0.05884221
196	0xbd780aa8	-0.060557038
197	0xbd0fa543	-0.035069715
198	0xbcd85d39	-0.02641164
199	0xbd3f62fa	-0.04672525
200	0x3d0e8cba	0.034802176
201	0xbd542074	-0.051788762
202	0x3de38445	0.11109213
203	0xbd555e84	-0.05209209
204	0x3dc753c8	0.09732777
205	0x3d4371b1	0.047715846
206	0x3c37d8e0	0.011221141
207	0x3d22417e	0.03961324
208	0xbc4931e0	-0.0122799575
209	0xbd79dbe5	-0.061000723
210	0xbd920d68	-0.07131463
211	0xbcaa0788	-0.020755544
212	0x3da745b3	0.08167591
213	0xbc4b6065	-0.012413119
214	0xbcc179cb	-0.023617646
215	0xba92e568	-0.0011207284
216	0x3cf706b1	0.030154558
217	0x3c217b3c	0.0098560415
218	0x3cfcce16	0.030859988
219	0xbcb44380	-0.022004843
220	0xbd44ebc4	-0.048076406
221	0xbd416433	-0.047214698
222	0x3d88d8bf	0.06681966
223	0x3d0a8ea8	0.033827454
224	0x3d13ef5c	0.036116943
225	0xbd30035e	-0.04297196
226	0x3c8b14d2	0.016977701
227	0x3d49dcbf	0.049282786
228	0x3d9c09e0	0.07619071
229	0x3b8c7276	0.0042861057
230	0x3c64fca8	0.013976254
231	0x3d6b5fd0	0.05746442
232	0xbbc28c35	-0.005937124
233	0xbd9654e2	-0.07340409
234	0xbd6632d7	-0.05620083
235	0xbbd797e6	-0.006579387
236	0x3cdac7e9	0.026706653
237	0xbd06cf15	-0.032912333
238	0x3ceacf1c	0.02866321
239	0xbdb5aab2	-0.08870448
240	0xbd814cfd	-0.063135125
241	0xbd8014c5	-0.062539615
242	0xbd9a4429	-0.07532532
243	0x3c7f7fa6	0.015594399
244	0xbd6aba8b	-0.057306807
245	0xbbfbc854	-0.007683793
246	0xb9beaf2d	-0.0003637014
247	0xbd079955	-0.033105213
248	0xbd1fd6dc	-0.039023265
249	0xbc783850	-0.015150145
250	0x3d44902a	0.047989048
251	0x3d610078	0.054932088
252	0x3d231e7d	0.039823998
253	0xbcf888c5	-0.030338654
254	0xbd86e1ed	-0.06586061
255	0xbcebfaa9	-0.028806048

main_model.hiddenlayer_1.bias f4 [256]
0	0x3d275395	0.040851194
1	0x3cedee09	0.029044168
2	0xbca2bfc3	-0.01986683
3	0xbcae4c8a	-0.021276731
4	0xbd735c52	-0.059414215
5	0xbd140b01	-0.036143307
6	0xbc98ced1	-0.018653305
7	0x3da60307	0.08106046
8	0xbd667620	-0.056264997
9	0x3c6cc1c9	0.014450499
10	0x3ca8742c	0.020563208
11	0xbd75f91c	-0.060052022
12	0x3c81788a	0.015804548
13	0x3d68cc1c	0.05683528
14	0xbd2c330b	-0.042040866
15	0x3d47f242	0.04881502
16	0xbd704cad	-0.058666874
17	0xbd83f4a1	-0.06443144
18	0xbc54c5ff	-0.012986659
19	0x3bf06c2c	0.007337114
20	0xbbc45ae6	-0.0059922813
21	0x3d6c74fd	0.057728756
22	0x3d268605	0.040655155
23	0xbd3dd13a	-0.046342112
24	0x3d56174d	0.052268315
25	0x35ac8286	1.2852986e-06
26	0xbb9a38cf	-0.004706479
27	0xbd35b066	-0.04435768
28	0xbb81716f	-0.00395029
29	0x3c6455b8	0.013936453
30	0x3d75b1f4	0.059984162
31	0x3d1609c4	0.036630407
32	0xbd95ce07	-0.07314687
33	0x3cdff83a	0.027340043
34	0xbcca5b81	-0.024701836
35	0xbcc72146	-0.024307858
36	0xbd0cddba	-0.034391142
37	0x3d12f5fb	0.035879117
38	0xbd0736c0	-0.033011198
39	0xbd820943	-0.06349423
40	0xbcbb10e7	-0.022835208
41	0xbda2eaba	-0.07954927
42	0x3c8d3fbd	0.017242307
43	0xbc33e314	-0.010979433
44	0xbd9b84f0	-0.07593715
45	0xbd888dbd	-0.066676594
46	0x3d5f92f1	0.054583494
47	0x3d450bda	0.048107006
48	0xbd3012fc	-0.042986855
49	0x3d6b115f	0.057389613
50	0xbd8da14d	-0.06915531
51	0xbd45d834	-0.04830189
52	0x3c62e033	0.013847399
53	0xbd91f9f4	-0.07127753
54	0xbd78aa6c	-0.060709402
55	0xbd52ae91	-0.05143601
56	0x3d804187	0.06262498
57	0xbb3b09b2	-0.0028539714
58	0x3d2d6cca	0.042340077
59	0x3c36e08c	0.011161935
60	0xbccb4c44	-0.02481664
61	0xbc52950f	-0.012852921
62	0xbd286235	-0.041109283
63	0xbd488d5f	-0.048962947
64	0x3d07528c	0.033037707
65	0xbc0d9413	-0.008641261
66	0xbd359caf	-0.04433888
67	0xbac8a505	-0.0015307969
68	0xbc97e65d	-0.018542463
69	0xbcdbf794	-0.026851453
70	0xbbcf7136	-0.0063306345
71	0xbcdf05fe	-0.027224537
72	0x3d1f42ca	0.038882054
73	0x3d3b0619	0.045660112
74	0xbc51077c	-0.012758132
75	0xbc0aa0e4	-0.008461211
76	0x3d0f63e9	0.03500739
77	0xbd7c7a36	-0.061639987
78	0x3d0615fe	0.032735817
79	0x3da2946e	0.07938467
80	0xbd050268	-0.032472998
81	0xbacdbfa4	-0.0015697372
82	0xbda47a40	-0.0803113
83	0x3d3d8c96	0.04627665
84	0xbce382e6	-0.027772378
85	0xbc941733	-0.018077468
86	0x3d24969c	0.040182695
87	0xbc0a3fbd	-0.008438048
88	0x3c89a4ef	0.01680228
89	0xbd4f3a47	-0.050592687
90	0x3c775532	0.015095996
91	0xbccc322d	-0.02492627
92	0x3da7c02e	0.08190952
93	0x3cc28378	0.02374433
94	0x3d65c627	0.056097176
95	0xbc93489c	-0.017978959
96	0x3d5ce2fd	0.05392741
97	0x3d5b9588	0.0536094
98	0xbb21b9e5	-0.0024677452
99	0x3ce2efba	0.027702201
100	0xbc819027	-0.015815808
101	0x3c1aa4e4	0.009438727
102	0xbd345e3c	-0.04403518
103	0xbccdbc38	-0.025114164
104	0x3daaa5b1	0.083323844
105	0xbccde8bc	-0.02513539
106	0xbcf81815	-0.03028492
107	0xbc845a88	-0.01615645
108	0xba09a8b7	-0.0005251276
109	0xbd8167f2	-0.06318654
110	0x3d86a8a7	0.06575137
111	0x3c1afcc4	0.009459678
112	0x3d136b83	0.035991203
113	0xbcce6286	-0.025193464
114	0xbd9a0f29	-0.07522423
115	0xbc60e7b4	-0.013727117
116	0xbd4747e4	-0.048652545
117	0xbd5fe587	-0.054662254
118	0xbbac1228	-0.005251188
119	0x3c056621	0.008142025
120	0xbc4cd093	-0.0125009
121	0xbc574ee2	-0.013141366
122	0x3d2f5c6d	0.042812753
123	0x3c446e12	0.011989133
124	0x3b3841f4	0.0028115483
125	0x3b77a60d	0.0037788183
126	0xbd1c4820	-0.03815472
127	0x3d9eed87	0.077601485
128	0xbd5ceb38	-0.05393526
129	0xbd3177fd	-0.04332732
130	0x3d12d91d	0.035851587
131	0xbd46ccb9	-0.048535082
132	0x3e1bd2a8	0.15217078
133	0x3d9dab51	0.07698692
134	0xbd3a3818	-0.04546365
135	0xbd3f143e	-0.046650164
136	0x3da2529c	0.07925913
137	0x3d2ae3a6	0.04172101
138	0x3c9fe159	0.019516634
139	0xbd4799f7	-0.048730817
140	0x3d1de62d	0.03854959
141	0x3b6734bf	0.0035279242
142	0x3cfb2cc0	0.030660987
143	0x3c454177	0.012039534
144	0xbaff3aaf	-0.0019472445
145	0x3c94b31c	0.018151812
146	0x3d62ccff	0.05537128
147	0x3c505064	0.012714479
148	0xbbfeb06c	-0.007772496
149	0xbcf8a6d1	-0.030352982
150	0xbbff67c1	-0.007794351
151	0xbd25d42f	-0.040485557
152	0xbb1fc00b	-0.002437594
153	0xbbc40b94	-0.0059828255
154	0x3be61300	0.007021308
155	0x3c89b6a3	0.01681072
156	0x3daf211a	0.085512355
157	0xbd501260	-0.050798774
158	0xbd1ad94f	-0.037804898
159	0xbc843d81	-0.016142609
160	0xbb3b4901	-0.002857745
161	0xbd914b17	-0.070944004
162	0xbda287ca	-0.07936056
163	0xbacaa7e5	-0.0015461413
164	0x3c5056b7	0.012715987
165	0xbd537b77	-0.051631417
166	0xbce793dd	-0.028268749
167	0xbd2c1fcd	-0.042022515
168	0xbcf7fb76	-0.030271273
169	0x3d6ae9fd	0.057352055
170	0x3d2015ce	0.039083295
171	0xbc294c38	-0.010333113
172	0xbd61aa26	-0.055093907
173	0x3c8ed2a2	0.017434422
174	0x3d5f1e00	0.05447197
175	0xbd155cd7	-0.036465492
176	0x3cd0c291	0.025483401
177	0x3d981681	0.07426167
178	0x3d19b896	0.03752955
179	0xbce16c53	-0.027517473
180	0xbd6c16fd	-0.05763911
181	0xbd3e2740	-0.04642415
182	0xbd2c4d03	-0.04206563
183	0x3cada563	0.021197027
184	0xbcd499cf	-0.025952248
185	0x3a9afe85	0.001182512
186	0x3afdef4c	0.0019373684
187	0xbd413369	-0.04716817
188	0xba5f70dc	-0.0008523592
189	0x3d2ae709	0.04172424
190	0xbcc3640f	-0.023851423
191	0x3d9863ac	0.07440886
192	0xbb40029d	-0.0029298433
193	0x3cb0a0d4	0.021561064
194	0xbd075298	-0.033037752
195	0x3acca905	0.0015614337
196	0xbd34b558	-0.044118255
197	0xbd48e50a	-0.049046554
198	0x3c8ee3db	0.017442634
199	0xbc3d41e7	-0.011551357
200	0xbd419128	-0.047257572
201	0x3d44b016	0.04801949
202	0x3c5c5d31	0.013449953
203	0x3d02c4d9	0.03192601
204	0x3c8c74d9	0.017145561
205	0x3d2e4ac2	0.042551763
206	0xbab2bf89	-0.0013637404
207	0xbc1a9115	-0.009434004
208	0xbb576ff4	-0.0032873126
209	0xbd263b37	-0.040583815
210	0xbc59d529	-0.01329545
211	0xbd6e16ee	-0.058127336
212	0xbd08cd7a	-0.033399083
213	0x394d886f	0.00019601149
214	0xbc9aee20	-0.018912375
215	0xbc2c4689	-0.010514864
216	0xbb56b9c4	-0.0032764534
217	0xbc045a4d	-0.00807817
218	0x3ad3e9d2	0.0016167706
219	0xbd2674af	-0.040638622
220	0x3dbef074	0.093232065
221	0x3cccade4	0.024985261
222	0xbc4fad6b	-0.012675623
223	0x3d65e6d5	0.05612834
224	0xbc379c3e	-0.011206685
225	0xbccb3443	-0.024805194
226	0xbd659a5f	-0.056055423
227	0xbc4e3c8b	-0.012587677
228	0x3c95a279	0.01826595
229	0xbc36529d	-0.011128095
230	0x3b0e1432	0.0021679518
231	0xbd310528	-0.043217808
232	0xbd8582a6	-0.0651906
233	0x3c5ae023	0.013359102
234	0xbcbd4967	-0.02310629
235	0x3ca59cad	0.02021631
236	0xbcfd12c7	-0.030892743
237	0xbca851d0	-0.020546824
238	0x3d8db837	0.06919902
239	0x3ce55f66	0.027999591
240	0x3d544ee6	0.051833056
241	0xbd8cf8a8	-0.06883365
242	0xbc02d066	-0.007984256
243	0xbad723cb	-0.0016413865
244	0x3d1df1ea	0.038560785
245	0xbd6d3d37	-0.057919707
246	0x3cd8dc48	0.026472226
247	0x3ce7a120	0.028275073
248	0xbd94799f	-0.0724976
249	0xbd4dbc52	-0.050228424
250	0x3da02abe	0.078206524
251	0xbc4ec7d3	-0.012620884
252	0xbd02b736	-0.031913005
253	0x3d0a66be	0.03378939
254	0xbd978223	-0.073978685
255	0xbd9a36ad	-0.0752996

main_model.hiddenlayer_2.weight f4 [256, 256]
0	0x3d296295	0.04135378
1	0x3c687d6d	0.01419006
2	0x3c1dc4f0	0.009629473
3	0xbd332d27	-0.043744233
4	0xbd19218e	-0.037385516
5	0xbd4906ae	-0.049078636
6	0xbd553beb	-0.052059095
7	0xbd145621	-0.03621495
8	0x3c93cea1	0.018042864
9	0x3c998bba	0.018743385
10	0x3d840ac5	0.064473666
11	0x3c29b9ca	0.010359237
12	0x3d7dcd1c	0.061963186
13	0x3c47fbe0	0.012206048
14	0x3d05ff38	0.0327141
15	0x3c88f193	0.016716754
16	0x3d4f2f0e	0.050581984
17	0x3ce7dc6d	0.02830335
18	0xbd824ef3	-0.063627146
19	0x3d060d49	0.032727513
20	0x3d46a615	0.048498232
21	0xbc65c5db	-0.014024223
22	0x3ceba053	0.028762972
23	0xbdb0bfc9	-0.0863033
24	0xbaac7f64	-0.0013160524
25	0xbd2e784b	-0.04259519
26	0x3d348cf2	0.04407973
27	0x3c77dd45	0.015128438
28	0xbcae8309	-0.021302717
29	0x3cf24983	0.029576069
30	0xbc9123a1	-0.017717184
31	0x3ceae598	0.028673932
32	0x3cbbcb83	0.02292419
33	0x3d476d36	0.048688136
34	0x3ba14e40	0.004922658
35	0x3c82c47b	0.01596283
36	0xbc7c532f	-0.015400692
37	0xbab2d310	-0.0013643224
38	0x3d14a822	0.036293156
39	0xbcdcee95	-0.026969234
40	0xbd467f89	-0.04846147
41	0xbd81f2c3	-0.06345131
42	0xbc3695f2	-0.011144148
43	0x39ebff86	0.00045013073
44	0x3d89a4c4	0.0672088
45	0xbd17e17b	-0.03708027
46	0xbca0697c	-0.019581549
47	0xbcbd2ce8	-0.023092702
48	0x3cd9ae79	0.026572453
49	0xbd3ffcf9	-0.046872113
50	0x3c6ff420	0.014645606
51	0xbcfbedb1	-0.030752989
52	0xbd4e686e	-0.05039256
53	0x3c4300ba	0.011902029
54	0x3d4dc588	0.05023721
55	0x3bfd7e16	0.007735978
56	0x3ce0a703	0.027423387
57	0xbd6f9a26	-0.058496617
58	0x3bbe8033	0.0058136224
59	0xbcb23903	-0.0217557
60	0xbc39cd82	-0.011340501
61	0xbd29804e	-0.041382127
62	0x3cc64021	0.0242005
63	0xbc3dab85	-0.011576538
64	0xbd28eefa	-0.04124353
65	0xbc02bb3a	-0.007979209
66	0x3c593873	0.013258087
67	0x3d09e1d4	0.033662632
68	0xbb5da960	-0.003382288
69	0xbc3a3b16	-0.011366626
70	0x3c6af8f7	0.014341584
71	0x3d725fb8	0.059173316
72	0xbca6aa6e	-0.02034494
73	0x3d3987d7	0.045295563
74	0xbcc14353	-0.023591673
75	0x3cc9cc0e	0.024633434
76	0x3d98ac50	0.07454741
77	0xbce2c823	-0.027683323
78	0x384eff57	4.935203e-05
79	0x3c63b64e	0.013898445
80	0x3d78f072	0.06077618
81	0x3d47c7b5	0.04877444
82	0x3b79c9c5	0.0038114649
83	0xbc174a26	-0.009233987
84	0xbd09a29e	-0.03360235
85	0x3cb39cda	0.021925379
86	0x3d488491	0.04895455
87	0xbd1492ad	-0.036272693
88	0xbd25fbd3	-0.04052336
89	0xbd12a5f2	-0.03580279
90	0xbd6c081b	-0.057624917
91	0x3d2eefa4	0.042709008
92	0x3cef2534	0.029192545
93	0x3cac53ef	0.021036116
94	0xbd012f08	-0.031538993
95	0x3d60d282	0.054888256
96	0x3d48b120	0.048997045
97	0x3dafd7d8	0.08586091
98	0xbd205dfd	-0.039152134
99	0xbd590c5e	-0.05299031
100	0x3c05bce9	0.0081627155
101	0x3d5c6e65	0.053816218
102	0xbc239ee8	-0.009986617
103	0xbd036303	-0.032076847
104	0x3af32f6e	0.0018553564
105	0xbd870a62	-0.06593777
106	0x3d1a809d	0.03772031
107	0x3ce22e00	0.027609825
108	0xbd2a02bf	-0.041506525
109	0x3d819e67	0.06329041
110	0xbc7ec349	-0.015549489
111	0x3d215b21	0.039393548
112	0x3d309b5a	0.043116905
113	0x3d0b16b3	0.033957195
114	0xbc80d8d7	-0.015728397
115	0x3ba530b9	0.0050412086
116	0x3d14edcc	0.036359593
117	0x3d671164	0.05641307
118	0x3d13c8e5	0.03608026
119	0x3cce80b7	0.02520786
120	0xbd818571	-0.0632428
121	0x3d67675c	0.056495056
122	0x3d88767c	0.06663224
123	0xbd84d396	-0.06485669
124	0x3d1eedd3	0.038801026
125	0xbc914e84	-0.017737634
126	0xbb23744c	-0.0024941145
127	0x3b9dee34	0.004819656
128	0xbc809421	-0.015695633
129	0x3cdfe5f1	0.027331324
130	0x3d24a125	0.040192742
131	0x3d0ee21f	0.034883615
132	0x3ceb1466	0.02869625
133	0x3d206c5e	0.039165847
134	0xbcb10ca8	-0.02161248
135	0x3bb9dc54	0.005672017
136	0x3bee1f6e	0.0072669303
137	0x3d76a847	0.060219076
138	0xba2e2bbe	-0.00066440913
139	0xbd023f97	-0.031798925
140	0xbd016572	-0.031590886
141	0x3d32c23a	0.04364226
142	0xbc58bef9	-0.013229125
143	0x3c8e0942	0.017338399
144	0x3ce70363	0.028199857
145	0xbca0ac0f	-0.019613294
146	0xbcb8989e	-0.022533711
147	0xbc58744f	-0.013211324
148	0x3cb4f18f	0.02208784
149	0x3b1f8b8e	0.0024344656
150	0xbd858872	-0.065201655
151	0xbd0711cd	-0.03297596
152	0x3c84dd40	0.016218781
153	0x3d647292	0.055773325
154	0xbd03c0a0	-0.032166123
155	0xbd36842e	-0.04455965
156	0xbd016880	-0.0315938
157	0x3c3b6cdf	0.011439531
158	0xbd0c0acb	-0.03418998
159	0xbc4a574b	-0.012349914
160	0x3d0dafd0	0.034591496
161	0xbcb679eb	-0.022274932
162	0x3a8d9343	0.0010801334
163	0xbd5131df	-0.05107295
164	0xbd6045a2	-0.054753907
165	0x3bdb810d	0.0066987337
166	0x3cf0194c	0.029308937
167	0x3d693407	0.056934383
168	0xbd3d8e7a	-0.046278454
169	0x3cce3735	0.02517281
170	0x3d44c54e	0.048039727
171	0x3c8c412e	0.017120924
172	0x3c33eb67	0.010981417
173	0xbcbec4a3	-0.023287123
174	0x3c70a681	0.014688135
175	0xbc89eda8	-0.016836956
176	0xbbabe5dd	-0.0052459077
177	0x3c13bc90	0.009017125
178	0x3bc808d0	0.006104566
179	0xbd83e285	-0.064396895
180	0x3d30e7f3	0.043189954
181	0x3d25155e	0.04030358
182	0x3d418e94	0.047255114
183	0x3d04992f	0.03237265
184	0xbc9859c9	-0.0185975
185	0x3d7e68d2	0.062111683
186	0xbce4b86a	-0.027919967
187	0x3d718490	0.058964312
188	0xbd358abe	-0.044321768
189	0xbd5d6ca0	-0.05405867
190	0xbc5af25f	-0.01336345
191	0xbcd76827	-0.02629478
192	0x3c4ace20	0.012378246
193	0xbc83cd2a	-0.01608904
194	0x3d2fe3e6	0.04294195
195	0x3cf3b124	0.029747553
196	0xbccb582c	-0.024822317
197	0x3cba35a0	0.022730649
198	0x3d05f703	0.03270627
199	0x3b414ce0	0.0029495284
200	0xbcca9d60	-0.024733245
201	0xbd26cc18	-0.040721983
202	0x3d36167f	0.044455048
203	0x3c7ac311	0.0153052965
204	0x3c6fa6ac	0.01462714
205	0x3c34c3c8	0.011033006
206	0x3c593693	0.01325764
207	0xbd58d603	-0.052938472
208	0x3c8a7aa3	0.01690418
209	0xbd0c4c6e	-0.034252577
210	0x39628f12	0.00021606337
211	0x3d5e6780	0.054297924
212	0x3d276a99	0.040873144
213	0x3be21fad	0.0069007487
214	0xbd063b72	-0.032771535
215	0xbd4e1334	-0.050311282
216	0x3d4d2c98	0.050091356
217	0x3cf7e3ae	0.030259933
218	0xbd019a5b	-0.031641345
219	0x3d2685d2	0.040654965
220	0x3cf73657	0.030177278
221	0x3d011bbe	0.031520598
222	0x3c820f16	0.015876334
223	0xbd0023e5	-0.03128423
224	0xba888801	-0.0010416509
225	0x3d24f6da	0.04027448
226	0xbd6f66a4	-0.058447495
227	0x3c642ead	0.013927144
228	0xbd6fb8ac	-0.058525726
229	0xbd6bee87	-0.057600524
230	0x3d420416	0.047367178
231	0xbd883c0a	-0.066520765
232	0x3c6651b4	0.0140575655
233	0x3d85e017	0.06536882
234	0x3c6bdf4d	0.014396501
235	0xbd5a600a	-0.053314246
236	0x3bed7e92	0.0072477544
237	0x3d5a7bd7	0.05334076
238	0xbcf977a6	-0.03045256
239	0xbd73065c	-0.059332237
240	0x3c52fd8d	0.012877834
241	0x3d5ab5df	0.053396102
242	0xbc4e3759	-0.012586438
243	0x3d9b3631	0.075786956
244	0x3d67d1b6	0.05659648
245	0xbca30683	-0.019900566
246	0xbd07465e	-0.03302609
247	0x3cb7fbb6	0.022458892
248	0xbd3fe03c	-0.046844706
249	0x3c333e46	0.01094014
250	0xbd2fd440	-0.042927027
251	0x3d2debec	0.04246132
252	0xbd8446c4	-0.0645881
253	0xbcb18bc2	-0.021673087
254	0x3cb67571	0.022272797
255	0x3d7634cd	0.06010895
