DQN/DQN_complete/save/main_model_000030.pth (torch_old, 809026 bytes, 10 tensors)

main_model.InputLayer.weight f4 [256, 7]
-0.23924111 -0.13490118 -0.2607934 0.066655666 -0.32409912 -0.13791189 0.12998042 -0.28496116
-0.20170249 0.35232785 -0.18555574 -0.0016028688 -0.011207689 0.12846836 0.03260186 -0.29323474
-0.41741046 0.040006917 -0.09025799 0.024586782 -0.36456537 0.21381555 -0.33576548 0.010432724
-0.13956243 0.26877153 -0.25908422 0.37486318 -0.26974612 -0.10791811 0.23695776 -0.34215498
-0.22273402 0.17467025 -0.34926954 -0.3729109 -0.09581539 0.2492967 -0.23689319 -0.3394138
-0.10296303 0.040781796 0.026774913 -0.026444644 -0.06439033 0.13700184 -0.25875145 0.19711241
-0.13358007 0.1713749 0.22512613 0.2337984 -0.05214764 0.23091501 0.22305655 -0.31080455
0.2560738 -0.1967219 0.25136483 0.3009495 -0.057777952 0.27433985 -0.05172503 -0.0189695
-0.19917476 0.27952918 0.33206162 0.21277244 -0.21725647 0.25131634 -0.18818292 0.21494487
-0.06043935 -0.26658127 -0.334473 -0.35829714 0.13792732 0.18439105 0.25499862 -0.22784513
-0.021574618 -0.35703337 0.12610881 -0.12187073 -0.32835355 -0.2685772 -0.3411525 0.08115798
-0.08529982 0.17515895 0.34781048 0.28917506 -0.42785305 -0.22418958 0.24835052 -0.3669938
0.029944438 -0.31572524 0.006339568 -0.25313157 -0.19288415 -0.116340995 0.041474987 -0.16825579
-0.037161738 -0.005741048 -0.10083589 -0.068825446 -0.13409509 -0.016879266 -0.34434813 -0.09482819
0.057871908 0.020729452 0.35463864 0.324486 0.24970077 0.47108138 0.0064989924 -0.13480976
-0.2859868 -0.11200473 -0.32763755 0.02072391 -0.073153436 0.1749073 0.06134209 -0.24571943
-0.047787696 -0.004677713 -0.30790663 -0.3203717 0.2862983 -0.32406008 0.1598513 -0.1673999
0.2733077 0.120128036 -0.47754505 -0.12777323 0.21344872 -0.6723787 -0.15117468 0.22173466
-0.30568388 -0.22137205 -0.15720642 0.16943102 -0.21333417 0.039202847 0.13865644 -0.005964857
-0.2730891 0.2303724 -0.003727796 -0.11427627 0.3927844 -0.23778073 -0.36720014 -0.23369946
-0.2543071 -0.08345049 0.32324737 0.3500405 0.28522643 0.051113863 0.4261628 -0.27942666
0.17008302 -0.32950395 -0.13295424 -0.020681143 -0.22877471 0.2784216 0.25510237 0.30754587
-0.2777305 0.11834856 -0.3093947 -0.0038954755 0.044370018 0.042586148 -0.18194668 0.228591
0.25087994 0.002463932 -0.20169729 -0.1746439 0.18342093 0.1573861 -0.620121 -0.25489506
0.12381138 -0.12231195 0.13471076 -0.19171844 -0.18745 -0.007307904 -0.32096547 0.25447112
-0.2632743 -0.23439999 -0.31258684 -0.006097525 -0.26074728 0.27150398 0.20299679 0.23509121
0.13207197 -0.088585734 0.1419933 -0.30701673 -0.3727925 -0.33374426 0.22147046 0.050892334
0.24202546 -0.44946927 0.13524638 -0.17081971 0.16582571 -0.038414404 0.120670535 -0.37161225
-0.2571837 -0.16711324 -0.09272331 -0.017957449 -0.35306102 -0.06268677 0.18334702 0.03587386
0.00896065 -0.4074464 -0.15018901 0.22765344 0.41493717 -0.08494991 -0.2598958 0.2529264
0.25400767 0.19033496 0.036345072 0.0068791546 -0.26449773 0.18713026 -0.028380418 0.16262552
-0.026361585 -0.13871405 0.35881975 -0.06614199 -0.08313167 0.05370405 -0.2370921 0.06640293
00000000: 9ffb 74be 8923 0abe b686 85be c482 883d
00000010: 52f0 a5be c638 0dbe 9619 053e 6ee6 91be
00000020: 198b 4ebe 5164 b43e 5302 3ebe 5a17 d2ba
00000030: 74a0 37bc 368d 033e 8789 053d dd22 96be
00000040: d3b6 d5be 4bde 233d 2ed9 b8bd 386a c93c
00000050: 50a8 babe 77f2 5a3e 74e9 abbe 04ee 2a3c
00000060: 74e9 0ebe 6c9c 893e b0a6 84be 11ee bf3e
00000070: 2a1c 8abe 2c04 ddbd 0ea5 723e f02e afbe
00000080: 6314 64be c2dc 323e 75d3 b2be 2dee bebe
00000090: dc3a c4bd a247 7f3e 2194 72be a5c7 adbe
000000a0: 48de d2bd d00a 273d 1057 db3c 70a2 d8bc
000000b0: 14df 83bd 364a 0c3e 127b 84be d6d7 493e
000000c0: 37c9 08be e77c 2f3e 7787 663e d968 6f3e
000000d0: c498 55bd fc74 6c3e f068 643e c621 9fbe
000000e0: 1b1c 833e 7771 49be e4b2 803e 0e16 9a3e
000000f0: 93a8 6cbd 4676 8c3e a0dd 53bd ed65 9bbc
00000100: 78f4 4bbe 731e 8f3e fb03 aa3e 05e1 593e
00000110: 7b78 5ebe 89ac 803e 06b3 40be 821a 5c3e
00000120: 408f 77bd 577d 88be 0c40 abbe b972 b7be
00000130: d23c 0d3e 02d1 3c3e 2e8f 823e 3c50 69be
00000140: 41bd b0bc 14cd b6be ab22 013e 5c97 f9bd
00000150: f51d a8be f382 89be 8aab aebe 2836 a63d
00000160: acb1 aebd de5c 333e 3714 b23e c10e 943e
00000170: 8e0f dbbe f491 65be 994f 7e3e 9de6 bbbe
00000180: 0a4e f53c bda6 a1be 27bc cf3b 769a 81be
00000190: 6c83 45be 3044 eebd ade1 293d 3f4b 2cbe
000001a0: e836 18bd 671f bcbb 0c83 cebd 5bf4 8cbd
000001b0: 3950 09be 6346 8abc 664e b0be 4835 c2bd
000001c0: 180b 6d3d d0d0 a93c 3293 b53e 0723 a63e
000001d0: 8fb1 7f3e 9431 f13e 80f5 d43b 920b 0abe
000001e0: dd6c 92be bc62 e5bd 1cc0 a7be 30c5 a93c
000001f0: 78d1 95bd e61a 333e d841 7b3d e09d 7bbe
00000200: 08bd 43bd 8047 99bb f0a5 9dbe c207 a4be
00000210: b195 923e 34eb a5be 0fb0 233e e16a 2bbe
00000220: fdee 8b3e b005 f63d c980 f4be fcd6 02be
00000230: 4d92 5a3e 0321 2cbf 89cd 1abe 690e 633e
00000240: 9982 9cbe 5baf 62be b8fa 20be 537f 2d3e
00000250: 4674 5abe 2a93 203d f4fb 0d3e d974 c3bb
00000260: 56d2 8bbe bee6 6b3e 0a4e 74bb ad09 eabd
00000270: 091b c93e cb7c 73be a801 bcbe e94e 6fbe
00000280: 8a34 82be 17e8 aabd ae80 a53e 8238 b33e
00000290: 3309 923e c55c 513d 0332 da3e 0311 8fbe
000002a0: 3e2a 2e3e beb4 a8be 2825 08be 806b a9bc
000002b0: eb43 6abe 478d 8e3e c79c 823e a776 9d3e
000002c0: b132 8ebe bb60 f23d fb68 9ebe 3c4b 7fbb
000002d0: 56bd 353d d06e 2e3d 3b50 3abe c213 6a3e
000002e0: 5673 803e eb79 213b bc89 4ebe dad5 32be
000002f0: b2d2 3b3e d229 213e 40c0 1ebf 9b81 82be
00000300: d290 fd3d b07e fabd 9ef1 093e d751 44be
00000310: e5f2 3fbe 2477 efbb 9655 a4be 0a4a 823e
00000320: e4cb 86be 8d06 70be 620b a0be bfcd c7bb
00000330: ab80 85be 9202 8b3e 64de 4f3e c0bb 703e
00000340: e03d 073e 706c b5bd b166 113e 4c31 9dbe
00000350: a9de bebe 87e0 aabe 27c9 623e 7b74 503d
00000360: 86d5 773e d620 e6be 077e 0a3e 5deb 2ebe
00000370: 37ce 293e 6c58 1dbd 1d22 f73d f643 bebe
00000380: 95ad 83be bc1f 2bbe b8e5 bdbd 801b 93bc
00000390: 6ac4 b4be ec61 80bd 52bf 3b3e 78f0 123d
000003a0: b1cf 123c d19c d0be 26cb 19be fc1d 693e
000003b0: a572 d43e 38fa adbd 1011 85be 927f 813e
000003c0: 4b0d 823e 2be7 423e 92de 143d 886a e13b
000003d0: 3f6c 87be 139f 3f3e 0d7e e8bc 4e87 263e
000003e0: 40f4 d7bc 0e0b 0ebe 39b7 b73e 7475 87bd
000003f0: f040 aabd c7f8 5b3d 45c8 72be 42fe 873d

main_model.InputLayer.bias f4 [256]
0.041474592 0.15505242 -0.424661 -0.23992269 -0.3465064 0.25417137 0.28579155 -0.010602884
-0.33455557 -0.22453736 -0.07817075 -0.39930755 0.31462154 0.14309573 0.2374517 0.2629762
0.30587688 -0.30864662 0.41639408 0.1376167 0.052797962 -0.39616773 -0.12127939 -0.033681948
-0.015062481 -0.2509345 -0.14578241 -0.27294746 -0.2697321 0.26952758 0.3874808 0.15793887
0.07348125 -0.1355823 0.23049246 0.383794 0.34187004 0.24745846 0.15061603 -0.12089517
0.39415917 -0.17968364 0.091212675 0.14171173 0.19204563 -0.14687684 -0.07168329 -0.071651004
-0.1395261 0.11374675 -0.06594871 0.045904998 0.3590581 0.35538712 -0.29711545 0.19167751
-0.17608881 -0.28437957 -0.07107966 0.32283396 -0.36263797 0.21824397 0.22555271 -0.3404187
0.08791904 0.18617441 0.058245275 0.20044982 0.18909253 -0.07907138 0.109726086 0.2845646
0.28085968 0.020546395 0.1275361 0.1727559 -0.17239355 0.2962688 -0.052102517 0.24389583
-0.20469075 -0.129046 -0.032581583 -0.25376087 -0.2050858 -0.37637955 0.12884249 0.07155927
-0.34310684 -0.072682835 -0.40505126 -0.1965073 0.30059004 -0.22763146 0.3347688 -0.145783
-0.13714059 -0.079071134 -0.08285427 0.22839355 -0.22371702 0.19728395 0.16722468 0.3269214
-0.08999625 0.13901304 0.19643453 0.07208375 0.05700056 -0.050887164 -0.36069447 0.353813
-0.14708696 -0.16277938 0.12897888 0.37759665 -0.32047993 -0.14282118 0.1522423 0.35590217
0.08938525 -0.10227281 0.30491477 0.39008623 0.38061208 0.15629214 0.2716823 -0.3167938
0.35615608 -0.246214 0.380335 -0.23238976 -0.12991899 0.39083996 0.1943754 0.26827064
-0.11554742 -0.36976147 0.31250378 -0.28196687 -0.26615095 0.1953567 -0.24297702 0.26774216
-0.12228249 -0.09187736 0.24221967 0.37320918 -0.015557468 -0.13733992 0.10946924 0.08811489
0.33628798 0.12526342 -0.18728243 0.15885852 -0.11890874 -0.015471677 -0.16298038 0.23189081
0.16490646 -0.4103106 0.26372692 0.062000126 0.28828102 0.2012969 -0.15447459 -0.15825692
-0.0889572 -0.28096926 0.3552387 -0.29875594 -0.039935093 0.36458668 -0.2640205 -0.033767436
0.11243526 0.26662084 0.22171178 0.23698427 0.19110195 -0.14627098 0.3031422 -0.20465584
0.049040716 0.36287147 0.14339626 -0.362019 -0.067586064 0.18643904 -0.23659648 0.16895102
-0.21079338 -0.22983108 -0.032838788 0.16635264 0.16394383 0.36927333 0.27875766 -0.29586196
-0.048033748 0.108889446 0.34322524 -0.031531584 0.06188812 0.23582533 -0.21271645 0.16119471
0.20005415 -0.2757659 -0.34548455 0.17147364 -0.016947815 0.08976969 -0.02166818 -0.015577141
-0.29545343 -0.13438872 -0.35336035 0.42381287 -0.25611573 0.3092278 0.16091675 -0.05270131
0.29868075 -0.09954371 0.17201142 -0.18513744 0.25349382 0.34525016 -0.35202396 -0.18547167
-0.19972278 -0.24272855 -0.0567324 -0.30857602 0.17199585 0.052505124 -0.12859717 -0.2463943
0.11443472 0.07311116 0.015171483 -0.06614043 0.13894416 -0.028572708 -0.012758354 -0.13118924
-0.1559738 -0.22184293 0.42296815 0.24160358 -0.099345595 0.32873863 -0.070455275 0.2805076
00000000: 43e1 293d 10c6 1e3e 2b6d d9be 4bae 75be
00000010: 4969 b1be c022 823e 4553 923e b8b7 2dbc
00000020: de4a abbe 1fed 65be fc17 a0bd 0a72 ccbe
00000030: 1316 a13e b087 123e 8a26 733e d1a4 863e
00000040: e59b 9c3e ee06 9ebe 9b31 d53e 64eb 0c3e
00000050: ad42 583d 7fd6 cabe 5461 f8bd 15f6 09bd
00000060: a0c8 76bc 7d7a 80be fc47 15be c5bf 8bbe
00000070: 531a 8abe 85ff 893e e263 c63e baba 213e
00000080: 567d 963d 16d6 0abe 3706 6c3e a680 c43e
00000090: 9709 af3e c065 7d3e 173b 1a3e e397 f7bd
000000a0: 3bcf c93e fdfe 37be b6cd ba3d e11c 113e
000000b0: 9ca7 443e e266 16be b0ce 92bd c3bd 92bd
000000c0: eedf 0ebe 0ef4 e83d 1e10 87bd e106 3c3d
000000d0: 77d6 b73e 4df5 b53e 841f 98be 1c47 443e
000000e0: a050 34be 339a 91be 3692 91bd 7e4a a53e
000000f0: afab b9be 597b 5f3e 4af7 663e 5c4b aebe
00000100: e60e b43d 81a4 3e3e 9992 6e3d b842 4d3e
00000110: 79a1 413e 2df0 a1bd 12b8 e03d 74b2 913e
00000120: d7cc 8f3e ea50 a83c d398 023e ece6 303e
00000130: ef87 30be 8bb0 973e 7369 55bd d4bf 793e
00000140: 749a 51be a224 04be 4474 05bd f2ec 81be
00000150: 0302 52be d2b4 c0be 49ef 033e ab8d 923d
00000160: b3ab afbe bdda 94bd e162 cfbe 3639 49be
00000170: f0e6 993e 3918 69be d166 ab3e 2448 15be
00000180: 956e 0cbe 0cf0 a1bd 80af a9bd 00e0 693e
00000190: 1316 65be ce04 4a3e f23c 2b3e 3e62 a73e
000001a0: f44f b8bd 6f59 0e3e 2226 493e a5a0 933d
000001b0: 6b79 693d 0f6f 50bd f2ac b8be fa26 b53e
000001c0: f79d 16be a3af 26be 0a13 043e 5954 c13e
000001d0: f215 a4be b73f 12be 68e5 1b3e cf38 b63e
000001e0: 9d0f b73d 6874 d1bd ca1d 9c3e 62b9 c73e
000001f0: 96df c23e 0c0b 203e f119 8b3e cc32 a2be
00000200: 175a b63e 861f 7cbe 45bb c23e 95f7 6dbe
00000210: 7c09 05be 2d1c c83e 580a 473e c55a 893e
00000220: 20a4 ecbd 6051 bdbe 7f00 a03e f65d 90be
00000230: f044 88be 960b 483e f8ce 78be 8015 893e
00000240: 3e6f fabd 332a bcbd 6f08 783e 4615 bf3e
00000250: c0e4 7ebc d6a2 0cbe 6931 e03d 9475 b43d
00000260: f02d ac3e 0e45 003e f7c6 3fbe cfab 223e
00000270: 6d86 f3bd eb7c 7dbc 54e4 26be c974 6d3e
00000280: 3ddd 283e 3b14 d2be 3707 873e d8f3 7d3d
00000290: 9299 933e c620 4e3e 962e 1ebe 1a0e 22be
000002a0: 312f b6bd 34db 8fbe d9e1 b53e 8af6 98be
000002b0: fb92 23bd 1bab ba3e b22d 87be b94f 0abd
000002c0: 7544 e63d 8782 883e 6a08 633e 01ac 723e
000002d0: 3bb0 433e 0fc8 15be 7435 9b3e 4d91 51be
000002e0: ebde 483d 4aca b93e 78d6 123e 8e5a b9be
000002f0: 906a 8abd e0e9 3e3e 5946 72be 7f01 2d3e
00000300: 38da 57be d758 6bbe f781 06bd 5958 2a3e
00000310: e4e0 273e 6511 bd3e 53b9 8e3e 387b 97be
00000320: 09bf 44bd 6e01 df3d 38bb af3e 4327 01bd
00000330: 667e 7d3d 327c 713e 57d2 59be 3a10 253e
00000340: ffda 4c3e 3031 8dbe 5ae3 b0be c996 2f3e
00000350: 25d6 8abc 2cd9 b73d 7881 b1bc 4437 7fbc
00000360: ac45 97be 329d 09be a6eb b4be 00fe d83e
00000370: 9a21 83be 1b53 9e3e 5cc7 243e 54dd 57bd
00000380: afec 983e 93dd cbbd c323 303e ab94 3dbe
00000390: f1c9 813e a1c4 b03e 7c3c b4be 49ec 3dbe
000003a0: 2184 4cbe d58d 78be 3c60 68bd adfd 9dbe
000003b0: ae1f 303e 9d0f 573d faae 03be ca4e 7cbe
000003c0: c05c ea3d 4ebb 953d d091 783c a274 87bd
000003d0: 6147 0e3e 5011 eabc 6a08 51bc 7956 06be
000003e0: 99b7 1fbe cb2a 63be 488f d83e ee66 773e
000003f0: b475 cbbd 6e50 a83e db4a 90bd b19e 8f3e

main_model.hiddenlayer_0.weight f4 [256, 256]
-0.018864825 0.029775374 0.012258917 -0.04967256 0.008550532 -0.026830904 -0.043717347 -0.03919623
0.013083324 -0.0529525 -0.003852442 0.018005073 -0.05545438 -0.0544049 -0.057025574 0.025272705
-0.028482959 -0.021550767 -0.042920485 0.032930456 -0.0028967187 -0.017624602 0.0030726194 0.05292277
0.06062644 -0.051496208 0.035473213 -0.037745096 0.019233167 0.011008479 -0.029219098 -0.021195814
0.033839174 -0.029086247 -0.056594066 -0.037785977 -0.020412795 -0.009621009 0.0050137416 0.052928783
-0.05640503 0.058005646 0.00425943 -0.032051377 -7.1674585e-05 -0.009906031 0.01934138 -0.019325614
0.017873682 0.06169024 0.016794592 -0.0032491162 -0.02706112 0.002347052 -0.029127464 -0.015446968
0.03045509 -0.053914748 -0.040765844 0.060221784 0.03987077 -0.03466522 -0.057731017 0.014169708
-0.012778044 0.019988552 0.027836114 0.021978877 -0.046949632 0.01176247 -0.03969626 0.0018690601
-0.061435588 -0.012971766 0.047860064 0.020449296 0.040794924 -0.060898624 -0.060108043 0.0019756854
-0.033274174 0.0486662 -0.049020067 0.059555143 -0.02373109 0.059398867 0.035272993 0.056006953
-0.028759986 -0.0020821318 -0.037449487 -0.061990216 -0.05404856 -0.0066450685 0.020074211 0.033094563
-0.026587442 -0.05380778 0.02599138 -0.03686481 0.057249486 -0.036768764 -0.031007014 -0.021758452
-0.051145397 0.02086477 0.0011396408 -0.0007767007 -0.027730905 -0.05272445 0.008254521 -0.031458408
0.021493807 -0.017139986 -0.03347931 0.045747645 -0.010735668 -0.00099051 0.010445043 0.060124822
-0.0004788339 0.024488434 -2.041459e-06 0.04666034 0.008756854 -0.04979507 0.029722042 0.054429762
0.007894948 -0.0012486726 -0.027580082 0.034071922 -0.055177085 0.015941888 -0.029632159 -0.04095543
-0.010525756 0.02629093 0.014923058 0.0052604526 -0.02738379 -0.015639223 -0.001274176 -0.026998922
0.00048672408 -0.0033562407 -0.032904223 0.053168975 -0.03573803 0.008883379 0.05016698 0.0058932975
0.024225421 0.009586759 0.029346801 0.035782076 0.06113608 -0.052287214 0.009027399 -0.016745903
0.012826964 0.021796681 0.02498208 -0.036728993 -0.049256146 -0.043846674 0.054422967 0.03925217
-0.0028567389 -0.001678668 0.036885493 -0.020081185 -0.04741677 0.04272441 -0.010918826 0.01627674
-0.040257357 -0.024651766 0.027345203 0.023045205 0.009053566 0.024205662 -0.04559125 -0.033199124
-0.018119179 0.0074343607 0.024595097 0.016299091 0.052081816 -0.0041587725 -0.021794342 -0.057795085
-0.032575376 0.06238185 -0.038251497 0.03807775 0.04262001 0.022110388 -0.008686058 0.022180274
0.025021024 0.04119827 0.061739407 -0.044091485 0.051322415 -0.036255024 0.061740443 -0.050120726
0.05216279 -0.04222683 -0.023786418 0.04843729 0.004176587 0.0055477247 -0.016438551 0.054492168
-0.023160689 -0.015396431 0.02221784 0.028223015 -0.048002087 -0.005713962 -0.034087516 0.0010752007
-0.03570383 -0.02751556 0.039996408 -0.060511626 0.0076629445 0.040414236 -0.03638061 -0.03906595
-0.04370887 -0.027227275 0.06249077 0.057816394 0.016752496 -0.016841084 -0.027509429 -0.007519342
-0.003258407 -0.032834575 -0.058855653 0.01667878 0.05947534 0.01097773 -0.015203565 0.049950056
0.017347693 -0.032405235 0.0073122233 0.03349427 0.052715197 0.03737598 0.0049571693 0.035298355
00000000: 688a 9abc 7ceb f33c a0d9 483c 7475 4bbd
00000010: 8817 0c3c 7ccc dbbc f610 33bd 3a8c 20bd
00000020: 705b 563c b8e4 58bd 4079 7cbb 607f 933c
00000030: 2224 63bd acd7 5ebd a693 69bd b408 cf3c
00000040: 1855 e9bc 3c8b b0bc 64cd 2fbd 16e2 063d
00000050: e0d6 3dbb 7861 90bc 005e 493b 8cc5 583d
00000060: 6e53 783d b0ed 52bd 5c4c 113d 9a9a 1abd
00000070: e08e 9d3c e85c 343c e45c efbc d8a2 adbc
00000080: f29a 0a3d 4846 eebc 2ecf 67bd 78c5 1abd
00000090: bc38 a7bc 70a1 1dbc 504a a43b dacb 583d
000000a0: f608 67bd 5497 6d3d b092 8b3b 4e48 03bd
000000b0: 0050 96b8 e84c 22bc d071 9e3c c050 9ebc
000000c0: d46b 923c e8ae 7c3d d094 893c 20ef 54bb
000000d0: 48af ddbc 00d1 193b b89c eebc 4815 7dbc
000000e0: f47c f93c b6d5 5cbd 16fa 26bd 1eab 763d
000000f0: 884f 233d 1efd 0dbd 5c77 6cbd 1028 683c
00000100: 005b 51bc 08bf a33c 9008 e43c 0c0d b43c
00000110: 424e 40bd 60b7 403c 8c98 22bd 40fb f43a
00000120: e2a3 7bbd 8887 54bc ea08 443d 4885 a73c
00000130: 9418 273d d670 79bd da33 76bd 807a 013b
00000140: 804a 08bd 3656 473d 44c9 48bd 18f0 733d
00000150: b467 c2bc 3a4c 733d 6a7a 103d 8c67 653d
00000160: 109a ebbc 6074 08bb a264 19bd 74e9 7dbd
00000170: 0662 5dbd e0be d9bb ac72 a43c 2a8e 073d
00000180: e8cd d9bc 8c65 5cbd e0eb d43c 8eff 16bd
00000190: 707e 6a3d d89a 16bd 6c02 febc c83e b2bc
000001a0: d67d 51bd 98ec aa3c 0060 953a 809b 4bba
000001b0: ec2b e3bc 98f5 57bd f83d 073c 88da 00bd
000001c0: c813 b03c 2869 8cbc 9a21 09bd e261 3b3d
000001d0: a8e4 2fbc 00d4 81ba b021 2b3c 7245 763d
000001e0: 000c fbb9 f89b c83c 0000 09b6 ea1e 3f3d
000001f0: e878 0f3c eaf5 4bbd a47b f33c bef1 5e3d
00000200: d059 013c 80aa a3ba a0ef e1bc 008f 0b3d
00000210: 5e01 62bd 9098 823c 24bf f2bc e2c0 27bd
00000220: 3874 2cbc 1460 d73c d87f 743c e05f ac3b
00000230: f853 e0bc d41d 80bc 4002 a7ba d82c ddbc
00000240: 002f ff39 60f4 5bbb 94c6 06bd b6c7 593d
00000250: 0a62 12bd 988b 113c e47b 4d3d 901c c13b
00000260: 6474 c63c c811 1d3c b468 f03c 3a90 123d
00000270: d469 7a3d 1e2b 56bd a8e7 133c b42e 89bc
00000280: 3028 523c f48e b23c 38a7 cc3c 2471 16bd
00000290: d0c0 49bd 9298 33bd 9eea 5e3d e2c6 203d
000002a0: 2038 3bbb c006 dcba 3e15 173d 4c81 a4bc
000002b0: 1638 42bd caff 2e3d e0e4 32bc cc56 853c
000002c0: e6e4 24bd 80f2 c9bc 0c03 e03c 4cc9 bc3c
000002d0: 6855 143c f44a c63c e4bd 3abd cefb 07bd
000002e0: ac6e 94bc f09b f33b a87b c93c ac85 853c
000002f0: be53 553d 5046 88bb 0c8a b2bc 8aba 6cbd
00000300: c26d 05bd 1c84 7f3d 9aad 1cbd 6af7 1b3d
00000310: 5292 2e3d d820 b53c f84f 0ebc 68b3 b53c
00000320: e4f8 cc3c 84bf 283d 76e2 7c3d 4699 34bd
00000330: 7437 523d 2680 14bd 8ce3 7c3d 644b 4dbd
00000340: a6a8 553d 0af6 2cbd bcdb c2bc 2e66 463d
00000350: c0db 883b b0c9 b53b 24aa 86bc 2e33 5f3d
00000360: 7cbb bdbc 5041 7cbc 3002 b63c f433 e73c
00000370: d69d 44bd 303c bbbb 5a9f 0bbd c0ed 8c3a
00000380: 2e3e 12bd 5068 e1bc 46d3 233d 0adb 77bd
00000390: 7019 fb3b 6689 253d d603 15bd 9e03 20bd
000003a0: 1208 33bd bc0b dfbc 52f6 7f3d e2d0 6c3d
000003b0: 883c 893c 50f6 89bc 745b e1bc d064 f6bb
000003c0: 008b 55bb 8c7d 06bd a012 71bd f0a1 883c
000003d0: 6a9c 733d f0db 333c 6018 79bc 6e98 4c3d
000003e0: c01c 8e3c 5abb 04bd 609b ef3b 4a31 093d
000003f0: e4eb 573d 8e17 193d c06f a23b 0295 103d

main_model.hiddenlayer_0.bias f4 [256]
0.038554795 0.025015162 0.044093326 0.09190243 0.021002445 -0.05029231 0.068732195 -0.06276982
-0.09030581 0.033968437 0.034990415 -0.07158095 -0.0065127015 0.042421535 -0.0047806725 -0.032903634
-0.034722105 -0.083229505 0.043235295 0.05604182 -0.025015468 -0.028056161 -0.050215237 0.07682928
0.08331444 0.019089287 0.08115612 0.06039414 0.03722982 0.006210202 -0.0019552195 0.0024266443
0.06858356 -0.006358251 0.061306663 0.050467238 0.06451965 -0.070772335 -0.013253924 -0.023870006
-0.0058239037 0.016806968 0.015678432 0.020694194 -0.020275952 -0.07405004 0.020091645 0.051296085
-0.07345674 -0.03662096 -0.023266438 0.047160033 -0.041314393 -0.02744004 0.06639044 -4.55979e-05
0.10426905 -0.054811366 -0.021499036 0.040637348 -0.0606073 0.017916884 -0.017180497 0.07293165
0.08137302 0.0352923 0.0012897679 0.06337717 0.0036426035 0.032512233 0.021859495 -0.034762077
0.05029889 -0.05800801 -0.06533625 0.0023474253 0.031117052 -0.011843745 -0.0041511795 -0.035977177
-0.058108103 0.019606337 -0.021031156 0.006565821 -0.0479976 -0.021068508 0.045537945 0.0056027602
-0.007284695 0.039583437 -0.00253512 -0.0053774794 -0.009014016 -0.031003125 0.02826923 -0.056143522
0.052060537 -0.055738058 -0.025792144 0.005350418 0.08639422 0.08662564 0.010355867 0.03759988
0.0659152 0.104625896 0.07014356 -0.037788257 -0.0040593054 -0.0439922 0.05467375 -0.034890383
0.09830806 0.12139263 -0.040063065 0.03882335 0.012402053 -0.064122684 -0.057358596 -0.026571486
-0.014395982 -0.04412618 0.05342656 -0.02025252 0.010458104 -0.058550693 0.015363894 -0.05624792
0.041565463 -0.021133723 -0.032550078 -0.03966428 0.0540656 0.08005976 0.0033817226 0.0053628017
-0.06364818 0.0390361 -0.017314808 0.05435539 -0.0013383747 -0.0076340353 -0.0386161 0.024461813
0.040959064 -0.03201582 0.019736739 -0.0022104678 -0.03272156 -0.040660683 0.04310776 -0.03574763
-0.06611915 0.009973094 -0.03241338 0.045424405 -0.009170144 0.015558852 0.0142641775 0.053509004
-0.029700864 0.028293207 0.015172069 0.035953436 0.018526329 -0.06685374 0.09127274 0.08020901
-0.021593684 -0.011979519 0.030909201 0.06061873 -0.05958397 0.0067761163 -0.039312515 -0.003980304
0.0012623278 0.050961174 0.08997352 0.020745346 0.021295372 0.085078515 -0.049031075 -0.023192087
0.069586284 0.021257412 -0.0626754 0.003076871 0.028924631 0.01689481 0.08077312 -0.075916104
-0.040634125 -0.017049933 -0.025140863 0.009219378 0.10334716 0.041298427 -0.025829213 -0.06440355
0.04107504 0.032960936 -0.060376007 0.032256953 -0.06213171 -0.049081888 -0.012077106 0.036990628
0.008016664 0.028471887 -0.0043477183 0.020690868 -0.049045336 3.525219e-05 0.015275869 -0.024888633
-0.055849914 0.093192786 -0.013006683 0.020715045 -0.035727102 0.057143327 0.07495766 -0.033788983
-0.007687173 0.0057151956 0.050155766 0.09027386 -0.0101744365 -0.042303387 0.045127224 0.10591195
-0.0067971023 -0.066058196 0.06750502 0.02296427 -0.074294895 0.019384133 0.036729846 -0.02247574
0.051596954 -0.0970933 -0.018676052 0.06843812 -0.020124169 -0.056183554 -0.025202034 -0.059048183
0.010365273 -0.025182007 0.0943387 0.02027579 0.04112216 -0.06505742 0.012130748 0.08144779
00000000: a2eb 1d3d 99ec cc3c 349b 343d 5737 bc3d
00000010: 520d ac3c 4fff 4dbd 77c3 8c3d 778d 80bd
00000020: 41f2 b8bd 7d22 0b3d 1c52 0f3d 0899 92bd
00000030: 8068 d5bb 34c2 2d3d 30a7 9cbb f6c5 06bd
00000040: c438 0ebd 3b74 aabd 7e17 313d 1c8c 653d
00000050: 3ded ccbc 09d6 e5bc 7eae 4dbd ab58 9d3d
00000060: c3a0 aa3d 2361 9c3c 2e35 a63d d95f 773d
00000070: 4c7e 183d f37e cb3b 2423 00bb 5608 1f3b
00000080: 8a75 8c3d e058 d0bb b21c 7b3d bcb6 4e3d
00000090: e122 843d 16f1 90bd fd26 59bc 088b c3bc
000000a0: 72d6 bebb c4ae 893c 0e70 803c df86 a93c
000000b0: c119 a6bc 8ca7 97bd 3c97 a43c d81b 523d
000000c0: 7d70 96bd dcff 15bd 4299 bebc e12a 413d
000000d0: 4839 29bd efc9 e0bc b6f7 873d 5f40 3fb8
000000e0: 038b d53d e281 60bd bf1e b0bc 5973 263d
000000f0: 5c3f 78bd 6ec6 923c 1dbe 8cbc 305d 953d
00000100: e6a6 a63d a98e 103d 6e0d a93a e4cb 813d
00000110: bfb8 6e3b 8c2b 053d af12 b33c ae62 0ebd
00000120: 3506 4e3d cf99 6dbd 03cf 85bd 43d7 193b
00000130: 30e9 fe3c 440c 42bc 9e06 88bb ce5c 13bd
00000140: c302 6ebd 789d a03c 8849 acbc 1926 d73b
00000150: 2299 44bd dd97 acbc ff85 3a3d 5c97 b73b
00000160: 73b4 eebb 3e22 223d 4124 26bb 9135 b0bb
00000170: 86af 13bc 44fa fdbc df94 e73c c0f6 65bd
00000180: 6e3d 553d 974d 64bd 0c4a d3bc 8f52 af3b
00000190: 74ef b03d c968 b13d a8ab 293c 5502 1a3d
000001a0: 8cfe 863d 1a46 d63d 6da7 8f3d dcc7 1abd
000001b0: ec03 85bb 2a31 34bd 95f1 5f3d 38e9 0ebd
000001c0: bc55 c93d b39c f83d 2b19 24bd 3c05 1f3d
000001d0: fb31 4b3c c152 83bd d9f0 6abd 72ac d9bc
000001e0: 20dd 6bbc a7bd 34bd cfd5 5a3d 9de8 a5bc
000001f0: 7858 2b3c dad2 6fbd d8b8 7b3c 3864 66bd
00000200: 8c40 2a3d a120 adbc 3b53 05bd 0377 22bd
00000210: e473 5d3d 5ff6 a33d e49f 5d3b 71ba af3b
00000220: fa59 82bd 51e4 1f3d c9d7 8dbc c2a3 5e3d
00000230: 676c afba ee26 fabb ea2b 1ebd 2464 c83c
00000240: b1c4 273d 0523 03bd f1ae a13c 7fdd 10bb
00000250: 0b07 06bd d18b 26bd c391 303d 1b6c 12bd
00000260: 7a69 87bd 3066 233c e4c3 04bd f10e 3a3d
00000270: 5f3e 16bc 8eea 7e3c 4cb4 693c 422c 5b3d
00000280: 3a4f f3bc 28c7 e73c 4594 783c e943 133d
00000290: 87c4 973c 9dea 88bd 34ed ba3d 9f44 a43d
000002a0: 3de5 b0bc bf45 44bc 4b35 fd3c 584b 783d
000002b0: 520e 74bd 2f0a de3b 2906 21bd 366d 82bb
000002c0: b174 a53a aabc 503d 0944 b83d 25f2 a93c
000002d0: a273 ae3c a53d ae3d cfd4 48bd 55fd bdbc
000002e0: 4183 8e3d 0624 ae3c f65b 80bd 54a5 493b
000002f0: 59f3 ec3c fc66 8a3c 616c a53d e779 9bbd
00000300: f86f 26bd 4dac 8bbc 36f4 cdbc e00c 173c
00000310: ada7 d33d 8a28 293d c997 d3bc 02e6 83bd
00000320: 4d3e 283d 0c02 073d d54c 77bd de1f 043d
00000330: d27d 7ebd 170a 49bd 0edf 45bc 7c83 173d
00000340: 5358 033c e03d e93c 4e77 8ebb e57f a93c
00000350: c3e3 48bd c0db 1338 a347 7a3c 3fe3 cbbc
00000360: e1c2 64bd dcdb be3d fc19 55bc 99b2 a93c
00000370: 9556 12bd 1f0f 6a3d 6783 993d 5166 0abd
00000380: aee4 fbbb 8946 bb3b 2270 4d3d 80e1 b83d
00000390: aeb2 26bc 5146 2dbd 53d7 383d 5de8 d83d
000003a0: 3aba debb 8549 87bd 1240 8a3d 911f bc3c
000003b0: ec27 98bd 79cb 9e3c 0972 163d 0b1f b8bc
000003c0: 5457 533d dad8 c6bd 85fe 98bc 4929 8c3d
000003d0: 71db a4bc ba20 66bd 7f74 cebc 82dc 71bd
000003e0: 1bd3 293c 7f4a cebc a634 c13d 6a19 a63c
000003f0: b66f 283d d33c 85bd 0bc0 463c 19ce a63d

main_model.hiddenlayer_1.weight f4 [256, 256]
-0.061038367 0.04193602 0.05225467 -0.031664453 -0.02781398 0.016561106 0.055707917 -0.049410235
-0.057278663 -0.033838928 0.035002835 0.0043311985 -0.021311304 -0.03862521 -0.008819982 0.0067193783
0.0059399605 -0.028626807 -0.023179136 -0.020477593 0.05634787 -0.04447504 0.012699942 -0.012603849
-0.013536444 0.027681516 0.031745926 -0.057873156 -0.05818856 -0.023784986 0.020643786 -0.05066707
-0.033431366 0.059523612 0.036741547 -0.038327567 -0.03763455 -0.032837346 -0.058433045 0.04264965
0.0069378056 -0.0071064755 -0.019551734 -0.010561429 -0.036124457 0.011039898 0.012125 0.0008602312
-0.04730069 -0.038273502 0.025077466 0.030427229 -0.01151268 -0.058463156 -0.06132474 -0.034265935
0.05105401 0.022453912 0.040501785 0.009142183 0.03665195 0.009118497 -0.021363616 -0.038737692
0.056014486 -0.021995602 0.032022186 -0.008704294 -0.052873135 -0.032960314 0.036126338 0.029889904
-0.0056743864 0.002643726 -0.026980042 -0.079824194 0.0501229 -0.012606502 -0.0012019724 0.018028341
0.018205844 -0.00014951825 0.045546494 -0.05052326 -0.023646787 -0.007107589 0.05990938 -0.06493427
-0.039470762 -0.041689664 -0.027039632 -0.084076256 0.0364402 0.028099947 0.020270139 0.047565915
-0.030047413 -0.061950162 -0.03728362 -0.061523948 -0.020712875 0.047524378 -0.029126696 0.023496341
-0.011847667 -0.070444375 -0.009834289 0.03992197 -0.0561072 0.0027715573 0.051673163 0.020135641
-0.015096557 -0.0007610321 -0.045673013 0.014650268 0.01556564 0.03452395 -0.059907876 -0.008779912
-0.012951985 -0.07047642 -0.0197369 -0.049258985 0.04621979 -0.034329407 -0.022192076 0.03740313
-0.021593638 -0.028995672 0.026242815 -0.061132543 0.052058302 -0.025223708 0.008486926 -0.030245282
0.019169902 -0.06036575 -0.02637208 0.04371016 -0.008303858 0.017798606 -0.0077238455 0.016443333
-0.05036271 -0.05005393 -0.029673547 0.000841557 -0.036148608 0.020657156 -0.0006377302 -0.019189958
-0.00063794275 -0.013299495 0.02277153 0.036987424 -0.052079365 -0.0384818 -0.008596418 0.008479334
-0.014553149 0.006358936 0.017011845 0.04276821 0.0397914 -0.057641722 0.022416994 -0.060966864
0.01842577 0.012231112 -0.0384584 -0.03243029 -0.053771958 0.03551833 0.034866195 -0.018880893
-0.010069834 -0.06303309 0.0258679 0.033485763 0.030247083 -0.041763537 -0.036395125 -0.035842244
0.044160455 -0.059146747 -0.056823086 -0.0036991835 -0.071676396 -0.05237979 -0.05636788 -0.032909624
0.021772653 -0.04654424 0.00780606 0.00028975308 -0.030631617 0.036169395 -0.07608267 -0.05411943
-0.033862166 0.01891915 -0.031154066 -0.0031720474 0.020609893 0.037598774 -0.016808935 -0.042693794
0.043180123 -0.02195388 -0.005349003 -0.028168963 -0.00038038322 0.0148047935 0.060020454 0.029232398
0.043327123 -0.038444065 0.008204356 -0.028945917 0.014314584 0.02804629 -0.042402115 0.0022985563
0.01785457 -0.04222255 -0.020698518 0.055597506 -0.070053965 -0.0046221167 -0.009286479 0.019743579
0.0030673922 -0.018197736 0.019344233 0.012552888 0.05972056 0.014410012 -0.06270348 0.015945539
0.006934407 0.04322684 0.005253248 -0.033478603 0.042012252 0.046643842 -0.040245656 0.047551982
-0.05459767 -0.034932673 0.018397523 -0.059228025 0.004917629 -0.0044332948 0.034491338 0.024227368
00000000: 5e03 7abd 1bc5 2b3d fe08 563d 96b2 01bd
00000010: 25da e3bc 28ab 873c fc2d 643d 6362 4abd
00000020: 089d 6abd b09a 0abd 225f 0f3d baec 8d3b
00000030: 0b95 aebc 7835 1ebd b081 10bc 3b2e dc3b
00000040: 00a4 c23b c482 eabc 2ce2 bdbc a0c0 a7bc
00000050: 06cd 663d 762b 36bd 6b13 503c 6080 4ebc
00000060: f6c7 5dbc 59c4 e23c 0408 023d 670c 6dbd
00000070: 2157 6ebd bbd8 c2bc 281d a93c 4688 4fbd
00000080: 54ef 08bd 08cf 733d 4e7e 163d 5efd 1cbd
00000090: b026 1abd 7480 06bd 7d57 6fbd 66b1 2e3d
000000a0: 8856 e33b 70dd e8bb f52a a0bc d809 2dbc
000000b0: 3df7 13bd b0e0 343c f0a7 463c 2381 613a
000000c0: 5ebe 41bd adc4 1cbd 426f cd3c 8642 f93c
000000d0: ae9f 3cbc 1077 6fbd a72f 7bbd 705a 0cbd
000000e0: 021e 513d 44f1 b73c 33e5 253d 18c9 153c
000000f0: 5b20 163d c065 153c c002 afbc 6aab 1ebd
00000100: 726f 653d 1f30 b4bc b229 033d 759c 0ebc
00000110: 8091 58bd 6501 07bd 36f9 133d acdb f43c
00000120: 34f0 b9bb 5d42 2d3b 4005 ddbc de7a a3bd
00000130: ac4d 4d3d 808b 4ebc 808b 9dba 2cb0 933c
00000140: 6c24 953c 00c8 1cb9 f68e 3a3d 7af1 4ebd
00000150: e8b6 c1bc c7e6 e8bb 8a63 753d 42fc 84bd
00000160: 18ac 21bd c8c2 2abd 3882 ddbc 2c30 acbd
00000170: 5242 153d dc31 e63c 900d a63c 7ad4 423d
00000180: fe25 f6bc 74bf 7dbd b6b6 18bd 8900 7cbd
00000190: 0cae a9bc eca8 423d 1c9b eebc 667b c03c
000001a0: b81c 42bc 2445 90bd ff1f 21bc 3885 233d
000001b0: aad0 65bd 04a3 353b 3da7 533d 80f3 a43c
000001c0: 8d57 77bc 0080 47ba a013 3bbd ad07 703c
000001d0: 0707 7f3c fc68 0d3d f661 75bd 9fd9 0fbc
000001e0: 9034 54bc f155 90bd 48af a1bc cac3 49bd
000001f0: f650 3d3d fe9c 0cbd 28cc b5bc 0634 193d
00000200: 24e5 b0bc 5588 edbc 2cfb d63c 1e66 7abd
00000210: 163b 553d f3a1 cebc bf0c 0b3c f4c4 f7bc
00000220: 330a 9d3c 1442 77bd 430a d8bc 6d09 333d
00000230: e80c 08bc 62ce 913c 5018 fdbb 2bb4 863c
00000240: 2149 4ebd 5a05 4dbd f015 f3bc ef9b 5c3a
00000250: 9010 14bd 3239 a93c 592d 27ba 4234 9dbc
00000260: 9d3b 27ba 20e6 59bc 5c8b ba3c 2080 173d
00000270: 2c51 55bd 189f 1dbd fed7 0cbc e8ec 0a3c
00000280: 5570 6ebc 9f5e d03b 6d5c 8b3c b82d 2f3d
00000290: 4ffc 223d ba19 6cbd d8a3 b73c 64b8 79bd
000002a0: a4f1 963c 0165 483c 8e86 1dbd a0d5 04bd
000002b0: fc3f 5cbd ab7b 113d dbcf 0e3d 1aac 9abc
000002c0: f2fb 24bc 7e17 81bd ebe8 d33c 5e28 093d
000002d0: bbc8 f73c 3e10 2bbd 0e13 15bd 51cf 12bd
000002e0: 98e1 343d dc43 72bd 53bf 68bd 006e 72bb
000002f0: 13cb 92bd 318c 56bd 02e2 66bd 3ecc 06bd
00000300: 905c b23c 2ca5 3ebd fac9 ff3b 00ea 9739
00000310: 28ef fabc 5c26 143d 3bd1 9bbd 56ac 5dbd
00000320: 0eb3 0abd 55fc 9a3c d036 ffbc 20e2 4fbb
00000330: 14d6 a83c 2c01 1a3d e4b2 89bc b0df 2ebd
00000340: a4dd 303d a0d8 b3bc b046 afbb 99c2 e6bc
00000350: 2c6e c7b9 ce8f 723c 02d8 753d c878 ef3c
00000360: c877 313d 8677 1dbd 906b 063c fd1f edbc
00000370: b887 6a3c 55c1 e53c d7ad 2dbd 60a3 163b
00000380: bf43 923c 8df1 2cbd f08f a9bc 36ba 633d
00000390: 7478 8fbd 2075 97bb 5126 18bc 49bd a13c
000003a0: 4d06 493b 6b13 95bc cc77 9e3c a1aa 4d3c
000003b0: 8c9d 743d f917 6c3c af6a 80bd 38a0 823c
000003c0: 063a e33b a10e 313d 7023 ac3b dc20 09bd
000003d0: 0a15 2c3d 9d0d 3f3d a1d8 24bd dec5 423d
000003e0: cea1 5fbd 9015 0fbd 67b6 963c 1699 72bd
000003f0: 1024 a13b 2c45 91bb ca46 0d3d 7978 c63c

main_model.hiddenlayer_1.bias f4 [256]
-0.077329084 -0.0403166 -0.066817895 0.006791259 0.03132012 0.027108831 0.039282907 -0.038234655
-0.032712135 0.050540265 0.0027674737 -0.032002565 0.10210661 -0.067667894 -0.005743629 -0.008771638
0.021815347 -0.00376346 0.10115233 -0.015647015 0.0012796605 -0.053610813 -0.058782674 -0.050687674
0.007118172 -0.04655747 -0.019421138 -0.017497027 0.082625195 0.020246059 0.075230375 -0.019342573
-0.029375156 -0.046043806 0.07432184 0.01377461 0.003575352 0.025989514 0.034329277 0.027286885
-0.004539525 -0.041513085 -0.07361511 -0.038963586 -0.03835751 -0.06758325 0.035255566 -0.029341897
0.054963026 -0.026738033 -0.005076766 -0.03225571 -0.071204565 -0.03697157 -0.034854393 0.019010434
0.08704016 -0.05377776 -0.013095334 0.03253241 -0.0027649016 -0.05771994 -0.0074133086 0.09204308
0.10305837 0.037905674 0.03718802 -0.0087261945 -0.049558334 0.068311736 -0.013735577 -0.0341934
0.03819832 0.054627042 -0.061811868 0.07024092 0.0876016 0.035755597 0.0058664475 -0.061283525
-0.034047786 -0.054672807 -0.009430397 -0.015829375 0.08315693 0.012081273 -0.05603276 0.03159796
-0.03915279 0.08005616 -0.0147445705 -0.05156238 0.025453128 0.026169846 -0.029973365 -0.0028706556
0.03589145 0.0019315738 -0.019235706 -0.032500718 0.021414807 -0.056031045 -0.02220098 -0.09028801
0.08805351 -0.015905041 -0.03703035 -0.04312544 0.026686646 -0.007555643 -0.023245102 -0.032303575
-0.078500755 0.044105295 -0.031333275 -0.04065377 0.022561174 0.06656787 0.014998068 0.087071925
0.015662143 0.049056713 0.015738143 -0.048976883 -0.023687126 0.06037883 -0.035306454 0.051391337
-0.050988704 0.10427708 0.032264516 0.1200364 -0.07209497 0.07729646 0.060822163 -0.027109072
-0.024111526 -0.029254988 -0.048186995 0.0035749678 -0.0071473015 -0.037444595 0.12064871 -0.05143935
-0.023151394 -0.05844844 0.055952247 -0.07530194 -0.050155777 0.021213712 -0.06580764 0.08725254
0.03242622 -0.025752012 -0.045715515 0.043072008 0.03444054 0.031502116 -0.044734076 0.01036823
0.08031534 0.005366869 -0.012412809 -0.094975285 -0.056768686 0.085619025 -0.087286845 0.036995325
-0.029352752 0.06688019 0.03214572 -0.031775367 0.0035191022 -0.059913576 -0.01631227 0.00817639
-0.04312294 0.07351848 -0.016607719 0.04354854 0.009550128 0.025989205 0.04366163 -0.004924165
0.032561287 -0.070845135 -0.039004292 0.06998397 0.03801283 0.10112887 0.072289675 0.057597704
0.04765604 0.06468114 0.03333374 -0.025912637 0.040088728 0.03671706 -0.017076109 -0.015268721
0.035306897 -0.009994804 -0.041698102 0.110149756 0.087523505 -0.08409756 -0.03454748 0.047107007
0.057597384 0.097097725 -0.060754634 0.010169425 -0.030020908 0.017806232 -0.04254602 -0.008041007
-0.020207616 -0.063105464 0.06972461 0.017560475 0.019323032 -0.061828963 -0.0036277962 0.043975446
0.0047716578 -0.049379736 0.032577667 0.057440653 -0.013281976 -0.039590094 -0.015330672 0.028786283
0.017615158 0.015760599 -0.007141853 -0.055416193 -0.07425427 0.040437207 0.09348781 -0.051090878
0.076136306 -0.024344798 -0.049534716 -0.07994099 0.0023864168 0.03255366 -0.024913242 -0.012232227
0.035136998 -0.047235794 -0.062297307 -0.033741668 0.0022726338 -0.040544365 0.03075096 0.050000567
00000000: b65e 9ebd 0523 25bd d2d7 88bd 3689 de3b
00000010: 8749 003d 5713 de3c 1de7 203d f19b 1cbd
00000020: 29fd 05bd 4f03 4f3d 815e 353b 1f15 03bd
00000030: 451d d13d 7795 8abd 0d35 bcbb ebb6 0fbc
00000040: 19b6 b23c 62a4 76bb f428 cf3d 2b2e 80bc
00000050: 48ba a73a 0397 5bbd 1ac6 70bd e19d 4fbd
00000060: 8e3f e93b 0cb3 3ebd 1419 9fbc ed55 8fbc
00000070: 6637 a93d 10db a53c 6212 9a3d 5174 9ebc
00000080: 2ba4 f0bc 6e98 3cbd 0d36 983d e7ae 613c
00000090: 7450 6a3b f6e7 d43c db9c 0c3d bf88 df3c
000000a0: 4cc0 94bb a009 2abd 85c3 96bd 4898 1fbd
000000b0: c41c 1dbd 1669 8abd 2468 103d 6b5e f0bc
000000c0: e920 613d b809 dbbc 005b a6bb 901e 04bd
000000d0: b3d3 91bd 806f 17bd 7bc3 0ebd c5bb 9b3c
000000e0: 1d42 b23d 1246 5cbd d08d 56bc b440 053d
000000f0: 5a33 35bb be6b 6cbd 57eb f2bb 1581 bc3d
00000100: 4410 d33d fb42 1b3d 7752 183d 50f8 0ebc
00000110: aefd 4abd 06e7 8b3d 300b 61bc 610e 0cbd
00000120: d775 1c3d 9bc0 5f3d 712e 7dbd 79da 8f3d
00000130: 7868 b33d 7674 123d 543b c03b 6f04 7bbd
00000140: b175 0bbd 98f0 5fbd f481 1abc 9bac 81bc
00000150: 2e4e aa3d 88f0 453c 9b82 65bd dd6c 013d
00000160: ad5e 20bd 7cf4 a33d 3693 71bc 1333 53bd
00000170: 1483 d03c 2562 d63c b48a f5bc 9c21 3cbb
00000180: ea02 133d dd2c fd3a 3394 9dbc 791f 05bd
00000190: 1b6e af3c cf80 65bd d4de b5bc ece8 b8bd
000001a0: 6655 b43d 4a4b 82bc 23ad 17bd 4da4 30bd
000001b0: f49d da3c 5495 f7bb 836c bebc c150 04bd
000001c0: 01c5 a0bd c1a7 343d 5257 00bd 9184 26bd
000001d0: 36d2 b83c bc54 883d 75ba 753c c452 b23d
000001e0: e54d 803c b1ef 483d 47ed 803c fc9b 48bd
000001f0: 810b c2bc cb4f 773d 809d 10bd b97f 523d
00000200: 88d9 50bd 398f d53d cc27 043d a5d5 f53d
00000210: 87a6 93bd 9b4d 9e3d a920 793d d813 debc
00000220: 8985 c5bc 28a8 efbc ba5f 45bd 024a 6a3b
00000230: e933 eabb 815f 19bd ac16 f73d 11b2 52bd
00000240: fea7 bdbc a267 6fbd 2f2e 653d e737 9abd
00000250: 2570 4dbd 61c8 ad3c 28c6 86bd 76b1 b23d
00000260: 5bd1 043d e2f5 d2bc 3140 3bbd 466c 303d
00000270: 8611 0d3d 5d08 013d 143b 37bd 82df 293c
00000280: 5e7c a43d 8fdc af3b 185f 4bbc 6782 c2bd
00000290: 4886 68bd 0759 af3d 72c3 b2bd 6988 173d
000002a0: 2f75 f0bc 7bf8 883d 3bab 033d e326 02bd
000002b0: bda0 663b f067 75bd 4fa1 85bc 44f6 053c
000002c0: aea1 30bd db90 963d e90c 88bc f45f 323d
000002d0: 2478 1c3c 50e7 d43c 8ad6 323d e45a a1bb
000002e0: fc5e 053d 4117 91bd f7c2 1fbd c153 8f3d
000002f0: 57b3 1b3d a71c cf3d 9c0c 943d 92eb 6b3d
00000300: fb32 433d 8c77 843d f688 083d bd46 d4bc
00000310: 1434 243d a164 163d 32e3 8bbc a829 7abc
00000320: f79d 103d 3fc1 23bc a1cb 2abd 3296 e13d
00000330: 863f b33d 573b acbd a981 0dbd 47f3 403d
00000340: 3ceb 6b3d 2cdb c63d dad9 78bd a99d 263c
00000350: 68ee f5bc 60de 913c bc44 2ebd 6ebe 03bc
00000360: 718a a5bc 703d 81bd c7cb 8e3d fcda 8f3c
00000370: 564b 9e3c 5e40 7dbd 52c0 6dbb 991f 343d
00000380: 915b 9c3b 6842 4abd 2970 053d e446 6b3d
00000390: a59c 59bc 3929 22bd 802d 7bbc 36d1 eb3c
000003a0: aa4d 903c 5f1c 813c 3506 eabb 17fc 62bd
000003b0: 9f12 98bd 7ca1 253d 8976 bf3d ab44 51bd
000003c0: 5aed 9b3d be6e c7bc eae4 4abd 1ab8 a3bd
000003d0: 6e65 1c3b fd56 053d db16 ccbc ae69 48bc
000003e0: d0eb 0f3d 527a 41bd 762b 7fbd b434 0abd
000003f0: 78f0 143b d911 26bd 70e9 fb3c 65cd 4c3d

main_model.hiddenlayer_2.weight f4 [256, 256]
0.0430732 0.03673394 0.03845437 -0.019285128 -0.0052721947 0.02492667 -0.005399839 0.012870251
-0.023720723 -0.067541026 -0.007848341 0.044610053 -0.015029055 -0.010623074 -0.056861304 0.0054695937
-0.008243412 0.0027605265 -0.026570484 0.011752978 -0.014500607 0.006268665 -0.049399786 -0.05601033
-0.054142516 0.050298393 -0.0574365 -0.06689065 0.04740147 0.022917889 0.007575795 0.049244866
0.046044752 -0.05055748 -0.047536194 0.02961506 -0.013801903 -0.05998227 -0.06457685 0.054746654
0.023385396 0.019939486 -0.015959434 -0.043742035 0.028816417 0.020817257 0.005365781 0.041721143
0.030548153 0.040250912 -0.046185926 0.043496028 0.042346284 -0.009840779 -0.030647384 -0.011516359
-0.023747282 0.037836187 0.05500994 0.012022548 0.03966061 0.0152334515 -0.007971505 -0.039371006
-0.005664461 -0.021056749 -0.0052830228 0.022462375 -0.039261237 0.015111297 -0.041795477 0.027869035
-0.050094884 -0.019407466 0.056082986 0.02652831 -0.06290605 -0.042440634 -0.05415202 0.049374327
0.0048157647 0.028751627 -0.070141435 -0.062494196 0.045781694 -0.04049036 0.023721926 0.014436975
0.04675263 0.0058839214 -0.026932934 0.01300922 -0.060150355 0.036599852 0.023220817 0.030697722
-0.03785017 0.024560861 -0.019594131 0.0096311495 -0.039339337 -0.061242975 0.051291794 -0.041142523
0.044707876 0.018380597 0.037484765 0.053038504 -0.044555422 -0.0643521 -0.04453004 0.0058821402
0.044854857 0.041898943 0.01682517 0.049341828 0.008642398 0.028552376 -0.02043353 -0.06952325
-0.045412615 -0.0045595733 -0.008072689 -0.040243387 0.014826156 -0.030992664 0.036045738 0.01374164
0.012635373 0.010495683 -0.064481735 -0.058802105 -0.001595507 0.03551503 -0.035376403 -0.00065090053
-0.01318666 0.010523602 -0.01940836 6.162375e-05 0.021210358 0.027675318 -0.05406809 -0.00634123
-0.057655342 0.0039816643 0.036825083 0.018926673 -0.021425582 -0.06184171 -0.051289238 -0.054224696
-0.04894014 0.034541093 -0.02275066 -0.021738142 0.025588013 -0.047771525 0.0056095994 0.027766168
0.014852182 0.0034368085 0.03765413 -0.0041106045 0.045097336 -0.019027561 -0.03598667 -0.006303822
-0.03155723 0.0072956276 0.026318772 -0.029260056 -0.059171483 0.020309707 -0.04642433 -0.06784305
-0.0428707 -0.024059132 -0.057398383 0.028607098 0.026584126 0.026513465 0.056040026 0.024112822
-0.059061885 0.051346317 0.05275263 0.016070627 0.0112303 -0.0066938084 -0.052333847 -0.04595218
0.009257704 0.0057918327 0.040234145 0.021223098 -0.04128457 0.01150886 -0.06238854 -0.03748057
-0.0018605854 -0.00082898885 -0.056863062 0.048141483 -0.013532608 0.052198984 0.04628264 0.026920443
-0.054249648 -0.014636977 0.03374347 0.002773015 -0.03175144 -0.062396362 -0.022719035 -0.048702866
0.034722716 0.050468743 -0.051205963 -0.021567822 -0.028513424 0.05999974 -0.017034398 -0.04322216
0.01505831 -0.019732244 -0.042813715 0.01147606 0.038839698 0.03007603 0.03594148 -0.022322342
-0.0020150936 -0.032019045 -0.016888017 0.028958127 -0.022127414 0.008781645 0.033403277 0.051205017
-0.03627432 -0.008337104 -0.043549374 0.027822584 0.0382246 -0.0026806556 0.048583828 0.033888005
-0.062090743 0.0027212927 0.011336714 0.012343377 0.032070573 -0.006179305 -0.052501746 -0.04799769
00000000: 866d 303d 5476 163d 5482 1d3d d8fb 9dbc
00000010: 60c2 acbb 0433 cc3c 22f1 b0bb bfdd 523c
00000020: f651 c2bc f352 8abd 5496 00bc 08b9 363d
00000030: 6d3c 76bc 670c 2ebc 66e7 68bd 473a b33b
00000040: 600f 07bc f3e9 343b 58aa d9bc 908f 403c
00000050: f493 6dbc 6069 cd3b 6e57 4abd 166b 65bd
00000060: 8bc4 5dbd b005 4e3d 8942 6bbd f7fd 88bd
00000070: 0b28 423d 4cbe bb3c 603e f83b fcb4 493d
00000080: 6c99 3c3d 5c15 4fbd 50b5 42bd 489b f23c
00000090: 6121 62bc f8af 75bd de40 84bd 073e 603d
000000a0: bb92 bf3c 2258 a33c 5cbd 82bc d92a 33bd
000000b0: 6810 ec3c f488 aa3c 6fd3 af3b cae3 2a3d
000000c0: 1f40 fa3c 24de 243d 742d 3dbd e428 323d
000000d0: 4c73 2d3d 383b 21bc 3910 fbbc 1caf 3cbc
000000e0: a989 c2bc 1efa 1a3d 1a52 613d 39fa 443c
000000f0: 2a73 223d ba95 793c ea9a 02bc 7e43 21bd
00000100: f19c b9bb 347f acbc 351d adbb 0403 b83c
00000110: 64d0 20bd 6095 773c bc31 2bbd 9a4d e43c
00000120: 4b30 4dbd 68fc 9ebc 46b7 653d e651 d93c
00000130: e3d4 80bd 3bd6 2dbd 82ce 5dbd bc3c 4a3d
00000140: 90cd 9d3b 8888 eb3c 50a6 8fbd eaf9 7fbd
00000150: 9685 3b3d 38d9 25bd 7c54 c23c 1089 6c3c
00000160: b07f 3f3d e9cd c03b 75a2 dcbc a024 553c
00000170: 3860 76bd bae9 153d 9539 be3c ca79 fb3c
00000180: c808 1bbd dc33 c93c df83 a0bc f8cb 1d3c
00000190: 4922 21bd ead9 7abd 5817 523d 1085 28bd
000001a0: 9b1f 373d e892 963c a089 193d e73e 593d
000001b0: bf7f 36bd 09cb 83bd 2265 36bd f8be c03b
000001c0: bab9 373d 3a9e 2b3d f0d4 893c a81a 4a3d
000001d0: d898 0d3c ace6 e93c 3864 a7bc 3562 8ebd
000001e0: 9402 3abd 7968 95bb 5043 04bc 40d6 24bd
000001f0: 68e9 723c 54e4 fdbc b2a4 133d 9e24 613c
00000200: 9804 4f3c 16f6 2b3c 000f 84bd 7ada 70bd
00000210: 5520 d1ba 3578 113d d9e6 10bd 32a1 2aba
00000220: dc0c 58bc 306b 2c3c 48fe 9ebc 003c 8138
00000230: 58c1 ad3c 59b7 e23c 8076 5dbd 18ca cfbb
00000240: 0228 6cbd 9f78 823b e6d5 163d 1c0c 9b3c
00000250: b484 afbc bc4d 7dbd aa14 52bd b71a 5ebd
00000260: 7575 48bd f67a 0d3d 985f babc 3014 b2bc
00000270: f49d d13c 13ac 43bd bbd0 b73b e075 e33c
00000280: 9156 733c 143c 613b 383b 1a3d 40b2 86bb
00000290: fcb7 383d b0df 9bbc c266 13bd 4b90 cebb
000002a0: 2742 01bd 2910 ef3b 779a d73c c9b2 efbc
000002b0: cc5d 72bd 8b60 a63c 7027 3ebd 4cf1 8abd
000002c0: 3099 2fbd a817 c5bc 911a 6bbd 6f59 ea3c
000002d0: f4c6 d93c c432 d93c 3a8a 653d 4188 c53c
000002e0: e0ea 71bd 8450 523d 2413 583d 8ca6 833c
000002f0: 4bff 373c bc57 dbbb 045c 56bd 5a38 3cbd
00000300: a0ad 173c 6ac9 bd3b 8fcc 243d 10dc ad3c
00000310: 021a 29bd a88f 3c3c 208b 7fbd 3a85 19bd
00000320: e3de f3ba 8050 59ba 3ee9 68bd 0130 453d
00000330: dfb7 5dbc 9ace 553d de92 3d3d 4388 dc3c
00000340: e134 5ebd eecf 6fbc 9836 0a3d 79bb 353b
00000350: cc0d 02bd 5493 7fbd 451d babc a87c 47bd
00000360: 6839 0e3d 50b8 4e3d 58bd 51bd 00af b0bc
00000370: fc94 e9bc 4ac2 753d b98b 8bbc b809 31bd
00000380: 21b7 763c 84a5 a1bc 6f5d 2fbd 1606 3c3c
00000390: 6016 1f3d 0262 f63c 6037 133d 58dd b6bc
000003a0: a90f 04bb 6726 03bd bd58 8abc 9839 ed3c
000003b0: 8d44 b5bc e4e0 0f3c e0d1 083d 5abc 513d
000003c0: 6294 14bd 5998 08bc d460 32bd 30ec e33c
000003d0: 6691 1c3d f0ad 2fbb d6ff 463d 26ce 0a3d
000003e0: dd52 7ebd b757 323b a0bd 393c e03b 4a3c
000003f0: 6f5c 033d c47b cabb 120c 57bd 3a99 44bd
