DQN/DQN_complete/save/main_model_000102.pth (torch_old, 809026 bytes, 10 tensors)

main_model.InputLayer.weight f4 [256, 7]
0	0x3d74e965	0.059792895
1	0xbda42c02	-0.08016206
2	0xbce8ecac	-0.028433166
3	0xbd6e7e55	-0.05822595
4	0x3dcd25a2	0.100169435
5	0xbf58c1cf	-0.8467073
6	0xbd996950	-0.0749079
7	0x3e9659d1	0.293654
8	0xbef6ae02	-0.48179632
9	0xbe91082c	-0.28326547
10	0x3d0074e6	0.031361483
11	0xbc169240	-0.009190142
12	0xbfd423a5	-1.6573378
13	0xbeaaf606	-0.33390826
14	0xbe7fa794	-0.2496627
15	0xbf1cea27	-0.6129479
16	0xbd37b200	-0.04484749
17	0xbe2bc252	-0.16773346
18	0x3e972c6e	0.29526085
19	0xbccf4d37	-0.025305374
20	0x3e80ae07	0.25132772
21	0xbbc63def	-0.0060498635
22	0xbd82a296	-0.06378667
23	0xbe5b57b3	-0.21420173
24	0xbe332f01	-0.174984
25	0x3cc9e982	0.024647478
26	0xbf005e07	-0.50143474
27	0xbe583126	-0.21112499
28	0xbf17ed85	-0.593468
29	0x3e92c6b5	0.28667226
30	0xbea59af4	-0.32344782
31	0x3e39a122	0.18127874
32	0xbd9cdbfb	-0.076591454
33	0xbed223b3	-0.4104286
34	0x3e1e1c12	0.15440395
35	0x3cace42e	0.021104898
36	0x3e7505eb	0.23928039
37	0xbba8d6b6	-0.0051525487
38	0xbf746f5c	-0.9548242
39	0xbe6e43ef	-0.23268102
40	0xbf46c8bd	-0.7765005
41	0x3e79f4e2	0.24409822
42	0x3d35466a	0.044256605
43	0xbe2cf6e9	-0.16891064
44	0xbe05156f	-0.12996458
45	0xbd8bbd24	-0.06823185
46	0xbde5a118	-0.11212367
47	0xbf38f6e3	-0.7225172
48	0x3eb9ae79	0.36265925
49	0x3e4629b9	0.19351853
50	0xbe119278	-0.1421603
51	0x3e8cfe0a	0.27537566
52	0x3e84015e	0.25782293
53	0xbea10df8	-0.3145597
54	0xbdf038a6	-0.11729555
55	0xbc5c5740	-0.013448536
56	0xbe755888	-0.23959553
57	0xbe5b32d1	-0.21406104
58	0x3e078bd3	0.13236932
59	0x3e723780	0.23653984
60	0xbe2aebaf	-0.16691469
61	0x3f821031	1.0161191
62	0xbe2c4a7b	-0.16825287
63	0x3dcb2eaa	0.0992101
64	0x3e8623dd	0.26199237
65	0xbd5d1f2b	-0.053984802
66	0x3e6f6d12	0.23381451
67	0x3e16be31	0.1472099
68	0xbd9263e3	-0.07147958
69	0x3ea1fe47	0.3163931
70	0x3e8ab765	0.27093044
71	0x3e9f588b	0.3112224
72	0xbd30d7a7	-0.043174412
73	0x3dafa64f	0.08576643
74	0xbe3a2c5b	-0.18180983
75	0x3f10ab8a	0.5651175
76	0x3e847d01	0.2587662
77	0xbeb3122d	-0.34974805
78	0x3d83d144	0.064363986
79	0xbe297eae	-0.1655223
80	0xbec048ac	-0.37555444
81	0x3d53de7d	0.051725853
82	0x3ea1d8de	0.3161077
83	0x3ea0b82d	0.31390515
84	0xbf1fec87	-0.6247029
85	0xbf389b44	-0.72111917
86	0xbcf99195	-0.030464927
87	0x3e80f839	0.2518938
88	0xbe222927	-0.15836011
89	0xbe57e7c8	-0.21084511
90	0xbe688098	-0.22705305
91	0x3e3fe371	0.18739106
92	0xbeb8eee1	-0.3611975
93	0xbf2baa25	-0.67056495
94	0x3da9e19f	0.08294987
95	0xbe58b05b	-0.21161024
96	0x3d5ef33d	0.05443119
97	0x3d68c7e8	0.05683127
98	0xbe36a95a	-0.1783804
99	0x3dd13534	0.10215226
100	0xbeb176e0	-0.34661007
101	0x3c351c00	0.011054039
102	0xbe9e42f8	-0.30910468
103	0x3e086ede	0.13323542
104	0xbc846cb0	-0.016165107
105	0xbe1c09e7	-0.15238152
106	0xbf7f0f9c	-0.99633193
107	0x3e14fc25	0.1454931
108	0xbce47239	-0.027886497
109	0xbb5973c0	-0.0033180565
110	0xbe869092	-0.26282173
111	0xbeae3c9a	-0.3403061
112	0xbdcf761f	-0.10129952
113	0xbda4c90a	-0.08046158
114	0xbe8b46f4	-0.2720257
115	0xbdf889dc	-0.121356696
116	0x3d01a3a3	0.031650197
117	0x3de4110c	0.11136064
118	0x3d8d4758	0.06898373
119	0x3db1fd40	0.08690882
120	0xbe1594f1	-0.14607598
121	0xbdcc6ebb	-0.09982058
122	0x3def1eca	0.116757944
123	0x3dafc87e	0.08583163
124	0xbe49fe91	-0.19726016
125	0x3d13dbf8	0.03609845
126	0x3e537ef2	0.20653895
127	0xbe0c33c1	-0.13691618
128	0x3e60c846	0.21951398
129	0xbc7b8096	-0.0153504815
130	0xbe43ac9a	-0.19108811
131	0xbfb4826c	-1.4102302
132	0x3ccf9570	0.025339812
133	0xbc297f46	-0.010345286
134	0x3d2aded4	0.04171641
135	0xbcaa5aec	-0.020795308
136	0xbd8eb025	-0.06967191
137	0xbe737f06	-0.23778924
138	0xbc42a004	-0.011878971
139	0x3e5ff1e2	0.21869615
140	0xbe1a858a	-0.15090004
141	0xbe783bf0	-0.24241614
142	0xbe44bee0	-0.19213438
143	0xbe463f49	-0.19360079
144	0x3d3ed878	0.04659316
145	0xbe803458	-0.25039935
146	0x3d9cf194	0.07663265
147	0xbe49392b	-0.19650714
148	0xbe91600c	-0.2839359
149	0x3d17f700	0.037100792
150	0xbe769008	-0.24078381
151	0x3bc8aa00	0.006123781
152	0xbdbe16b8	-0.09281677
153	0x3ea96353	0.3308359
154	0xbe0f7a8e	-0.14011595
155	0x3e89a091	0.26880315
156	0xbddaa8da	-0.10676737
157	0x3e257311	0.16157176
158	0xbf377cd0	-0.71674824
159	0xbec4dd5d	-0.38450137
160	0x3e8b101b	0.27160725
161	0xbd8791a9	-0.06619579
162	0xbdbbf781	-0.09178067
163	0x3d55dbf2	0.05221171
164	0xbe24afcd	-0.16082688
165	0xbe5c7375	-0.21528418
166	0x3ef36305	0.47536483
167	0x3e19ee52	0.15032318
168	0x3e43f385	0.19135864
169	0xbf36d822	-0.7142354
170	0xbec44006	-0.38330096
171	0xbf04df8d	-0.5190361
172	0xbc629784	-0.013830069
173	0xbdc561bc	-0.09637782
174	0x3eab0291	0.33400396
175	0xbdaf21b5	-0.08551351
176	0xbd73bcda	-0.059506275
177	0xbce8c0f1	-0.028412314
178	0xbf0f29e8	-0.5592332
179	0x3e0bc73f	0.13650225
180	0xbf2e8270	-0.6816778
181	0x3dfdc174	0.12390414
182	0xbe6799a6	-0.22617206
183	0x3d637a76	0.05553671
184	0x3e6b29fb	0.22965233
185	0xbf3a6302	-0.72807324
186	0xbea6c80a	-0.32574493
187	0x3f2568bb	0.6461293
188	0x3eb8402b	0.35986456
189	0x3d7896ac	0.060690567
190	0x3c1b0622	0.009461911
191	0xbde12ce9	-0.10994894
192	0x3c11ae3f	0.008891641
193	0xbed38498	-0.41312099
194	0xbeba458a	-0.3638118
195	0xbde9be44	-0.114132434
196	0xbb8b7272	-0.0042555863
197	0xbd89a2c9	-0.06720502
198	0x3e5565f7	0.20839678
199	0xbf22d9cf	-0.636136
200	0xbee0571f	-0.43816468
201	0x3f00a083	0.5024492
202	0x3d786478	0.06064269
203	0x3e9056bf	0.28191182
204	0xbe47c3cc	-0.19508284
205	0xbcd9027e	-0.026490446
206	0x3e8231e7	0.25428697
207	0x3dbdba22	0.09264018
208	0xbe323368	-0.17402422
209	0xbe1a205f	-0.15051411
210	0xbe5c46ad	-0.21511336
211	0xbdb9f28f	-0.090794675
212	0xbd621f0c	-0.05520539
213	0xbcf2412e	-0.029572096
214	0xbc41abdc	-0.01182076
215	0x3f35a9d7	0.7096228
216	0xbe9fdea4	-0.3122455
217	0x3e2b78d1	0.16745307
218	0xbdcc149a	-0.09964867
219	0xbecf8225	-0.4052898
220	0xbef4bcb8	-0.4780023
221	0xbe17171e	-0.14754912
222	0x3dffb6f4	0.124860674
223	0xbeba1c9d	-0.36349955
224	0xbe8fa2d7	-0.28053924
225	0x3e26d517	0.16292225
226	0x3e7eeb4a	0.24894443
227	0xbe85f632	-0.26164395
228	0xbe1aafd4	-0.15106136
229	0xbf0a2d8c	-0.5397575
230	0x3e61b91e	0.22043273
231	0xbddcf210	-0.10788357
232	0x3e538ad3	0.20658426
233	0xbeafe7b4	-0.34356463
234	0x3de0e904	0.10981944
235	0x3d616dac	0.055036232
236	0xbe6155dd	-0.2200541
237	0x3c9f0610	0.01941207
238	0x3d872b35	0.06600038
239	0xbe594122	-0.21216252
240	0xbea889ba	-0.32917577
241	0xbe194b00	-0.14970016
242	0xbe02e687	-0.12783252
243	0x3d71cd46	0.059033655
244	0xbcdfd4f0	-0.027323216
245	0xbefe8829	-0.49713257
246	0xbf0c78af	-0.5487165
247	0x3e939887	0.28827307
248	0xbd5493d0	-0.051898777
249	0xbde60910	-0.11232197
250	0xbfc1af97	-1.5131711
251	0xbe53de05	-0.20690162
252	0xbdfce89a	-0.12349053
253	0x3e9b4968	0.30329442
254	0x3e2caa47	0.1686183
255	0x3e9e96d6	0.30974454

main_model.InputLayer.bias f4 [256]
0	0xbec7f944	-0.39057362
1	0xbe79f091	-0.24408175
2	0x3d85d024	0.0653384
3	0xbf03c0e0	-0.5146618
4	0xbc619225	-0.013767754
5	0x3e93edc2	0.28892332
6	0xbd62051a	-0.055180646
7	0xbdb1bce3	-0.086786054
8	0xbc0d13dc	-0.008610692
9	0x3afce784	0.0019295071
10	0x39f155c1	0.00046030994
11	0x3eaa522d	0.3326582
12	0xbe6d72d2	-0.23188332
13	0xba88e8d2	-0.0010445362
14	0xbe8a91e8	-0.27064443
15	0x3e3cd655	0.18441136
16	0x3e21165c	0.15731186
17	0xbb01d076	-0.001980809
18	0xbdee9b66	-0.11650734
19	0xbd0e0742	-0.03467489
20	0x3df5afd5	0.11996428
21	0x3ed4528e	0.41469234
22	0xbe6f30a2	-0.23358396
23	0xbe02dd20	-0.12779665
24	0x3e533e67	0.20629273
25	0xbd353d56	-0.044247948
26	0x3dab8943	0.0837579
27	0xbe1e9b35	-0.15488894
28	0x3e8680bc	0.26270092
29	0x3dc23c51	0.09484161
30	0xbd2ca888	-0.04215291
31	0xbe0e5f88	-0.1390363
32	0xbd039887	-0.032127883
33	0xbb815d61	-0.003947899
34	0x3e602ee0	0.21892881
35	0xbe602120	-0.21887636
36	0xbc8d0201	-0.01721287
37	0xbd2740ca	-0.040833272
38	0xbd271bd2	-0.040798016
39	0xbdae5b14	-0.085134655
40	0x3b505cfe	0.003179371
41	0xbb2af389	-0.00260851
42	0xbe129717	-0.14315449
43	0xbd3ffa39	-0.04686949
44	0xbed6661e	-0.41874784
45	0xbe7d09b6	-0.24710736
46	0xbea48f89	-0.3214076
47	0xbd5bfb15	-0.053706247
48	0xbcd26943	-0.025684958
49	0x3e3ff94e	0.18747446
50	0xbbc02a12	-0.00586439
51	0xbe4ddc21	-0.20103504
52	0xbe4aa92f	-0.19791101
53	0x3de98306	0.11401944
54	0x3e675f38	0.22594917
55	0xbc42773d	-0.011869249
56	0xbe03fd5a	-0.12889615
57	0xbe8d7da2	-0.27634913
58	0x3a9ca675	0.0011951464
59	0xbcc60b5e	-0.024175342
60	0x3e9edd76	0.31028336
61	0x3dc8d3fb	0.09806057
62	0xbd56cfc2	-0.052444227
63	0x3c4c0a16	0.012453577
64	0x3d83fadd	0.06444333
65	0xbea8e5eb	-0.32987913
66	0xbdea18f8	-0.11430544
67	0xbd02d1ec	-0.03193848
68	0xbe952dcc	-0.29136503
69	0xbd90a13a	-0.070620015
70	0x3ecc25d7	0.3987262
71	0xbd88da76	-0.06682293
72	0xbe986fb0	-0.2977271
73	0xbe838e35	-0.25694433
74	0xbde3df40	-0.11126566
75	0xbeeea261	-0.4660826
76	0xbcdbeff1	-0.026847811
77	0xbcf4ec8e	-0.029897954
78	0x3dafb0db	0.085786544
79	0xbe52533e	-0.20539567
80	0xbdad4a6b	-0.0846146
81	0x3df41d0a	0.11919601
82	0xbafe31fe	-0.0019393561
83	0xbdc223e4	-0.09479502
84	0xbc1b0ac0	-0.009463012
85	0xbecaf573	-0.39640388
86	0x3e7a62c2	0.24451736
87	0xbe264603	-0.16237645
88	0x3a0aff81	0.0005302355
89	0xbf000115	-0.5000165
90	0x3a634e37	0.0008671018
91	0xbb3bc3d2	-0.0028650654
92	0xbb7d17f0	-0.0038619004
93	0xbe63e400	-0.22254944
94	0xbeb6a8bf	-0.35675618
95	0xbe88f113	-0.26746425
96	0xb9c00982	-0.00036628178
97	0xbc09a2db	-0.008400644
98	0xbe5c26fc	-0.21499246
99	0x3e44e1c9	0.19226755
100	0xbf5bbd78	-0.8583598
101	0x3e70b9d0	0.23508382
102	0xbe05ba5c	-0.13059372
103	0x3ea75f7e	0.32690042
104	0xbd0e9104	-0.034806266
105	0x3e29be7b	0.16576569
106	0x3d106043	0.035248052
107	0x3e2b27c9	0.16714396
108	0xbd000dc0	-0.031263113
109	0xbe0e801f	-0.13916062
110	0x3e6e8efb	0.2329673
111	0xbd8113c1	-0.06302596
112	0xbf4bc400	-0.7959595
113	0xbf12e57a	-0.57381403
114	0xbc82189f	-0.01588088
115	0xbf8bbade	-1.0916402
116	0x3ba0509e	0.004892423
117	0xbe3264d5	-0.17421277
118	0xbee1eeac	-0.44127405
119	0xbe5cbe49	-0.21556963
120	0xbddd4d0f	-0.108057134
121	0xbf0ace5a	-0.5422112
122	0xbd89b43e	-0.067238316
123	0x3dd9ec80	0.10640812
124	0xbf74cc67	-0.95624393
125	0xbcf734a5	-0.03017647
126	0xbc559107	-0.0130350655
127	0xbc508fe5	-0.01272962
128	0xbda1364c	-0.078716844
129	0x3eb585e6	0.3545372
130	0x3ebb84fc	0.36624897
131	0xbf4e37b1	-0.8055373
132	0xbb243efc	-0.0025061956
133	0xbe297ba2	-0.16551068
134	0xbc06f4c0	-0.008237064
135	0xbdd23628	-0.10264236
136	0xbeb98b9e	-0.36239332
137	0x3e9b9ee8	0.30394673
138	0xbc638497	-0.013886592
139	0x3eb816d9	0.3595493
140	0xbeba6a3f	-0.36409184
141	0xbd6f48f6	-0.05841919
142	0xbd043079	-0.03227279
143	0xbdac54b0	-0.0841459
144	0xbcdbf154	-0.026848473
145	0xbe59a6e4	-0.2125507
146	0x3ea44876	0.32086533
147	0x3eafa754	0.3430735
148	0xbd23538e	-0.039874606
149	0xbbd0fc31	-0.00637772
150	0xbedb57e0	-0.4284048
151	0xbea5b133	-0.32361755
152	0xbe9fb46a	-0.31192333
153	0xbbce6f56	-0.0062998934
154	0xbe134f14	-0.14385635
155	0xbd05bc21	-0.032650117
156	0x3e847fe6	0.2587883
157	0xbe99c19f	-0.30030534
158	0xbd1f0edc	-0.03883253
159	0xbcd00584	-0.025393255
160	0x3e4f8be5	0.2026821
161	0xbe5fa7d4	-0.21841365
162	0x3a17bad2	0.0005788031
163	0x3e932e36	0.28746194
164	0xbe29537b	-0.16535752
165	0x3b65ea8e	0.0035082432
166	0xbe96d9c6	-0.29463023
167	0x3b927b72	0.0044702822
168	0xbe4c3c6c	-0.19944924
169	0xbe9ec116	-0.31006688
170	0x3ecd00bd	0.40039626
171	0xbeac4dd2	-0.33653122
172	0xbd6d8000	-0.0579834
173	0xbc318321	-0.010834486
174	0xbde275eb	-0.11057647
175	0x3de55eae	0.11199699
176	0xbe1e2fd6	-0.15447935
177	0xbe4bb8a9	-0.19894661
178	0xbd75c788	-0.06000474
179	0x3ec3f0ae	0.38269562
180	0xbcdf6442	-0.027269486
181	0xbd76b851	-0.06023437
182	0x3e9047f8	0.28179908
183	0xbc5621d9	-0.013069593
184	0xbec441db	-0.38331494
185	0x3eb9b100	0.36267853
186	0x3e54b0ec	0.20770615
187	0xbedefe12	-0.43553215
188	0x3eb1d979	0.3473623
189	0xbdd4e9c4	-0.1039615
190	0xbd83fcfa	-0.06444736
191	0xbe989a6a	-0.2980531
192	0xbd3e0e64	-0.046400443
193	0x3ec4b630	0.38420248
194	0x3e0b1791	0.13583209
195	0xbbd84dcd	-0.0066010715
196	0x3e916123	0.28394422
197	0x3e02d1dd	0.12775369
198	0xbe935bea	-0.28781062
199	0x3e1295f4	0.14315015
200	0xbefbc1e7	-0.49171373
201	0xbba95a09	-0.0051682037
202	0xbbdcdb0f	-0.006739981
203	0xbd9e3662	-0.077252164
204	0xbe890502	-0.26761633
205	0xbf11f178	-0.5700908
206	0xbeef4be0	-0.46737576
207	0xbe3a42d2	-0.18189552
208	0xbe18064e	-0.14846155
209	0xbeb42ebe	-0.3519191
210	0xbcb98241	-0.022645118
211	0xbd2d6e1a	-0.04234133
212	0xbe930d3c	-0.28721035
213	0xbe92dd96	-0.28684682
214	0xbed5ceb5	-0.41759267
215	0xbf0179f7	-0.5057673
216	0xbea508e0	-0.32233334
217	0xbd1fa8ac	-0.038979217
218	0xbc8c9825	-0.017162392
219	0xbe932ab9	-0.28743532
220	0xbbc98d10	-0.006150849
221	0xbf48f9b7	-0.78506035
222	0xbcba7a7b	-0.022763481
223	0x3e891ec8	0.26781297
224	0x3e5f249a	0.21791306
225	0xbcb4b33d	-0.022058124
226	0xbe98c3e4	-0.29836953
227	0xbe824db2	-0.25449902
228	0x3e9b29ed	0.30305424
229	0xbd525990	-0.051354945
230	0xbd0292fe	-0.031878464
231	0xbe5c809d	-0.21533437
232	0xbd551d44	-0.052029863
233	0xbd14b400	-0.036304474
234	0x3e50e07a	0.20398131
235	0x3e4b9ff1	0.19885232
236	0xbd346c27	-0.044048455
237	0xbc8ea1ab	-0.017411074
238	0xbb6cdf30	-0.0036143772
239	0xbdb57fdc	-0.08862278
240	0xbd9c95e4	-0.07645777
241	0xbe6ff4ba	-0.234332
242	0xbba89811	-0.005145081
243	0x3e6f4732	0.23367003
244	0x3dcabf4a	0.09899767
245	0xbd481383	-0.048846733
246	0xb95ab2f9	-0.00020856773
247	0x3d84638f	0.06464302
248	0xbbb2684f	-0.0054445635
249	0x3e82ec1a	0.25570756
250	0xbe342beb	-0.17594878
251	0xbd2fcc22	-0.042919286
252	0xbf3cc64a	-0.73740065
253	0xbf0305e4	-0.51180863
254	0xbedc5a36	-0.43037575
255	0x3e8f2271	0.27955964

main_model.hiddenlayer_0.weight f4 [256, 256]
0	0xbd0ebb75	-0.03484674
1	0xbde08d2c	-0.109644264
2	0xbd9c26c8	-0.076245844
3	0xbd39cc2b	-0.045360725
4	0x3bbbb0f7	0.005727883
5	0xbdbac9eb	-0.09120544
6	0xbac5a0a2	-0.001507778
7	0xb9862a01	-0.00025589767
8	0xbd99ffd1	-0.07519496
9	0xbd7cb27b	-0.06169365
10	0xbd92cb66	-0.071677014
11	0x37cc1ede	2.4333069e-05
12	0x3bd2cdf0	0.006433241
13	0xbdc62134	-0.09674302
14	0x3d661902	0.056176193
15	0xbd64b965	-0.05584087
16	0x3c9375b3	0.01800046
17	0xbcf91d55	-0.030409494
18	0x3c5517a4	0.013006125
19	0xbdc74d7f	-0.09731578
20	0x3cc5c258	0.024140522
21	0xbc883501	-0.016626837
22	0x3bc11f80	0.0058936477
23	0xbdd5506b	-0.10415729
24	0x3c06ef67	0.008235789
25	0xbd392171	-0.045197908
26	0x3ade353c	0.0016953121
27	0xbd94ec20	-0.072716
28	0xbd937162	-0.071993604
29	0xbd550f6c	-0.05201666
30	0x3b7161aa	0.0036831894
31	0xbd5a56fa	-0.053305604
32	0xbd0f3252	-0.0349601
33	0xbdaaf5e2	-0.0834768
34	0xbd1276bc	-0.035757765
35	0xbcd998ae	-0.026562061
36	0xbce55dc0	-0.027998805
37	0xbd0d79fd	-0.034540165
38	0xbd9e9311	-0.077428944
39	0x3c1d0fa8	0.009586252
40	0xbd1c0659	-0.03809199
41	0xbc9248d9	-0.017857002
42	0xbba07c75	-0.004897649
43	0xbcb3c09b	-0.021942427
44	0xbd4c6594	-0.04990156
45	0x3d44faf6	0.048090898
46	0xbd88894e	-0.06666814
47	0xbc92f43b	-0.017938724
48	0xbd676aea	-0.056498446
49	0x3ceb0719	0.028689908
50	0x3d21bbc2	0.0394857
51	0x3c811a17	0.01575951
52	0x3c3e3cde	0.011611192
53	0xbdedeb67	-0.11617165
54	0xbcbf921a	-0.023385096
55	0xbd40c58e	-0.047063403
56	0x3934f480	0.00017257221
57	0xbc321160	-0.0108684
58	0xbd6e98a5	-0.058251042
59	0xbc9ba2e7	-0.018998576
60	0xbd5b960c	-0.053609893
61	0xbcef5231	-0.029213997
62	0xbd93f5d6	-0.07224624
63	0x3ce129db	0.027485779
64	0xbdb1dbd6	-0.086845085
65	0x3d4cce08	0.050001174
66	0x3bf31380	0.007418096
67	0xbce1088c	-0.027469896
68	0xbb1fd500	-0.0024388433
69	0xbd921976	-0.071337625
70	0xbd9da791	-0.076979764
71	0xbbaff4c8	-0.0053697564
72	0xbc7b0008	-0.015319832
73	0xbda4a640	-0.08039522
74	0xbcb3ea2c	-0.021962248
75	0xbd96ee8f	-0.0736972
76	0xbcd9284d	-0.026508475
77	0x3cba88d7	0.022770328
78	0xbda4575a	-0.080244735
79	0xbd1aedff	-0.037824627
80	0xbd089f99	-0.03335533
81	0xbcd9e581	-0.026598694
82	0xbd3f9eee	-0.046782427
83	0x3b231f00	0.0024890304
84	0xbd89e601	-0.06733323
85	0xbd8fe876	-0.0702676
86	0xbd9d15b1	-0.07670153
87	0xbdbc3d0a	-0.0919133
88	0xbcd08556	-0.025454205
89	0xbbeb2fb6	-0.0071773184
90	0x3b1a1d07	0.0023515837
91	0xbd44da84	-0.048059955
92	0x3c2c0a4e	0.010500504
93	0x3da9dae3	0.082937025
94	0xbd910001	-0.07080079
95	0xbd10d27b	-0.03535698
96	0x3caae33b	0.020860305
97	0xbdb69d00	-0.08916664
98	0xbc58cb78	-0.0132321045
99	0xbd4625a4	-0.04837574
100	0x3c95f158	0.018303558
101	0xbdaaef5e	-0.08346437
102	0xbd02b59e	-0.031911485
103	0xbd8f6eb1	-0.070035346
104	0x3bd64e8b	0.006540125
105	0xbd9c7d08	-0.07641035
106	0xbd4331c8	-0.047654897
107	0xbdae437f	-0.085089676
108	0xbc8fad5c	-0.017538719
109	0x3c3dad22	0.011576923
110	0x3c9ea610	0.019366294
111	0x3d0ce3e5	0.034397025
112	0x3c9ef178	0.01940225
113	0x3c4453ba	0.011982853
114	0xbd8319e9	-0.06401426
115	0xbda23983	-0.07921126
116	0x3bd6e4b6	0.006558026
117	0xbcf426e4	-0.0298037
118	0xbda574d5	-0.080789246
119	0xbd1fa8e4	-0.038979426
120	0xbcd735e0	-0.026270807
121	0xbdd2bb26	-0.10289602
122	0xbdb96b75	-0.09053699
123	0xbd880f62	-0.06643559
124	0xbd5d95d5	-0.05409797
125	0xbc424b35	-0.011858751
126	0xbdb9a356	-0.09064357
127	0xbd7eff6b	-0.062255304
128	0x3c6a8519	0.0143139595
129	0xbc397375	-0.011319031
130	0xbc3258ca	-0.010885427
131	0xbdd063c7	-0.10175281
132	0xbd11c131	-0.035584632
133	0x3c0a6b20	0.008448392
134	0xbd96617b	-0.07342812
135	0x3c176458	0.009240232
136	0xbd199f16	-0.03750523
137	0xbd9a9ca8	-0.07549411
138	0x3c1e2e90	0.009654656
139	0x3c96c827	0.018405987
140	0xbd1af820	-0.037834287
141	0x3d15befb	0.036559086
142	0xbd808d9a	-0.06277008
143	0xbcce7b9d	-0.025205428
144	0xbd7a02ac	-0.061037704
145	0xbd074ed8	-0.033034176
146	0xbd8c3138	-0.06845325
147	0xbc27687a	-0.01021778
148	0xbce33f34	-0.027740099
149	0x3c2798f8	0.010229342
150	0x3c245ce6	0.010031914
151	0xba8d6047	-0.0010786139
152	0xbd28768b	-0.041128676
153	0xbdc1913b	-0.09451529
154	0x3c5bd072	0.013416396
155	0x3c10daa4	0.0088411905
156	0xbd41fbc5	-0.047359247
157	0xbc1946df	-0.009355276
158	0xbde936e7	-0.11387425
159	0xbdef0b16	-0.11672036
160	0xbbd7a2e7	-0.006580699
161	0x3ccfc18c	0.025360845
162	0xbcd09d14	-0.025465526
163	0xbcfc2a38	-0.03078185
164	0xbdacaab2	-0.08430995
165	0xbd6b71b7	-0.057481494
166	0x3c9db7ca	0.019252677
167	0xbd4b6882	-0.049660213
168	0xbd754612	-0.059881277
169	0xbd821efd	-0.06353567
170	0xbce78e62	-0.028266136
171	0xbd4af7ea	-0.049552836
172	0xbdae9246	-0.08523993
173	0x3aef5377	0.0018259127
174	0xbd9b5ba8	-0.075858414
175	0xbcbf4ca5	-0.023351977
176	0xbd208157	-0.039185848
177	0xbd6c7a0b	-0.057733577
178	0xbcb6c6fc	-0.02231168
179	0xbd430d03	-0.04761983
180	0xbcf82d68	-0.030295089
181	0x3cd9acc6	0.026571643
182	0x3c27900b	0.010227214
183	0xbd913860	-0.07090831
184	0xbd4e1614	-0.050314024
185	0xbc24f53c	-0.010068234
186	0xbcf152cf	-0.029458432
187	0xbd2fb005	-0.042892475
188	0xbc50cbf6	-0.012743941
189	0x3cdf1238	0.027230367
190	0xbcbbd6db	-0.0229296
191	0x3b81eb40	0.0039648116
192	0xbda8ea46	-0.08247809
193	0xbc3c6d06	-0.011500603
194	0xbd84698e	-0.064654455
195	0xbd636cca	-0.05552367
196	0xbb3267b9	-0.0027222468
197	0xbd544d87	-0.05183175
198	0x3d48584a	0.048912324
199	0xbd0e0302	-0.034670837
200	0xbc0f90d0	-0.008762553
201	0x3ce91df1	0.02845666
202	0xbda32df4	-0.07967749
203	0xbd880d16	-0.06643121
204	0x3d7e13c2	0.06203056
205	0xbd9bd3ee	-0.07608782
206	0x3c0ebe5b	0.0087123765
207	0x3d2a7bfc	0.041622147
208	0xbd6d6b88	-0.057963878
209	0x3cfb4582	0.030672792
210	0xbc810c67	-0.015752984
211	0xba039f62	-0.00050210033
212	0xbd9b3fb2	-0.07580508
213	0xbd72445c	-0.059147224
214	0x3cedba20	0.029019415
215	0xbd5693b1	-0.052386943
216	0xbd480123	-0.04882921
217	0xbd9f24d4	-0.07770696
218	0xbd0ccec1	-0.034376863
219	0x3cbb2127	0.022842957
220	0xbdab6404	-0.08368686
221	0xbd33dbe6	-0.043910883
222	0xbd6680f2	-0.056275316
223	0xbdb48fac	-0.08816466
224	0x3ce29aa3	0.027661627
225	0xbceaddb2	-0.028670166
226	0xbdab27cc	-0.083572
227	0x3cc6a865	0.024250219
228	0xbbc78787	-0.006089154
229	0xba32d480	-0.0006821826
230	0xbdb9a03d	-0.09063766
231	0xbd80a132	-0.062807456
232	0xbd9e7cf2	-0.07738675
233	0x3cd9669a	0.026538182
234	0xbdb1ac5d	-0.08675454
235	0xbd0e6053	-0.03475983
236	0xbd9b585c	-0.075852126
237	0x3cccc581	0.024996521
238	0xbd55a910	-0.052163184
239	0x3c0456b8	0.008077316
240	0x3d297f46	0.041381143
241	0x3cf47b40	0.029843926
242	0xbda75799	-0.08171005
243	0x3b526402	0.0032103066
244	0xbcca2bc7	-0.024679078
245	0xbd96490a	-0.0733815
246	0xbd1a6b7e	-0.03770017
247	0xbd98e603	-0.07465746
248	0xbd8a8a6b	-0.067646824
249	0xbda6d24c	-0.0814558
250	0xbd4180c6	-0.04724195
251	0xbdb44b02	-0.08803369
252	0xbd676550	-0.056493104
253	0xbb70ecfc	-0.0036762347
254	0xbbe0a251	-0.006855287
255	0xbd921441	-0.071327694

main_model.hiddenlayer_0.bias f4 [256]
0	0x3ca5f6e6	0.020259332
1	0xbdb7d8db	-0.08976909
2	0xbda0738b	-0.07834538
3	0x3cb4b0c8	0.022056952
4	0xbd3bc175	-0.045838792
5	0x3d503aa9	0.050837193
6	0x3c821bc2	0.015882377
7	0xbc263552	-0.0101445485
8	0x3e28057f	0.16408347
9	0xbde06cdf	-0.109582655
10	0x3cba0d08	0.022711292
11	0xbd0d0be5	-0.03443517
12	0xbd42fdb0	-0.047605217
13	0x3cbdc0b7	0.023163183
14	0xbd0b68a7	-0.03403535
15	0xbd8d31d6	-0.06894271
16	0xbdcaedad	-0.09908614
17	0xbda3489e	-0.07972835
18	0xbd9ec951	-0.07753242
19	0xbd74db93	-0.059779715
20	0xbdaf400b	-0.08557137
21	0xbdba6a8e	-0.09102355
22	0xbdfdb481	-0.12387944
23	0xbbbc0066	-0.005737352
24	0xbd151542	-0.036397226
25	0x3cccaca3	0.024984663
26	0xbda00a4d	-0.07814465
27	0x3ca002e2	0.019532625
28	0xbd55e6e7	-0.05222216
29	0xbdb81326	-0.08988027
30	0xbc7d180a	-0.015447626
31	0xbcde7093	-0.027153289
32	0xbd686962	-0.056741126
33	0xbd7694ab	-0.060200375
34	0x3e405aeb	0.18784682
35	0xb9778ed2	-0.0002360896
36	0x3bc296d8	0.005938392
37	0xbc206688	-0.00979007
38	0xbdb2660d	-0.08710871
39	0xbd8a2198	-0.06744689
40	0x3d4ce060	0.05001867
41	0x3c6941d6	0.014236888
42	0x3dda88ea	0.106706455
43	0x3e28f85e	0.16500995
44	0x3f013158	0.5046592
45	0xbdfca37b	-0.12335869
46	0xbd8a4bba	-0.06752725
47	0xbdc1fd3d	-0.094721295
48	0xbd7b79ea	-0.061395563
49	0x3d9b2997	0.07576292
50	0xbbc2842a	-0.0059361653
51	0x3cf74dd7	0.030188484
52	0xbc92b785	-0.017909775
53	0xbd0c5c56	-0.034267746
54	0xbdbaf200	-0.09128189
55	0x3f47a5cd	0.77987367
56	0x3ccc6493	0.024950301
57	0x3c401d9f	0.011725812
58	0x3db24ad3	0.08705678
59	0xbda48843	-0.08033802
60	0x3cca55b9	0.024699079
61	0x3df45338	0.11929935
62	0xbd3dbdc3	-0.04632355
63	0x3d3fcf06	0.046828292
64	0xbd988fa5	-0.07449273
65	0xbd081136	-0.03321954
66	0x3be67a87	0.0070336494
67	0xbd992217	-0.07477205
68	0xbd8df031	-0.069305785
69	0xbcc20ba0	-0.023687184
70	0xbd88ad68	-0.066736996
71	0xbe406b7d	-0.18791004
72	0x3da3ef7a	0.08004661
73	0xbda2f7c2	-0.07957412
74	0xbd845b93	-0.06462779
75	0xbc944f0b	-0.018104097
76	0xbd5f361d	-0.054494966
77	0xbd38e297	-0.045137968
78	0x3d6881b7	0.05676433
79	0xbd06a19a	-0.03286896
80	0xbd8b9dbc	-0.06817195
81	0x3d9903b6	0.07471411
82	0xbdd7e896	-0.10542409
83	0x3cd9b2a3	0.026574438
84	0x3bd42fb6	0.006475414
85	0x3e0e3d8e	0.13890669
86	0x3b604f6f	0.0034227034
87	0x3dcf1f81	0.10113431
88	0xbd62978d	-0.05532031
89	0x3ee3f6f6	0.44524354
90	0x3d81de3e	0.063412175
91	0x3caaf9fc	0.020871155
92	0xbd841d01	-0.064508446
93	0xbcf580f4	-0.029968716
94	0x3d2a30ee	0.04155057
95	0xbb6434dd	-0.0034821548
96	0xbcd5b9a5	-0.026089499
97	0x3afc3951	0.0019243156
98	0xbcbb5112	-0.022865806
99	0xbdfd78e8	-0.12376577
100	0x3df679f0	0.120349765
101	0xbd38baf1	-0.045100156
102	0xbde0296e	-0.10945402
103	0x3d2eda73	0.0426888
104	0xbdad3281	-0.084568985
105	0x3ced90ef	0.028999774
106	0xbd11fdce	-0.035642438
107	0xbd9bf1b6	-0.07614462
108	0xbd8bec59	-0.06832189
109	0x3c86b5f6	0.016444188
110	0xbdda1c92	-0.106499806
111	0xbd2a673a	-0.04160235
112	0xbd23c058	-0.039978355
113	0xbc1b3475	-0.009472956
114	0x3ec0dae6	0.37667006
115	0x3dcd751d	0.10032103
116	0xbd126420	-0.035740018
117	0xbd3f34a1	-0.04668105
118	0xbd2718f3	-0.040795278
119	0x39fa424b	0.00047733108
120	0x3cd7048a	0.026247282
121	0x3c9a09fe	0.018803593
122	0x3a989ab0	0.001164278
123	0xbd92fd38	-0.07177204
124	0xbd5f2b69	-0.05448476
125	0xbc8f4141	-0.01748717
126	0x3ebf88bc	0.37409008
127	0xbd08de48	-0.03341511
128	0x3cc3ed68	0.023916915
129	0xbd01dbe1	-0.031703833
130	0x3c3c1b75	0.011481156
131	0xbd3ad18e	-0.045610003
132	0xbced932a	-0.029000837
133	0x3d72ee36	0.059309207
134	0xbc0c3e5d	-0.00855979
135	0xbd681542	-0.056660898
136	0xbd002ad6	-0.03129085
137	0x3d04af9b	0.032394033
138	0xbc977854	-0.018489994
139	0xbd8207bf	-0.06349134
140	0xbc9d56af	-0.019206373
141	0x3d94b2e6	0.07260685
142	0x3de9322f	0.11386525
143	0xbd477375	-0.048694093
144	0x3de2da81	0.110768326
145	0xbd015698	-0.031576723
146	0x3c50c82e	0.012743039
147	0x3dbe41c9	0.09289891
148	0xbdbc9c80	-0.092095375
149	0xbd116d81	-0.03550482
150	0x3db09694	0.086224705
151	0xbc1667db	-0.0091800345
152	0xbca9a856	-0.020710152
153	0xbcc3c714	-0.023898639
154	0xbd9912ef	-0.074743144
155	0xbdc25521	-0.09488893
156	0xbcb0c1c7	-0.021576775
157	0x3cef1ef5	0.029189566
158	0xbdba9a80	-0.091115
159	0xbb3e99ff	-0.0029083488
160	0xbd9e3f5c	-0.077269286
161	0xbc03b066	-0.008037662
162	0xbd5566cb	-0.052099984
163	0xbd1e5817	-0.038658228
164	0xbd69e650	-0.05710441
165	0xbc9534f6	-0.01821373
166	0x3e0a11c5	0.13483341
167	0xbd3f8c37	-0.04676458
168	0x3deb682f	0.11494481
169	0x3d215189	0.0393844
170	0xbe1a6e7a	-0.15081206
171	0x3ca98fa7	0.020698382
172	0xbd3bf63a	-0.045889117
173	0xbd3a7e7b	-0.045530777
174	0xbc269aec	-0.010168772
175	0x3bf3a43e	0.0074353507
176	0x3c52aa5d	0.012858001
177	0x3cf726b3	0.03016982
178	0xbdb4f968	-0.08836633
179	0xbda1ada6	-0.07894449
180	0x3e19294a	0.14957157
181	0x3dd74cab	0.1051267
182	0xbd8710fd	-0.06595037
183	0xbcd4a50e	-0.02595761
184	0xbd4cc266	-0.04999008
185	0x3c6d480b	0.014482508
186	0xbe046de5	-0.12932546
187	0xbd4ac059	-0.049499843
188	0xbd8dab39	-0.06917424
189	0xbce122df	-0.027482448
190	0xbc952f36	-0.018210988
191	0x3eee1634	0.46501315
192	0x3e8ea77c	0.27862155
193	0x3dd67935	0.10472337
194	0xbd314a2b	-0.043283623
195	0x3d4bb957	0.0497373
196	0x3bbd8630	0.0057838187
197	0xbdeb01d2	-0.114749566
198	0xbdaadab5	-0.08342496
199	0xbd7b141a	-0.061298467
200	0x3ca03cc8	0.019560233
201	0xbcbe985c	-0.02326601
202	0x3e0a52eb	0.13508193
203	0x3a293acd	0.00064556004
204	0xbd874452	-0.06604828
205	0x3e0840cd	0.1330597
206	0x3d784115	0.060608942
207	0xbda1f706	-0.07908444
208	0xbd8e1c76	-0.06939022
209	0xbca51f8f	-0.02015665
210	0x3f9d0b84	1.2269139
211	0xbdbc3e28	-0.09191543
212	0x3dcee957	0.101031
213	0xbcea84d3	-0.028627789
214	0xbccf970d	-0.025340581
215	0x3cf12d6b	0.029440602
216	0x3dc3d17a	0.09561439
217	0x3de1ff30	0.11035001
218	0xbdc96c9d	-0.098351695
219	0x3eba4fdb	0.3638905
220	0xbce52106	-0.027969848
221	0xbd9ef22f	-0.077610366
222	0xbd0ff47d	-0.03514527
223	0xbd2c106f	-0.04200786
224	0x3c26779f	0.010160356
225	0x3ccab76f	0.024745671
226	0xbd20fd57	-0.039304104
227	0x3d6c4a63	0.05768813
228	0x3d638b70	0.0555529
229	0xbe09cef9	-0.1345786
230	0xbc8ac974	-0.016941763
231	0xbd99bf80	-0.07507229
232	0xbd108ddf	-0.03529155
233	0xbd942054	-0.072327286
234	0xbdba40a9	-0.09094364
235	0xbd153b8b	-0.036433738
236	0xbdc47b46	-0.09593825
237	0xbbd29e7c	-0.006427584
238	0xbd77195d	-0.060326923
239	0x3d0b32b2	0.033983894
240	0xbc8b5179	-0.017006623
241	0xbd622637	-0.055212226
242	0xbd19a5da	-0.037511684
243	0xbc00070d	-0.007814181
244	0xbd487fa1	-0.04894984
245	0xbcb3229e	-0.021867093
246	0xbd824522	-0.06360842
247	0x3cf7d05d	0.030250723
248	0xbc7d080f	-0.015443816
249	0x3a1d79bd	0.0006007215
250	0xbd4caf5c	-0.049971923
251	0xbd5d423e	-0.05401825
252	0xbd368dd6	-0.04456886
253	0xbd904832	-0.0704502
254	0xbd948285	-0.07251457
255	0x3dc5f319	0.09665508

main_model.hiddenlayer_1.weight f4 [256, 256]
0	0xbd32c6bc	-0.04364656
1	0xbd04cfce	-0.03242474
2	0x3c2cdf52	0.010551291
3	0x3d5318c6	0.051537298
4	0x3c6d3d8b	0.014480005
5	0x3d0779a2	0.033074982
6	0xbac299f2	-0.0014846905
7	0x3d046ad6	0.03232845
8	0xbd6c7be0	-0.057735324
9	0xbd3e8fb8	-0.04652378
10	0x3d64b40e	0.055835776
11	0x3c067780	0.008207202
12	0xba6b7400	-0.0008981824
13	0x3c358051	0.011077956
14	0x3d2367f5	0.039894063
15	0xbcad73ce	-0.021173384
16	0xbd993ae5	-0.07481936
17	0xbd216911	-0.03940684
18	0x3d7bdc50	0.061489403
19	0x3c725a20	0.014791995
20	0x3d249540	0.0401814
21	0x3d87381f	0.06602501
22	0xbd18a7d6	-0.037269436
23	0x3b9ada09	0.004725699
24	0x3a8829c6	0.0010388426
25	0xbd2c9f0c	-0.042143866
26	0xbcd457d3	-0.025920784
27	0x3cf46f6f	0.029838292
28	0x3c04a6e5	0.008096431
29	0xbdc3c2b8	-0.09558624
30	0xbd1ee064	-0.038788214
31	0xbd181142	-0.037125833
32	0x3d924f4d	0.07144032
33	0xbd7299d8	-0.059228748
34	0x3bd4c766	0.0064934967
35	0xba8b3d40	-0.0010623112
36	0xbd1bcc94	-0.038036898
37	0xbd4ad114	-0.0495158
38	0xbd46ceb2	-0.048536964
39	0xbce86724	-0.028369494
40	0xbd338b2e	-0.043833904
41	0x3d02c13a	0.031922556
42	0x3d19cfbf	0.037551638
43	0xbc15c338	-0.009140782
44	0xbdd38019	-0.10327167
45	0xbd280e36	-0.041029178
46	0x3caf7a54	0.021420635
47	0xbac39440	-0.0014921501
48	0x3c5aa366	0.013344621
49	0xbc01ac51	-0.007914619
50	0xbd82c963	-0.06386068
51	0x3d6ca221	0.057771806
52	0x3d84b529	0.06479866
53	0xbd524a36	-0.051340304
54	0xbd14b3a2	-0.036304124
55	0xbcb4cfda	-0.022071768
56	0xbdd3d095	-0.10342518
57	0xbc9189dc	-0.017765932
58	0x3d861c60	0.06548381
59	0x3d2500ce	0.04028397
60	0x3c8277cf	0.01592627
61	0xbbb49480	-0.0055108666
62	0xbd44d93c	-0.048058733
63	0x3cd2fc04	0.025754936
64	0x3cb230a3	0.021751707
65	0x3c43a100	0.011940241
66	0xbd582a52	-0.052774735
67	0x3bde3850	0.0067816153
68	0x3d7ea1d2	0.062166043
69	0x3d24356c	0.04009001
70	0x3cb2006f	0.021728722
71	0xbd7717ea	-0.06032554
72	0x3d7474a3	0.059681546
73	0x3d0617b5	0.032737453
74	0xbda88c28	-0.08229858
75	0xbcc0870d	-0.023501897
76	0xbd90c190	-0.07068169
77	0xbd17cce3	-0.03706063
78	0xbaef36e4	-0.0018250612
79	0xbd079ef9	-0.033110593
80	0xbdce5c8a	-0.10076244
81	0x3c1754c5	0.009236519
82	0xbdb572da	-0.08859797
83	0x3d022c32	0.03178043
84	0xbd6fbfa2	-0.058532365
85	0x3d7e9a30	0.062158763
86	0x3c30b0cd	0.01078434
87	0x3d62d1e8	0.055375963
88	0x3ca4a860	0.020099819
89	0xbc5f3a6c	-0.013624769
90	0xbc2f0d0e	-0.010684265
91	0x3d212954	0.039346054
92	0x3c84f4a4	0.016229935
93	0x3b93d71c	0.004511727
94	0xbd872cec	-0.06600365
95	0x3d20a6f0	0.039221704
96	0xbd66b155	-0.05632146
97	0x3d2338a3	0.039848935
98	0xbd31aad4	-0.043375805
99	0x3c711b8f	0.014716043
100	0xbe039227	-0.12848721
101	0x3aae4417	0.0013295439
102	0xbd3197c7	-0.043357637
103	0xbcb3f5a5	-0.021967718
104	0xbe221acf	-0.15830539
105	0xbe0df6b7	-0.13863645
106	0xbd5e28a2	-0.05423797
107	0xbdb03ee9	-0.08605749
108	0xbc8c7805	-0.017147074
109	0xbd51bb70	-0.051204145
110	0xbd92be78	-0.07165235
111	0x3d3fc0c8	0.04681471
112	0xbc86e5f4	-0.016467072
113	0x3d7437ce	0.059623532
114	0xbdf1010a	-0.11767776
115	0xbc0e9be1	-0.008704157
116	0xbd055104	-0.032547966
117	0xbd6f9161	-0.058488254
118	0xbd1b129e	-0.03785955
119	0xbde05811	-0.10954297
120	0xbb431b2b	-0.0029770832
121	0xbd66bef5	-0.056334455
122	0x3d82a82f	0.06379735
123	0xbcef35c0	-0.029200435
124	0x3d433190	0.04765469
125	0x3ccaca08	0.02475454
126	0xbdc34fcc	-0.095367044
127	0x3d4d0523	0.050053727
128	0x3d651e12	0.05593688
129	0x3d6a06d6	0.057135426
130	0x3d5ef54b	0.05443315
131	0xbdc5f584	-0.09665969
132	0xbbf1f92b	-0.0073844395
133	0xbd9ca2cc	-0.076482385
134	0xbd9e1ad4	-0.07719961
135	0xbc4e8630	-0.012605235
136	0xbcdc4d4d	-0.026892329
137	0xbd3c3a2e	-0.045953922
138	0x3cddacf7	0.027060015
139	0x3d049e06	0.032377265
140	0x3ca66165	0.020310113
141	0x3be42bfe	0.006963252
142	0xbdd87d3b	-0.10570761
143	0x3cfae9ac	0.030629002
144	0xbe08442c	-0.13307256
145	0x3ade6881	0.00169684
146	0x3d2651c3	0.040605318
147	0xbd50f1b2	-0.05101175
148	0xbd98d358	-0.074621856
149	0xbd5e3b4d	-0.054255772
150	0x3d732630	0.05936259
151	0x3d5bce2f	0.05366343
152	0xbd8ff67f	-0.07029437
153	0x3d350af8	0.044199914
154	0xbd7447dc	-0.059638843
155	0xbd8500cb	-0.06494292
156	0xbd8a3066	-0.067475125
157	0x3d061e2a	0.03274361
158	0xbdd4c750	-0.10389578
159	0xbb182515	-0.0023215462
160	0x3d2984e0	0.041386485
161	0xbd02fd61	-0.031979922
162	0xbd50c925	-0.050973076
163	0xbc11f084	-0.008907441
164	0x3d736a7b	0.05942772
165	0x3b748039	0.0037307872
166	0xbda6e30b	-0.08148774
167	0xbbbc705e	-0.0057507
168	0xbd4029b0	-0.046914756
169	0xbc77818a	-0.015106568
170	0x3bffaff5	0.007802958
171	0x3cc0db73	0.023542142
172	0x3cba4bbc	0.022741191
173	0xbd40c9a9	-0.047067318
174	0x3d1a59d0	0.037683308
175	0x3d0c9500	0.034321785
176	0x3c4b2a00	0.01240015
177	0xbcfdd648	-0.030985966
178	0x3dd99b00	0.10625267
179	0xbd75cd2f	-0.06001013
180	0xbd073ce9	-0.033017073
181	0x3b8cc371	0.0042957594
182	0xbc97f919	-0.018551396
183	0x3d30b8f6	0.043145142
184	0xbc95dd64	-0.018294044
185	0x3d41661f	0.04721653
186	0x3d139fd1	0.036041085
187	0x3d422b2b	0.04740445
188	0x3d007c90	0.031368792
189	0x3cdbcf86	0.026832353
190	0xbcfb8e68	-0.030707553
191	0xbdb27f2d	-0.08715663
192	0xbcf8120e	-0.030282047
193	0xbd55f127	-0.052231934
194	0xbaa970d8	-0.0012927307
195	0x3d710487	0.05884221
196	0xbd74e57e	-0.059789173
197	0xbe1441d5	-0.14478238
198	0xbcd85d39	-0.02641164
199	0xbd3f62fa	-0.04672525
200	0xbc47305b	-0.012157525
201	0xbda9e674	-0.082959086
202	0x3d62f8ab	0.05541293
203	0xbdabba09	-0.08385093
204	0x3d37bb32	0.044856258
205	0xba7eb38d	-0.0009716086
206	0xbd225997	-0.03963622
207	0x3d22417e	0.03961324
208	0xbc4931e0	-0.0122799575
209	0xbd79dbe5	-0.061000723
210	0xbe494bc7	-0.19657813
211	0xbcaa0788	-0.020755544
212	0x3cd3ca49	0.025853293
213	0xbc4b6065	-0.012413119
214	0xbd399b60	-0.045314193
215	0xba92e568	-0.0011207284
216	0xba27fadb	-0.0006407925
217	0xbd9be75c	-0.07612488
218	0xbc17035a	-0.009217108
219	0xbd25f4a1	-0.0405165
220	0xbd44ebc4	-0.048076406
221	0xbd416433	-0.047214698
222	0x3d22b92f	0.039727386
223	0x3c966e5c	0.01836317
224	0x3b92e326	0.0044826446
225	0xbd30035e	-0.04297196
226	0x3c8b14d2	0.016977701
227	0x3c472bcc	0.012156438
228	0x3cf6d8ca	0.03013267
229	0xbc28509e	-0.010273127
230	0x3c64fca8	0.013976254
231	0x3c0a3714	0.008435983
232	0xbcf47a51	-0.029843481
233	0xbd9693c2	-0.07352401
234	0xbd643fa3	-0.05572475
235	0xbc734da6	-0.014850056
236	0x3cc54003	0.024078375
237	0xbd06cf15	-0.032912333
238	0x3ceacf1c	0.02866321
239	0xbdb5aab2	-0.08870448
240	0xbd814cfd	-0.063135125
241	0xbdabc51a	-0.083872035
242	0xbd9a4429	-0.07532532
243	0x3d6aeb1d	0.057353128
244	0xbd99b53a	-0.07505269
245	0xbcb2f44b	-0.021845004
246	0xbd4f44db	-0.050602775
247	0xbd079955	-0.033105213
248	0xbdc85c03	-0.09783175
249	0xbc783850	-0.015150145
250	0x3d44902a	0.047989048
251	0x3d610078	0.054932088
252	0x3d231e7d	0.039823998
253	0xbcf888c5	-0.030338654
254	0xbd86e1ed	-0.06586061
255	0xbdae6eb9	-0.085172124

main_model.hiddenlayer_1.bias f4 [256]
0	0xbc9f68dc	-0.01945918
1	0x3e11cd24	0.14238411
2	0xbd9125ed	-0.07087312
3	0xbd5cd537	-0.053914275
4	0xbd735c52	-0.059414215
5	0xbd94635e	-0.07245515
6	0xbd4be70e	-0.049780898
7	0x3ecfeb7b	0.40609345
8	0xbde4523b	-0.11148497
9	0x3e29aac5	0.1656905
10	0x3e219ed7	0.15783249
11	0xbdfbc1ed	-0.12292848
12	0xbd4877dc	-0.04894243
13	0x3ccead5e	0.025229152
14	0xbd9cafc5	-0.07650713
15	0x3dee63bd	0.11640117
16	0xbe154451	-0.14576842
17	0xbd98efa8	-0.07467586
18	0xbc54c5ff	-0.012986659
19	0xbcc76d54	-0.024344124
20	0xbd38a20e	-0.045076422
21	0x3e9ce197	0.3064086
22	0xbceed5f6	-0.029154759
23	0xbd3dd13a	-0.046342112
24	0x3cb3e6e2	0.02196068
25	0xbc8fdefa	-0.017562378
26	0xbd9141eb	-0.07092651
27	0x3e75fdfd	0.2402267
28	0xbd98231c	-0.074285716
29	0x3e01df38	0.12682807
30	0xbf25de6c	-0.64792514
31	0xbe351d36	-0.17686924
32	0xbe2fe784	-0.1717816
33	0x3e2ffe95	0.17186959
34	0x3d180c2b	0.03712098
35	0xbd26a62f	-0.04068583
36	0xbdde16d5	-0.108441986
37	0x3c40866a	0.011750797
38	0x3c188242	0.0093084
39	0xbdbb9f6b	-0.09161266
40	0xbf3156ac	-0.69272876
41	0xbda2eaba	-0.07954927
42	0xbd1a2d5c	-0.037640914
43	0xbd855aa5	-0.0651143
44	0xbdf6d809	-0.12052924
45	0xbdc96436	-0.09833567
46	0x3e832f6e	0.25622123
47	0xbd3cb4c5	-0.046070833
48	0xbd847c95	-0.06469075
49	0x3d4d695e	0.050149314
50	0xbdf3eb01	-0.11910058
51	0xbdd6afbb	-0.10482737
52	0xbc8c0482	-0.017091993
53	0xbc5fa9ec	-0.013651352
54	0xbe07edfd	-0.13274379
55	0xbdb1bdfb	-0.08678814
56	0x3f39c0d2	0.72559845
57	0xbd35d8c3	-0.044396173
58	0x3d5d5769	0.05403844
59	0x3dd1514b	0.102205835
60	0xbda80a56	-0.082050964
61	0x3d8f3e37	0.069942884
62	0xbd94b3bc	-0.07260844
63	0xbda5380d	-0.080673315
64	0xbd424538	-0.047429293
65	0xbd90d176	-0.070712015
66	0xbd9b8680	-0.07594013
67	0xbac8a505	-0.0015307969
68	0xbd8fbf42	-0.070189014
69	0xbdab26cc	-0.08357009
70	0xbc18d9f7	-0.009329311
71	0x3d740a64	0.05958022
72	0xbd0e9316	-0.03480824
73	0x3e4a8bff	0.19779967
74	0xbd75bfba	-0.059997298
75	0xbeb75198	-0.3580444
76	0x3e21922c	0.15778416
77	0xbe2a73f1	-0.1664579
78	0x3f1a2433	0.60211486
79	0x3e856ba1	0.26058677
80	0xbbb27081	-0.0054455404
81	0xbd10d1e2	-0.03535641
82	0xbdeb5e6e	-0.114926204
83	0xbd99269b	-0.074780665
84	0xbd0a3b2b	-0.033747833
85	0xbd83ac9d	-0.06429408
86	0xbd42edae	-0.04758995
87	0xbd8627a5	-0.0655053
88	0xbd7dff3d	-0.062010992
89	0xbd98d3a6	-0.07462244
90	0xbd9d43ec	-0.07678971
91	0x3e7991b8	0.24371994
92	0x3dec9eeb	0.11553749
93	0xbd9a3577	-0.07529729
94	0x3d858a96	0.06520574
95	0xbda3f1dd	-0.08005116
96	0xbc76d488	-0.01506532
97	0x3e2ace5c	0.16680282
98	0xbc3608fe	-0.011110542
99	0xbd8862b1	-0.06659449
100	0x3ee2d212	0.44300896
101	0x3e73ed3a	0.23820964
102	0xbdc78f71	-0.09744156
103	0x3d00b78c	0.031425044
104	0x3e58fcff	0.2119026
105	0xbcdbb1a6	-0.026818108
106	0xbd5e836e	-0.05432456
107	0xbdca4e58	-0.09878224
108	0xbd38e2b9	-0.045138095
109	0xbdde2d9d	-0.10848544
110	0x3d98dfc1	0.07464553
111	0xbd762c3f	-0.06010079
112	0x3e417f42	0.18896201
113	0xbd55a2f7	-0.05215737
114	0xbdc17fbc	-0.094481915
115	0xbdc0c7f7	-0.0941314
116	0xbde2de0c	-0.11077508
117	0xbd944d2b	-0.07241281
118	0xbd637f1b	-0.05554114
119	0xbdc15572	-0.094401255
120	0xbc4cd093	-0.0125009
121	0xbd9b3482	-0.075783744
122	0xbcf0c744	-0.029391892
123	0xbd78af03	-0.06071378
124	0xbd290a2c	-0.041269466
125	0x3e131a8a	0.14365593
126	0xbdbc2fdd	-0.09188817
127	0x3f27d050	0.65552235
128	0xbdd2ee20	-0.10299325
129	0xbd9637ab	-0.073348366
130	0x3d12d91d	0.035851587
131	0xbd786657	-0.060644474
132	0x3eb534f4	0.35391963
133	0x3e0f6987	0.14005099
134	0xbda28253	-0.079350136
135	0xbd9e81fe	-0.07739638
136	0x3e79e18d	0.24402447
137	0x3cd34cac	0.025793396
138	0xbc0a3039	-0.008434349
139	0xbdf8a2af	-0.121404044
140	0xbadb25fe	-0.0016719697
141	0x3bf061b5	0.0073358663
142	0xbc9eee57	-0.019400759
143	0xbce96cd7	-0.028494282
144	0xbd67cbdc	-0.0565909
145	0xbd2dacbe	-0.042401068
146	0x3db15a51	0.086598046
147	0xbd1e341c	-0.038623914
148	0xbda720fb	-0.081605874
149	0x3d46f1c2	0.048570402
150	0xbcb79e9c	-0.022414498
151	0xbd739d5e	-0.05947625
152	0xbcfb00d3	-0.030640041
153	0xbcb53dfd	-0.022124285
154	0x3e2cda88	0.16880238
155	0xbd2a6634	-0.041601375
156	0x3e33ae35	0.17546923
157	0xbe2238ef	-0.15842031
158	0xbd1adbe2	-0.037807353
159	0xbcf2a321	-0.029618802
160	0xbd99c17c	-0.07507607
161	0xbde01908	-0.10942274
162	0xbde37fc3	-0.11108353
163	0xbbc89bf1	-0.0061221053
164	0x3cd26aac	0.02568563
165	0x3dca3218	0.09872836
166	0x3e504cd1	0.20341803
167	0xbdbc612c	-0.091982216
168	0xbc4192aa	-0.011814753
169	0xbccfbe77	-0.025359375
170	0x3e277d32	0.16356352
171	0xbdc287e0	-0.09498572
172	0xbdfe4b58	-0.124167144
173	0xbcb60d8d	-0.022223258
174	0x3f27a094	0.654794
175	0xbdbfb1dd	-0.093600966
176	0x3adeb150	0.0016990099
177	0x3e6b2886	0.22964677
178	0x3bc53bb6	0.006019081
179	0xbd82ac0f	-0.06380474
180	0xbd6c16fd	-0.05763911
181	0xbdfc2761	-0.123121984
182	0xbe075e46	-0.13219556
183	0xbcc14eac	-0.023597084
184	0xbd4fc5ef	-0.050725874
185	0xbcf5de6a	-0.030013282
186	0xbdb18ef1	-0.08669842
187	0xbdc80967	-0.09767418
188	0x3cbc752f	0.023005096
189	0x3d2d652b	0.04233281
190	0xbd4d8f51	-0.050185505
191	0x3e6c1949	0.2305652
192	0x3f9bc1e8	1.216855
193	0xbc78bb33	-0.0151813505
194	0xbd075298	-0.033037752
195	0xbd8a01d3	-0.06738629
196	0xbd54dc2a	-0.051967777
197	0xbd48e50a	-0.049046554
198	0x3d4111b3	0.04713602
199	0xbc3d465a	-0.011552418
200	0xbdc9b35d	-0.09848664
201	0xbc973423	-0.018457478
202	0x3e6a27e9	0.22866787
203	0x3cf78205	0.030213365
204	0xbcda7525	-0.026667187
205	0x3c29ef83	0.010372045
206	0xbcad61ab	-0.021164736
207	0x3bad26e0	0.0052841753
208	0xbd23ebd6	-0.040019833
209	0xbdf3ec73	-0.119103335
210	0xbd97d458	-0.07413548
211	0xbd30d76d	-0.043174196
212	0x3da419da	0.08012743
213	0x394d886f	0.00019601149
214	0xbd819c9e	-0.063287005
215	0xbd88cbc7	-0.066794924
216	0xbb852a08	-0.0040638484
217	0xbd2245c8	-0.03961733
218	0xbcf64e16	-0.030066531
219	0xbda9cb45	-0.08290724
220	0x3e6d7239	0.23188104
221	0xbda8f338	-0.08249515
222	0xbda30238	-0.079594076
223	0x3e82101a	0.2540291
224	0x3a816f5f	0.000987511
225	0xbdf4ff92	-0.11962809
226	0xbdf7223e	-0.12067078
227	0xbd6176b0	-0.05504483
228	0xbbb1eea0	-0.0054300576
229	0xbc36529d	-0.011128095
230	0xbcef7e5d	-0.02923506
231	0xbdd54f7c	-0.10415551
232	0xbdf268ed	-0.11836419
233	0xbc804df4	-0.015662171
234	0xbc574300	-0.013138533
235	0xbc670f88	-0.014102824
236	0xbdb1457b	-0.086558305
237	0xbd7439b5	-0.059625346
238	0x3e6f078c	0.23342723
239	0x3ba0f467	0.0049119475
240	0x3e79bcdd	0.24388452
241	0xbdbc6236	-0.0919842
242	0xbd45922a	-0.048235096
243	0xbcdb5e96	-0.0267785
244	0x3b9bdce7	0.004756558
245	0xbd90a410	-0.070625424
246	0x3da854e0	0.082193136
247	0x3f214dc3	0.6300928
248	0xbe0736d3	-0.13204508
249	0xbda63ba0	-0.08116841
250	0x3e6d3250	0.23163724
251	0xbd507a82	-0.050898083
252	0xbd02b736	-0.031913005
253	0xbd54b17a	-0.051927067
254	0xbdf77bd8	-0.12084168
255	0xbd9a36ad	-0.0752996

main_model.hiddenlayer_2.weight f4 [256, 256]
0	0x3dbca548	0.092112124
1	0xbb76a247	-0.0037633346
2	0x3c0e5b4f	0.008688762
3	0xbd31a09f	-0.04336607
4	0xbd19218e	-0.037385516
5	0xbc911f15	-0.017715016
6	0xbd553beb	-0.052059095
7	0xbdfc0fe4	-0.123077184
8	0x3c8b7385	0.017022857
9	0x3abc2c04	0.0014356379
10	0x3d44a10e	0.048005156
11	0xbca78c56	-0.02045266
12	0x3d817ecd	0.063230135
13	0x3c47fbe0	0.012206048
14	0x3d067fd7	0.03283676
15	0x3e1853c2	0.14875701
16	0xbca1c8cb	-0.019749066
17	0x3d33d052	0.04389984
18	0xbd824ef3	-0.063627146
19	0x3d060d49	0.032727513
20	0x3d424c9c	0.04743634
21	0xbe80c6eb	-0.25151762
22	0xbbf8139c	-0.007570697
23	0xbdb0bfc9	-0.0863033
24	0xbc935923	-0.01798684
25	0xbd3e452e	-0.046452694
26	0x3d309197	0.043107595
27	0xbc5561de	-0.013023822
28	0xbcda5912	-0.0266538
29	0xbd60d172	-0.054887243
30	0xbde85ae2	-0.113454595
31	0x3df74ee6	0.120755956
32	0x3c6cb87c	0.014448281
33	0x3cf66355	0.030076662
34	0x3c981f40	0.018569589
35	0xbc8e8ff9	-0.017402636
36	0xbc682082	-0.014167907
37	0x3e5ed865	0.21762235
38	0x3c65cf54	0.014026482
39	0xbcddf107	-0.02709247
40	0xbd4610e6	-0.04835596
41	0xbd81f2c3	-0.06345131
42	0xbd578009	-0.05261234
43	0x39ebff86	0.00045013073
44	0x3d89a4c4	0.0672088
45	0xbd17e17b	-0.03708027
46	0xbd95d72c	-0.073164314
47	0x3c70c2bd	0.014694867
48	0x3caa30cb	0.02077522
49	0xbd8109b2	-0.06300677
50	0x3c6ff420	0.014645606
51	0xbc7cd538	-0.015431695
52	0xbd4f8a28	-0.050668865
53	0xbdd8495f	-0.105608694
54	0x3d492b77	0.049113717
55	0x3c0dbf7b	0.0086516095
56	0xbed61b49	-0.41817692
57	0xbd6f9a26	-0.058496617
58	0x3b8f744d	0.004377878
59	0xbd3857d4	-0.045005634
60	0xbc39717f	-0.0113185635
61	0xbcff8bff	-0.031194685
62	0x3cc6d38a	0.024270792
63	0xbc3dab85	-0.011576538
64	0xbd3f8d8f	-0.04676586
65	0xbc3190a8	-0.010837711
66	0x3c593873	0.013258087
67	0x3d09e1d4	0.033662632
68	0x3b3165dc	0.002706877
69	0xbd179543	-0.03700758
70	0x3b748b66	0.0037314533
71	0xbc3e36a1	-0.011609704
72	0xbca4bc0b	-0.020109197
73	0x3e03c151	0.12866713
74	0xbcc7de60	-0.024398029
75	0xbe3259f0	-0.17417121
76	0x3d4d5f58	0.050139755
77	0xbcd46885	-0.025928745
78	0xbda5c800	-0.080947876
79	0x3b3c7349	0.0028755239
80	0x3dc4eee7	0.096158795
81	0x3d999860	0.07499766
82	0x3b79c9c5	0.0038114649
83	0xbc407fcd	-0.01174922
84	0xbd0af6ab	-0.033926647
85	0x3ca88aae	0.02057394
86	0x3d3ed984	0.046594158
87	0xbced21fa	-0.028946865
88	0xbd28a7c8	-0.041175634
89	0xbd12a5f2	-0.03580279
90	0xbd55b3e1	-0.0521735
91	0xbcb73a59	-0.02236669
92	0x3d3a6e4e	0.04551535
93	0x3cd0733a	0.02544557
94	0xbd07b9f9	-0.03313634
95	0x3d60d282	0.054888256
96	0x3d04d99f	0.032434102
97	0x3d88c7bc	0.06678721
98	0xbd205dfd	-0.039152134
99	0xbd70fc44	-0.05883433
100	0xbe73c414	-0.23805267
101	0xbd99d996	-0.07512204
102	0x3cb25741	0.021770122
103	0xbde1bc6b	-0.11022266
104	0xbc84cf6f	-0.016212193
105	0xbe5137f2	-0.20431498
106	0x3d1a809d	0.03772031
107	0x3ce22e00	0.027609825
108	0xbd212718	-0.039343923
109	0x3dba7239	0.091038175
110	0xbd442512	-0.047886916
111	0x3d130cc8	0.03590086
112	0x3c98b469	0.018640714
113	0x3d0b16b3	0.033957195
114	0xbd25038f	-0.040286597
115	0xbc335c31	-0.010947273
116	0x3d14edcc	0.036359593
117	0x3d671164	0.05641307
118	0x3d0dd5e3	0.034627806
119	0x3dbf8918	0.093523204
120	0xbd818571	-0.0632428
121	0x3d67675c	0.056495056
122	0x3d3da554	0.046300247
123	0xbd67bcbd	-0.05657648
124	0x3d409f7a	0.04702709
125	0xbe89a488	-0.2688334
126	0xbb1554ce	-0.0022786143
127	0xbda1beaf	-0.07897698
128	0xbc809421	-0.015695633
129	0x3cdfe5f1	0.027331324
130	0x3d24a125	0.040192742
131	0x3d0ee21f	0.034883615
132	0x3cb3f9de	0.021969732
133	0x3cbb2f13	0.022849595
134	0x3c20ec68	0.009821989
135	0x3c10b70f	0.008832707
136	0xbbb0d5a0	-0.00539656
137	0x3d91e675	0.07124034
138	0xba2e2bbe	-0.00066440913
139	0xbd00c6a1	-0.031439427
140	0xbd0072b5	-0.031359393
141	0x3ce0f60a	0.02746107
142	0xbc58bef9	-0.013229125
143	0x3c8e0942	0.017338399
144	0x3ce70363	0.028199857
145	0xbc88a587	-0.016680492
146	0xbc443908	-0.011976488
147	0xbc2e041e	-0.010621099
148	0x3d0be7c6	0.034156583
149	0xbe070f96	-0.1318954
150	0xbd858872	-0.065201655
151	0xbd0711cd	-0.03297596
152	0x3c84dd40	0.016218781
153	0x3d226116	0.03964337
154	0xbd4c02af	-0.049807247
155	0xbcd43290	-0.025903016
156	0xbd51d39d	-0.0512272
157	0x3c3a64ea	0.011376599
158	0xbd0c0acb	-0.03418998
159	0xbc70f026	-0.014705693
160	0x3d0dafd0	0.034591496
161	0xbc63aaa2	-0.0138956625
162	0x3a8d9343	0.0010801334
163	0xbd5131df	-0.05107295
164	0xbd5cc97e	-0.053903095
165	0xbd7bf118	-0.06150922
166	0xbd2ea0d7	-0.042633858
167	0x3d693407	0.056934383
168	0x3dce319b	0.10068055
169	0x3cabe727	0.020984245
170	0x3c6d75f2	0.014493452
171	0x3a1c505a	0.0005962901
172	0xbc55935d	-0.013035622
173	0xbcd2e5c5	-0.025744328
174	0xbd87b33e	-0.066259846
175	0xbc8a38a3	-0.01687271
176	0xbbabe5dd	-0.0052459077
177	0xbb9b2625	-0.004734772
178	0x3bc808d0	0.006104566
179	0xbd8391af	-0.06424271
180	0x3d30e7f3	0.043189954
181	0x3d23666e	0.039892606
182	0x3d739dd6	0.059476696
183	0x3d04992f	0.03237265
184	0xbc99a0f8	-0.018753514
185	0x3d7e6cea	0.062115587
186	0xbd3fe8e7	-0.046852972
187	0x3d7d414e	0.061829858
188	0xbb641e4e	-0.0034808102
189	0xbdb4b224	-0.0882304
190	0xbc5af25f	-0.01336345
191	0xbd2edd66	-0.04269161
192	0xbe1e7a3a	-0.15476313
193	0xbc7ab562	-0.015302034
194	0x3d2fe3e6	0.04294195
195	0xbd976c54	-0.07393709
196	0xbccb582c	-0.024822317
197	0x3cba35a0	0.022730649
198	0x3e9aa7cc	0.30206144
199	0x3b414ce0	0.0029495284
200	0x3c6c2b65	0.014414643
201	0xbe96af35	-0.29430547
202	0xbe6a7a95	-0.22898324
203	0xbb24d733	-0.0025152683
204	0x3c7d6211	0.015465275
205	0x3cf4d40b	0.029886266
206	0xbb2add11	-0.0026071707
207	0xbd9374a7	-0.07199984
208	0x3c8a7aa3	0.01690418
209	0xbd185119	-0.037186716
210	0xb915c7d7	-0.00014284193
211	0x3d3c8c35	0.04603215
212	0x3d4d3809	0.050102267
213	0x3be21fad	0.0069007487
214	0xbd016b53	-0.031596493
215	0xbd4cfc79	-0.050045464
216	0x3b2a8726	0.0026020496
217	0x3cf7e3ae	0.030259933
218	0xbd019a5b	-0.031641345
219	0x3d08e516	0.0334216
220	0x3c4a5f18	0.012351774
221	0xbdc844c4	-0.09778741
222	0xbb59cddb	-0.0033234272
223	0xbe162cef	-0.14665578
224	0xbe49a02f	-0.19690011
225	0x3d217023	0.039413583
226	0xbd6bdef4	-0.05758567
227	0x3d10d4fa	0.03535936
228	0xbd6dba1a	-0.05803881
229	0xbd6bee87	-0.057600524
230	0x3d420416	0.047367178
231	0xbe875d17	-0.2643821
232	0x3c6651b4	0.0140575655
233	0x3d14915a	0.03627143
234	0x3e32a8fb	0.17447273
235	0xbd5a600a	-0.053314246
236	0x3bed7e92	0.0072477544
237	0x3d55dbcc	0.052211568
238	0xbd4891df	-0.04896724
239	0xbda39c35	-0.079887785
240	0xbda8386e	-0.08213888
241	0x3d0d64a9	0.034519825
242	0x3b7d15af	0.003861766
243	0x3d9b3631	0.075786956
244	0x3d065a18	0.032800764
245	0xbc90912e	-0.017647352
246	0xbdce4ada	-0.100728706
247	0x3d259f16	0.04043492
248	0xbdb639a2	-0.08897711
249	0x3cf134d1	0.02944413
250	0xbd63aba5	-0.055583615
251	0x3d2debec	0.04246132
252	0xbd8446c4	-0.0645881
253	0xbccd8d80	-0.025091887
254	0x3cb67571	0.022272797
255	0x3d7634cd	0.06010895
