DQN/DQN_complete/save/main_model_000003.pth (torch_old, 809026 bytes, 10 tensors)

main_model.InputLayer.weight f4 [256, 7]
00000000: 7fa4 093e 1235 46bd 9693 413d 94bc 283e
00000010: e421 b23e d8e1 babe 5069 99bd 4ce1 9c3e
00000020: 0cba c2be b7a4 51be f9aa ac3d 1a85 ac3d
00000030: 48db 7abe 06f6 aabe 7476 47be da40 33be
00000040: 8a15 5f3d 1a0e 2fbe 38ff a23e ebcb c43d
00000050: 07ae 803e b5de 983e 25c3 3c3e e11e 7abd
00000060: 0292 94bc 09b3 a63e 853e 2abe 2631 58be
00000070: 5e16 79be 366c 913e bf1c 95be 72b5 a33e
00000080: d073 7a3d 86b6 23bd 121c 1e3e 00cb f73a
00000090: 06c3 263e bc1f e13d b7fb 6fbe 031d b1be
000000a0: 00b8 adbe e2f4 793e 9dfb a93d 41a0 96bd
000000b0: 9491 98bd 383c 683e da3d 203e ee6e 40be
000000c0: 79ae b93e 4bb5 563e 6a8e ffbd aa2d b63e
000000d0: c37a 9c3e b6e7 83be 4e16 083d 4057 5cbc
000000e0: 9fb7 6dbe 3121 9abe b052 673e 651b b13e
000000f0: 9c12 8abd 0ee6 8a3e 7b4a 2cbe f4b9 0a3e
00000100: 82ce 923e fa8f f4bb 6471 953e a4f2 593e
00000110: 5f5f a4bc 47fe a13e 893f a83e ea8e b43e
00000120: 554e 023c f145 8e3d 6a58 2bbe 9820 8e3e
00000130: 017d 843e 5c2b a5be 929a 0e3e 10d5 97bd
00000140: 5bd3 a1be 3466 a53d 45fc 993e 2db8 a03e
00000150: 4154 1bbe 1401 89be 1b64 d9b9 7296 a83e
00000160: a3be 3bbe e1b9 bbbd 9880 68be ce94 333e
00000170: d2a0 7dbe 3ec9 79be aeb6 ef3c 8873 01be
00000180: da43 923e e8c7 683d 5aa9 36be 3435 d13d
00000190: e076 b1be 001c 353c f842 9ebe de6e 083e
000001a0: b06c 84bc 5709 4abe fcc5 73be 96ea 453e
000001b0: 3671 54bc 06d9 133d 7508 8f3c 9a3c aebe
000001c0: 08ca cabd 10f7 88bd e576 80be fc5f cebd
000001d0: 58a1 0a3d 0c11 e43d 5847 8d3d a877 163e
000001e0: 8d50 0dbe 7c1c 07bd 94ef 6d3e 0452 633e
000001f0: 3f40 81bd f8db 133d ae29 a53e 0c7a 17be
00000200: 11bf a63e 0de6 1f3e f1e6 37be c1e7 89be
00000210: 7095 cf3c 01e8 6d3e 191b b63e 368d 813e
00000220: a0eb 3a3d e156 3fbe a7ea 9a3e e2f1 5f3e
00000230: c8f2 e5bd 0362 50be 6101 14be 98b7 16be
00000240: f475 ad3d 4236 93be 94f1 9c3d 2b39 49be
00000250: 0c60 91be 00f7 173d 0890 76be 00aa c83b
00000260: b816 bebd 5363 a93e 611b 0dbe 4f63 ae3e
00000270: cdfb 82bd 075e 3c3e 055f 70be bfc4 23bd
00000280: 1b10 8b3e ad74 933e 7bd1 613e 0831 b23e
00000290: 23d6 23bc a3b9 25bd 3fb6 993e 52ee 193e
000002a0: 809e 813e 7110 a2be 6227 48be d1db c0be
000002b0: eaca 483d 52a0 a03e 9102 ab3e 44d6 c4bd
000002c0: e523 bebc 250d 263d 2711 25be dff3 923e
000002d0: 08e6 bfbe 74c1 fd3d 4b4a 32be 2806 c13d
000002e0: 3b70 883e 56d6 11be 0434 31be 5579 be3e
000002f0: 2b40 b83e c6a2 ea3d ad67 0e3e 7830 11bb
00000300: a7f7 2a3e ede7 e0bd cfdd 453e 44be e9bd
00000310: d7f0 35bd 52f3 b8bd bf9b 723e b74b 0dbe
00000320: 0289 c4bd eac8 323e 7864 783d 2250 a43e
00000330: 8f43 41be 538c e43c 9f96 ab3e fe46 383e
00000340: 5eb5 75be 5f20 1abe a002 863c 377b e03a
00000350: fb99 5f3e ac71 903e a8ae 993e 7bda 923d
00000360: a4de 9fbe ef60 883e 30b8 89bd 890f 8dbe
00000370: a669 93be c018 cdbc 5bda ab3e 9d1c babe
00000380: 4b20 d8bd f2cb 7f3e 4338 a73e d02b 84be
00000390: 7bc1 c8bd d808 8f3c 1eb9 613e d74c 9dbd
000003a0: b7c2 713e bb19 aabe da1d 6d3e 6771 563e
000003b0: c290 c5be 1006 9f3c f0bd b63d d065 42be
000003c0: f5ef 9cbe 2a81 01be 986b d6bd 5079 a83d
000003d0: f0d4 dfbc 394f bebe dfd8 70be 2df4 923e
000003e0: 5807 74bd e819 8ebd e9b6 45be 05de 53be
000003f0: 0e0b 89bd 56a1 b43e fccd 7c3e 4f14 ae3e
0.13441657 -0.048390456 0.04725989 0.16478187 0.34791481 -0.3650043 -0.0749079 0.30640638
-0.38032568 -0.2047299 0.08431048 0.084238246 -0.24497712 -0.33390826 -0.1947878 -0.17505208
0.0544639 -0.17095223 0.3183534 0.09609207 0.25132772 0.29857412 0.18433817 -0.061064605
-0.018136028 0.32558468 -0.16625412 -0.21112499 -0.24324939 0.2840287 -0.29123494 0.3197437
0.061145604 -0.03996899 0.15440395 0.0018905103 0.16285333 0.10992381 -0.23435865 -0.34592447
-0.33929443 0.24409822 0.082999445 -0.07354785 -0.07449642 0.22679222 0.15648594 -0.18792316
0.36265925 0.20967595 -0.12478335 0.35581714 0.3056241 -0.2576272 0.033224396 -0.013448536
-0.23214577 -0.30103448 0.22590137 0.34591213 -0.06741831 0.27128643 -0.16825287 0.13547498
0.28673178 -0.0074634524 0.29188073 0.21283966 -0.020065008 0.3163931 0.32860973 0.35265285
0.007953246 0.06946934 -0.16732946 0.27759242 0.2587662 -0.32259643 0.13926151 -0.07413685
-0.31606564 0.08076134 0.3007528 0.31390515 -0.15168859 -0.26758635 -0.0004146405 0.3292728
-0.18334441 -0.09166313 -0.22705305 0.17537233 -0.2476838 -0.24393174 0.029261913 -0.12641728
0.28567392 0.05683127 -0.1783804 0.10215226 -0.34661007 0.011054039 -0.30910468 0.13323542
-0.016165107 -0.19730125 -0.23805994 0.19327769 -0.012966445 0.03609564 0.017460087 -0.3403061
-0.09901816 -0.066877484 -0.2509071 -0.10076901 0.033845276 0.11136064 0.06898373 0.14694083
-0.13800259 -0.03298615 0.23235923 0.22199255 -0.06311082 0.03609845 0.32258362 -0.14792651
0.32567647 0.15615101 -0.17959191 -0.26934627 0.025339812 0.23233034 0.3556755 0.25303048
0.045634866 -0.18685485 0.3025715 0.21869615 -0.112279475 -0.20349889 -0.14453651 -0.14718473
0.084697634 -0.28752333 0.07663265 -0.19650714 -0.2839359 0.037100792 -0.24078381 0.006123781
-0.09281677 0.3308359 -0.13779975 0.3406014 -0.063956834 0.18395244 -0.23473747 -0.039982554
0.27160725 0.28799954 0.22052567 0.34803033 -0.009999785 -0.04046024 0.30021855 0.15032318
0.25316238 -0.3165317 -0.19546273 -0.37667707 0.04902164 0.31372315 0.33400396 -0.096111804
-0.023210475 0.04053988 -0.16119824 0.28701684 -0.37480187 0.12390414 -0.17411153 0.09425002
0.26648125 -0.14241919 -0.17304999 0.37201944 0.35986456 0.11456828 0.13906737 -0.0022154134
0.16696034 -0.10981736 0.19322895 -0.114132434 -0.044419136 -0.09030785 0.23692225 -0.13798414
-0.09596445 0.17459455 0.06064269 0.32092386 -0.18873428 0.027898943 0.33513352 0.17995831
-0.23994967 -0.15051411 0.016358674 0.0017126565 0.21836083 0.28211725 0.30016065 0.07170578
-0.3122455 0.26636454 -0.06724584 -0.27550915 -0.2879154 -0.025036216 0.3356503 -0.36349955
-0.105530344 0.24980143 0.32660112 -0.25814676 -0.098025285 0.017460272 0.22043273 -0.07680672
0.23609434 -0.33222756 0.23155919 0.20941697 -0.38587004 0.01941207 0.089229465 -0.18984151
-0.30651823 -0.12646928 -0.10469741 0.082262635 -0.027323216 -0.37169817 -0.2352023 0.28701916
-0.059577316 -0.06938535 -0.19308056 -0.20690162 -0.06691562 0.3527934 0.24687952 0.3399987

main_model.InputLayer.bias f4 [256]
00000000: 8961 9abe 6e0b 74be 8c27 523e 2a38 54be
00000010: c17b cc3d 03bf a83e 8fcc 343e 67dc abbe
00000020: 5c64 a13e 7414 01be 19a9 35be 7602 c13e
00000030: b473 1fbe d138 ed3d e891 8abe b4c9 9b3e
00000040: 6766 553e 6511 2dbe 5a90 12be 7e6c 1f3d
00000050: 8cff 373e 8959 e83e ddc5 42be 1277 a0bc
00000060: 8386 8f3e f71e a83d 51fe 223e 7be2 3fbd
00000070: 3cad a23e f3a8 083e 2bb4 0d3e 60aa c8bc
00000080: f6cf 803d c21f 0d3e 0d44 8b3e 5f6c 61be
00000090: a0ca 9cbe caba d03d 0e13 de3d 86b0 a5bd
000000a0: e13c 40bd 6480 f2bd c012 37bd a3e3 ba3d
000000b0: acb9 bdbe b609 7dbe c73b 98be fa5e 2fbc
000000c0: 2be6 eabb 2688 873e f937 173c cf1e 973d
000000d0: f607 7abc 466d 373e e7ac 9c3e 5a55 1dbe
000000e0: 929a a9bd 7519 7dbe a96d d63d c784 4a3e
000000f0: 2a20 c33e 2540 293e 328a f03d 0d5b d43d
00000100: a725 a33e ebe5 a8be 80b5 1dbd 77af a63e
00000110: cc2d 95be 3448 a93e 4cfd cf3e 5812 f6bd
00000120: b06f 98be 0192 a5be 40df e3bd 285d 77be
00000130: cace b33e 2f0d 8cbd fa5a 1f3e 6417 f23d
00000140: 0994 0a3c 151d b63e 360f 333d e423 c2bd
00000150: e695 7b3e 84c2 8cbe cb82 933e a400 a0bd
00000160: f639 37bd 7bd9 c3be e265 da3d 4232 20be
00000170: 1bb9 08bd 9d4f 79be edd6 41be 82c7 86be
00000180: d701 1dbe a7dc aabd 5951 a7be 7eb2 873e
00000190: 5896 76be 30b7 963e f49d debd 1dc7 c73e
000001a0: 6838 073e d9f8 7c3e 1e3d d03d 17a9 4c3e
000001b0: 2783 b6bd cbf8 b63e 3852 8e3e f96b a2be
000001c0: 43d8 1cbe 84b5 b8be 3f74 163d 937b aebe
000001d0: 60b9 67be 9089 3fbe c1a8 a1be 786a 27be
000001e0: 5c87 42be d31e 63be 21b9 1ebe 8d3a 363e
000001f0: 9fa6 23bd 84ee 9f3d 66e4 943e 78a9 263e
00000200: dc21 91bb cb0b d23e 58f4 d53e 52de 973e
00000210: 8f24 61bd bf5b 8dbe 0e2e fcbd d3b3 0cbe
00000220: cefa 72be 4d50 b53e a8aa 75bd a4fd d83e
00000230: 34e2 4abe 4876 093e 77b8 953e 68a8 733e
00000240: b04f ffbc 964b 49be 4560 bd3e 66eb cf3e
00000250: 49b3 4d3e fd58 f8bd 13ab 2bbe e8a1 01be
00000260: a11a c2be d2b5 bc3e c883 afbd f80d 143e
00000270: eb69 a03e e218 5fbc 0107 1cbe 68b2 8e3e
00000280: ffb7 a73e d314 9cbe ceee 043e b412 a73e
00000290: df83 c7bd c37a ce3d 1076 cdbd 4588 54be
000002a0: 0a3c 96be b204 bfbe 0e8e e33e c49f bfbe
000002b0: e219 ac3e f5ea 3e3d 8e0e b4be 1dd4 633e
000002c0: 3fa9 6ebe 2f6b 353d 5067 e2bc fe78 e23e
000002d0: 7853 a6bc 41ed bdbd 5f9e a83e 1316 9f3e
000002e0: 2438 a4be 94b0 c93e 0618 8a3e b84b 9cbe
000002f0: 394c cd3e c4e9 d4bd fce4 b53d 0442 95be
00000300: 9e81 1e3e e999 de3e 7889 613e 62a1 b63e
00000310: bd96 a73e 6813 3e3e ea5b 93be faa1 463e
00000320: 91f0 f7bc 5677 ab3e eebf 943e 063c 903e
00000330: 0205 89be 5d4c 933e 6c76 8dbe 9497 f7bd
00000340: bfe1 473d 00e7 b2be 2272 ed3b f7fc 233e
00000350: e589 acbe 3c49 96be b6c7 a5be b340 c4be
00000360: 3a5c 4abe 6c0e 513e e833 463e 96af 9fbe
00000370: b1d2 1a3e de5f 48be 6b57 453e 306c a93e
00000380: af20 8f3e 1939 263d 5bf6 43be 6275 acbd
00000390: 28f5 b93e a8ee eebd e2de 8cbd e7fc 8abe
000003a0: 1662 943e f539 143d 4e1f 893e 27f3 7e3e
000003b0: ed84 b1be 4405 80bd 84a0 8bbd dc7f b5bd
000003c0: 6c47 1abe 2518 5abe 82a7 04be e7f0 973e
000003d0: abd5 233e 00b6 15be 62cf 173e 714d 103e
000003e0: c813 903e 42ac b43e f8d2 c2bd 2788 b0be
000003f0: 41df 543e 9968 bbbe 379d 70be bf7c ac3e
-0.30152538 -0.23832485 0.20522898 -0.2072455 0.09984542 0.3295823 0.17656158 -0.3356659
0.3152188 -0.12605458 -0.17740287 0.3769719 -0.15571481 0.115831025 -0.27064443 0.30427325
0.20839845 -0.16901167 -0.14312878 0.038921826 0.17968577 0.4538081 -0.19020791 -0.019588027
0.28032312 0.08209031 0.15917327 -0.046846848 0.31772792 0.13345699 0.1383826 -0.024495304
0.062896654 0.13781646 0.27200356 -0.22013997 -0.3062334 0.10191877 0.10843478 -0.0809031
-0.04693306 -0.11840895 -0.044695616 0.091254495 -0.3705572 -0.24710736 -0.29733106 -0.0107037965
-0.0071685514 0.2647106 0.0092296535 0.07378923 -0.015260687 0.17912778 0.30600664 -0.1536459
-0.08281435 -0.24716742 0.10470135 0.19777213 0.38110477 0.16528375 0.11745109 0.10368929
0.31864664 -0.32987913 -0.03850317 0.32555744 -0.29136503 0.330629 0.40622938 -0.120152175
-0.2977271 -0.32337955 -0.11126566 -0.2415663 0.35118705 -0.06838452 0.15562049 0.11820868
0.008458146 0.35569063 0.04371568 -0.09479502 0.245689 -0.27492154 0.28810725 -0.07812622
-0.04473301 -0.38251862 0.10663964 -0.15644172 -0.033379655 -0.24346776 -0.18929644 -0.26324087
-0.15332733 -0.08342867 -0.3267925 0.26503366 -0.24080789 0.29436636 -0.10869971 0.390191
0.13205111 0.24704303 0.10167907 0.19986378 -0.08911734 0.3573669 0.27797103 -0.31723002
-0.15316872 -0.36075985 0.036731955 -0.34078655 -0.22629309 -0.1870482 -0.31574062 -0.16349208
-0.18996948 -0.22179727 -0.15500309 0.17795773 -0.039953824 0.07809165 0.29080504 0.16275585
-0.004429085 0.41024622 0.41787982 0.29661804 -0.054966506 -0.2760906 -0.12313472 -0.13740472
-0.23728487 0.35412827 -0.059977204 0.42381012 -0.19812852 0.13424027 0.29242298 0.2379471
-0.031165928 -0.1965774 0.3698751 0.40609282 0.20087923 -0.12126348 -0.16764478 -0.12659419
-0.3791094 0.36857468 -0.08570057 0.14458454 0.3133081 -0.013616772 -0.15237047 0.27870488
0.32757565 -0.30484638 0.12981722 0.32631457 -0.09741949 0.10082009 -0.10032284 -0.20755108
-0.2934268 -0.3730827 0.44444317 -0.3742658 0.33613497 0.04661079 -0.35167354 0.22248884
-0.2330675 0.04429167 -0.027637154 0.44232935 -0.020303473 -0.09273768 0.32933328 0.3107153
-0.32074082 0.3939253 0.26971453 -0.3052652 0.40097216 -0.1039615 0.08881566 -0.29151928
0.15479133 0.434768 0.22025096 0.3567 0.32732192 0.1856209 -0.28781062 0.19397727
-0.030266078 0.33489484 0.2905268 0.28170794 -0.26761633 0.28769198 -0.2762941 -0.12089458
0.048799273 -0.34941864 0.0072462717 0.16014467 -0.33698955 -0.29352748 -0.3237893 -0.38330612
-0.19761744 0.20415658 0.19355738 -0.3118865 0.15119435 -0.1956782 0.19271629 0.33090353
0.27954623 0.040581796 -0.19136946 -0.084208265 0.36319852 -0.11666614 -0.06878449 -0.27146074
0.28981084 0.036188085 0.26781696 0.24897443 -0.34671727 -0.06251004 -0.06817725 -0.08862278
-0.15066308 -0.21298273 -0.12954524 0.2967598 0.15999477 -0.14620209 0.14825204 0.14092042
0.28140092 0.35287672 -0.09512895 -0.34478876 0.2078829 -0.3660324 -0.23497473 0.33688924

main_model.hiddenlayer_0.weight f4 [256, 256]
00000000: 7048 a0bb 3e27 7cbd f490 48bd 48b4 53bc
00000010: ee35 1a3d a841 73bd 2896 073d 1ec8 2e3d
00000020: 386b 2dbd 8077 f6bc 1687 23bd 504d 023d
00000030: f0cd d23b d2b5 76bd 0219 663d 20b2 bcbb
00000040: b89a 4c3d 8005 923a f8ec 633d 8af0 72bd
00000050: 6403 663d 70d8 773c 801f c13b 121a 55bd
00000060: c6df 293d 2c29 96bc f054 0a3d 56fb 27bd
00000070: 7e87 24bd 14ac 99bc 08a4 dd3c d894 b0bc
00000080: 0097 55bb 881e 7dbd 600a 7fbb 20b1 a83b
00000090: c05d e5bc 2061 90bc 08fc ddbc 92a2 7b3d
000000a0: 007a 89b9 e05e 1e3c dc8e d63c 18b6 1f3c
000000b0: 9465 4cbd f6fa 443d f206 00bd 6887 5e3c
000000c0: 1048 c2bc 7ab5 7e3d c2bb 213d 42d1 573d
000000d0: fa73 0d3d 6440 66bd 287b 0a3c 3c76 babc
000000e0: 98b8 e03c 6011 32bc 381f d4bc 2a04 113d
000000f0: 2c42 b2bc 4091 3a3b f000 39bd 4632 753d
00000100: 4620 48bd 08ce 4c3d 6a0f 073d 0008 63bb
00000110: 00d5 1fbb 5868 0abc 7ea5 57bd 38f2 d73c
00000120: 0800 7bbc 9ae3 43bd 2cea b3bc f8ff 3bbd
00000130: 488a 663c 4414 4d3d 8e3a 45bd d846 66bc
00000140: 0080 ea38 b2b7 5d3d c408 ecbc 001f 233b
00000150: a87b 11bd 1e48 3cbd a0b8 37bd d8ca 76bd
00000160: 30b8 243c 30f7 ef3c 8eb8 093d bcb7 07bd
00000170: 40e8 0bbd ee0c 523d f80a 09bd 807b 1eba
00000180: 448a 5f3d 4eed 6bbd 78cb 58bc d8cd 7dbc
00000190: 6064 7b3d 2a73 53bd 9eb5 02bd 6a49 04bd
000001a0: 6cd9 403d 8097 6dba 1836 753c e2a9 59bd
000001b0: 5cad 8fbc 8c4e 333d 76cf 513d 58e1 7d3d
000001c0: 8486 513d 502a 423d 0066 3bba a201 43bd
000001d0: c09a dd3c e426 f4bc 6cfc 48bd e4a8 1fbd
000001e0: 5022 b33b 9e49 73bd 7add 70bd 6451 ddbc
000001f0: 8046 5cba 88f4 213d a05a 4ebd 406d e6bb
00000200: 68dd 553d 548c a73c a012 ab3c a6aa 1abd
00000210: fc9e fdbc 6ad5 253d 644a 0dbd 5864 173c
00000220: 0061 003a f4de 8cbc 902e 1e3c 9eb9 753d
00000230: a0e0 37bc fe7d 6b3d f605 01bd 00ae e63c
00000240: ac02 7abd 80ae a9ba b221 0bbd 9c51 b33c
00000250: b86d f63c 2c04 573d 32bc 373d 0ec3 193d
00000260: 5049 94bb 6afc 63bd 0630 1c3d 4841 f23c
00000270: 2071 7ebc 04ff b63c 9482 7abd f820 6ebd
00000280: 46c6 0b3d 8cc1 cf3c 80d9 ae3a c066 873a
00000290: d0ad 57bd 0c30 8bbc b610 343d 9862 9abc
000002a0: 1246 75bd f807 d0bc 006c e73c a0dd ccbb
000002b0: 88de 54bd f054 793c bc48 b8bc a081 c83c
000002c0: f873 7ebc 90d9 d4bc 7062 063c a8ed 81bc
000002d0: f82b 723c 0cb9 6d3d 9635 2c3d 5869 bcbc
000002e0: 1416 4ebd a087 5d3d c0a9 563c d86b 97bc
000002f0: f45c 9c3c 3812 df3c e60d 433d f64b 123d
00000300: 00b5 b1bc e4fa a53c 9007 06bd 2c2e c2bc
00000310: a456 ee3c b08d a2bc 4a58 483d e05d 30bb
00000320: 1c55 bc3c 02a6 683d eac7 65bd 1a2a 18bd
00000330: c213 7e3d 0089 45bd 6215 1b3d fc7b 2a3d
00000340: 886b 6dbd 0eae 7f3d 901f e23b d0ae 583c
00000350: b471 34bd 5830 e1bc bae4 783d 1cb9 cabc
00000360: 80da 1dbc 7656 3ebd 6091 34bb ae07 5f3d
00000370: 0044 a6bc 1037 ccbb 5c71 d8bc a0cc 66bd
00000380: c035 6d3d a06d c53b 42ba 0abd b418 523d
00000390: ae46 553d 80d4 32ba 6234 71bd 54b0 cfbc
000003a0: 9446 07bd 4abb 6e3d 82ce 60bd 4016 3cbb
000003b0: c4cb 4fbd 5031 4b3d 10a9 55bd b856 043c
000003c0: 467f 293d 407b f43c 4cad efbc 1295 0f3d
000003d0: a04b f23b 2087 2abd a070 24bc 7220 2ebd
000003e0: dccb cdbc 4c33 86bc 4814 7ebc 5a58 21bd
000003f0: 5899 3cbc 2620 023d 382f 093d d2db 21bd
-0.0048914477 -0.06156086 -0.048966363 -0.0129214 0.037649088 -0.059388787 0.033102185 0.042671315
-0.04233858 -0.030086279 -0.03992375 0.031812012 0.006433241 -0.06023199 0.056176193 -0.005758539
0.04995224 0.0011140555 0.055645913 -0.059311427 0.056155577 0.015127286 0.0058936477 -0.052026816
0.041473173 -0.01833018 0.03377241 -0.041011177 -0.040168278 -0.018758811 0.027055755 -0.02155535
-0.0032591224 -0.061796695 -0.0038916096 0.005148068 -0.027998805 -0.017624438 -0.027097717 0.061434336
-0.00026221573 0.009666175 0.026191168 0.009748004 -0.04990156 0.048090898 -0.031256624 0.013582088
-0.023716003 0.06218479 0.0394857 0.0526898 0.034534432 -0.05621375 0.008452214 -0.022761457
0.027431771 -0.0108684 -0.025893793 0.03540436 -0.021760069 0.0028467923 -0.04516691 0.059862398
-0.048858903 0.050001174 0.032973684 -0.003464222 -0.0024388433 -0.008447729 -0.05264806 0.026360616
-0.015319832 -0.04782448 -0.021962248 -0.045898408 0.014071055 0.050068155 -0.048151545 -0.014054976
0.00011181831 0.054130264 -0.028812774 0.0024890304 -0.03551832 -0.045967214 -0.044853806 -0.06025204
0.010053679 0.029292673 0.03362327 -0.033134207 -0.034157038 0.051281862 -0.033457726 -0.00060456246
0.05457522 -0.05759936 -0.0132321045 -0.0154909715 0.061375022 -0.0516235 -0.031911485 -0.032296576
0.04708235 -0.0009063408 0.01496651 -0.05314053 -0.017538719 0.04377608 0.05122324 0.061982483
0.051153675 0.047403634 -0.0007148683 -0.04760898 0.02705133 -0.0298037 -0.049068853 -0.038979426
0.005466737 -0.05939638 -0.058804967 -0.02701635 -0.00084028393 0.039539844 -0.050379395 -0.0070320666
0.052213103 0.020452656 0.020882905 -0.0377604 -0.030959599 0.04048673 -0.034494773 0.009240232
0.00048972666 -0.017196156 0.009654656 0.05999147 -0.011222988 0.057493202 -0.031499825 0.028159142
-0.061037704 -0.0012945682 -0.03396768 0.0218895 0.030081615 0.052494213 0.04485721 0.037539534
-0.004525341 -0.055660643 0.038131736 0.029572144 -0.015529901 0.022338398 -0.061159685 -0.05813691
0.034124635 0.025360845 0.0013339967 0.0010330305 -0.052655995 -0.016990684 0.04396125 -0.018845841
-0.059881277 -0.025394425 0.02824974 -0.0062520057 -0.051970035 0.015218005 -0.02249562 0.024475873
-0.015530579 -0.025982648 0.00820218 -0.015860394 0.014780991 0.058037803 0.04204329 -0.02299945
-0.050314024 0.05408442 0.013101995 -0.018484041 0.019087292 0.027230367 0.047620676 0.035716973
-0.021692753 0.020261236 -0.032722056 -0.023703657 0.029094048 -0.019842952 0.048912324 -0.0026911423
0.022989802 0.056798942 -0.056098856 -0.037149526 0.06203056 -0.048226357 0.03786219 0.041622147
-0.057963878 0.06242185 0.006900735 0.013225272 -0.04405375 -0.027488872 0.060765006 -0.02474647
-0.009634614 -0.046469174 -0.002755247 0.054450683 -0.020296097 -0.00623215 -0.026421241 -0.05634749
0.057912588 0.006025031 -0.033869036 0.05129309 0.05206936 -0.0006821826 -0.058887847 -0.025352634
-0.033026293 0.05828408 -0.05488444 -0.0028699785 -0.050731435 0.049607575 -0.052163184 0.008077316
0.041381143 0.029843926 -0.02925744 0.035054274 0.007394269 -0.04163277 -0.0100366175 -0.04251141
-0.025121622 -0.016381882 -0.015507765 -0.0393909 -0.011511169 0.03176894 0.033492297 -0.039516278

main_model.hiddenlayer_0.bias f4 [256]
00000000: 3c00 5a3d 68b7 92bd 40f9 4dbc a324 543d
00000010: 5608 a1bb a93a 503d 7971 223d 380e 7e3c
00000020: 59e4 ef3d 82a4 43bd 080d ba3c 64cf 9b3c
00000030: e097 9cbc 867f 313d 4a87 413d 3ee4 523c
00000040: 4d28 8abd 4d53 48bd 30e2 3cbd 5827 e6bc
00000050: 09c6 f2bc 24d2 2b3c 05e2 61bd 5144 3d3d
00000060: bee5 56bb bc53 053d 0964 a4bc 0732 503d
00000070: dd2d b7bc 2780 42bd e466 c83b 00db 32bb
00000080: dc25 1bbd 44a6 06bd 5778 e73d cc6a c73c
00000090: 7e26 1d3d 8866 20bc a387 12bd 1f05 763c
000000a0: 5ab5 d23d 48ab e03d 812b be3d 939e 063e
000000b0: 3787 6d3d 5688 d1bc ced9 13bd 6ca5 6ebd
000000c0: 0255 05bd acad 603d 2a84 c2bb 4f33 aa3d
000000d0: d4f7 603c ce07 1cbc d6b1 17bd b7a1 803d
000000e0: 0e89 8e3c 9f1d 403c 1e40 053d 8cf3 5cbd
000000f0: c8b4 a93c db21 843d b661 b1bc 2cd4 e13c
00000100: e47c 44bd 5049 abbb 877a e63b 748e 54bd
00000110: 0de3 763c a00b c2bc 734b 65bd 6d35 37bd
00000120: dd2d 413d 9d38 5dbd 6ba4 07bd 6abb 3e3c
00000130: d63b 2bbd 2155 ab3b 28e4 2e3d 83aa 413c
00000140: 7a98 37bd c5c5 333c c07e 3abd b591 013d
00000150: c2e9 023d 1330 af3d 784e d33c b2d4 273d
00000160: feda 553d 2b11 563d 10ba 1abd fcf9 aa3c
00000170: 978f 5a3c 48a9 cbbc d15b 143d 0cbf 333d
00000180: 79b5 0dbb 09ea a43c d019 e13b 80c7 1ebd
00000190: 07eb 633d 5467 2e3d b43b 1c3d e946 6f3d
000001a0: c770 4dbd fb2f 1d3d 3298 7f39 d4ea 49bd
000001b0: 2e10 853c 381c 023d bd99 83bd 3046 26bc
000001c0: 522f b93c 964e 19bb 563a 57bc 0dd6 ee3d
000001d0: 28a1 2c3c a134 3fbd 12b2 b73c eec1 693b
000001e0: 016f 803d fe09 9a3c a535 ea3c 38fd 92bd
000001f0: 7b82 2dbc 98c2 77bc 2401 763d 3bfc 18bc
00000200: 1443 663d 50eb eabb 11ca 363d c719 34bc
00000210: 008c 2bb9 613f 2f3c 7f14 1c3d 4215 68bd
00000220: 8e97 25ba 58be 613d f2e8 c9bb d091 93bb
00000230: a78d 75ba b042 473d ac12 223d 7573 47bd
00000240: 8fc1 e53b 69eb 2dbc 2ec8 503c 0f4f fd3b
00000250: 23af 7a3d fb91 04bd 5506 cb3d 25b9 593d
00000260: 2e4e 61bd 14c7 c3bc d6bb 3e3d 8260 54bc
00000270: 001e 633d 2013 fa3c 3345 343c 5788 863d
00000280: e2bc 52bc 66b0 03bc 1fd5 7ab8 1815 8dbc
00000290: 547b 8d3c 9bd7 883d 421d 9e3d 6df8 e539
000002a0: a0ba 343d 8beb c4ba 5d9f 80bd fa3b 2c3d
000002b0: 0e1b 54bc 7a19 a6bb ec9a 26bc c0d8 1b3d
000002c0: 52fb 313d ac1f 603d b65c 04bd 0929 fabc
000002d0: af9b ce3d 28fa 503d fd10 87bd 25e7 573c
000002e0: 3dbf eebc b1f7 163d fdc0 65bd 2a69 92bc
000002f0: 1815 0a3c 353b 0e3d 78af 0b3c 7572 023d
00000300: 53a0 14bc f524 a03d 1c0e 31bd 42bd 7c3d
00000310: 88e1 29bc 5d0c 7dbd 9d66 66bd 80bb 30bd
00000320: f99a a03d ab80 633b 5811 733d 9a88 303d
00000330: 5169 d7bc 0d02 8d3d 1cb9 a73c 8804 35bd
00000340: 5d9e 8cbd 8074 f4bb 2e69 b4bc 821a 7bbd
00000350: c9ca 2b3d ac51 8fbc 4aa5 dcbb d29f 4f3d
00000360: 1b6a b93c 2ad2 733d d5ef 07bd c9f4 f33c
00000370: 1226 87bc 2ff2 9ebd dc53 dc3c bf44 943d
00000380: afe8 413d 6fb7 ca3c a197 67bc f1da 613d
00000390: 270d c63d 629d 3cbc 49ce 0b3c 2887 22bd
000003a0: 0bdc ebbc ea99 2fba 656f f1bc 8f26 94bc
000003b0: cab2 3ebc 2db2 103d 6973 93bc 12eb 763d
000003c0: 31d7 47bb 56bc 8ebc 84e2 83bc e8f5 6a3d
000003d0: 1b8f c13c 5b05 e8bb 36c9 803b 96cf 673d
000003e0: 1d0b e9bc 65f6 603c 906b d9bc 718a c5bc
000003f0: d0a4 2cbc 19c3 14bd 8582 94bd 031b 343d
0.05322288 -0.07163888 -0.012571633 0.051792752 -0.004914324 0.050837193 0.039658997 0.01550632
0.11713476 -0.04776431 0.022711292 0.01901979 -0.019115388 0.043334506 0.047248162 0.0128718
-0.06745968 -0.048907567 -0.046114147 -0.028094932 -0.029635446 0.010487113 -0.05514719 0.04620773
-0.0032790746 0.03255056 -0.020067232 0.05082896 -0.022360737 -0.047485497 0.006115781 -0.0027291179
-0.037877902 -0.032873407 0.1130225 0.024342917 0.038366787 -0.00979007 -0.035773885 0.015015869
0.10288496 0.10970169 0.092856415 0.13146429 0.05799028 -0.025577705 -0.036096387 -0.058263227
-0.032551773 0.054853126 -0.0059361653 0.083105676 0.013730962 -0.009523345 -0.037034832 0.06280845
0.017399337 0.011725812 0.03253185 -0.053943202 0.020716086 0.0645177 -0.021653038 0.027566992
-0.047970667 -0.0052272454 0.0070336494 -0.051893666 0.015068782 -0.023687184 -0.055980157 -0.044728685
0.04716288 -0.05400907 -0.033115786 0.011641363 -0.04180511 0.005228654 0.042698056 0.011820438
-0.044823147 0.010972445 -0.045531034 0.031633098 0.03196121 0.08554091 0.025794253 0.040974326
0.0522108 0.052262466 -0.0377751 0.020871155 0.013339899 -0.024860993 0.036220375 0.04388337
-0.0021623059 0.020131128 0.006869532 -0.038764477 0.05564406 0.04257901 0.038142875 0.058417235
-0.05015638 0.038375836 0.00024375392 -0.049296215 0.016243067 0.031765193 -0.064258076 -0.01014857
0.022605572 -0.0023392788 -0.013136467 0.11661921 0.0105364695 -0.04668105 0.022423778 0.003566857
0.06271172 0.018803593 0.028590033 -0.07177204 -0.010590191 -0.015122078 0.06005968 -0.00933748
0.056216314 -0.0071691647 0.0446263 -0.010992474 -0.00016359985 0.010696263 0.038105484 -0.056660898
-0.0006316834 0.055113167 -0.0061618024 -0.004503466 -0.0009367116 0.048647583 0.03956859 -0.048694093
0.0070115994 -0.010615208 0.012743039 0.007730372 0.06120218 -0.03236578 0.09913317 0.053155083
-0.0550062 -0.023898639 0.046565853 -0.012962462 0.055448532 0.030526698 0.0110028265 0.065689735
-0.012862416 -0.008037662 -5.980313e-05 -0.017221972 0.017270721 0.066817485 0.07720424 0.00043863375
0.044123292 -0.001502381 -0.06280396 0.042049386 -0.012945903 -0.005068955 -0.010168772 0.038048506
0.04345257 0.054717705 -0.03231498 -0.030537145 0.10088288 0.051019818 -0.06595037 0.013177668
-0.029143924 0.03685731 -0.05609225 -0.017872412 0.008427881 0.034724433 0.008525722 0.031847436
-0.009071427 0.07819549 -0.043226346 0.061703928 -0.010368712 -0.06177937 -0.056250203 -0.043147564
0.07842059 0.0034714143 0.059342712 0.043099023 -0.026295336 0.06885157 0.02047401 -0.044193774
-0.06866143 -0.007460177 -0.02202281 -0.061304577 0.041941438 -0.017494999 -0.006733571 0.050689526
0.022633603 0.0595266 -0.033187706 0.029779809 -0.016497646 -0.077610366 0.026895456 0.07239675
0.047341045 0.024745671 -0.014135272 0.05514044 0.09670477 -0.011512132 0.008533069 -0.039679676
-0.028791448 -0.0006698655 -0.029472062 -0.018084792 -0.011639306 0.03532617 -0.017999368 0.060282774
-0.0030493254 -0.01742379 -0.016099222 0.05736342 0.023627808 -0.0070807165 0.003930236 0.056594454
-0.028447682 0.01373062 -0.026540548 -0.024113866 -0.010537341 -0.036318872 -0.07251457 0.043971073

main_model.hiddenlayer_1.weight f4 [256, 256]
00000000: a06d 31bd cecf 04bd 5bc6 5c3c c618 533d
00000010: b83f 963c a279 073d f299 c2ba 5063 d9bb
00000020: e8a4 e539 b88f 3ebd 0eb4 643d 747e 1e3c
00000030: 0074 6bba 9811 e4bb 3544 ca3d bb12 acbc
00000040: e53a 99bd 1cd5 5dbc 50dc 7b3d 205a 723c
00000050: 4095 243d f5d9 953d 9ca3 c5bc 9a05 003d
00000060: c629 883a 0c9f 2cbd b878 7abc 6f6f f43c
00000070: e5a6 043c 7a27 52bd 64e0 1ebd 4211 18bd
00000080: 4d4f 923d e732 173d fa0c 673d 403d 8bba
00000090: 94cc 1bbd 14d1 4abd a8f5 fbbc 5aaf ca3c
000000a0: 3e33 873c 831a 863d f471 9f3d c78f 3b3d
000000b0: 61ed 10bd 2471 47bc 547a af3c 4094 c3ba
000000c0: aa5d 6a3c 1107 7c3d 63c9 82bd e5fe c23d
000000d0: 29b5 843d 364a 52bd a2b3 14bd ef06 fb3b
000000e0: 440a 82bd dc89 91bc 5d7b 0c3e afa5 273d
000000f0: b9a9 8b3d 4cdd 4e3d 3cd9 44bd 6cb2 8e3d
00000100: a330 b23c 00a1 433c 522a 58bd 5038 de3b
00000110: 2dbd 823d 6c35 243d 6f00 b23c 270a 03bc
00000120: 7341 dc3d b517 063d f15b 28bd 0d87 c0bc
00000130: 9abe 12bd 5749 09bd ecfe 433d 075c bcbc
00000140: e0cc 4ebd f61b a03d c9a7 ac3d 841a 5a3d
00000150: 4c7e 42bd 806e e53d e0aa fe3c 7373 fd3d
00000160: c82a 1b3d e692 933d 5609 e33c 5429 213d
00000170: 185c 8b3c 3af3 90bc 601e e03a 5583 c43d
00000180: 8b3e 60bd a338 233d d4aa 31bd 6c9c bf3c
00000190: 7aee 34bc 7fdc 053d 23e4 afbc c7f0 b03c
000001a0: 7869 41bd bc87 a2bc a228 5ebd 48f6 2cbd
000001b0: d4f1 813c e455 f8bc 8bfe 88bd c8c0 3f3d
000001c0: a129 58bc c232 803d c11e 2fbc f2c6 383d
000001d0: 0451 05bd 6191 6fbd d4c0 e2bc 0760 afbc
000001e0: dd78 113d f5be 66bd 2fa8 823d c035 efbc
000001f0: 9031 433d 08ca ca3c f233 7cbd 2305 4d3d
00000200: 121e 653d d606 6a3d 4bf5 5e3d 4de6 523d
00000210: ecfa 9dbc 569a a63d 717b e9bc 3086 4ebc
00000220: 4d4d dcbc 2e3a 3cbd f7ac dd3c 193f ad3d
00000230: 6561 a63c b4d2 143d a0e1 1dbd ace9 fa3c
00000240: 7611 e3bb 8168 de3a c351 263d 0198 5fbb
00000250: 7867 013d 4d3b 5ebd 0fdf d13d 7ec8 dd3d
00000260: d5ce e93b f80a 353d bc25 08bc f718 1d3b
00000270: dcd2 2fbd 2a1e 063d ee81 7b3d 03d3 513d
00000280: e4bf 4b3d 61fd 02bd b9a3 66bc a8ce 4d3c
00000290: 73a0 d83d 390c 643d dfa8 8dbc 30e4 8dbb
000002a0: 3e02 193d 5ed9 103d a0bb 533c ec5c 383d
000002b0: bc4b ba3c 699c 4fbd d059 1a3d 0095 0c3d
000002c0: 002a 4b3c d0ae d2bb c3b4 7c3d 321b 75bd
000002d0: 42bd 163d 79d8 683d 19f9 97bc 306f b73d
000002e0: 64dd 95bc 624a be3d 8e89 e9bc 2b2b 423d
000002f0: c041 bb3b 7c9a 843d 688e fbbc 28c9 f4bc
00000300: 6383 0abc 188c b73c d870 a9ba fc2b ff3c
00000310: d056 11bd 329c 083d 395d d8bc fa62 3fbd
00000320: c44b 0e3d 7420 54bd 1874 e03d 845e 55bd
00000330: 40d5 cf3d 6070 9d3d be96 323c 7e41 223d
00000340: e031 49bc ae60 2abd 8cb2 723c 8807 aabc
00000350: e201 f03d 6560 4bbc c028 b4bc 5cb0 a63c
00000360: f50a 053d 7a13 f13c 0e52 fc3c 00be acbc
00000370: c4eb 44bd 3364 41bd 5eb9 883d 2ea5 113d
00000380: 36d7 133d 5e03 30bd d214 8b3c 4628 a03d
00000390: 4fcd 9b3d faeb ba3b a8fc 643c 6b38 6e3d
000003a0: 32e0 6fbb ced5 8ebd 3a76 64bd cc9a b6bb
000003b0: 95f9 e73c 15cf 06bd 1ccf ea3c 207d 7fbd
000003c0: fd4c 81bd f811 80bd c69e 5cbd 5fb1 143d
000003d0: 00e8 65bd d764 ebbb ebce 823c 0460 15bd
000003e0: dcd6 1fbd 5038 78bc 2a90 443d 7800 613d
000003f0: 7d1e 233d 4438 54bd ede1 86bd e4d1 dabc
-0.043317437 -0.03242474 0.013475026 0.051537298 0.01834093 0.033074982 -0.0014846905 -0.0066341534
0.00043801148 -0.04652378 0.055835776 0.009673703 -0.0008981824 -0.006960105 0.09876291 -0.021005025
-0.07481936 -0.013539579 0.061489403 0.014791995 0.0401814 0.07316963 -0.024125867 0.031255342
0.0010388426 -0.042143866 -0.015287571 0.029838292 0.008096431 -0.05130718 -0.038788214 -0.037125833
0.07144032 0.03691378 0.05640886 -0.0010623112 -0.038036898 -0.0495158 -0.030756786 0.024741817
0.016503926 0.065480255 0.07785407 0.045791414 -0.035382632 -0.012172971 0.021420635 -0.0014921501
0.014304558 0.061530177 -0.06386068 0.095212735 0.06479866 -0.051340304 -0.036304124 0.0076607387
-0.06349614 -0.017765932 0.13718934 0.040929493 0.068194814 0.050504014 -0.048058733 0.06967625
0.021751707 0.011940241 -0.052774735 0.0067816153 0.06383739 0.04009001 0.021728722 -0.007998026
0.10754671 0.032737453 -0.041103307 -0.023501897 -0.035826303 -0.033517208 0.047850534 -0.0229931
-0.050488353 0.07817833 0.0843044 0.053247944 -0.047483727 0.11202717 0.031087339 0.12375536
0.037882596 0.07205753 0.027714413 0.039346054 0.017011687 -0.017694104 0.0017098896 0.09595362
-0.054747146 0.039848935 -0.043375805 0.023390017 -0.011043185 0.032680985 -0.021471089 0.021599187
-0.047219723 -0.019840114 -0.05423797 -0.04222706 0.015862383 -0.030314393 -0.06689175 0.04681471
-0.013193519 0.06259681 -0.010688485 0.045111604 -0.032547966 -0.058488254 -0.027679838 -0.021408094
0.035515655 -0.056334455 0.06379735 -0.029200435 0.04765469 0.02475454 -0.061572976 0.050053727
0.05593688 0.057135426 0.05443315 0.051489163 -0.019284688 0.08134906 -0.028501244 -0.012605235
-0.026892329 -0.045953922 0.027060015 0.084593005 0.020310113 0.036333755 -0.03854525 0.030629002
-0.0069295717 0.00169684 0.040605318 -0.00341177 0.031592816 -0.054255772 0.10247623 0.108292565
0.007135252 0.044199914 -0.008309778 0.002397118 -0.0429257 0.03274361 0.061403207 0.051226627
0.049743548 -0.031979922 -0.01407712 0.012561478 0.10577478 0.05567572 -0.017292438 -0.0043301806
0.037355654 0.035363548 0.012923151 0.045010492 0.022741191 -0.050686274 0.037683308 0.034321785
0.01240015 -0.0064295307 0.061695825 -0.05984039 0.036801584 0.05684707 -0.018551396 0.08956754
-0.018294044 0.09291531 -0.028507974 0.04740445 0.005714625 0.06474778 -0.030707553 -0.029881075
-0.008454177 0.02240567 -0.0012927307 0.031148903 -0.03548318 0.033352084 -0.02641164 -0.04672525
0.034740224 -0.051788762 0.10959643 -0.05209209 0.10148096 0.076874495 0.010900198 0.03961324
-0.0122799575 -0.041596107 0.014813077 -0.020755544 0.11719109 -0.012413119 -0.021992087 0.020347767
0.032481153 0.029428232 0.030800845 -0.021086693 -0.048076406 -0.047214698 0.06675981 0.03555792
0.036093913 -0.04297196 0.016977701 0.078201815 0.07607519 0.0057044 0.013976254 0.058159273
-0.0036602137 -0.06974374 -0.055776812 -0.0055726524 0.028317252 -0.032912333 0.02866321 -0.062375188
-0.063135125 -0.06253427 -0.053862356 0.036301967 -0.056129456 -0.007183652 0.015967807 -0.03646852
-0.039023265 -0.015150145 0.047989048 0.054932088 0.039823998 -0.05181147 -0.06586061 -0.026711412

main_model.hiddenlayer_1.bias f4 [256]
00000000: abe1 313d 0306 e13c c94f a2bc 5f3a aabc
00000010: 5d8b 3bbd 010b 14bd d1ce 98bc 445f 853d
00000020: ffa0 56bd 4055 073c cb3a 5f3c b754 31bd
00000030: 49af 833c 1ccc 683d 7567 21bd 7c9f 473d
00000040: 1fae 5cbd 8869 2ebd f710 b03b 34f1 ed3c
00000050: e65a c4bb c9f5 553d 64d7 0a3d 334d c8bc
00000060: d9a0 523d 3043 f93b bfe4 96bb c181 6dbd
00000070: 6f71 81bb 9496 1e3c 6a39 733d 0050 cf3c
00000080: 43ac 95bd 2979 a43c 815b cabc dd06 b6bc
00000090: badd 0cbd 54a5 383d a8d4 0fbd 4ea4 6ebd
000000a0: 0553 f6bc b2f7 6dbd 578c a23c 4e5c c3bb
000000b0: 582e 85bd c45b 27bd 4076 363d c111 273d
000000c0: 51c5 4bbd 49df 5d3d a863 82bd 9bea 42bd
000000d0: 33e0 623c 9d44 8fbd 986a 72bd 56f4 55bd
000000e0: 5115 633d b209 3bbb 7d6c 423d 7a28 1d3b
000000f0: 9538 cabc 7f67 6ebc 41e6 25bd e898 eabc
00000100: 8c52 073d 9b64 a63b 3cc4 a2bc 4434 d93c
00000110: 5de6 97bc 94f7 dbbc ed05 58bc 7daf cbbc
00000120: e357 123d 8878 313d ed18 5cbc 720d 4dbc
00000130: 0183 123d e9fd 5bbd ae03 b23c 011b 8c3d
00000140: 4e58 24bd 835e f33b 587c 6fbd 6bd3 403d
00000150: 6880 bdbc 59e5 4fbc 72b1 283d bd0a d7bb
00000160: 253f 8a3c 473a 4fbd ff08 803c 1c62 f8bc
00000170: e59a 9e3d 555d 163c f219 1e3d 9c48 93bc
00000180: 2620 713d 47e4 3b3d 8166 16bb 4dc1 f83c
00000190: 5bab dabc 8b01 2b37 3c5e 34bd 584f 01bd
000001a0: c7a1 993d ae29 43bc 1518 f8bc 885a 84bc
000001b0: 63dc e53c f267 81bd a6d9 813d 5a25 203c
000001c0: 92cc d43c 523e a5bc 10d8 47bd b5a4 74bc
000001d0: c5c5 44bd 87e5 5fbd 5f66 4cbb 1d46 5c3b
000001e0: 35cf 01bc e24e 57bc 6d33 1c3d f2aa 263c
000001f0: d483 6ebb c452 ddba 2048 1cbd c9a8 883d
00000200: 38eb 5cbd df83 2dbd 1dd9 123d b9cc 46bd
00000210: 85ae 113e ec27 9b3d 1838 3abd e38f 35bd
00000220: 3af7 953d a6e3 2a3d eb93 f03c 1e32 3ebd
00000230: 4794 353d f8bf 4b3b ae7f 4d3d d0d4 c63c
00000240: af3a ffba 9e2b 7f3c b2e0 643d aef4 883c
00000250: 88d7 323b ec0d 26bd c167 ffbb b257 dbbc
00000260: 0bc0 1fbb 76bb 4abb 0df4 1abb 4e51 c03c
00000270: 2b0b a93d a164 37bd c1fe 28bc 9667 46bc
00000280: 0149 3bbb 174b 91bd 9112 7abd ae3b a33c
00000290: 3341 c13b 9e17 3bbd 3417 05bd a599 2abd
000002a0: bdd8 2fbd b258 663d 4807 f73c 7bb2 1dbc
000002b0: f6c5 5bbd e488 823b dba8 3c3d 83e5 14bd
000002c0: 91c2 d03c 10c4 8f3d 96b8 193d 117e cebc
000002d0: da53 08bd 4027 3ebd a369 2bbd 63a5 ad3c
000002e0: 6d12 cbbc 85fe 9a3a 0574 5e3b ad8c 52bd
000002f0: d00c d9bb 90d5 043d 0f64 c3bc 18e9 8c3d
00000300: 0be5 fbbb d4a0 b03c 9852 07bd 4711 61bc
00000310: 58b5 34bd 31a5 69bc 4573 b23b 1499 823c
00000320: 2891 41bd dbd0 363d 5181 df3b d9c4 023d
00000330: 412e 993c 4fb9 3c3d 4aa5 40bc 4a66 25bc
00000340: 04db 823c c814 20bd e5bc 2fbc 2d15 6dbd
00000350: d853 37bd 6f88 4d39 582f 84bc 4708 cfbb
00000360: 9f60 423a 4d5a 04bc d2e9 d33a af74 26bd
00000370: 82ac ab3d 016c c63c cd45 36bc 3365 483d
00000380: 6fcd c2bc 4334 cbbc df52 65bd 8b3c 4ebc
00000390: 69cb 9b3c f488 963b b8e6 c33c 643d 4abd
000003a0: 8b98 50bd 6ab0 1d3c 6749 bdbc ad9c a53c
000003b0: c712 fdbc ca2e 7abc 28f1 863d f880 ab3c
000003c0: 301e 563d 2a5f 90bd 83ba a5bb cb23 d7ba
000003d0: ffb6 143d 4fc7 78bd c069 723c 1e9c ad3c
000003e0: aa75 89bd 52bc 4dbd bb16 943d aed2 4dbc
000003f0: 0ad4 56bc 97e4 073d 2382 97bd 2db3 5bbd
0.043428104 0.027468687 -0.019813435 -0.020779787 -0.045787204 -0.036143307 -0.018653305 0.06512311
-0.05239963 0.008260071 0.013624857 -0.04329368 0.016074793 0.05683528 -0.039405305 0.04873608
-0.053876992 -0.04258111 0.005373116 0.029045679 -0.0059922813 0.052236352 0.03389682 -0.024450874
0.051422928 0.0076068863 -0.0046049054 -0.05798507 -0.00395029 0.009679455 0.059380926 0.025306702
-0.07308247 0.020077305 -0.024701836 -0.02222007 -0.034391142 0.045079544 -0.035114914 -0.058262162
-0.030068884 -0.05809755 0.01984231 -0.0059619313 -0.0650298 -0.040859 0.044546366 0.040788416
-0.049748722 0.05416802 -0.06366664 -0.04758702 0.013847399 -0.06995509 -0.059183687 -0.05223497
0.05544025 -0.0028539714 0.047466744 0.0023980425 -0.024685184 -0.014551043 -0.04050279 -0.028637365
0.033037707 0.005077911 -0.019868962 0.02651418 -0.018542463 -0.026851453 -0.013185007 -0.024863953
0.035728347 0.04332784 -0.013433677 -0.012515413 0.035769466 -0.053708944 0.02173027 0.06841088
-0.040123276 0.007427038 -0.058468193 0.047076624 -0.023132518 -0.012688958 0.04118485 -0.0065625594
0.016875813 -0.050592687 0.01562929 -0.03032022 0.077443875 0.0091775255 0.038598962 -0.017978959
0.05886855 0.045872 -0.002294928 0.03036561 -0.026693037 1.01927535e-05 -0.04403518 -0.03156981
0.0750156 -0.011911793 -0.03028492 -0.01615645 0.02805919 -0.06318654 0.06340341 0.00977453
0.025976453 -0.020171318 -0.048790038 -0.014931847 -0.04804017 -0.054662254 -0.0031188948 0.0033611127
-0.007922937 -0.013141366 0.03813498 0.0101725925 -0.0036394494 -0.0016885628 -0.03815472 0.06672818
-0.05393526 -0.04236209 0.035851587 -0.048535082 0.1422673 0.07575974 -0.04546365 -0.044326674
0.07322545 0.04172101 0.029367408 -0.046434514 0.04433086 0.0031089764 0.050170593 0.024271399
-0.0019472445 0.015574364 0.05587835 0.016718235 0.0027289111 -0.04054062 -0.007794351 -0.026775215
-0.002437594 -0.003093449 -0.0023644 0.02347627 0.08254083 -0.0447737 -0.010314644 -0.012109658
-0.002857745 -0.070944004 -0.061052863 0.019925918 0.005897665 -0.04567682 -0.03249283 -0.041650433
-0.042931307 0.05623693 0.03015484 -0.009625073 -0.053655587 0.003983604 0.04605947 -0.036351692
0.025483401 0.07019818 0.03752955 -0.025206598 -0.033283092 -0.04642415 -0.04184879 0.021197027
-0.02478906 0.001182512 0.0033943665 -0.05140369 -0.006623842 0.03243023 -0.023851423 0.068803966
-0.007687216 0.021561064 -0.033037752 -0.013737029 -0.044118255 -0.014260576 0.00544587 0.015942134
-0.047257572 0.044632774 0.0068208356 0.03192601 0.018698813 0.04607516 -0.011758158 -0.010095188
0.015973575 -0.03908232 -0.010726188 -0.057881523 -0.044757694 0.00019601149 -0.016135857 -0.0063181254
0.00074149104 -0.00807817 0.0016167706 -0.040638622 0.08382513 0.024221422 -0.01112504 0.048924636
-0.023779599 -0.024805194 -0.055987235 -0.012587677 0.019017892 0.004593963 0.023913726 -0.049374953
-0.050926726 0.00962458 -0.02310629 0.02021631 -0.030892743 -0.015269944 0.06588966 0.02093552
0.052274883 -0.07049401 -0.0050576343 -0.0016413865 0.03630733 -0.06073695 0.014795721 0.021192607
-0.06711896 -0.050228424 0.07230898 -0.012562437 -0.0131120775 0.033176985 -0.073978685 -0.053637672

main_model.hiddenlayer_2.weight f4 [256, 256]
00000000: 7999 373d 720b bc3c f0c4 1d3c 9f4e 4bbd
00000010: 5b90 82bc ae06 49bd eb3b 55bd c507 f6bc
00000020: 2726 9b3c 3309 823c 4c61 733d cab9 293c
00000030: a1cb 7d3d e0fb 473c 744f 043d 46ad af3c
00000040: b411 3f3d c098 4d3d f34e 82bd ceb6 5d3d
00000050: 15a6 463d b1ad f9bb b766 403d 48eb 7cbd
00000060: d973 bdba 3052 dbbb 0c10 243d 3ad8 993c
00000070: 0983 aebc 53b1 073d e22c 00bc a130 fd3c
00000080: 5b30 bd3c 3e2e 2d3d 404e a13b 1125 843c
00000090: 2f53 7cbc 110c a2ba f8a8 0e3d 1c35 d9bc
000000a0: 47bd 31bd be1b 2cbd 4bfc 1abc da30 d13a
000000b0: c7f8 073d 8ab8 53bd c2d3 c8bc 8147 fbbc
000000c0: 5398 d93c e622 0bbd 20f4 6f3c a7a7 fdbc
000000d0: 6e68 4ebd 50de 433c 62f1 513d 224a 003c
000000e0: e194 053d 269a 6fbd 4d0f 7abd 896f b4bc
000000f0: b0a7 38bc bc39 2abd 8a68 463d a46c d8bc
00000100: faee 28bd e5eb 3bbb 58ed 1a3d 5a23 453d
00000110: 60a9 5dbb 163b 3abc f122 683c 30ef 733d
00000120: 311b 94bc 0340 393d 9e04 c3bc a566 d53c
00000130: e054 b23d 412f eabc 5dcd 263c 8ae7 fd3b
00000140: f0f4 383d 9e2d 183d a41d d13c 94d5 28bc
00000150: 03cd 04bd 4503 b33c 1a5e 4b3d 3283 21bd
00000160: 9379 25bd f2a5 12bd cb7d 74bd 5195 453d
00000170: 917d e83c 9adc c93c 98b4 e3bc 82d2 603d
00000180: ade6 583d 3e70 a43d 478d 1ebd 27eb 58bd
00000190: 6109 8b3c bedc 553d e89e 23bc 1669 25bd
000001a0: e76d 7bbb 7534 7ebd 9d80 1a3d 002e e23c
000001b0: 0fc8 1bbd 679e 813d dd3c 82bc 757b 233d
000001c0: dd6f 2d3d af3b 0e3d b51c 7ebc 02ca 3bb9
000001d0: ebf1 143d 6411 673d 5041 733c 93eb 2e3d
000001e0: e350 2dbd 5c67 673d fd17 823d 591e 77bd
000001f0: 3ac4 143d fa6a 18bc 4c74 23bb 5b2b 2b3c
00000200: 2194 80bc 54e1 f33c 25a1 243d 1fe2 0e3d
00000210: 7b57 af3c 8b34 223d a80c b1bc 75c3 b33b
00000220: 5237 1c3b 47a8 763d dfcc a83c 4529 1abd
00000230: e15e 04ba fe9f 4b3d 1eae 30bd b998 393c
00000240: 6303 e73c 0d12 a9bc ac02 bbbc 2c79 49bc
00000250: 87d5 ae3c a956 2c3c 7288 85bd cd11 07bd
00000260: 40dd 843c 8c95 613d b6b3 1fbd 59b3 4bbd
00000270: 92f0 09bd c663 333c cb0a 0cbd 642f e5bb
00000280: d0af 0d3d eb79 b6bc 53ab b13c 4e8d 52bd
00000290: c202 61bd 8e11 223c 492a 123d f507 6d3d
000002a0: 7a96 00bd 76b6 cd3c dc1d 3d3d 2a2c da3c
000002b0: f896 353c 1335 e6bc ad90 b13c 04e2 89bc
000002c0: dde5 abbb be22 373c d008 c83b 181f 84bd
000002d0: f3e7 303d 5e15 253d f59f 413d 2f99 043d
000002e0: a62c 76bc d268 7e3d 34f9 e2bc 869d 643d
000002f0: 7e76 0ebd f4a8 5fbd 5ff2 5abc a2c1 a8bc
00000300: 8e7a 9b3c 2acd 83bc e6e3 2f3d cb99 063d
00000310: 2c58 cbbc c56b 243c e72c 293d e04c 413b
00000320: 609d cabc 446e e6bc c460 2e3d 11c3 7a3c
00000330: 9120 713c d6ea 523c 88b3 8b3c daa7 57bd
00000340: f4ac b7bc 3559 0cbd 128f 6239 f966 5e3d
00000350: ccd4 3d3d ad1f e23b 6905 09bd 91ca 4fbd
00000360: 87e6 503d aee3 f73c 5b9a 01bd d285 263d
00000370: 1667 be3c f6ff 243d 0b6d cf3c 592e 03bd
00000380: ef8f 1bbb daf6 243d 8b44 70bd ad2e 643c
00000390: acb8 6fbd 820b 14bd b203 723d 6e69 7abd
000003a0: 46d5 613c 9ab8 6f3d 4ddf 6b3c 0a60 5abd
000003b0: 927e ed3b 013c 5c3d 6d8d f5bc 367e 73bd
000003c0: a3b3 ac3b 0b6f 5a3d 6f80 86bc 3136 9b3d
000003d0: 1473 653d 9e65 bebc 9b9a cdbc 728a ec3c
000003e0: 8ff9 3cbd 463e 333c f4cb 42bd e5f2 2d3d
000003f0: 6185 2ebd 0e81 a6bc 7175 b63c cd34 763d
0.044824097 0.022954676 0.009629473 -0.049635526 -0.015937975 -0.049078636 -0.052059095 -0.030033002
0.01893909 0.015873527 0.05941896 0.010359237 0.061961774 0.012206048 0.032302335 0.021444928
0.046647742 0.050194502 -0.063627146 0.054129414 0.048498232 -0.0076195826 0.046972957 -0.06174782
-0.0014454081 -0.006693147 0.040054366 0.018779863 -0.021302717 0.033128094 -0.007823201 0.030906977
0.023094347 0.042280428 0.004922658 0.016130956 -0.015400692 -0.0012363215 0.03482911 -0.026514582
-0.0433934 -0.042018645 -0.009459565 0.0015959993 0.033196237 -0.051689662 -0.024515036 -0.030673744
0.026561892 -0.03396883 0.014645606 -0.030963732 -0.05039256 0.011954859 0.05125559 0.007830175
0.032612685 -0.058496617 -0.06104975 -0.02202584 -0.011270449 -0.041558966 0.04843954 -0.026418991
-0.04124353 -0.002867454 0.037824005 0.048129417 -0.003382288 -0.011366626 0.014168487 0.05955428
-0.018079372 0.045227062 -0.023805913 0.026049921 0.08707595 -0.028586986 0.010180798 0.007748549
0.045155466 0.03715288 0.025526829 -0.010304827 -0.032422077 0.021852145 0.04965029 -0.03943176
-0.040399145 -0.03580279 -0.059690278 0.048238102 0.028380187 0.024641324 -0.027796075 0.054888256
0.052954365 0.08029221 -0.03870895 -0.052958634 0.016972246 0.05221247 -0.009986617 -0.04038342
-0.0038365067 -0.062061746 0.03772031 0.027609825 -0.038032588 0.06329041 -0.015898162 0.03991266
0.04234301 0.034724887 -0.015509774 -0.00017908963 0.036363523 0.05641307 0.014847115 0.04270513
-0.042313468 0.056495056 0.06352232 -0.060331676 0.03631995 -0.009302849 -0.0024941145 0.0104473485
-0.015695633 0.02977053 0.040192742 0.034883615 0.021404019 0.03960089 -0.02161248 0.005485947
0.0023836684 0.060219076 0.020605503 -0.037637014 -0.00050495384 0.049713127 -0.0431348 0.011327916
0.028199857 -0.02063849 -0.022828422 -0.012296956 0.021342052 0.010518708 -0.065201655 -0.03297596
0.016218781 0.05507426 -0.038989745 -0.049731586 -0.03367669 0.010949081 -0.03418998 -0.006994175
0.034591496 -0.022274932 0.021688139 -0.05140429 -0.05493427 0.009891881 0.035684858 0.057868917
-0.031393506 0.025111418 0.046171054 0.026632387 0.011083357 -0.02810148 0.021675432 -0.016831405
-0.0052459077 0.011177717 0.006104566 -0.06451243 0.043189954 0.04030358 0.047271688 0.03237265
-0.015025293 0.062111683 -0.02770672 0.05581429 -0.03478097 -0.054604486 -0.01336345 -0.020600144
0.018979337 -0.01608904 0.04294195 0.032861512 -0.024822317 0.01003546 0.041302588 0.0029495284
-0.024733245 -0.02812875 0.04257275 0.0153052965 0.014717237 0.012873372 0.01705338 -0.05265031
-0.022421338 -0.034264762 0.00021606337 0.05429742 0.046345517 0.0069007487 -0.033452425 -0.05073029
0.051001098 0.030259933 -0.031641345 0.040654965 0.023242515 0.040283166 0.02532055 -0.032026622
-0.0023736914 0.04027448 -0.058659118 0.013927144 -0.058525726 -0.036143787 0.059085555 -0.0611357
0.0137837585 0.05852566 0.014396501 -0.053314246 0.0072477544 0.05376816 -0.029974664 -0.059446536
0.005270438 0.053328555 -0.016418664 0.075786956 0.05601795 -0.023241814 -0.025098136 0.02887461
-0.046136435 0.01094014 -0.047557786 0.04246797 -0.04260767 -0.02032521 0.022272797 0.06010895
