DQN/DQN_complete/save/main_model_000373.pth (torch_old, 809026 bytes, 10 tensors)

main_model.InputLayer.weight f4 [256, 7]
-0.14698777 -0.15778351 -0.24805677 -0.24591848 -0.043190196 -0.8731773 -0.0749079 0.1994907
-0.90910393 -0.27650988 0.053573087 0.028814362 -2.0413444 -0.33390826 -0.6465366 -0.87529325
-0.06297657 -0.2055942 0.13443998 0.060095865 0.25132772 -0.038970944 -0.074683145 -0.22748534
-0.18860789 -0.0013556554 -0.4663803 -0.21112499 -0.90499574 0.35031152 -0.41294038 0.18507792
-0.09554037 -0.7948321 0.15440395 0.12410359 0.29237634 -0.1921675 -1.4875666 -0.10424445
-0.6974516 0.24409822 -0.0010956994 -0.40359697 -0.12189701 -0.10406884 -0.22533509 -0.90010256
0.36265925 0.16667826 -0.16945383 0.1856484 0.20466298 -0.26601273 -0.1403778 -0.013448536
-0.3910892 -0.42849123 -0.087974176 0.18077096 -0.13535005 1.4560407 -0.16825287 0.06977273
0.23432213 -0.07017449 0.1890319 0.1127883 -0.08185456 0.3163931 -0.10035523 0.07517561
-0.042703602 0.025982542 -0.2801863 0.52698106 0.2587662 -0.34974805 0.064363986 -0.1655223
-0.37555444 0.051725853 0.3161077 0.31390515 -0.7033257 -1.0392847 -0.10591726 0.30286333
-0.21374273 0.22010374 -0.22705305 0.06123337 -0.66997993 -0.81072944 0.11413985 -0.51872116
0.42265603 0.05683127 -0.18330006 0.09699307 -0.3556092 0.0058948235 -0.3139085 0.18396293
-0.016165107 -0.06103197 -2.2036288 0.17422305 0.016881015 0.0087817665 0.21613802 -0.3403061
-0.10129952 -0.08046158 -0.2720257 -0.121356696 0.031650197 0.11136064 0.06898373 0.011184398
-0.21897261 -0.18153551 0.004930768 -0.021779526 -0.14012809 0.03609845 0.0030094695 -0.15989769
0.010057503 -0.132406 -0.21259683 -2.3997533 0.025339812 -0.016284136 0.041839413 -0.044501055
-0.09137421 -0.2438805 0.0063576414 0.21869615 -0.18266162 -0.2741741 -0.22388761 -0.225358
0.014827931 -0.21864232 0.07663265 -0.19650714 -0.2839359 0.037100792 -0.24078381 0.006123781
-0.09281677 0.3308359 -0.44459444 0.25015783 0.009105986 0.08890486 -1.3052645 -0.331842
0.27160725 -0.06710991 -0.0922804 0.05130445 -0.16149943 -0.21614264 0.47448084 0.15032318
0.1007998 -0.91487503 -0.37275538 -0.5414735 -0.07351847 -0.10206385 0.33400396 -0.17147845
-0.081599526 -0.028647225 -0.9503795 0.26093075 -0.97805655 0.12390414 -0.41481557 0.0071826535
0.13951935 -0.81234294 -0.21883866 0.2731569 0.35986456 -0.0028346693 -0.053989932 -0.17332281
-0.05432069 -0.47659537 -0.30036604 -0.114132434 -0.054015595 -0.10636975 0.29162112 -1.4384329
-0.62515575 0.26625666 0.06064269 0.23068008 -0.21508382 -0.02461339 0.19664198 0.025719972
-0.11664564 -0.15051411 -0.24550715 -0.122446634 -0.07991811 -0.05571248 -0.036313195 0.66782534
-0.3122455 0.21833938 -0.053735856 -1.0115055 -1.316133 -0.057068698 0.004878256 -0.36349955
-0.46023783 0.013812413 0.029089244 -0.44940776 -0.31085238 -0.92789567 0.22043273 -0.11577703
0.14579947 -0.4567528 -0.09932801 -0.09990622 -0.1490555 0.01941207 0.034234993 -0.24392141
-0.36093557 -0.18146105 -0.15959507 0.027278725 -0.027323216 -0.7106933 -0.89854366 0.27714184
0.0036007748 -0.11603621 -2.0813339 -0.20690162 -0.31307426 0.008011435 -0.114942506 0.10098853
00000000: f683 16be 0092 21be 9802 7ebe 0ed2 7bbe
00000010: 34e8 30bd 8c88 5fbf 5069 99bd 4a47 4c3e
00000020: 09bb 68bf b492 8dbe 746f 5b3d 190c ec3c
00000030: 63a5 02c0 06f6 aabe 6c83 25bf 3813 60bf
00000040: dcf9 80bd 4987 52be a2aa 093e 1527 763d
00000050: 07ae 803e ff9f 1fbd 7af3 98bd ebf1 68be
00000060: 6d22 41be 3fb0 b1ba 66c9 eebe 2631 58be
00000070: cdad 67bf 085c b33e ec6c d3be 1185 3d3e
00000080: abaa c3bd 1e7a 4bbf 121c 1e3e 062a fe3d
00000090: 5ab2 953e 8fc7 44be 9568 bebf 1d7e d5bd
000000a0: 308c 32bf e2f4 793e 929d 8fba 43a4 cebe
000000b0: 24a5 f9bd 0b22 d5bd 3ebe 66be 1f6d 66bf
000000c0: 79ae b93e b5ad 2a3e 4e85 2dbe 9d1a 3e3e
000000d0: 2c93 513e d232 88be 33bf 0fbe 4057 5cbc
000000e0: d83c c8be 3463 dbbe ce2b b4bd 061c 393e
000000f0: 3499 0abe 8b5f ba3f 7b4a 2cbe 01e5 8e3d
00000100: 24f2 6f3e a5b7 8fbd 9491 413e 8dfd e63d
00000110: 5da3 a7bd 47fe a13e 0b87 cdbd acf5 993d
00000120: f9e9 2ebd 57d9 d43c 9474 8fbe 3be8 063f
00000130: 017d 843e 2d12 b3be 44d1 833d ae7e 29be
00000140: ac48 c0be 7dde 533d ded8 a13e 2db8 a03e
00000150: 270d 34bf 4807 85bf 26eb d8bd e710 9b3e
00000160: 60df 5abe e062 613e 9880 68be d8cf 7a3d
00000170: ce83 2bbf f78b 4fbf 27c2 e93d e9ca 04bf
00000180: 5f66 d83e e8c7 683d 03b3 3bbe 4da4 c63d
00000190: 6912 b6be 5d29 c13b 9db8 a0be c760 3c3e
000001a0: b06c 84bc a9fc 79bd 4108 0dc0 8767 323e
000001b0: 0e4a 8a3c 66e1 0f3c 4953 5d3e 9a3c aebe
000001c0: 1f76 cfbd 0ac9 a4bd f446 8bbe dc89 f8bd
000001d0: a3a3 013d 0c11 e43d 5847 8d3d c43e 373c
000001e0: 5b3a 60be 72e4 39be 4892 a13b fa6a b2bc
000001f0: bd7d 0fbe f8db 133d 853a 453b 38bc 23be
00000200: 3ac8 243c 7095 07be fcb2 59be 8f95 19c0
00000210: 7095 cf3c 4f66 85bc ce5f 2b3d bd46 36bd
00000220: 6722 bbbd cfbb 79be c353 d03b e2f1 5f3e
00000230: a60b 3bbe 8c60 8cbe cb42 65be 3fc4 66be
00000240: daf0 723c c6e3 5fbe 94f1 9c3d 2b39 49be
00000250: 0c60 91be 00f7 173d 0890 76be 00aa c83b
00000260: b816 bebd 5363 a93e e2a1 e3be b014 803e
00000270: 4631 153c c013 b63d e812 a7bf 32e7 a9be
00000280: 1b10 8b3e ec70 89bd 82fd bcbd 9d24 523d
00000290: 1b60 25be 7f54 5dbe 27ef f23e 52ee 193e
000002a0: 2070 ce3d 4035 6abf cbd9 bebe 029e 0abf
000002b0: da90 96bd da06 d1bd 9102 ab3e 0c98 2fbe
000002c0: a71d a7bd 96ad eabc 124c 73bf b798 853e
000002d0: ea61 7abf 74c1 fd3d b562 d4be 775c eb3b
000002e0: 29de 0e3e b5f5 4fbf 3e17 60be 39db 8b3e
000002f0: 2b40 b83e dcc5 39bb 8c24 5dbd 897b 31be
00000300: 5f7f 5ebd 4f04 f4be 94c9 99be 44be e9bd
00000310: 753f 5dbd 62d8 d9bd 5d4f 953e 921e b8bf
00000320: 350a 20bf cb52 883e 7864 783d 6637 6c3e
00000330: ef3e 5cbe 05a2 c9bc 845c 493e b1b2 d23c
00000340: e9e3 eebd 5f20 1abe 3a66 7bbe 4dc5 fabd
00000350: 1bac a3bd c532 64bd 25bd 14bd 9af6 2a3f
00000360: a4de 9fbe 5c94 5f3e 211a 5cbd 0379 81bf
00000370: 0c77 a8bf dec0 69bd c7d9 9f3b 9d1c babe
00000380: 4ba4 ebbe 764d 623c 914c ee3c c618 e6be
00000390: 0b28 9fbe 928a 6dbf 1eb9 613e 821c edbd
000003a0: 754c 153e 81db e9be 7c6c cbbd a29b ccbd
000003b0: 01a2 18be 1006 9f3c fe39 0c3d 89c6 79be
000003c0: 8ccc b8be edd0 39be e46c 23be a277 df3c
000003d0: f0d4 dfbc ffef 35bf f506 66bf 89e5 8d3e
000003e0: fafa 6b3b 64a4 edbd 9334 05c0 05de 53be
000003f0: 454b a0be 6542 033c fa66 ebbd 13d3 ce3d

main_model.InputLayer.bias f4 [256]
-0.49676213 -0.2142529 -0.14963594 -0.5391299 -0.031641554 0.19689116 -0.10374719 -0.5930375
-0.06249647 -0.07445638 0.10083661 0.20512815 -0.18091868 -0.14411148 -0.2759376 -0.009441435
-0.0020162277 -0.10310018 -0.0033079092 -0.038132172 -0.031673033 0.31229785 -0.23565206 -0.12869719
-0.0021852008 0.00044178372 -0.030835282 -0.21613093 0.08585548 -0.09976723 -0.079111464 -0.08820389
-0.2547402 -0.07817773 -0.001208284 -0.27196783 -0.08495325 -0.028532462 -0.09245433 -0.2575498
-0.10701839 -0.09326592 -0.20169614 -0.060705323 -0.4585181 -0.24710736 -0.3759487 -0.0005851263
-0.1486835 -0.007134228 0.004163905 -0.27168432 -0.15360595 -0.037855253 -0.0021970412 0.019311992
-0.102416 -0.27634913 -0.031029545 -0.09070766 0.26273137 -0.0012474793 -0.14070149 -0.099469304
-0.2623431 -0.32987913 -0.17812762 -0.087763086 -0.29136503 -0.15398872 0.28962678 -0.11870791
-0.2977271 0.005271665 -0.11126566 -0.4974791 -0.08934752 -0.08681954 -0.0307769 -0.5991085
-0.12558304 -0.33318278 -0.0040402636 -0.09479502 -0.12871903 -0.37410003 0.084404014 -0.19410267
-0.111878216 -0.18507282 -0.0016638563 -0.057442434 0.00041985197 -0.2073566 -0.022967448 0.06277334
-0.09826436 -0.2127077 -0.18344621 -0.0069380747 -0.6286372 0.060096264 -0.14421575 0.18023789
-0.118420854 -0.00046487377 -0.017833073 -0.00028483916 0.006449239 -0.19113265 0.032313958 -0.022650335
-0.7591477 -0.522258 -0.046206053 -1.2322985 -0.07807626 -0.14653729 -0.44127405 -0.23387337
-0.01707428 -0.59370524 -0.018657563 0.014094695 -1.325631 -0.05739193 -0.7783991 0.020089364
0.11695242 0.23150113 0.24295864 -0.9255643 -0.0029304298 -0.22761612 -0.011653797 0.008081527
-0.3090326 0.15451717 -0.015474845 0.2546732 -0.4044871 -0.10390566 -0.120277345 -0.2432398
-0.031228261 -0.19949032 0.19191347 0.13473745 -0.111410834 -0.057205144 -0.2177781 -0.38014975
-0.3912425 -0.058413047 -0.24109848 -0.048632104 0.079246834 -0.122410424 -0.17162833 -0.1073831
-0.05972699 0.021315327 0.026438246 0.2058169 -0.06724767 -0.0034722595 -0.31501785 -0.045662526
-0.08066701 0.024360845 0.24632756 -0.16717316 -0.10354429 -0.5409219 -0.5495555 -0.008436264
-0.12790518 -0.24517624 -0.14789842 0.26499292 -0.03484108 0.029350609 0.124822065 -0.056734566
-0.417288 0.21736963 -0.015369251 -0.29982567 0.13643947 -0.1039615 -0.08866085 0.0011737867
-0.11997795 0.27389172 0.0035342409 -0.30367497 0.171584 0.023740033 -0.28781062 -0.0014005871
-0.6165438 0.42253482 -0.031240376 -0.014207045 -0.26761633 -1.3271364 -0.49680856 -0.18189552
-0.18057233 -0.5322336 0.0062575634 -0.022486089 -0.32920185 -0.13509576 -0.31472006 -0.36206043
-0.493728 -0.14737676 -0.008510593 -0.14869645 -0.07056131 -1.1310607 -0.16143177 0.04784188
-0.22358009 -0.051549718 -0.2994346 -0.1873089 0.09046128 -0.0015312072 -0.067001194 -0.096012406
-0.20300382 -0.04271357 -0.0034001435 -0.032135468 -0.0046743364 -0.13763332 -0.08436104 -0.08862278
-0.07400181 -0.26576948 -0.030151796 0.049161904 -0.00025283886 -0.12648349 -0.0033356731 -0.04928159
-0.08204042 -0.46445554 -0.026552137 -0.24598545 -1.2566087 -0.47588468 -0.48292118 0.14290188
00000000: 9b57 febe 1d65 5bbe 2a3a 19be 6b04 0abf
00000010: 939a 01bd d69d 493e 6879 d4bd 4ed1 17bf
00000020: 4cfc 7fbd 967c 98bd 6d83 ce3d 1d0d 523e
00000030: bf42 39be f691 13be b147 8dbe 40b0 1abc
00000040: b022 04bb 3026 d3bd 82c9 58bb 7b30 1cbd
00000050: 95bb 01bd 81e5 9f3e c64e 71be 32c9 03be
00000060: 9635 0fbb 359f e739 469a fcbc 6d51 5dbe
00000070: ffd4 af3d c352 ccbd 3105 a2bd 3ea4 b4bd
00000080: 4f6d 82be a51b a0bd 495f 9eba 5e3f 8bbe
00000090: f8fb adbd e9bc e9bc b258 bdbd 91dd 83be
000000a0: 752c dbbd 3402 bfbd 6f89 4ebe 25a6 78bd
000000b0: e2c2 eabe b609 7dbe 597c c0be 2963 19ba
000000c0: 7d40 18be 3ec6 e9bb 5e71 883b 351a 8bbe
000000d0: e14a 1dbe 1c0e 1bbd 3cfc 0fbb 2f34 9e3c
000000e0: 7bbf d1bd a27d 8dbe ac31 febc f0c4 b9bd
000000f0: ba84 863e 7682 a3ba 0d14 10be 90b6 cbbd
00000100: d651 86be ebe5 a8be 1667 36be 22bd b3bd
00000110: cc2d 95be 38af 1dbe f649 943e 221d f3bd
00000120: b06f 98be eebd ac3b 40df e3bd 95b5 febe
00000130: d5fb b6bd 71ce b1bd d61f fcbc 2d5f 19bf
00000140: d798 00be ef96 aabe 3064 84bb e423 c2bd
00000150: ecce 03be 0a8a bfbe 03dc ac3d dac2 46be
00000160: 6820 e5bd bb83 3dbe c115 daba c248 6bbd
00000170: 941f dc39 4a55 54be 3b26 bcbc 4f8f 803d
00000180: d33e c9bd 0cd0 59be 53d9 3bbe ca58 e3bb
00000190: 5eee 20bf 8027 763d 4bad 13be 4890 383e
000001a0: a286 f2bd 4dba f3b9 aa16 92bc 7756 95b9
000001b0: 2354 d33b 47b8 43be a45b 043d 328d b9bc
000001c0: 8157 42bf b3b2 05bf 8f42 3dbd f5bb 9dbf
000001d0: 72e6 9fbd df0d 16be acee e1be 807c 6fbe
000001e0: 5cdf 8bbc 11fd 17bf bfd7 98bc 70ed 663c
000001f0: 47ae a9bf cd13 6bbd 2a45 47bf 7392 a43c
00000200: c084 ef3d a20e 6d3e 26ca 783e c8f1 6cbf
00000210: 740c 40bb 3314 69be 91ef 3ebc 6268 043c
00000220: 8539 9ebe c039 1e3e 348a 7dbc 8764 823e
00000230: ef18 cfbe 7ecc d4bd f853 f6bd db13 79be
00000240: 69d2 ffbc 3147 4cbe f784 443e 9df8 093e
00000250: 5d2b e4bd f14f 6abd 3901 5fbe fda2 c2be
00000260: f050 c8be 8542 6fbd 85e2 76be 7532 47bd
00000270: 2a4c a23d 51b2 fabd 56bf 2fbe aceb dbbd
00000280: 4aa4 74bd 7b9d ae3c 0595 d83c aac1 523e
00000290: 25b9 89bd d98e 63bb 054a a1be a108 3bbd
000002a0: bf34 a5bd 6590 c73c 4b3d 7c3e 712f 2bbe
000002b0: 070f d4bd dc79 0abf abaf 0cbf 4138 0abc
000002c0: 93f9 02be 7b0f 7bbe af72 17be 27ad 873e
000002d0: 85b5 0ebd b070 f03c b6a2 ff3d 8162 68bd
000002e0: c6a6 d5be 2596 5e3e 50cf 7bbc c082 99be
000002f0: cab6 0b3e c4e9 d4bd d293 b5bd bfd9 993a
00000300: 00b7 f5bd 893b 8c3e b99e 673b 497b 9bbe
00000310: b7b3 2f3e 757a c23c ea5b 93be e893 b7ba
00000320: d1d5 1dbf 7c56 d83e d1eb ffbc aac4 68bc
00000330: 0205 89be 9bdf a9bf b15d febe d242 3abe
00000340: f4e7 38be 7640 08bf 3f0c cd3b bf34 b8bc
00000350: 258d a8be 8b56 0abe fd22 a1be fc5f b9be
00000360: ebc9 fcbe efe9 16be 0470 0bbc e243 18be
00000370: 7382 90bd 99c6 90bf 5f4e 25be d9f5 433d
00000380: 2ef2 64be cc25 53bd 7e4f 99be e7cd 3fbe
00000390: c343 b93d cab2 c8ba ec37 89bd 27a2 c4bd
000003a0: 3ce0 4fbe 6df4 2ebd f1d4 5ebb 7ba0 03bd
000003b0: 2d2b 99bb c0ef 0cbe 7bc5 acbd dc7f b5bd
000003c0: 438e 97bd f012 88be e600 f7bc fe5d 493d
000003d0: 758f 84b9 e384 01be 4f9b 5abb 7edb 49bd
000003e0: cf04 a8bd 1ecd edbe de83 d9bc 9ce3 7bbe
000003f0: 8ed8 a0bf 28a7 f3be 7241 f7be df54 123e

main_model.hiddenlayer_0.weight f4 [256, 256]
-0.03484674 -0.109644264 -0.076245844 -0.045360725 0.005727883 -0.09120544 -0.001507778 -0.00025589767
-0.07519496 -0.06169365 -0.071677014 2.4333069e-05 0.006433241 -0.09674302 0.056176193 -0.05584087
0.01800046 -0.030409494 0.013006125 -0.09731578 0.024140522 -0.016626837 0.0058936477 -0.10415729
0.008235789 -0.045197908 0.0016953121 -0.072716 -0.071993604 -0.05201666 0.0036831894 -0.053305604
-0.0349601 -0.0834768 -0.035757765 -0.026562061 -0.027998805 -0.034540165 -0.077428944 0.009586252
-0.03809199 -0.017857002 -0.004897649 -0.021942427 -0.04990156 0.048090898 -0.06666814 -0.017938724
-0.056498446 0.028689908 0.0394857 0.01575951 0.011611192 -0.11617165 -0.023385096 -0.047063403
0.00017257221 -0.0108684 -0.058251042 -0.018998576 -0.053609893 -0.029213997 -0.07224624 0.027485779
-0.086845085 0.050001174 0.007418096 -0.027469896 -0.0024388433 -0.071337625 -0.076979764 -0.0053697564
-0.015319832 -0.08039522 -0.021962248 -0.0736972 -0.026508475 0.022770328 -0.080244735 -0.037824627
-0.03335533 -0.026598694 -0.046782427 0.0024890304 -0.06733323 -0.0702676 -0.07670153 -0.0919133
-0.025454205 -0.0071773184 0.0023515837 -0.048059955 0.010500504 0.082937025 -0.07080079 -0.03535698
0.020860305 -0.08916664 -0.0132321045 -0.04837574 0.018303558 -0.08346437 -0.031911485 -0.070035346
0.006540125 -0.07641035 -0.047654897 -0.085089676 -0.017538719 0.011576923 0.019366294 0.034397025
0.01940225 0.011982853 -0.06401426 -0.07921126 0.006558026 -0.0298037 -0.080789246 -0.038979426
-0.026270807 -0.10289602 -0.09053699 -0.06643559 -0.05409797 -0.011858751 -0.09064357 -0.062255304
0.0143139595 -0.011319031 -0.010885427 -0.10175281 -0.035584632 0.008448392 -0.07342812 0.009240232
-0.03750523 -0.07549411 0.009654656 0.018405987 -0.037834287 0.036559086 -0.06277008 -0.025205428
-0.061037704 -0.033034176 -0.06845325 -0.01021778 -0.027740099 0.010229342 0.010031914 -0.0010786139
-0.041128676 -0.09451529 0.013416396 0.0088411905 -0.047359247 -0.009355276 -0.11387425 -0.11672036
-0.006580699 0.025360845 -0.025465526 -0.03078185 -0.08430995 -0.057481494 0.019252677 -0.049660213
-0.059881277 -0.06353567 -0.028266136 -0.049552836 -0.08523993 0.0018259127 -0.075858414 -0.023351977
-0.039185848 -0.057733577 -0.02231168 -0.04761983 -0.030295089 0.026571643 0.010227214 -0.07090831
-0.050314024 -0.010068234 -0.029458432 -0.042892475 -0.012743941 0.027230367 -0.0229296 0.0039648116
-0.08247809 -0.011500603 -0.064654455 -0.05552367 -0.0027222468 -0.05183175 0.048912324 -0.034670837
-0.008762553 0.02845666 -0.07967749 -0.06643121 0.06203056 -0.07608782 0.0087123765 0.041622147
-0.057963878 0.030672792 -0.015752984 -0.00050210033 -0.07580508 -0.059147224 0.029019415 -0.052386943
-0.04882921 -0.07770696 -0.034376863 0.022842957 -0.08368686 -0.043910883 -0.056275316 -0.08816466
0.027661627 -0.028670166 -0.083572 0.024250219 -0.006089154 -0.0006821826 -0.09063766 -0.062807456
-0.07738675 0.026538182 -0.08675454 -0.03475983 -0.075852126 0.024996521 -0.052163184 0.008077316
0.041381143 0.029843926 -0.08171005 0.0032103066 -0.024679078 -0.0733815 -0.03770017 -0.07465746
-0.067646824 -0.0814558 -0.04724195 -0.08803369 -0.056493104 -0.0036762347 -0.006855287 -0.071327694
00000000: 75bb 0ebd 2c8d e0bd c826 9cbd 2bcc 39bd
00000010: f7b0 bb3b ebc9 babd a2a0 c5ba 012a 86b9
00000020: d1ff 99bd 7bb2 7cbd 66cb 92bd de1e cc37
00000030: f0cd d23b 3421 c6bd 0219 663d 65b9 64bd
00000040: b375 933c 551d f9bc a417 553c 7f4d c7bd
00000050: 58c2 c53c 0135 88bc 801f c13b 6b50 d5bd
00000060: 67ef 063c 7121 39bd 3c35 de3a 20ec 94bd
00000070: 6271 93bd 6c0f 55bd aa61 713b fa56 5abd
00000080: 5232 0fbd e2f5 aabd bc76 12bd ae98 d9bc
00000090: c05d e5bc fd79 0dbd 1193 9ebd a80f 1d3c
000000a0: 5906 1cbd d948 92bc 757c a0bb 9bc0 b3bc
000000b0: 9465 4cbd f6fa 443d 4e89 88bd 3bf4 92bc
000000c0: ea6a 67bd 1907 eb3c c2bb 213d 171a 813c
000000d0: de3c 3e3c 67eb edbd 1a92 bfbc 8ec5 40bd
000000e0: 80f4 3439 6011 32bc a598 6ebd e7a2 9bbc
000000f0: 0c96 5bbd 3152 efbc d6f5 93bd db29 e13c
00000100: d6db b1bd 08ce 4c3d 8013 f33b 8c08 e1bc
00000110: 00d5 1fbb 7619 92bd 91a7 9dbd c8f4 afbb
00000120: 0800 7bbc 40a6 a4bd 2cea b3bc 8fee 96bd
00000130: 4d28 d9bc d788 ba3c 5a57 a4bd ffed 1abd
00000140: 999f 08bd 81e5 d9bc ee9e 3fbd 001f 233b
00000150: 01e6 89bd 76e8 8fbd b115 9dbd 0a3d bcbd
00000160: 5685 d0bc b62f ebbb 071d 1a3b 84da 44bd
00000170: 4e0a 2c3c e3da a93d 0100 91bd 7bd2 10bd
00000180: 3be3 aa3c 009d b6bd 78cb 58bc a425 46bd
00000190: 58f1 953c 5eef aabd 9eb5 02bd b16e 8fbd
000001a0: 8b4e d63b 087d 9cbd c831 43bd 7f43 aebd
000001b0: 5cad 8fbc 22ad 3d3c 10a6 9e3c e5e3 0c3d
000001c0: 78f1 9e3c ba53 443c e919 83bd 8339 a2bd
000001d0: b6e4 d63b e426 f4bc d574 a5bd e4a8 1fbd
000001e0: e035 d7bc 26bb d2bd 756b b9bd 620f 88bd
000001f0: d595 5dbd 354b 42bc 56a3 b9bd 6bff 7ebd
00000200: 1985 6a3c 7573 39bc ca58 32bc c763 d0bd
00000210: 31c1 11bd 206b 0a3c 7b61 96bd 5864 173c
00000220: 169f 19bd a89c 9abd 902e 1e3c 27c8 963c
00000230: 20f8 1abd fbbe 153d 9a8d 80bd 9d7b cebc
00000240: ac02 7abd d84e 07bd 3831 8cbd 7a68 27bc
00000250: 343f e3bc f898 273c e65c 243c 4760 8dba
00000260: 8b76 28bd 3b91 c1bd 72d0 5b3c a4da 103c
00000270: c5fb 41bd df46 19bc e736 e9bd 160b efbd
00000280: e7a2 d7bb 8cc1 cf3c 149d d0bc 382a fcbc
00000290: b2aa acbd b771 6bbd cab7 9d3c 8268 4bbd
000002a0: 1246 75bd fd1e 82bd 628e e7bc eaf7 4abd
000002b0: 4692 aebd 7753 ef3a a85b 9bbd a54c bfbc
000002c0: 5781 20bd 0b7a 6cbd fcc6 b6bc 030d 43bd
000002d0: 682d f8bc c6ac d93c 0b90 273c 6038 91bd
000002e0: 1416 4ebd 3cf5 24bc cf52 f1bc 05b0 2fbd
000002f0: f6cb 50bc 3812 df3c dbd6 bbbc 40eb 813b
00000300: 46ea a8bd 066d 3cbc 8e69 84bd ca6c 63bd
00000310: b967 32bb 874d 54bd 4a58 483d 0203 0ebd
00000320: d090 0fbc f11d e93c f42d a3bd 160d 88bd
00000330: c213 7e3d eed3 9bbd 5bbe 0e3c fc7b 2a3d
00000340: 886b 6dbd 8245 fb3c 670c 81bc 629f 03ba
00000350: b23f 9bbd 5c44 72bd 20ba ed3c b193 56bd
00000360: 2301 48bd d424 9fbd c1ce 0cbd 2721 bb3c
00000370: 0464 abbd e6db 33bd f280 66bd ac8f b4bd
00000380: a39a e23c b2dd eabc cc27 abbd 65a8 c63c
00000390: 8787 c7bb 80d4 32ba 3da0 b9bd 32a1 80bd
000003a0: f27c 9ebd 9a66 d93c 5dac b1bd 5360 0ebd
000003b0: 5c58 9bbd 81c5 cc3c 10a9 55bd b856 043c
000003c0: 467f 293d 407b f43c 9957 a7bd 0264 523b
000003d0: c72b cabc 0a49 96bd 7e6b 1abd 03e6 98bd
000003e0: 6b8a 8abd 4cd2 a6bd c680 41bd 024b b4bd
000003f0: 5065 67bd fcec 70bb 51a2 e0bb 4114 92bd

main_model.hiddenlayer_0.bias f4 [256]
0.020259332 -0.12139863 -0.10924934 -0.04183418 -0.045838792 0.011089313 -0.024576219 -0.04072553
0.14019234 -0.109582655 -0.009396621 -0.066086754 -0.047605217 -0.010298835 -0.03403535 -0.06894271
-0.09908614 -0.11953052 -0.07753242 -0.059779715 -0.11710846 -0.09102355 -0.17705232 -0.016027968
-0.036397226 -0.0064357677 -0.07814465 0.019532625 -0.05222216 -0.08988027 -0.015447626 -0.050368845
-0.08802475 -0.32856295 0.28726298 -0.030385608 0.005938392 -0.04084517 -0.11316549 -0.06744689
0.01392584 0.014236888 0.009774254 0.082391106 1.7651515 -0.16916478 -0.06752725 -0.094721295
-0.08686955 0.03300442 -0.037242755 0.017054245 -0.017909775 -0.05164819 -0.12296011 0.7943448
0.016369974 -0.02003409 0.0021440422 -0.10143068 -0.050058234 0.04822759 -0.07790415 0.042665992
-0.106188305 -0.03321954 -0.03086256 -0.14165747 -0.1301613 -0.042304054 -0.11651897 -0.010805605
0.011626775 -0.12736896 -0.13181087 -0.04832847 -0.054494966 -0.058957707 0.05676433 -0.06587153
-0.1034402 0.12604691 -0.105517015 0.0039361464 0.006475414 0.18237312 0.0034227034 0.16929008
-0.1153768 0.6075772 0.097866446 -0.0059822057 -0.09618514 -0.0611501 0.009903189 -0.044218283
-0.072765365 -0.029762257 -0.022865806 -0.15896462 -0.26066887 -0.045100156 -0.15864454 -0.060398564
-0.11722731 -0.004318363 -0.035642438 -0.10226947 -0.06832189 -0.01508816 -0.106499806 -0.05323501
-0.07149882 -0.07202797 0.7093216 0.046593826 -0.08498631 -0.04668105 -0.07234148 -0.005014406
-0.008241797 0.018803593 0.001164278 -0.12817554 -0.05448476 -0.01748717 0.3944105 -0.03341511
0.023916915 -0.031703833 0.011481156 -0.10478661 -0.060540173 0.15781516 -0.063579366 -0.11393172
-0.03129085 0.0006883521 -0.042933833 -0.094848074 -0.02593137 0.07260685 1.5252383 -0.048694093
0.37800813 -0.031576723 -0.017781662 0.37399372 -0.22565538 -0.06385396 0.0006802206 -0.038880393
0.8951425 -0.07267033 -0.16901878 -0.09488893 -0.05309334 0.029189566 -0.1227831 -0.03287786
-0.08301373 -0.08741133 -0.083578624 -0.059819005 -0.11748431 -0.04986832 0.04675208 -0.10918789
0.1400738 -0.05162761 -0.20138133 0.0045861667 -0.06313953 -0.045530777 -0.09678244 -0.023908967
0.012858001 0.0027637593 -0.08836633 -0.07894449 0.18184254 0.16799681 -0.06595037 -0.052954324
-0.04999008 -0.03071848 -0.12932546 -0.049499843 -0.06917424 -0.070954785 -0.018210988 1.2360159
-0.35598847 -0.01540337 -0.0682182 0.018264597 0.002928261 -0.14630891 -0.1142111 -0.061298467
-0.029244142 -0.048788138 0.25105646 0.00064556004 -0.08380354 0.06784189 -0.022862542 -0.11077056
-0.10037561 -0.024034323 1.6210291 -0.121423855 0.050659627 -0.058077663 -0.05014204 0.029440602
0.4325291 0.0428895 -0.10547425 0.46027884 -0.059661258 -0.10832045 -0.03514527 -0.09440682
-0.034234002 4.9700553e-05 -0.07124366 -0.024623044 0.016156357 -0.16441105 -0.045617785 -0.101753995
-0.07752835 -0.072327286 -0.11748094 0.338983 -0.09593825 -0.006427584 -0.08586174 0.033983894
-0.047463376 -0.08692874 -0.0074684513 -0.11907024 -0.18099226 -0.04367195 -0.09468525 -0.0057392404
0.22720443 -0.030994987 -0.06581668 -0.05401825 -0.04456886 -0.09708144 -0.12586375 -0.026332509
00000000: e6f6 a53c d89f f8bd 1ebe dfbd 515a 2bbd
00000010: 75c1 3bbd f3af 353c 1154 c9bc d0cf 26bd
00000020: 958e 0f3e df6c e0bd 49f4 19bc 7e58 87bd
00000030: b0fd 42bd 72bc 28bc a768 0bbd d631 8dbd
00000040: aded cabd 6bcc f4bd 51c9 9ebd 93db 74bd
00000050: 8fd6 efbd 8e6a babd 344d 35be 164d 83bc
00000060: 4215 15bd 22e3 d2bb 4d0a a0bd e202 a03c
00000070: e7e6 55bd 2613 b8bd 0a18 7dbc 904f 4ebd
00000080: 5246 b4bd 6739 a8be 2214 933e 3deb f8bc
00000090: d896 c23b 444d 27bd 4fc3 e7bd 9821 8abd
000000a0: 3529 643c d641 693c 3124 203c abbc a83d
000000b0: 7cf0 e13f 8839 2dbe ba4b 8abd 3dfd c1bd
000000c0: aae8 b1bd a52f 073d dc8b 18bd 58b5 8b3c
000000d0: 85b7 92bc 0d8d 53bd 83d2 fbbd 2e5a 4b3f
000000e0: 531a 863c 881e a4bc 0f83 0c3b e3ba cfbd
000000f0: dd09 4dbd 4b8a 453d 368c 9fbd 89c2 2e3d
00000100: 4179 d9bd 3611 08bd 7bd3 fcbc a80e 11be
00000110: 0149 05be 0447 2dbd 7fa1 eebd fe09 31bc
00000120: 3b7e 3e3c 026d 02be 6ef9 06be 13f4 45bd
00000130: 1d36 5fbd a37d 71bd b781 683d a7e7 86bd
00000140: 75d8 d3bd 7112 013e 4e19 d8bd cafa 803b
00000150: b62f d43b 05c0 3a3e 6f4f 603b 615a 2d3e
00000160: ac4a ecbd 2e8a 1b3f 346e c83d 6106 c4bb
00000170: b7fc c4bd 8778 7abd fc40 223c 3b1e 35bd
00000180: 0206 95bd facf f3bc 1251 bbbc 9fc7 22be
00000190: 6476 85be f1ba 38bd b773 22be 7c64 77bd
000001a0: df14 f0bd 0e81 8dbb cefd 11bd a872 d1bd
000001b0: 59ec 8bbd 5434 77bc 921c dabd f40c 5abd
000001c0: f96d 92bd 6683 93bd 1a96 353f 2bd9 3e3d
000001d0: 4d0d aebd a134 3fbd c527 94bd e34f a4bb
000001e0: 9a08 07bc fe09 9a3c b09a 983a 7340 03be
000001f0: 692b 5fbd 4141 8fbc 2cf0 c93e 48de 08bd
00000200: 68ed c33c e1db 01bd 751b 3c3c 5d9a d6bd
00000210: f9f8 77bd 4c9a 213e e635 82bd 0955 e9bd
00000220: d62a 00bd 8772 343a 63db 2fbd b53f c2bd
00000230: 066e d4bc e6b2 943d 023b c33f 7573 47bd
00000240: 488a c13e 9856 01bd d9aa 91bc 1b7c bf3e
00000250: 3412 67be ddc5 82bd d550 323a 0c41 1fbd
00000260: 0f28 653f 2fd4 94bd 4213 2dbe 2155 c2bd
00000270: 6778 59bd f51e ef3c b575 fbbd efaa 06bd
00000280: 1a03 aabd b604 b3bd 452b abbd c604 75bd
00000290: 9d9b f0bd b942 4cbd 1c7f 3f3d e79d dfbd
000002a0: 826f 0f3e 7977 53bd e836 4ebe 8e47 963b
000002b0: 4c4f 81bd 7b7e 3abd df35 c6bd bddc c3bc
000002c0: 5daa 523c 3020 353b 68f9 b4bd a6ad a1bd
000002d0: ee34 3a3e 5b07 2c3e fd10 87bd a2e6 58bd
000002e0: 66c2 4cbd 52a5 fbbc e56d 04be 59c0 4abd
000002f0: 39ab 8dbd be50 91bd 362f 95bc c535 9e3f
00000300: 1f44 b6be 6b5e 7cbc fcb5 8bbd a39f 953c
00000310: 11e8 3f3b 01d2 15be 82e7 e9bd 1a14 7bbd
00000320: 6991 efbc 12d6 47bd 798a 803e cd3a 293a
00000330: 31a1 abbd b0f0 8a3d 3a4a bbbc addb e2bd
00000340: ba91 cdbd a1e3 c4bc e27d cf3f 12ad f8bd
00000350: 7880 4f3d d8e2 6dbd bd61 4dbd 6b2d f13c
00000360: 7474 dd3e e6ac 2f3d e202 d8bd aba9 eb3e
00000370: 5d5f 74bd 1dd7 ddbd 7df4 0fbd 5d58 c1bd
00000380: f438 0cbd 9075 5038 32e8 91bd 44b6 c9bc
00000390: 565a 843c 5f5b 28be b7d9 3abd 6664 d0bd
000003a0: 2fc7 9ebd 5420 94bd d999 f0bd 2e8f ad3e
000003b0: 467b c4bd 7c9e d2bb 48d8 afbd b232 0b3d
000003c0: f568 42bd b207 b2bd e9b9 f4bb 19db f3bd
000003d0: 0956 39be 5ce1 32bd 57ea c1bd 3d10 bcbb
000003e0: 47a8 683e 33e9 fdbc e5ca 86bd 3e42 5dbd
000003f0: d68d 36bd a2d2 c6bd 6de2 00be 46b7 d7bc

main_model.hiddenlayer_1.weight f4 [256, 256]
-0.04364656 -0.03242474 0.010551291 0.051537298 0.014480005 0.033074982 -0.0014846905 0.03232845
-0.057735324 -0.04652378 0.055835776 0.008207202 -0.0008981824 0.011077956 0.039894063 -0.021173384
-0.07481936 -0.03940684 0.061489403 0.014791995 0.0401814 0.06602501 -0.037269436 0.004725699
0.0010388426 -0.042143866 -0.025920784 0.029838292 0.008096431 -0.09558624 -0.038788214 -0.037125833
0.07144032 -0.059228748 0.0064934967 -0.0010623112 -0.038036898 -0.0495158 -0.048536964 -0.028369494
-0.043833904 0.031922556 0.037551638 -0.009140782 -0.10327167 -0.041029178 0.021420635 -0.0014921501
0.013344621 -0.007914619 -0.06386068 0.057771806 0.06479866 -0.051340304 -0.036304124 -0.053831283
-0.10342518 -0.017765932 0.06548381 0.04028397 0.01592627 -0.0055108666 -0.048058733 -0.0060107224
0.021751707 0.011940241 -0.052774735 0.0067816153 0.062166043 0.04009001 0.021728722 -0.12211276
0.059681546 0.032737453 -0.08229858 -0.023501897 -0.07068169 -0.03706063 -0.0018250612 -0.033110593
-0.10076244 0.009236519 -0.08859797 0.03178043 -0.058532365 0.062158763 0.01078434 0.055375963
0.020099819 -0.045390483 -0.010684265 0.039346054 0.016229935 0.004511727 -0.06600365 0.039221704
-0.05632146 0.039848935 -0.043375805 0.014716043 -0.12848721 0.0013295439 -0.043357637 -0.021967718
-0.15830539 -0.13863645 -0.05423797 -0.08605749 -0.017147074 -0.051204145 -0.07165235 0.04681471
-0.016467072 0.059623532 -0.14944297 -0.008704157 -0.032547966 -0.058488254 -0.03785955 -0.10954297
-0.0029770832 -0.056334455 0.06379735 -0.029200435 0.04765469 0.02475454 -0.12713209 0.050053727
0.05593688 0.057135426 0.05443315 -0.09665969 -0.0073844395 -0.076482385 -0.07719961 -0.012605235
-0.026892329 -0.045953922 0.027060015 0.032377265 0.020310113 0.006963252 -0.10570761 0.030629002
-0.13307256 0.00169684 0.040605318 -0.05101175 -0.074621856 -0.054255772 0.05936259 0.05366343
-0.07029437 0.044199914 -0.059638843 -0.06494292 -0.067475125 0.03274361 -0.10389578 -0.0023215462
0.041386485 -0.031979922 -0.050973076 -0.008907441 0.05942772 0.0037307872 -0.08148774 -0.0057507
-0.046914756 -0.015106568 0.007802958 0.023542142 0.022741191 -0.047067318 0.037683308 0.034321785
0.01240015 -0.030985966 0.10625267 -0.06001013 -0.033017073 0.0042957594 -0.018551396 0.043145142
-0.018294044 0.04721653 0.036041085 0.04740445 0.031368792 0.026832353 -0.030707553 -0.08715663
-0.030282047 -0.052231934 -0.0012927307 0.05884221 -0.059789173 -0.14478238 -0.02641164 -0.04672525
-0.012157525 -0.082959086 0.05541293 -0.08385093 0.044856258 -0.0009716086 -0.03963622 0.03961324
-0.0122799575 -0.061000723 -0.19657813 -0.020755544 0.025853293 -0.012413119 -0.045314193 -0.0011207284
-0.0006407925 -0.07612488 -0.009217108 -0.0405165 -0.048076406 -0.047214698 0.039727386 0.01836317
0.0044826446 -0.04297196 0.016977701 0.012156438 0.03013267 -0.010273127 0.013976254 0.008435983
-0.029843481 -0.07352401 -0.05572475 -0.014850056 0.024078375 -0.032912333 0.02866321 -0.08870448
-0.063135125 -0.083872035 -0.07532532 -0.0061733583 -0.07505269 -0.021845004 -0.050602775 -0.033105213
-0.09783175 -0.015150145 0.047989048 0.054932088 0.039823998 -0.030338654 -0.06586061 -0.116937086
00000000: bcc6 32bd cecf 04bd 52df 2c3c c618 533d
00000010: 8b3d 6d3c a279 073d f299 c2ba d66a 043d
00000020: e07b 6cbd b88f 3ebd 0eb4 643d 8077 063c
00000030: 0074 6bba 5180 353c f567 233d ce73 adbc
00000040: e53a 99bd 1169 21bd 50dc 7b3d 205a 723c
00000050: 4095 243d 1f38 873d d6a7 18bd 09da 9a3b
00000060: c629 883a 0c9f 2cbd d357 d4bc 6f6f f43c
00000070: e5a6 043c b8c2 c3bd 64e0 1ebd 4211 18bd
00000080: 4d4f 923d d899 72bd 66c7 d43b 403d 8bba
00000090: 94cc 1bbd 14d1 4abd b2ce 46bd 2467 e8bc
000000a0: 2e8b 33bd 3ac1 023d bfcf 193d 38c3 15bc
000000b0: 1980 d3bd 360e 28bd 547a af3c 4094 c3ba
000000c0: 66a3 5a3c 51ac 01bc 63c9 82bd 21a2 6c3d
000000d0: 29b5 843d 364a 52bd a2b3 14bd 317e 5cbd
000000e0: 95d0 d3bd dc89 91bc 601c 863d ce00 253d
000000f0: cf77 823c 8094 b4bb 3cd9 44bd 98f5 c4bb
00000100: a330 b23c 00a1 433c 522a 58bd 5038 de3b
00000110: d2a1 7e3d 6c35 243d 6f00 b23c 4116 fabd
00000120: a374 743d b517 063d 288c a8bd 0d87 c0bc
00000130: 90c1 90bd e3cc 17bd e436 efba f99e 07bd
00000140: 8a5c cebd c554 173c da72 b5bd 322c 023d
00000150: a2bf 6fbd 309a 7e3d cdb0 303c e8d1 623d
00000160: 60a8 a43c 5feb 39bd 0e0d 2fbc 5429 213d
00000170: a4f4 843c 1cd7 933b ec2c 87bd f0a6 203d
00000180: 55b1 66bd a338 233d d4aa 31bd 8f1b 713c
00000190: 2792 03be 1744 ae3a c797 31bd a5f5 b3bc
000001a0: cf1a 22be b7f6 0dbe a228 5ebd e93e b0bd
000001b0: 0578 8cbc 70bb 51bd 78be 92bd c8c0 3f3d
000001c0: f4e5 86bc ce37 743d 9407 19be e19b 0ebc
000001d0: 0451 05bd 6191 6fbd 9e12 1bbd 1158 e0bd
000001e0: 2b1b 43bb f5be 66bd 2fa8 823d c035 efbc
000001f0: 9031 433d 08ca ca3c ea2e 02be 2305 4d3d
00000200: 121e 653d d606 6a3d 4bf5 5e3d 84f5 c5bd
00000210: 2bf9 f1bb cca2 9cbd d41a 9ebd 3086 4ebc
00000220: 4d4d dcbc 2e3a 3cbd f7ac dd3c 069e 043d
00000230: 6561 a63c fe2b e43b 3b7d d8bd ace9 fa3c
00000240: 2c44 08be 8168 de3a c351 263d b2f1 50bd
00000250: 58d3 98bd 4d3b 5ebd 3026 733d 2fce 5b3d
00000260: 7ff6 8fbd f80a 353d dc47 74bd cb00 85bd
00000270: 6630 8abd 2a1e 063d 50c7 d4bd 1525 18bb
00000280: e084 293d 61fd 02bd 25c9 50bd 84f0 11bc
00000290: 7b6a 733d 3980 743b 0be3 a6bd 5e70 bcbb
000002a0: b029 40bd 8a81 77bc f5af ff3b 73db c03c
000002b0: bc4b ba3c a9c9 40bd d059 1a3d 0095 0c3d
000002c0: 002a 4b3c 48d6 fdbc 009b d93d 2fcd 75bd
000002d0: e93c 07bd 71c3 8c3b 19f9 97bc f6b8 303d
000002e0: 64dd 95bc 1f66 413d d19f 133d 2b2b 423d
000002f0: 907c 003d 86cf db3c 688e fbbc 2d7f b2bd
00000300: 0e12 f8bc 27f1 55bd d870 a9ba 8704 713d
00000310: 7ee5 74bd d541 14be 395d d8bc fa62 3fbd
00000320: 5b30 47bc 74e6 a9bd abf8 623d 09ba abbd
00000330: 32bb 373d 8db3 7eba 9759 22bd 7e41 223d
00000340: e031 49bc e5db 79bd c74b 49be 8807 aabc
00000350: 49ca d33c 6560 4bbc 609b 39bd 68e5 92ba
00000360: dbfa 27ba 5ce7 9bbd 5a03 17bc a1f4 25bd
00000370: c4eb 44bd 3364 41bd 2fb9 223d 5c6e 963c
00000380: 26e3 923b 5e03 30bd d214 8b3c cc2b 473c
00000390: cad8 f63c 9e50 28bc a8fc 643c 1437 0a3c
000003a0: 517a f4bc c293 96bd a33f 64bd a64d 73bc
000003b0: 0340 c53c 15cf 06bd 1ccf ea3c b2aa b5bd
000003c0: fd4c 81bd 1ac5 abbd 2944 9abd e249 cabb
000003d0: 3ab5 99bd 4bf4 b2bc db44 4fbd 5599 07bd
000003e0: 035c c8bd 5038 78bc 2a90 443d 7800 613d
000003f0: 7d1e 233d c588 f8bc ede1 86bd b67c efbd

main_model.hiddenlayer_1.bias f4 [256]
-0.0820341 0.09418715 -0.12862961 -0.11828631 -0.09108523 -0.07245515 -0.13844147 0.3725996
-0.11148497 0.33800274 0.30166146 -0.12292848 -0.031166038 0.025229152 -0.10822752 0.2346874
-0.005229452 -0.08170273 -0.0023269856 -0.05605966 -0.07674344 0.3720115 -0.098038 -0.078359336
-0.036269568 0.050124325 -0.12872411 0.06322254 -0.105991706 0.23381725 -4.4852614 -0.57842815
-0.27859172 0.07882098 0.21377769 -0.1326295 0.008081445 1.4390033 -0.03718081 -0.1519415
-1.3820726 -0.07954927 -0.037640914 -0.12821351 -0.13582408 -0.09833567 0.09566632 -0.1094297
-0.07474187 -0.04131544 -0.19815692 -0.12469457 -0.04878877 -0.014908632 -0.19502732 -0.116709895
0.3742621 -0.13319477 0.00087994075 0.060442008 0.08894066 -0.043073528 -0.12055717 -0.123910196
-0.047429293 -0.070712015 0.23988694 -0.032995187 -0.070189014 -0.106764086 -0.081393175 -0.17037185
-0.03480824 0.18953378 -0.11669994 -2.7493355 0.12923561 -0.38135856 1.2856159 0.57106674
0.015140384 0.09854293 -0.028966172 -0.25655067 -0.08733575 -0.12269434 -0.07903553 -0.16164829
0.26234943 -0.10188727 -0.07678971 0.0022007374 0.06814719 -0.13940439 0.024257684 -0.09193271
-0.07558291 0.08886137 0.07823366 -0.09831168 0.36549476 0.20020178 -0.09744156 0.022543585
0.3201321 -0.025241928 -0.12092382 -0.09878224 -0.06288084 -0.09744331 0.02885756 -0.06010079
0.21943358 -0.090354644 0.14676343 -0.12570408 -0.1424149 -0.07241281 -0.13983142 0.5471326
-0.049611416 -0.18961649 -0.06066169 -0.09895874 -0.041269466 0.90194017 -0.140592 2.0549064
-0.13468882 -0.14826371 -0.015924977 -0.10834047 0.6755781 0.041405465 -0.09159432 -0.1367966
0.4908229 -0.024443451 -0.07129009 -0.20102909 -0.042803314 -0.024379581 -0.052031845 -0.071170695
-0.05494654 -0.07384778 -0.030856574 -0.04401865 0.050118376 0.14788364 -0.022414498 -0.09113469
-0.06779514 -0.047675148 0.35057673 -0.069710135 0.09758466 -0.19003479 -0.12305655 -0.11119833
-0.12472959 -0.14108245 -0.14279638 -0.068733506 -0.036181394 0.1479049 0.41223764 -0.17535782
0.019583981 -0.056791943 0.0771522 -0.12672532 -0.15566222 -0.06616848 1.5243812 -0.179199
0.0031392297 0.43340725 -0.02569054 -0.15892895 -0.13527478 -0.19862248 -0.23628937 -0.023597084
-0.11578876 -0.09775718 -0.14336245 -0.16582733 -0.3163652 0.10388234 -0.083079055 0.43916172
3.3468804 -0.08324736 -0.09625123 0.7980509 -0.17855527 -0.061712313 0.14733213 -0.04977914
-0.1301785 -0.06658656 1.510456 0.011876876 -0.10668647 0.179465 0.028949337 -0.09891849
-0.040019833 -0.119103335 0.18769605 -0.11568593 0.09482188 -0.09046244 -0.16676478 -0.096706696
-0.18190458 -0.10248102 -0.061492577 -0.12789643 0.41831326 -0.18467857 -0.16184092 0.21892826
0.08898273 0.0021215724 -0.0973924 -0.096655264 -0.12568553 -0.042817254 -0.11697766 -0.20478286
-0.14746973 -0.036862426 0.2954616 -0.045602575 -0.11526629 -0.089117475 0.46461737 0.0049119475
0.26850116 -0.13621722 -0.079956464 -0.06297126 0.029298957 -0.13400926 -0.035388328 0.5314034
-0.13204508 -0.112868816 0.46901757 0.07709289 -0.1044648 -0.11494473 -0.13889027 -0.15540121
00000000: 7f01 a8bd 31e5 c03d 7bb7 03be 1840 f2bd
00000010: e58a babd 5e63 94bd 9ac3 0dbe 60c5 be3e
00000020: 3b52 e4bd b20e ad3e 5f73 9a3e edc1 fbbd
00000030: eb4f ffbc 5ead ce3c 64a6 ddbd e551 703e
00000040: d35b abbb c353 a7bd 5780 18bb d09e 65bd
00000050: aa2b 9dbd 4b78 be3e 26c8 c8bd dc7a a0bd
00000060: 668f 14bd 2a4f 4d3d 41d0 03be d27a 813d
00000070: 2e12 d9bd ca6d 6f3e 4387 8fc0 de13 14bf
00000080: 93a3 8ebe e56c a13d 8ae8 5a3e 07d0 07be
00000090: 0968 043c 4331 b83f e84a 18bd 8d96 1bbe
000000a0: c1e7 b0bf baea a2bd 5c2d 1abd 674a 03be
000000b0: 7815 0bbe 3664 c9bd b4ec c33d ae1c e0bd
000000c0: 4412 99bd 613a 29bd a6e9 4abe de5f ffbd
000000d0: bcd6 47bd 5643 74bc 3eb5 47be 9905 efbd
000000e0: 489f bf3e 3664 08be d3ab 663a 0a92 773d
000000f0: 8526 b63d de6d 30bd ade6 f6bd a1c4 fdbd
00000100: 3845 42bd 76d1 90bd eca4 753e f625 07bd
00000110: 42bf 8fbd 21a7 dabd 77b1 a6bd f575 2ebe
00000120: 1693 0ebd 2515 423e 6100 efbd 1df5 2fc0
00000130: 5756 043e 6e41 c3be 108f a43f 6e31 123f
00000140: 600f 783c e0d0 c93d 774a edbc 9c5a 83be
00000150: 16dd b2bd 2c47 fbbd 61dd a1bd 2187 25be
00000160: aa52 863e 46aa d0bd ec43 9dbd 3f3a 103b
00000170: c190 8b3d 06c0 0ebe 0db8 c63c 3747 bcbd
00000180: 36cb 9abd f3fc b53d f838 a03d a257 c9bd
00000190: 2122 bb3e b201 4d3e 718f c7bd 53ad b83c
000001a0: 5be8 a33e 29c8 cebc e8a6 f7bd 584e cabd
000001b0: abc7 80bd 5c90 c7bd b166 ec3c 3f2c 76bd
000001c0: 32b3 603e db0b b9bd 2749 163e 92b8 00be
000001d0: 36d5 11be 2b4d 94bd f82f 0fbe e210 0c3f
000001e0: 5735 4bbd d32a 42be 6478 78bd e1aa cabd
000001f0: 2c0a 29bd 8de5 663f 59f7 0fbe 9683 0340
00000200: deeb 09be 71d2 17be 1975 82bc 9ce1 ddbd
00000210: b0f2 2c3f c798 293d ce95 bbbd 6814 0cbe
00000220: 244d fb3e a23d c8bc 8a00 92bd 92da 4dbe
00000230: 8752 2fbd b0b7 c7bc 581f 55bd f1c1 91bd
00000240: a00f 61bd 813d 97bd edc6 fcbc e64c 34bd
00000250: ed48 4d3d cf6e 173e 9c9e b7bc d3a4 babd
00000260: 2ed8 8abd 0447 43bd cb7e b33e 30c4 8ebd
00000270: 77da c73d 7b98 42be 1305 fcbd f3bb e3bd
00000280: 3a72 ffbd eb77 10be 3739 12be 27c4 8cbd
00000290: f132 14bd 6274 173e d010 d33e 0091 33be
000002a0: 966e a03c ab9e 68bd f901 9e3d 48c4 01be
000002b0: eb65 1fbe 5783 87bd ec1e c33f f17f 37be
000002c0: 89bb 4d3b 8ee7 dd3e f874 d2bc 45be 22be
000002d0: 7985 0abe b163 4bbe d7f5 71be ac4e c1bc
000002e0: a822 edbd eb34 c8bd 9bcd 12be a4ce 29be
000002f0: 9ffa a1be 44c0 d43d 5a25 aabd ced9 e03e
00000300: 4a33 5640 987d aabd 5d1f c5bd 104d 4c3f
00000310: 31d7 36be 0dc6 7cbd 3cde 163e 36e5 4bbd
00000320: 834d 05be 895e 88bd 9f56 c13f 3a97 423c
00000330: 707e dabd acc5 373e 2927 ed3c c795 cabd
00000340: d6eb 23bd 73ec f3bd 6533 403e bfec ecbd
00000350: f931 c23d 5f44 b9bd 63c4 2abe 290e c6bd
00000360: 3245 3abe 92e1 d1bd a4df 7bbd 48f7 02be
00000370: 282d d63e 611c 3dbe a0b9 25be bb2e 603e
00000380: 943c b63d 140a 0b3b ab75 c7bd 32f3 c5bd
00000390: b5b3 00be 2561 2fbd fc91 efbd 99b2 51be
000003a0: 4e02 17be 0efd 16bd be46 973e c4c9 3abd
000003b0: bc10 ecbd 3983 b6bd 54e2 ed3e 67f4 a03b
000003c0: fc78 893e 877c 0bbe 37c0 a3bd 13f7 80bd
000003d0: 5e04 f03c b939 09be 5af3 10bd 0e0a 083f
000003e0: d336 07be c427 e7bd 1223 f03e e1e2 9d3d
000003f0: a4f1 d5bd 2568 ebbd 4039 0ebe 7f21 1fbe

main_model.hiddenlayer_2.weight f4 [256, 256]
0.092112124 -0.0037633346 0.008688762 -0.04336607 -0.037385516 -0.017715016 -0.052059095 -0.41176498
0.017022857 0.0014356379 0.048005156 -0.02045266 0.031467848 0.012206048 0.03283676 0.2377033
-0.28606755 0.04389984 -0.08133148 0.032727513 0.04743634 -0.44446054 -0.007570697 -0.07763204
-0.01798684 -0.046452694 0.051382862 -0.44353437 -0.0583677 0.054144334 -0.34059906 -0.51309097
-0.017316306 0.030076662 -0.16098973 -0.017402636 -0.014167907 0.7568818 -0.0177178 -0.02709247
-0.059697255 -0.06345131 -0.05261234 0.00045013073 0.03545784 -0.03708027 -0.2776346 0.014694867
0.02077522 -0.06300677 0.014645606 -0.015431695 -0.050668865 -0.37877578 0.049113717 0.0086516095
-0.50093424 -0.058496617 0.004377878 -0.045005634 -0.0113185635 -0.40426743 0.024270792 -0.011576538
-0.04676586 -0.010837711 0.013258087 0.033662632 0.002706877 -0.03700758 0.0037314533 -0.011608639
-0.020109197 0.3292287 -0.024398029 -0.77024263 0.050139755 -0.37653396 -0.2344376 0.0028755239
-0.43908924 0.10648049 -0.027952721 -0.07702082 -0.033926647 0.02057394 0.046594158 -0.028946865
-0.041175634 -0.03580279 -0.0521735 0.1457797 0.05810638 0.02544557 -0.03313634 0.05410684
0.032434102 0.06678721 -0.039152134 -0.05883433 -0.23784979 0.21342188 0.021770122 0.08376932
-0.04769958 -0.26982203 0.06915156 0.027609825 -0.039343923 0.059289448 -0.047886916 0.03590086
-0.013118319 0.033957195 -0.082250334 -0.010947273 0.036359593 0.05641307 0.0028762994 0.07428659
-0.074474216 0.056495056 0.046300247 -0.4084474 0.04702709 -0.5476773 -0.0022786143 0.04259621
-0.015695633 0.027331324 0.040192742 0.034883615 0.05371794 0.03097206 0.009821989 0.008832707
-0.00539656 0.07124034 -0.00066440913 -0.031439427 -0.031359393 0.02746107 -0.10843132 0.017338399
0.008500929 -0.016680492 -0.10067943 -0.010621099 0.034156583 0.09317311 -0.065201655 -0.03297596
0.016218781 0.03964337 -0.081549086 -0.029162608 -0.0512272 0.011376599 -0.03418998 -0.014705693
0.034591496 -0.045622304 0.0010801334 -0.05107295 -0.053903095 -0.38259962 0.09304683 0.025171364
-0.25693673 0.020984245 0.04622603 0.0005962901 -0.013035622 -0.056867305 -0.42279154 -0.01687271
-0.0052459077 -0.004734772 0.006104566 -0.09582218 0.043189954 0.039892606 0.02771374 0.03237265
-0.018753514 0.062115587 -0.046852972 0.061829858 -0.38486707 -0.071271166 -0.01336345 -0.061571937
-0.80877465 -0.015302034 0.04294195 0.14553866 -0.024822317 0.00380351 0.105470814 0.0029495284
0.014414643 -0.46098325 -0.486754 -0.0025152683 0.04720168 -0.041411065 -0.005606413 -0.07199984
0.01690418 -0.037186716 -0.00014284193 -0.19015029 -0.28884658 0.0069007487 -0.031596493 -0.050045464
0.0023376562 -0.0015004177 -0.031641345 0.0334216 0.012351774 -0.31434813 -0.120903246 -0.14665578
-0.5113202 -0.04765034 -0.05758567 0.005728613 -0.05803881 -0.057600524 0.07911445 -0.03632378
0.0140575655 0.03627143 0.36410415 -0.053314246 0.0072477544 0.052211568 -0.017986327 -0.079887785
-0.18965958 0.0661422 0.003861766 0.075786956 0.032800764 -0.017647352 -0.3519131 0.03742786
-0.08897711 0.02944413 -0.055583615 0.04246132 -0.0645881 -0.025091887 0.022272797 0.06010895
00000000: 48a5 bc3d 47a2 76bb 4f5b 0e3c 9fa0 31bd
00000010: 8e21 19bd 151f 91bc eb3b 55bd dcd2 d2be
00000020: 8573 8b3c 042c bc3a 0ea1 443d 568c a7bc
00000030: 6ee4 003d e0fb 473c d77f 063d 7e68 733e
00000040: 7277 92be 52d0 333d 1e91 a6bd 490d 063d
00000050: 9c4c 423d 5590 e3be 9c13 f8bb 8cfd 9ebd
00000060: 2359 93bc 2e45 3ebd d676 523d f016 e3be
00000070: f812 6fbd 73c6 5d3d 0063 aebe ee59 03bf
00000080: edda 8dbc 5563 f63c 7eda 24be f98f 8ebc
00000090: 8220 68bc 01c3 413f eb24 91bc 07f1 ddbc
000000a0: 1c85 74bd c3f2 81bd 0980 57bd 86ff eb39
000000b0: 3d3c 113d 7be1 17bd 1f26 8ebe bdc2 703c
000000c0: cb30 aa3c b209 81bd 20f4 6f3c 38d5 7cbc
000000d0: 288a 4fbd e6ee c1be 772b 493d 7bbf 0d3c
000000e0: 3a3d 00bf 269a 6fbd 4d74 8f3b d457 38bd
000000f0: 7f71 39bc 24fc cebe 8ad3 c63c 85ab 3dbc
00000100: 8f8d 3fbd a890 31bc 7338 593c d4e1 093d
00000110: dc65 313b 4395 17bd 668b 743b 2932 3ebc
00000120: 0bbc a4bc aa90 a83e 60de c7bc 9f2e 45bf
00000130: 585f 4d3d 0fc9 c0be 6910 70be 4973 3c3b
00000140: 4ed0 e0be 7112 da3d 1bfd e4bc 17bd 9dbd
00000150: abf6 0abd ae8a a83c 84d9 3e3d fa21 edbc
00000160: c8a7 28bd f2a5 12bd e1b3 55bd 4647 153e
00000170: f500 6e3d 3a73 d03c f9b9 07bd 229f 5d3d
00000180: 9fd9 043d bcc7 883d fd5d 20bd 44fc 70bd
00000190: e58e 73be 448b 5a3e 4157 b23c 408f ab3d
000001a0: a360 43bd 1d26 8abe 559f 8d3d 002e e23c
000001b0: 1827 21bd 7ed9 723d 1225 44bd c80c 133d
000001c0: 38ee 56bc b316 0b3d dd72 a8bd 315c 33bc
000001d0: cced 143d 6411 673d 4c80 3c3b 9123 983d
000001e0: f085 98bd 5c67 673d 54a5 3d3d 0520 d1be
000001f0: 7a9f 403d 9434 0cbf ce54 15bb 5d79 2e3d
00000200: 2194 80bc f1e5 df3c 25a1 243d 1fe2 0e3d
00000210: 5807 5c3d 1eb9 fd3c 68ec 203c 0fb7 103c
00000220: a0d5 b0bb 75e6 913d be2b 2eba a1c6 00bd
00000230: b572 00bd 0af6 e03c 3d11 debd 4209 8e3c
00000240: 7b47 0b3c 87a5 88bc 0431 cebd 1e04 2ebc
00000250: c6e7 0b3d 8bd1 be3d 7288 85bd cd11 07bd
00000260: 40dd 843c 1661 223d 3503 a7bd 6ce6 eebc
00000270: 9dd3 51bd ea64 3a3c cb0a 0cbd 26f0 70bc
00000280: d0af 0d3d 74de 3abd 4393 8d3a df31 51bd
00000290: 7ec9 5cbd 19e4 c3be 568f be3d 2d34 ce3c
000002a0: 368d 83be 27e7 ab3c 8157 3d3d 5a50 1c3a
000002b0: 5d93 55bc b1ed 68bd 2278 d8be a338 8abc
000002c0: dde5 abbb 2526 9bbb d008 c83b 6b3e c4bd
000002d0: f3e7 303d 6e66 233d ed07 e33c 2f99 043d
000002e0: f8a0 99bc ea6c 7e3d e7e8 3fbd 4e41 7d3d
000002f0: 4c0d c5be 9ef6 91bd 5ff2 5abc db32 7cbd
00000300: db0b 4fbf 62b5 7abc e6e3 2f3d 1608 153e
00000310: 2c58 cbbc 4f44 793b 1501 d83d e04c 413b
00000320: 652b 6c3c ff05 ecbe d237 f9be 33d7 24bb
00000330: 8c56 413d a69e 29bd 00b6 b7bb a774 93bd
00000340: a37a 8a3c 1951 18bd d7c7 15b9 c2b6 42be
00000350: b3e3 93be ad1f e23b 536b 01bd 79fc 4cbd
00000360: 5d33 193b aaa9 c4ba 5b9a 01bd 16e5 083d
00000370: 185f 4a3c 3df2 a0be 1f9c f7bd ef2c 16be
00000380: e1e5 02bf 012d 43bd f4de 6bbd 17b7 bb3b
00000390: 1aba 6dbd 87ee 6bbd c206 a23d 3ec8 14bd
000003a0: b451 663c 5a91 143d dc6b ba3e 0a60 5abd
000003b0: 927e ed3b ccdb 553d 1058 93bc 359c a3bd
000003c0: 1f36 42be 9075 873d af15 7d3b 3136 9b3d
000003d0: 185a 063d 2e91 90bc f42d b4be f54d 193d
000003e0: a239 b6bd d134 f13c a5ab 63bd eceb 2d3d
000003f0: c446 84bd 808d cdbc 7175 b63c cd34 763d
