DQN/DQN_complete/save/main_model_000232.pth (torch_old, 809026 bytes, 10 tensors)

main_model.InputLayer.weight f4 [256, 7]
00000000: c8f9 03be d72a d6bd ca5e 07be a12f 3cbe
00000010: 0ff2 f7bb d2ed 67bf 5069 99bd 7753 823e
00000020: 14ae 28bf cf3f 51be 46c8 9237 cb1c bc3c
00000030: 6d91 febf 06f6 aabe caba cbbe e120 37bf
00000040: b3ed b0bd a765 28be c730 873e 6bf8 b93c
00000050: 07ae 803e ff9f 1fbd 7af3 98bd ebf1 68be
00000060: 6d22 41be 3fb0 b1ba 66c9 eebe 2631 58be
00000070: e924 41bf 324e aa3e 2a2e c7be 1889 403e
00000080: 0427 84bd 8c7c 1fbf 121c 1e3e a2bc c63d
00000090: 86d1 853e c421 b6bd 98b6 aabf b68e 33be
000000a0: 23ef 35bf e2f4 793e 929d 8fba 43a4 cebe
000000b0: 24a5 f9bd 0b22 d5bd 3ebe 66be 1f6d 66bf
000000c0: 79ae b93e 92d1 2e3e 7a60 0fbe ba50 5a3e
000000d0: 6bf8 543e 7f11 b3be 64b2 55be 4057 5cbc
000000e0: 2970 98be 3885 a4be a5f5 d03c d0d4 293e
000000f0: ba2f 1bbe 2f18 ac3f 7b4a 2cbe fa45 bb3d
00000100: c9e1 813e ab14 7dbd 8005 553e f473 093e
00000110: 5a8c 4ebc 47fe a13e 8d87 ef3d a4ff 593e
00000120: 561a 95bd ce2d 81bb ee52 63be 5116 f13e
00000130: 017d 843e 2d12 b3be 44d1 833d ae7e 29be
00000140: ac48 c0be 7dde 533d ded8 a13e 2db8 a03e
00000150: 455f 37bf bbf4 89bf 22e5 25be 8803 883e
00000160: 423d 7abe 324e 193e 9880 68be 2990 093e
00000170: 37cb 11bf 4ca9 3fbf 5f89 283e 5d22 e8be
00000180: 0d85 f23e e8c7 683d 5aa9 36be 3435 d13d
00000190: e076 b1be 001c 353c f842 9ebe de6e 083e
000001a0: b06c 84bc 73bd 12be dd1b dabf f561 283e
000001b0: 7a37 033c aa71 9c3b ec26 c83d 9a3c aebe
000001c0: 1f76 cfbd 0ac9 a4bd f446 8bbe dc89 f8bd
000001d0: a3a3 013d 0c11 e43d 5847 8d3d c43e 373c
000001e0: 5b3a 60be 72e4 39be 4892 a13b fa6a b2bc
000001f0: bd7d 0fbe f8db 133d 8a3e ad3c 96b9 77be
00000200: fd7e 313d eb56 0cbe 07cd 77be b684 efbf
00000210: 7095 cf3c 4f66 85bc ce5f 2b3d bd46 36bd
00000220: 6722 bbbd cfbb 79be c353 d03b e2f1 5f3e
00000230: 8a85 1abe f03b 78be e0be 44be 493f 46be
00000240: 78d8 3e3d 5834 80be 94f1 9c3d 2b39 49be
00000250: 0c60 91be 00f7 173d 0890 76be 00aa c83b
00000260: b816 bebd 5363 a93e 2421 79be f37d 5d3e
00000270: 86e1 26bd 65fc d63d 512a 92bf d6a9 04bf
00000280: 1b10 8b3e ec70 89bd 82fd bcbd 9d24 523d
00000290: 1b60 25be 7f54 5dbe 27ef f23e 52ee 193e
000002a0: 2070 ce3d 4035 6abf cbd9 bebe 029e 0abf
000002b0: da90 96bd da06 d1bd 9102 ab3e 6949 83be
000002c0: 4402 0039 b702 833c c617 3ebf abb2 493e
000002d0: d52d 5bbf 74c1 fd3d 6521 c4be 5585 1f3d
000002e0: 9e64 2f3e 38d5 47bf cb94 3fbe b10d 9c3e
000002f0: 2b40 b83e dcc5 39bb 8c24 5dbd 897b 31be
00000300: 5f7f 5ebd 4f04 f4be 94c9 99be 44be e9bd
00000310: deb0 6dbc f585 15be 558c 8c3e cf18 4cbf
00000320: d918 16bf d9db 083f 7864 783d 17db 833e
00000330: 2172 5bbe 86db 42bd d829 503e 4804 8a3d
00000340: ff7d 08be 5f20 1abe 3a66 7bbe 4dc5 fabd
00000350: 1bac a3bd c532 64bd 25bd 14bd 9af6 2a3f
00000360: a4de 9fbe ee5a 833e d9b2 86bd 9427 19bf
00000370: a01b 76bf 5060 0cbe 4b13 bc3d 9d1c babe
00000380: d160 dbbe 00b0 3a3d e642 793d 94d5 d5be
00000390: cbe4 8ebe 19ac 75bf 1eb9 613e 69a6 b3bd
000003a0: 45ba 383e 1acc b6be 93b1 0fbd 3a05 7cbd
000003b0: f0e2 5ebe 1006 9f3c fe39 0c3d 89c6 79be
000003c0: 8ccc b8be edd0 39be e46c 23be a277 df3c
000003d0: f0d4 dfbc 22ac 1ebf 0733 2bbf 1ae5 813e
000003e0: 2557 12bd 093e 96bd 40d9 fcbf 05de 53be
000003f0: 660e 9abe 5651 a03d 6285 7fbc df56 d13d
-0.12888253 -0.1045739 -0.13219753 -0.18377544 -0.0075666974 -0.9059726 -0.0749079 0.25454304
-0.6589062 -0.20434497 1.7497816e-05 0.022962948 -1.988813 -0.33390826 -0.39790946 -0.71534544
-0.086390875 -0.16445027 0.26404402 0.022701463 0.25132772 -0.038970944 -0.074683145 -0.22748534
-0.18860789 -0.0013556554 -0.4663803 -0.21112499 -0.75446945 0.33262783 -0.38902408 0.18802297
-0.06452754 -0.6229942 0.15440395 0.097039476 0.26136416 -0.08893159 -1.3336973 -0.17534909
-0.7106802 0.24409822 -0.0010956994 -0.40359697 -0.12189701 -0.10406884 -0.22533509 -0.90010256
0.36265925 0.17072132 -0.14001647 0.21319857 0.20797889 -0.34974286 -0.20868832 -0.013448536
-0.2977307 -0.32132888 0.025507757 0.16585088 -0.15154925 1.344488 -0.16825287 0.09144206
0.25367573 -0.06178729 0.2080288 0.13423139 -0.012606705 0.3163931 0.11695776 0.21288925
-0.07280414 -0.003942228 -0.22199604 0.4708734 0.2587662 -0.34974805 0.064363986 -0.1655223
-0.37555444 0.051725853 0.3161077 0.31390515 -0.71629745 -1.0777811 -0.16200688 0.26565194
-0.2443743 0.14971235 -0.22705305 0.13433899 -0.56950706 -0.748677 0.16458653 -0.45338717
0.47367135 0.05683127 -0.1783804 0.10215226 -0.34661007 0.011054039 -0.30910468 0.13323542
-0.016165107 -0.14330082 -1.7039753 0.16443618 0.008008832 0.004774292 0.09773049 -0.3403061
-0.10129952 -0.08046158 -0.2720257 -0.121356696 0.031650197 0.11136064 0.06898373 0.011184398
-0.21897261 -0.18153551 0.004930768 -0.021779526 -0.14012809 0.03609845 0.021147985 -0.24191889
0.043333996 -0.13705032 -0.24199305 -1.8712375 0.025339812 -0.016284136 0.041839413 -0.044501055
-0.09137421 -0.2438805 0.0063576414 0.21869615 -0.15090004 -0.24241614 -0.19213438 -0.19360079
0.04659316 -0.25039935 0.07663265 -0.19650714 -0.2839359 0.037100792 -0.24078381 0.006123781
-0.09281677 0.3308359 -0.24329048 0.21630077 -0.04074242 0.10497359 -1.1419164 -0.5182165
0.27160725 -0.06710991 -0.0922804 0.05130445 -0.16149943 -0.21614264 0.47448084 0.15032318
0.1007998 -0.91487503 -0.37275538 -0.5414735 -0.07351847 -0.10206385 0.33400396 -0.25641945
0.00012207875 0.015992505 -0.74255025 0.19697063 -0.8561681 0.12390414 -0.38306728 0.038945515
0.17128226 -0.7805972 -0.18709104 0.30479196 0.35986456 -0.0028346693 -0.053989932 -0.17332281
-0.05432069 -0.47659537 -0.30036604 -0.114132434 -0.0145075 -0.14601882 0.27450815 -0.79725355
-0.58631665 0.5346046 0.06064269 0.2575309 -0.21430255 -0.047572635 0.20328462 0.06739098
-0.13329314 -0.15051411 -0.24550715 -0.122446634 -0.07991811 -0.05571248 -0.036313195 0.66782534
-0.3122455 0.2565531 -0.06577081 -0.59826016 -0.961359 -0.13708615 0.09183367 -0.36349955
-0.42847303 0.045578003 0.060854815 -0.4176451 -0.2790893 -0.95965725 0.22043273 -0.087719746
0.18039806 -0.35702592 -0.035081457 -0.061528422 -0.21766257 0.01941207 0.034234993 -0.24392141
-0.36093557 -0.18146105 -0.15959507 0.027278725 -0.027323216 -0.61981404 -0.66874737 0.25370103
-0.03572764 -0.07336051 -1.97538 -0.20690162 -0.3008911 0.078280136 -0.015595766 0.102216475

main_model.InputLayer.bias f4 [256]
00000000: 0b18 ecbe 6048 7cbe ae25 a4bc 6b04 0abf
00000010: 97f0 9bbb 52ff 7d3e 6879 d4bd 4150 05bf
00000020: b119 56bd dc07 44bc 1a76 ebbd 030a 953e
00000030: c15c 5fbe ac67 91bd e891 8abe 8a40 2c3d
00000040: 0dfb b73d 3026 d3bd 4e5c febc 7b30 1cbd
00000050: f50a 64b9 1810 c23e 1f2a 89be 32c9 03be
00000060: fcb9 ec3d 4480 82bb 32a4 adb9 6d51 5dbe
00000070: 85d6 543e 4014 d5bc 3105 a2bd 5cc3 4cbd
00000080: f86e 64be 9485 32bd 9cc9 263e da2f 81be
00000090: 7171 a2bd fe39 23bc 4f9a 79bd b699 03be
000000a0: c86f 2cbd 3402 bfbd 6f89 4ebe 8446 7abd
000000b0: 5512 e7be b609 7dbe a7a0 b0be d1ca e3bb
000000c0: 527b 14bc fde2 913d fefd 15bc 4730 5ebe
000000d0: 4638 42be 03a8 a6b9 2743 073e 4e76 3ebc
000000e0: 3884 00be a27d 8dbe ac31 febc f0c4 b9bd
000000f0: 4c8e 8f3e 7682 a3ba 0d14 10be 90b6 cbbd
00000100: 4e57 53bc ebe5 a8be c7cd 0dbe 7a1c 94bd
00000110: cc2d 95be 6702 4dbe 128b ba3e 69a8 acbd
00000120: b06f 98be 2991 99bc 40df e3bd 61a2 eebe
00000130: cab6 40bd 71ce b1bd d61f fcbc b154 9abe
00000140: d798 00be 3d09 44bd 3bb1 6cbd e423 c2bd
00000150: ecce 03be 52d6 c8be 7976 4b3e dac2 46be
00000160: 15f8 2fbd dced b4be 2bb4 0fbd 03fc 6f3d
00000170: bd4c 55bc 15bf 76be 04bc 09be 0676 15bc
00000180: d33e c9bd abc7 08bc d2a4 4abe 4897 173d
00000190: a09d 0bbf f8d7 333e 0203 bebd bc0e 873e
000001a0: a286 f2bd 6872 7c3d fdfd 2dbc 2f71 e53d
000001b0: 7846 2bbb 798f 18be 7c3f 383e b3fb efbd
000001c0: b5f8 3ebf 74af 00bf 8f42 3dbd 26c2 9bbf
000001d0: 72e6 9fbd 55c3 cdbc acee e1be 807c 6fbe
000001e0: 209b 34bd 2c09 14bf b974 10bd 4fbd 693d
000001f0: 4b17 a0bf cd13 6bbd d253 b8be a709 7cbe
00000200: 73a6 abbb 48eb 9c3e 5cc0 a33e 6952 65bf
00000210: 0d12 1bbc 3314 69be ddd6 6e3d 6599 14bd
00000220: 2d4c adbe 0155 843e fa48 0fbd 0908 a43e
00000230: ef18 cfbe 7ecc d4bd c482 05bc db13 79be
00000240: ecc0 10bd c35b 6ebe 3980 8b3e 9d04 893e
00000250: ffe0 e8bb 5c5f 24bb 6868 c4be 3e87 b2be
00000260: bec4 c2be b86e 40bd 28b6 3cbe 46fc 87bd
00000270: 8171 533e e03b acbd 56bf 2fbe aceb dbbd
00000280: 4aa4 74bd 61d1 833a 5ca2 243b 3330 7c3e
00000290: 912e 15be 3432 aabb 054a a1be 63af aebb
000002a0: 3883 babd 13f2 883c 582c b63e 2a02 b0be
000002b0: 070f d4bd 7cf7 d6be f73e 5bbe 2359 c3ba
000002c0: 497e 12be f694 5abe f78b d1bd f6d3 a63e
000002d0: 85b5 0ebd a7bf c53b 6da8 6d3e 8162 68bd
000002e0: c6a6 d5be b5e6 a13e 01b0 053e 8b41 babe
000002f0: b579 8d3e c4e9 d4bd d293 b5bd f948 6239
00000300: 13f5 cebd 4b85 ae3e 842c 263d da1b 8abe
00000310: 70e9 793e 2ca9 6a3d ea5b 93be 2c79 793d
00000320: 4eb1 25bf 06b3 e03e 1a59 9fbd ad90 46bd
00000330: 0205 89be 9480 8dbf b15d febe d242 3abe
00000340: f4e7 38be 4934 06bf 789a 593b 4c0b 4cbc
00000350: 0d61 bfbe 54d0 37be dd3c e6be c1a5 eebe
00000360: aa92 10bf efe9 16be 815d 2bbb 23ef 67be
00000370: 81cc 12bd 95c3 85bf 5f4e 25be bcc3 523e
00000380: e907 d73d 194e 1cbd a754 9fbe cb64 69be
00000390: e390 6e3e 4b95 75bd ca9c 72bd 8a3a b9bd
000003a0: 318b 01be d116 843b 259e fb3d 5bb6 0c3e
000003b0: d11b 05bd c0ef 0cbe 7bc5 acbd dc7f b5bd
000003c0: e4c7 ecbd f012 88be e600 f7bc e095 323e
000003d0: 758f 84b9 74fd e8bd f9b2 5ab9 7edb 49bd
000003e0: 41be fdbc e410 40bd de42 b7bd 2280 4abe
000003f0: 5793 99bf 91fd f5be 6317 e7be 5694 633e
-0.46112093 -0.24636984 -0.020037498 -0.5391299 -0.004758905 0.24804428 -0.10374719 -0.5207558
-0.052270595 -0.011964764 -0.114971355 0.291092 -0.21812727 -0.07099852 -0.27064443 0.042053737
0.08983431 -0.10310018 -0.031049874 -0.038132172 -0.00021747856 0.37902904 -0.26789948 -0.12869719
0.11558911 -0.0039825756 -0.00033119466 -0.21613093 0.20784958 -0.026010633 -0.079111464 -0.049990997
-0.22307956 -0.04358442 0.16287845 -0.2523182 -0.079317935 -0.009962557 -0.060938176 -0.12851605
-0.04209879 -0.09326592 -0.20169614 -0.061102405 -0.45131174 -0.24710736 -0.34497568 -0.006951668
-0.009062605 0.07123373 -0.009154795 -0.21698104 -0.18966779 -0.00031787166 0.1320921 -0.011624886
-0.12550437 -0.27634913 -0.031029545 -0.09070766 0.2803825 -0.0012474793 -0.14070149 -0.099469304
-0.012899233 -0.32987913 -0.13848029 -0.07231994 -0.29136503 -0.20020448 0.36434227 -0.08430559
-0.2977271 -0.018745976 -0.11126566 -0.4660826 -0.04704932 -0.08681954 -0.0307769 -0.3014274
-0.12558304 -0.047860373 -0.057786208 -0.09479502 -0.12871903 -0.39226013 0.19869412 -0.19410267
-0.0429612 -0.35337722 -0.03508393 0.058589946 -0.013018784 -0.2409633 -0.13450629 -0.009122377
-0.09826436 -0.008348386 -0.19789436 0.037009507 -0.5453739 0.17562854 -0.092779174 0.2637843
-0.118420854 0.061632544 -0.010619638 0.11203229 -0.0026134532 -0.1489848 0.17992967 -0.1171793
-0.74598247 -0.5026772 -0.046206053 -1.2168624 -0.07807626 -0.025117556 -0.44127405 -0.23387337
-0.04409325 -0.57826495 -0.035267565 0.057065304 -1.2507108 -0.05739193 -0.3600145 -0.24613057
-0.005238348 0.30648255 0.31982696 -0.8957887 -0.009464753 -0.22761612 0.05831038 -0.0362791
-0.3384718 0.25846103 -0.034981705 0.3203738 -0.4044871 -0.10390566 -0.008148853 -0.2432398
-0.035340235 -0.23277192 0.27246264 0.26761332 -0.0071068997 -0.0025081253 -0.38360906 -0.34868807
-0.38040727 -0.04698059 -0.18428862 -0.06639914 0.20648767 -0.08409858 -0.17162833 -0.1073831
-0.05972699 0.0010056907 0.0025121188 0.24627762 -0.14568545 -0.005193973 -0.31501785 -0.0053309663
-0.09107059 0.016716992 0.35580707 -0.3437665 -0.10354429 -0.4198569 -0.21410738 -0.0014903884
-0.14305986 -0.21345887 -0.10231774 0.32583588 -0.03484108 0.0060348096 0.2320878 -0.056734566
-0.417288 0.31621328 0.13055421 -0.3637813 0.27631918 -0.1039615 -0.08866085 0.00021580224
-0.10105338 0.3408607 0.040569797 -0.26974374 0.24405456 0.05729024 -0.28781062 0.060906574
-0.6472367 0.43886584 -0.07780667 -0.048477817 -0.26761633 -1.1054864 -0.49680856 -0.18189552
-0.18057233 -0.5242353 0.0033203643 -0.012453865 -0.3737873 -0.17950565 -0.4496831 -0.46610835
-0.5647379 -0.14737676 -0.0026148262 -0.22649817 -0.03583956 -1.0450312 -0.16143177 0.20582479
0.104995556 -0.038160417 -0.31119272 -0.22792356 0.23297457 -0.05995683 -0.059231557 -0.090443686
-0.12650754 0.0040310402 0.12286023 0.13741438 -0.03249723 -0.13763332 -0.08436104 -0.08862278
-0.115615636 -0.26576948 -0.030151796 0.17439985 -0.00025283886 -0.11376467 -0.00020856773 -0.04928159
-0.03097451 -0.04689111 -0.08948301 -0.19775441 -1.199809 -0.48045018 -0.4513503 0.22224554

main_model.hiddenlayer_0.weight f4 [256, 256]
00000000: 75bb 0ebd 2c8d e0bd c826 9cbd 2bcc 39bd
00000010: f7b0 bb3b ebc9 babd a2a0 c5ba 012a 86b9
00000020: d1ff 99bd 7bb2 7cbd 66cb 92bd de1e cc37
00000030: f0cd d23b 3421 c6bd 0219 663d 65b9 64bd
00000040: b375 933c 551d f9bc a417 553c 7f4d c7bd
00000050: 58c2 c53c 0135 88bc 801f c13b 6b50 d5bd
00000060: 67ef 063c 7121 39bd 3c35 de3a 20ec 94bd
00000070: 6271 93bd 6c0f 55bd aa61 713b fa56 5abd
00000080: 5232 0fbd e2f5 aabd bc76 12bd ae98 d9bc
00000090: c05d e5bc fd79 0dbd 1193 9ebd a80f 1d3c
000000a0: 5906 1cbd d948 92bc 757c a0bb 9bc0 b3bc
000000b0: 9465 4cbd f6fa 443d 4e89 88bd 3bf4 92bc
000000c0: ea6a 67bd 1907 eb3c c2bb 213d 171a 813c
000000d0: de3c 3e3c 67eb edbd 1a92 bfbc 8ec5 40bd
000000e0: 80f4 3439 6011 32bc a598 6ebd e7a2 9bbc
000000f0: 0c96 5bbd 3152 efbc d6f5 93bd db29 e13c
00000100: d6db b1bd 08ce 4c3d 8013 f33b 8c08 e1bc
00000110: 00d5 1fbb 7619 92bd 91a7 9dbd c8f4 afbb
00000120: 0800 7bbc 40a6 a4bd 2cea b3bc 8fee 96bd
00000130: 4d28 d9bc d788 ba3c 5a57 a4bd ffed 1abd
00000140: 999f 08bd 81e5 d9bc ee9e 3fbd 001f 233b
00000150: 01e6 89bd 76e8 8fbd b115 9dbd 0a3d bcbd
00000160: 5685 d0bc b62f ebbb 071d 1a3b 84da 44bd
00000170: 4e0a 2c3c e3da a93d 0100 91bd 7bd2 10bd
00000180: 3be3 aa3c 009d b6bd 78cb 58bc a425 46bd
00000190: 58f1 953c 5eef aabd 9eb5 02bd b16e 8fbd
000001a0: 8b4e d63b 087d 9cbd c831 43bd 7f43 aebd
000001b0: 5cad 8fbc 22ad 3d3c 10a6 9e3c e5e3 0c3d
000001c0: 78f1 9e3c ba53 443c e919 83bd 8339 a2bd
000001d0: b6e4 d63b e426 f4bc d574 a5bd e4a8 1fbd
000001e0: e035 d7bc 26bb d2bd 756b b9bd 620f 88bd
000001f0: d595 5dbd 354b 42bc 56a3 b9bd 6bff 7ebd
00000200: 1985 6a3c 7573 39bc ca58 32bc c763 d0bd
00000210: 31c1 11bd 206b 0a3c 7b61 96bd 5864 173c
00000220: 169f 19bd a89c 9abd 902e 1e3c 27c8 963c
00000230: 20f8 1abd fbbe 153d 9a8d 80bd 9d7b cebc
00000240: ac02 7abd d84e 07bd 3831 8cbd 7a68 27bc
00000250: 343f e3bc f898 273c e65c 243c 4760 8dba
00000260: 8b76 28bd 3b91 c1bd 72d0 5b3c a4da 103c
00000270: c5fb 41bd df46 19bc e736 e9bd 160b efbd
00000280: e7a2 d7bb 8cc1 cf3c 149d d0bc 382a fcbc
00000290: b2aa acbd b771 6bbd cab7 9d3c 8268 4bbd
000002a0: 1246 75bd fd1e 82bd 628e e7bc eaf7 4abd
000002b0: 4692 aebd 7753 ef3a a85b 9bbd a54c bfbc
000002c0: 5781 20bd 0b7a 6cbd fcc6 b6bc 030d 43bd
000002d0: 682d f8bc c6ac d93c 0b90 273c 6038 91bd
000002e0: 1416 4ebd 3cf5 24bc cf52 f1bc 05b0 2fbd
000002f0: f6cb 50bc 3812 df3c dbd6 bbbc 40eb 813b
00000300: 46ea a8bd 066d 3cbc 8e69 84bd ca6c 63bd
00000310: b967 32bb 874d 54bd 4a58 483d 0203 0ebd
00000320: d090 0fbc f11d e93c f42d a3bd 160d 88bd
00000330: c213 7e3d eed3 9bbd 5bbe 0e3c fc7b 2a3d
00000340: 886b 6dbd 8245 fb3c 670c 81bc 629f 03ba
00000350: b23f 9bbd 5c44 72bd 20ba ed3c b193 56bd
00000360: 2301 48bd d424 9fbd c1ce 0cbd 2721 bb3c
00000370: 0464 abbd e6db 33bd f280 66bd ac8f b4bd
00000380: a39a e23c b2dd eabc cc27 abbd 65a8 c63c
00000390: 8787 c7bb 80d4 32ba 3da0 b9bd 32a1 80bd
000003a0: f27c 9ebd 9a66 d93c 5dac b1bd 5360 0ebd
000003b0: 5c58 9bbd 81c5 cc3c 10a9 55bd b856 043c
000003c0: 467f 293d 407b f43c 9957 a7bd 0264 523b
000003d0: c72b cabc 0a49 96bd 7e6b 1abd 03e6 98bd
000003e0: 6b8a 8abd 4cd2 a6bd c680 41bd 024b b4bd
000003f0: 5065 67bd fcec 70bb 51a2 e0bb 4114 92bd
-0.03484674 -0.109644264 -0.076245844 -0.045360725 0.005727883 -0.09120544 -0.001507778 -0.00025589767
-0.07519496 -0.06169365 -0.071677014 2.4333069e-05 0.006433241 -0.09674302 0.056176193 -0.05584087
0.01800046 -0.030409494 0.013006125 -0.09731578 0.024140522 -0.016626837 0.0058936477 -0.10415729
0.008235789 -0.045197908 0.0016953121 -0.072716 -0.071993604 -0.05201666 0.0036831894 -0.053305604
-0.0349601 -0.0834768 -0.035757765 -0.026562061 -0.027998805 -0.034540165 -0.077428944 0.009586252
-0.03809199 -0.017857002 -0.004897649 -0.021942427 -0.04990156 0.048090898 -0.06666814 -0.017938724
-0.056498446 0.028689908 0.0394857 0.01575951 0.011611192 -0.11617165 -0.023385096 -0.047063403
0.00017257221 -0.0108684 -0.058251042 -0.018998576 -0.053609893 -0.029213997 -0.07224624 0.027485779
-0.086845085 0.050001174 0.007418096 -0.027469896 -0.0024388433 -0.071337625 -0.076979764 -0.0053697564
-0.015319832 -0.08039522 -0.021962248 -0.0736972 -0.026508475 0.022770328 -0.080244735 -0.037824627
-0.03335533 -0.026598694 -0.046782427 0.0024890304 -0.06733323 -0.0702676 -0.07670153 -0.0919133
-0.025454205 -0.0071773184 0.0023515837 -0.048059955 0.010500504 0.082937025 -0.07080079 -0.03535698
0.020860305 -0.08916664 -0.0132321045 -0.04837574 0.018303558 -0.08346437 -0.031911485 -0.070035346
0.006540125 -0.07641035 -0.047654897 -0.085089676 -0.017538719 0.011576923 0.019366294 0.034397025
0.01940225 0.011982853 -0.06401426 -0.07921126 0.006558026 -0.0298037 -0.080789246 -0.038979426
-0.026270807 -0.10289602 -0.09053699 -0.06643559 -0.05409797 -0.011858751 -0.09064357 -0.062255304
0.0143139595 -0.011319031 -0.010885427 -0.10175281 -0.035584632 0.008448392 -0.07342812 0.009240232
-0.03750523 -0.07549411 0.009654656 0.018405987 -0.037834287 0.036559086 -0.06277008 -0.025205428
-0.061037704 -0.033034176 -0.06845325 -0.01021778 -0.027740099 0.010229342 0.010031914 -0.0010786139
-0.041128676 -0.09451529 0.013416396 0.0088411905 -0.047359247 -0.009355276 -0.11387425 -0.11672036
-0.006580699 0.025360845 -0.025465526 -0.03078185 -0.08430995 -0.057481494 0.019252677 -0.049660213
-0.059881277 -0.06353567 -0.028266136 -0.049552836 -0.08523993 0.0018259127 -0.075858414 -0.023351977
-0.039185848 -0.057733577 -0.02231168 -0.04761983 -0.030295089 0.026571643 0.010227214 -0.07090831
-0.050314024 -0.010068234 -0.029458432 -0.042892475 -0.012743941 0.027230367 -0.0229296 0.0039648116
-0.08247809 -0.011500603 -0.064654455 -0.05552367 -0.0027222468 -0.05183175 0.048912324 -0.034670837
-0.008762553 0.02845666 -0.07967749 -0.06643121 0.06203056 -0.07608782 0.0087123765 0.041622147
-0.057963878 0.030672792 -0.015752984 -0.00050210033 -0.07580508 -0.059147224 0.029019415 -0.052386943
-0.04882921 -0.07770696 -0.034376863 0.022842957 -0.08368686 -0.043910883 -0.056275316 -0.08816466
0.027661627 -0.028670166 -0.083572 0.024250219 -0.006089154 -0.0006821826 -0.09063766 -0.062807456
-0.07738675 0.026538182 -0.08675454 -0.03475983 -0.075852126 0.024996521 -0.052163184 0.008077316
0.041381143 0.029843926 -0.08171005 0.0032103066 -0.024679078 -0.0733815 -0.03770017 -0.07465746
-0.067646824 -0.0814558 -0.04724195 -0.08803369 -0.056493104 -0.0036762347 -0.006855287 -0.071327694

main_model.hiddenlayer_0.bias f4 [256]
00000000: e6f6 a53c d89f f8bd 1ebe dfbd c8b0 b43c
00000010: 75c1 3bbd a93a 503d 1154 c9bc d0cf 26bd
00000020: 44bd 4a3e df6c e0bd 080d ba3c e50b 0dbd
00000030: b0fd 42bd 72bc 28bc a768 0bbd d631 8dbd
00000040: aded cabd 5efd b4bd 51c9 9ebd 93db 74bd
00000050: 8fd6 efbd 8e6a babd 797b 32be 164d 83bc
00000060: 4215 15bd a3ac cc3c 4d0a a0bd e202 a03c
00000070: e7e6 55bd 2613 b8bd 0a18 7dbc 904f 4ebd
00000080: 6269 68bd 865c 4abe 03ed 773e d28e 77b9
00000090: d896 c23b 8866 20bc 4fc3 e7bd 9821 8abd
000000a0: 3529 643c d641 693c 3124 203c 44f8 0f3e
000000b0: 5d2d 983f 10cd 0dbe ba4b 8abd 3dfd c1bd
000000c0: aae8 b1bd a52f 073d dc8b 18bd 58b5 8b3c
000000d0: 85b7 92bc 0d8d 53bd 00f2 babd 220b 2c3f
000000e0: 531a 863c 881e a4bc 502c d73d e3ba cfbd
000000f0: dd09 4dbd 408e 0a3e c3bd 3dbd fd6c 193d
00000100: 4179 d9bd 3611 08bd 7bd3 fcbc 5b4d e1bd
00000110: 0149 05be 0447 2dbd 7fa1 eebd 6530 c8bd
00000120: 3b7e 3e3c 026d 02be 1908 cdbd 13f4 45bd
00000130: 1d36 5fbd 97e2 38bd b781 683d a7e7 86bd
00000140: 75d8 d3bd 31aa ea3d 4e19 d8bd cafa 803b
00000150: b62f d43b 6660 343e 6f4f 603b bd38 113e
00000160: 8d97 62bd 1740 063f 4169 963d 6106 c4bb
00000170: b7fc c4bd 8778 7abd fc40 223c f6e3 77bc
00000180: a5b9 d5bc facf f3bc 1251 bbbc c747 12be
00000190: a19e 4cbc f1ba 38bd 3004 02be c5f4 3ebd
000001a0: 2e95 b3bd e84b d63b cefd 11bd a872 d1bd
000001b0: 59ec 8bbd f6b5 863c 921c dabd f40c 5abd
000001c0: 58c0 23bd 6683 93bd 0172 083f 2bd9 3e3d
000001d0: 2064 12bd a134 3fbd c527 94bd e34f a4bb
000001e0: 9a08 07bc fe09 9a3c b09a 983a 7340 03be
000001f0: 692b 5fbd 4141 8fbc ff1a e63e 48de 08bd
00000200: 68ed c33c e1db 01bd 751b 3c3c 04d8 6cbd
00000210: 2a93 edbc 9357 d23d e635 82bd dcbe b1bd
00000220: d62a 00bd 8772 343a 63db 2fbd b53f c2bd
00000230: af56 9dbc e6b2 943d b576 663f 7573 47bd
00000240: 5e6f 873e 9856 01bd d9aa 91bc cde1 ae3e
00000250: c3e3 4dbe ddc5 82bd 1dbe 043d 0c41 1fbd
00000260: a281 f03e 2fd4 94bd 43ad f8bd 2155 c2bd
00000270: 6778 59bd f51e ef3c b575 fbbd efaa 06bd
00000280: 5c3f 9ebd b604 b3bd 452b abbd 1758 1ebd
00000290: 0c0c b8bd b942 4cbd 258a 1c3e e79d dfbd
000002a0: 16d8 1d3e 5fb3 4e3c e836 4ebe 8e47 963b
000002b0: 4c4f 81bd 7b7e 3abd beb9 5bbd 3ea4 f33b
000002c0: 5daa 523c b326 f73c 68f9 b4bd a6ad a1bd
000002d0: 2d32 3c3e ca3f 143e fd10 87bd a2e6 58bd
000002e0: 66c2 4cbd 52a5 fbbc e56d 04be 59c0 4abd
000002f0: 39ab 8dbd be50 91bd 362f 95bc eee1 863f
00000300: c141 bb3d 7e09 393d fcb5 8bbd 57b9 4b3d
00000310: 11e8 3f3b 01d2 15be 82e7 e9bd 1a14 7bbd
00000320: 3aef 40bc 12d6 47bd 9fc0 483e cd3a 293a
00000330: 31a1 abbd 8da3 273e 8adb 023d addb e2bd
00000340: 761c 8ebd a1e3 c4bc 07f1 c23f 283e bcbd
00000350: 72d2 f33d d8e2 6dbd bd61 4dbd 6b2d f13c
00000360: ec3a d63d 9ddd 033e 9d6c c9bd 678e f03e
00000370: 5d5f 74bd 1dd7 ddbd 7df4 0fbd 8a91 88bd
00000380: f438 0cbd 9075 5038 57fd 20bd e6bd e83b
00000390: f2a2 a43c 5f5b 28be b7d9 3abd 6664 d0bd
000003a0: 2fc7 9ebd 5420 94bd 6789 b0bd ae8f 883c
000003b0: 467b c4bd 7c9e d2bb 48d8 afbd b232 0b3d
000003c0: f568 42bd 3726 62bd c74d 42bd 2eaf 83bd
000003d0: 7a66 71bd 5ce1 32bd 57ea c1bd 5dd0 f73c
000003e0: f0c6 f63d 33e9 fdbc e5ca 86bd 3e42 5dbd
000003f0: d68d 36bd a2d2 c6bd 6de2 00be c14b 333d
0.020259332 -0.12139863 -0.10924934 0.022056952 -0.045838792 0.050837193 -0.024576219 -0.04072553
0.19798762 -0.109582655 0.022711292 -0.03443517 -0.047605217 -0.010298835 -0.03403535 -0.06894271
-0.09908614 -0.088373885 -0.07753242 -0.059779715 -0.11710846 -0.09102355 -0.17429914 -0.016027968
-0.036397226 0.024984663 -0.07814465 0.019532625 -0.05222216 -0.08988027 -0.015447626 -0.050368845
-0.056741126 -0.19761857 0.24211507 -0.0002360896 0.005938392 -0.00979007 -0.11316549 -0.06744689
0.01392584 0.014236888 0.009774254 0.1405955 1.1888844 -0.13847756 -0.06752725 -0.094721295
-0.08686955 0.03300442 -0.037242755 0.017054245 -0.017909775 -0.05164819 -0.09128189 0.6720449
0.016369974 -0.02003409 0.10506499 -0.10143068 -0.050058234 0.13530827 -0.04632355 0.037457455
-0.106188305 -0.03321954 -0.03086256 -0.110010825 -0.1301613 -0.042304054 -0.11651897 -0.097748555
0.011626775 -0.12736896 -0.1001131 -0.04832847 -0.054494966 -0.045137968 0.05676433 -0.06587153
-0.1034402 0.11458243 -0.105517015 0.0039361464 0.006475414 0.17614898 0.0034227034 0.141818
-0.05532031 0.52441543 0.07344294 -0.0059822057 -0.09618514 -0.0611501 0.009903189 -0.015130034
-0.026089499 -0.029762257 -0.022865806 -0.14285193 -0.012488992 -0.045100156 -0.1269691 -0.04662015
-0.08768688 0.0065398104 -0.035642438 -0.10226947 -0.06832189 0.016444188 -0.106499806 -0.05323501
-0.039978355 -0.07202797 0.53298956 0.046593826 -0.035740018 -0.04668105 -0.07234148 -0.005014406
-0.008241797 0.018803593 0.001164278 -0.12817554 -0.05448476 -0.01748717 0.4494247 -0.03341511
0.023916915 -0.031703833 0.011481156 -0.057823196 -0.029000837 0.1027061 -0.063579366 -0.08678982
-0.03129085 0.0006883521 -0.042933833 -0.094848074 -0.019206373 0.07260685 0.9002488 -0.048694093
0.26452154 -0.031576723 -0.017781662 0.34156647 -0.20106415 -0.06385396 0.03240787 -0.038880393
0.46973902 -0.07267033 -0.12142422 -0.09488893 -0.05309334 0.029189566 -0.1227831 -0.03287786
-0.077269286 -0.08741133 -0.083578624 -0.038658228 -0.08986673 -0.04986832 0.15287073 -0.10918789
0.15414461 0.012616008 -0.20138133 0.0045861667 -0.06313953 -0.045530777 -0.053643934 0.0074353507
0.012858001 0.03016982 -0.08836633 -0.07894449 0.18378516 0.14477459 -0.06595037 -0.052954324
-0.04999008 -0.03071848 -0.12932546 -0.049499843 -0.06917424 -0.070954785 -0.018210988 1.0537698
0.09143401 0.045175068 -0.0682182 0.0497373 0.002928261 -0.14630891 -0.1142111 -0.061298467
-0.011775786 -0.048788138 0.19604729 0.00064556004 -0.08380354 0.16370983 0.03194765 -0.11077056
-0.06939022 -0.024034323 1.5229806 -0.09191543 0.11905374 -0.058077663 -0.05014204 0.029440602
0.10460457 0.12877508 -0.098351695 0.46983644 -0.059661258 -0.10832045 -0.03514527 -0.066683844
-0.034234002 4.9700553e-05 -0.039304104 0.007102716 0.02009723 -0.16441105 -0.045617785 -0.101753995
-0.07752835 -0.072327286 -0.086199574 0.016670074 -0.09593825 -0.006427584 -0.08586174 0.033983894
-0.047463376 -0.055212226 -0.047437456 -0.06429897 -0.05893562 -0.04367195 -0.09468525 0.030250723
0.12049663 -0.030994987 -0.06581668 -0.05401825 -0.04456886 -0.09708144 -0.12586375 0.043773416

main_model.hiddenlayer_1.weight f4 [256, 256]
00000000: bcc6 32bd cecf 04bd 52df 2c3c c618 533d
00000010: 8b3d 6d3c a279 073d f299 c2ba d66a 043d
00000020: e07b 6cbd b88f 3ebd 0eb4 643d 8077 063c
00000030: 0074 6bba 5180 353c f567 233d ce73 adbc
00000040: e53a 99bd 1169 21bd 50dc 7b3d 205a 723c
00000050: 4095 243d 1f38 873d d6a7 18bd 09da 9a3b
00000060: c629 883a 0c9f 2cbd d357 d4bc 6f6f f43c
00000070: e5a6 043c b8c2 c3bd 64e0 1ebd 4211 18bd
00000080: 4d4f 923d d899 72bd 66c7 d43b 403d 8bba
00000090: 94cc 1bbd 14d1 4abd b2ce 46bd 2467 e8bc
000000a0: 2e8b 33bd 3ac1 023d bfcf 193d 38c3 15bc
000000b0: 1980 d3bd 360e 28bd 547a af3c 4094 c3ba
000000c0: 66a3 5a3c 51ac 01bc 63c9 82bd 21a2 6c3d
000000d0: 29b5 843d 364a 52bd a2b3 14bd 317e 5cbd
000000e0: 95d0 d3bd dc89 91bc 601c 863d ce00 253d
000000f0: cf77 823c 8094 b4bb 3cd9 44bd 98f5 c4bb
00000100: a330 b23c 00a1 433c 522a 58bd 5038 de3b
00000110: d2a1 7e3d 6c35 243d 6f00 b23c 4116 fabd
00000120: a374 743d b517 063d 288c a8bd 0d87 c0bc
00000130: 90c1 90bd e3cc 17bd e436 efba f99e 07bd
00000140: 8a5c cebd c554 173c da72 b5bd 322c 023d
00000150: a2bf 6fbd 309a 7e3d cdb0 303c e8d1 623d
00000160: 60a8 a43c 5feb 39bd 0e0d 2fbc 5429 213d
00000170: a4f4 843c 1cd7 933b ec2c 87bd f0a6 203d
00000180: 55b1 66bd a338 233d d4aa 31bd 8f1b 713c
00000190: 2792 03be 1744 ae3a c797 31bd a5f5 b3bc
000001a0: cf1a 22be b7f6 0dbe a228 5ebd e93e b0bd
000001b0: 0578 8cbc 70bb 51bd 78be 92bd c8c0 3f3d
000001c0: f4e5 86bc ce37 743d 9407 19be e19b 0ebc
000001d0: 0451 05bd 6191 6fbd 9e12 1bbd 1158 e0bd
000001e0: 2b1b 43bb f5be 66bd 2fa8 823d c035 efbc
000001f0: 9031 433d 08ca ca3c ea2e 02be 2305 4d3d
00000200: 121e 653d d606 6a3d 4bf5 5e3d 84f5 c5bd
00000210: 2bf9 f1bb cca2 9cbd d41a 9ebd 3086 4ebc
00000220: 4d4d dcbc 2e3a 3cbd f7ac dd3c 069e 043d
00000230: 6561 a63c fe2b e43b 3b7d d8bd ace9 fa3c
00000240: 2c44 08be 8168 de3a c351 263d b2f1 50bd
00000250: 58d3 98bd 4d3b 5ebd 3026 733d 2fce 5b3d
00000260: 7ff6 8fbd f80a 353d dc47 74bd cb00 85bd
00000270: 6630 8abd 2a1e 063d 50c7 d4bd 1525 18bb
00000280: e084 293d 61fd 02bd 25c9 50bd 84f0 11bc
00000290: 7b6a 733d 3980 743b 0be3 a6bd 5e70 bcbb
000002a0: b029 40bd 8a81 77bc f5af ff3b 73db c03c
000002b0: bc4b ba3c a9c9 40bd d059 1a3d 0095 0c3d
000002c0: 002a 4b3c 48d6 fdbc 009b d93d 2fcd 75bd
000002d0: e93c 07bd 71c3 8c3b 19f9 97bc f6b8 303d
000002e0: 64dd 95bc 1f66 413d d19f 133d 2b2b 423d
000002f0: 907c 003d 86cf db3c 688e fbbc 2d7f b2bd
00000300: 0e12 f8bc 27f1 55bd d870 a9ba 8704 713d
00000310: 7ee5 74bd d541 14be 395d d8bc fa62 3fbd
00000320: 5b30 47bc 74e6 a9bd abf8 623d 09ba abbd
00000330: 32bb 373d 8db3 7eba 9759 22bd 7e41 223d
00000340: e031 49bc e5db 79bd c74b 49be 8807 aabc
00000350: 49ca d33c 6560 4bbc 609b 39bd 68e5 92ba
00000360: dbfa 27ba 5ce7 9bbd 5a03 17bc a1f4 25bd
00000370: c4eb 44bd 3364 41bd 2fb9 223d 5c6e 963c
00000380: 26e3 923b 5e03 30bd d214 8b3c cc2b 473c
00000390: cad8 f63c 9e50 28bc a8fc 643c 1437 0a3c
000003a0: 517a f4bc c293 96bd a33f 64bd a64d 73bc
000003b0: 0340 c53c 15cf 06bd 1ccf ea3c b2aa b5bd
000003c0: fd4c 81bd 1ac5 abbd 2944 9abd e249 cabb
000003d0: 3ab5 99bd 4bf4 b2bc db44 4fbd 5599 07bd
000003e0: 035c c8bd 5038 78bc 2a90 443d 7800 613d
000003f0: 7d1e 233d c588 f8bc ede1 86bd b67c efbd
-0.04364656 -0.03242474 0.010551291 0.051537298 0.014480005 0.033074982 -0.0014846905 0.03232845
-0.057735324 -0.04652378 0.055835776 0.008207202 -0.0008981824 0.011077956 0.039894063 -0.021173384
-0.07481936 -0.03940684 0.061489403 0.014791995 0.0401814 0.06602501 -0.037269436 0.004725699
0.0010388426 -0.042143866 -0.025920784 0.029838292 0.008096431 -0.09558624 -0.038788214 -0.037125833
0.07144032 -0.059228748 0.0064934967 -0.0010623112 -0.038036898 -0.0495158 -0.048536964 -0.028369494
-0.043833904 0.031922556 0.037551638 -0.009140782 -0.10327167 -0.041029178 0.021420635 -0.0014921501
0.013344621 -0.007914619 -0.06386068 0.057771806 0.06479866 -0.051340304 -0.036304124 -0.053831283
-0.10342518 -0.017765932 0.06548381 0.04028397 0.01592627 -0.0055108666 -0.048058733 -0.0060107224
0.021751707 0.011940241 -0.052774735 0.0067816153 0.062166043 0.04009001 0.021728722 -0.12211276
0.059681546 0.032737453 -0.08229858 -0.023501897 -0.07068169 -0.03706063 -0.0018250612 -0.033110593
-0.10076244 0.009236519 -0.08859797 0.03178043 -0.058532365 0.062158763 0.01078434 0.055375963
0.020099819 -0.045390483 -0.010684265 0.039346054 0.016229935 0.004511727 -0.06600365 0.039221704
-0.05632146 0.039848935 -0.043375805 0.014716043 -0.12848721 0.0013295439 -0.043357637 -0.021967718
-0.15830539 -0.13863645 -0.05423797 -0.08605749 -0.017147074 -0.051204145 -0.07165235 0.04681471
-0.016467072 0.059623532 -0.14944297 -0.008704157 -0.032547966 -0.058488254 -0.03785955 -0.10954297
-0.0029770832 -0.056334455 0.06379735 -0.029200435 0.04765469 0.02475454 -0.12713209 0.050053727
0.05593688 0.057135426 0.05443315 -0.09665969 -0.0073844395 -0.076482385 -0.07719961 -0.012605235
-0.026892329 -0.045953922 0.027060015 0.032377265 0.020310113 0.006963252 -0.10570761 0.030629002
-0.13307256 0.00169684 0.040605318 -0.05101175 -0.074621856 -0.054255772 0.05936259 0.05366343
-0.07029437 0.044199914 -0.059638843 -0.06494292 -0.067475125 0.03274361 -0.10389578 -0.0023215462
0.041386485 -0.031979922 -0.050973076 -0.008907441 0.05942772 0.0037307872 -0.08148774 -0.0057507
-0.046914756 -0.015106568 0.007802958 0.023542142 0.022741191 -0.047067318 0.037683308 0.034321785
0.01240015 -0.030985966 0.10625267 -0.06001013 -0.033017073 0.0042957594 -0.018551396 0.043145142
-0.018294044 0.04721653 0.036041085 0.04740445 0.031368792 0.026832353 -0.030707553 -0.08715663
-0.030282047 -0.052231934 -0.0012927307 0.05884221 -0.059789173 -0.14478238 -0.02641164 -0.04672525
-0.012157525 -0.082959086 0.05541293 -0.08385093 0.044856258 -0.0009716086 -0.03963622 0.03961324
-0.0122799575 -0.061000723 -0.19657813 -0.020755544 0.025853293 -0.012413119 -0.045314193 -0.0011207284
-0.0006407925 -0.07612488 -0.009217108 -0.0405165 -0.048076406 -0.047214698 0.039727386 0.01836317
0.0044826446 -0.04297196 0.016977701 0.012156438 0.03013267 -0.010273127 0.013976254 0.008435983
-0.029843481 -0.07352401 -0.05572475 -0.014850056 0.024078375 -0.032912333 0.02866321 -0.08870448
-0.063135125 -0.083872035 -0.07532532 -0.0061733583 -0.07505269 -0.021845004 -0.050602775 -0.033105213
-0.09783175 -0.015150145 0.047989048 0.054932088 0.039823998 -0.030338654 -0.06586061 -0.116937086

main_model.hiddenlayer_1.bias f4 [256]
00000000: 7f01 a8bd 31e5 c03d cd55 a6bd e5cf aebd
00000010: e58a babd 5e63 94bd b532 babc d1fe cc3e
00000020: 3b52 e4bd 7aae 893e 9c59 863e edc1 fbbd
00000030: 4936 b9bd 5ead ce3c c5af 9cbd 2523 743e
00000040: 0e27 10bc c353 a7bd e81a e43d 546d c7bc
00000050: aa2b 9dbd baef 813e 04cd 87bd dc7a a0bd
00000060: 946b 00bc fade 8fbc 417b e4bd 72c8 f13d
00000070: 2e12 d9bd bb12 2f3e e871 3fc0 4d09 c8be
00000080: a23f 50be d2a4 083e b696 243e 2fa6 26bd
00000090: 0b17 debd 316c 893f e84a 18bd 6b9f bbbd
000000a0: 1ca3 b8bf baea a2bd 5c2d 1abd 24d7 c5bd
000000b0: 7815 0bbe 3664 c9bd 977b 6d3e 1b53 9fbd
000000c0: 957c 84bd 82a5 21bc 2c99 2abe bbaf d6bd
000000d0: bcd6 47bd 8cc5 0a3d d0b7 2fbe 9905 efbd
000000e0: 8ed1 343f 4f48 74bd 6957 5d3d 0a92 773d
000000f0: 560a a8bd ce0b 973d ade6 f6bd 9c2c b8bd
00000100: 3845 42bd 76d1 90bd 8086 9bbd f625 07bd
00000110: 42bf 8fbd cc26 abbd 152a 1bbd 760c 363e
00000120: 1693 0ebd 36e7 093e 3c98 a3bd 72ed ffbf
00000130: 54ed 503e 1143 a0be 0f66 763f 7cb9 d23e
00000140: 4c61 c63c 5d3b a3bd 6e5e ebbd f91c 30be
00000150: 2b3b 0abd 193f c5bd aeed 42bd a527 86bd
00000160: 746f bfbd 46aa d0bd ec43 9dbd 7a72 553e
00000170: ee22 243e 06c0 0ebe 0db8 c63c 3747 bcbd
00000180: c89a 3fbd 5f8d 0f3e 25fe dfbc b162 88bd
00000190: 2386 743e ec0f 3e3e 718f c7bd aa16 7f3d
000001a0: 9a39 8e3e 3b54 093b 0bf9 adbd 584e cabd
000001b0: b9e2 38bd 918c 0fbe be70 6f3d 3f2c 76bd
000001c0: c1f3 913e f7a2 55bd 115f 41bb 92b8 00be
000001d0: 0cde e2bd 2b4d 94bd 1bb5 ddbd 7a14 9e3e
000001e0: 5735 4bbd 8234 9bbd 44c7 f0bc 3695 7cbd
000001f0: 2c0a 29bd d3af 013f dd2f bcbd db1a a53f
00000200: deeb 09be 3e04 d7bd 3fc6 723c 05ab bcbd
00000210: 8215 023f c798 293d d360 b4bd 1e80 dfbd
00000220: 5d7d b83e a23d c8bc 8a00 92bd 8a2c 06be
00000230: 65a6 35bc b561 f03b 151b c13c d76c e9bc
00000240: d793 70bd 813d 97bd 45bc c5bd 1c34 1ebd
00000250: 2005 56bd cb77 c33d 9c9e b7bc 5e9d 73bd
00000260: cc8b 0fbd fd3d b5bc cb88 8e3e 30c4 8ebd
00000270: 4aa5 e63d 7b98 42be ebe9 cebd cb35 8bbd
00000280: c4ce 9fbd eb77 10be 3739 12be 8f4e 4abd
00000290: ff54 94bb 6883 0f3e 17cb a13e 2c61 bcbd
000002a0: abb6 67bc ab9e 68bd bf9e d23d e087 c2bd
000002b0: 584b febd 5783 87bd 6ab6 953f ddb1 bfbd
000002c0: 50b1 de3a a62f ac3e f874 d2bc b062 dabd
000002d0: fd16 6cbd ede1 1cbe 04b9 58be ac4e c1bc
000002e0: 63d2 bebd 3bd3 87bd df1b c5bd c827 04be
000002f0: e1eb 35be 51b4 c43d 7303 81bd 9431 aa3e
00000300: c2bf 2240 b789 54bd 8f2d 84bd d016 033f
00000310: b408 f8bd 0dc6 7cbd 9df0 1b3e 5a46 3dbc
00000320: 5db3 c9bd c80a 29bd 8ad9 823f b9c3 433d
00000330: bea0 aabd cf4a ba3b 5071 51bc aec7 8dbd
00000340: d6eb 23bd 73ec f3bd 0eff d2bd 992f d33c
00000350: 7ee7 e83d fc4d 00bd 63c4 2abe c7cb 88bd
00000360: 8769 8bbd cfc9 43bd a4df 7bbd 41b7 eabd
00000370: eb31 a93e 8730 d7bd 1106 babd bb2e 603e
00000380: 883f 653d 4bdb 90bd 3e22 f7bd 03a5 b3bd
00000390: 7b7d 8dbd 2561 2fbd 96bc afbd 0f2c 06be
000003a0: 4e02 17be 0efd 16bd c425 633e 880f 67bc
000003b0: bc10 ecbd 3983 b6bd dca3 bb3e 67f4 a03b
000003c0: 21af 8c3e bd5d fcbd 2a92 45bd 13f7 80bd
000003d0: 2e05 80bd 9871 d1bd a723 173d 69b0 c43e
000003e0: d336 07be c427 e7bd 2e08 b83e 6dab a8bd
000003f0: 36b7 02bd 2ced aabd 4039 0ebe 2fc0 ffbd
-0.0820341 0.09418715 -0.08121834 -0.085357465 -0.09108523 -0.07245515 -0.022729257 0.4003816
-0.11148497 0.26890928 0.26240242 -0.12292848 -0.09043557 0.025229152 -0.07650713 0.23841532
-0.008798374 -0.08170273 0.111379445 -0.024344124 -0.07674344 0.2537821 -0.066309005 -0.078359336
-0.007838149 -0.017562378 -0.11156321 0.1180581 -0.105991706 0.17096989 -2.9913273 -0.39069596
-0.20336774 0.13344124 0.16073117 -0.04068583 -0.10844239 1.0736142 -0.03718081 -0.09161266
-1.4424777 -0.07954927 -0.037640914 -0.096601754 -0.13582408 -0.09833567 0.23191677 -0.07779523
-0.06469075 -0.00986612 -0.16659993 -0.10482737 -0.04878877 0.0338798 -0.17159963 -0.116709895
0.70632255 -0.05963927 0.05403844 0.060442008 -0.082050964 0.073752984 -0.12055717 -0.089928836
-0.047429293 -0.070712015 -0.07594013 -0.032995187 -0.070189014 -0.08357009 -0.03788193 0.17778191
-0.03480824 0.13467106 -0.07988021 -1.9994338 0.20403033 -0.31301168 0.9624948 0.41157138
0.024216317 -0.07970307 -0.114926204 -0.17198552 -0.033747833 -0.096311755 -0.04758995 -0.0655053
-0.0934743 -0.10188727 -0.07678971 0.2084445 0.1602895 -0.13940439 0.024257684 -0.09193271
-0.04677847 0.14018773 -0.027342865 -0.06659449 0.23879294 0.18560761 -0.09744156 0.062277474
0.27778322 0.0020954746 -0.08494767 -0.09878224 -0.045138095 -0.14018466 0.05845713 -0.06010079
0.28506282 -0.05215737 -0.0029506127 -0.12570408 -0.11077508 -0.07241281 -0.10825559 0.30874997
-0.049611416 -0.075783744 -0.029391892 -0.061665736 -0.041269466 0.5065891 -0.09188817 1.2898821
-0.13468882 -0.10498856 0.014817773 -0.09212307 0.5081407 0.041405465 -0.0880753 -0.10913108
0.36033145 -0.024443451 -0.07129009 -0.13102928 -0.011087035 0.0073358663 0.023572484 -0.028494282
-0.05873474 -0.07384778 -0.0965505 -0.038623914 -0.05225098 0.09544333 -0.022414498 -0.05947625
-0.03504543 -0.022124285 0.2783874 -0.069710135 0.11261995 -0.19003479 -0.1010321 -0.067973696
-0.07803109 -0.14108245 -0.14279638 -0.049391326 -0.004526734 0.14014971 0.31600258 -0.091982216
-0.0141426725 -0.056791943 0.10284185 -0.09498572 -0.124167144 -0.06616848 1.1696293 -0.093600966
0.0016990099 0.33630103 -0.02569054 -0.106633544 -0.05763911 -0.15320559 -0.21164328 -0.023597084
-0.09317472 -0.06632086 -0.096244566 -0.129058 -0.17765762 0.09604705 -0.06299486 0.3324095
2.542954 -0.051889148 -0.06454002 0.51206684 -0.12111035 -0.061712313 0.15228505 -0.011552418
-0.09848664 -0.041270047 1.0222638 0.047794078 -0.083314404 0.0056851874 -0.012783363 -0.069228515
-0.040019833 -0.119103335 -0.10302554 0.025779532 0.11372279 -0.03132437 -0.16676478 -0.066794924
-0.06807237 -0.04779988 -0.061492577 -0.11460734 0.33045897 -0.10507303 -0.09083188 0.21892826
0.05596879 -0.07073077 -0.12067078 -0.08771708 -0.06908699 -0.042817254 -0.08580892 -0.13102745
-0.14746973 -0.036862426 0.22182375 -0.014102824 -0.11526629 -0.089117475 0.36648452 0.0049119475
0.27477363 -0.12322567 -0.048235096 -0.06297126 -0.06250988 -0.102267444 0.036899235 0.3841584
-0.13204508 -0.112868816 0.3594374 -0.08235822 -0.031913005 -0.08346018 -0.13889027 -0.12487828

main_model.hiddenlayer_2.weight f4 [256, 256]
00000000: 48a5 bc3d 47a2 76bb 4f5b 0e3c 9fa0 31bd
00000010: 8e21 19bd 151f 91bc eb3b 55bd b53c ecbe
00000020: 8573 8b3c 042c bc3a 0ea1 443d 568c a7bc
00000030: 6ee4 003d e0fb 473c d77f 063d 0405 5b3e
00000040: 1035 21be 52d0 333d e60e 1cbe 490d 063d
00000050: 9c4c 423d 70f9 74be 9c13 f8bb 8cfd 9ebd
00000060: 2359 93bc 2e45 3ebd d676 523d 04b5 eebc
00000070: f812 6fbd d716 5f3d 1beb e4bd c4e0 1dbe
00000080: 7cb8 6c3c 5563 f63c cdcc 60bd f98f 8ebc
00000090: 8220 68bc ebec 163f eb24 91bc 07f1 ddbc
000000a0: 4a3d 013e c3f2 81bd 0980 57bd 86ff eb39
000000b0: 3d3c 113d 7be1 17bd 0be3 52bd bdc2 703c
000000c0: cb30 aa3c b209 81bd 20f4 6f3c 38d5 7cbc
000000d0: 288a 4fbd b887 a5be 772b 493d 7bbf 0d3c
000000e0: c27b 69bf 269a 6fbd 4d74 8f3b d457 38bd
000000f0: 7f71 39bc f6c7 a7bd 8ad3 c63c 85ab 3dbc
00000100: 8f8d 3fbd a890 31bc 7338 593c d4e1 093d
00000110: dc65 313b 4395 17bd 668b 743b 2932 3ebc
00000120: 0bbc a4bc acab 413e 60de c7bc 3d07 09bf
00000130: 585f 4d3d bfab 9dbe 1bb5 4cbe 4973 3c3b
00000140: f39b a43d 63a6 d83d c5c9 793b d33a a6bd
00000150: abf6 0abd ae8a a83c 84d9 3e3d fa21 edbc
00000160: c8a7 28bd f2a5 12bd e1b3 55bd 7892 2e3e
00000170: 3a08 9b3d 3a73 d03c f9b9 07bd 229f 5d3d
00000180: 9fd9 043d bcc7 883d fd5d 20bd 44fc 70bd
00000190: 7e4e 31be 1db5 89bd 4157 b23c f436 383d
000001a0: a360 43bd bb04 66be 559f 8d3d 002e e23c
000001b0: 1827 21bd 7ed9 723d 1225 44bd c80c 133d
000001c0: 38ee 56bc b316 0b3d dd72 a8bd 315c 33bc
000001d0: cced 143d 6411 673d 4c80 3c3b 38c0 193e
000001e0: f085 98bd 5c67 673d 54a5 3d3d 94e0 5ebe
000001f0: 7a9f 403d e55a cbbe ce54 15bb 89d1 ae3c
00000200: 2194 80bc f1e5 df3c 25a1 243d 1fe2 0e3d
00000210: 5807 5c3d 1eb9 fd3c 68ec 203c 0fb7 103c
00000220: a0d5 b0bb 75e6 913d be2b 2eba a1c6 00bd
00000230: b572 00bd 0af6 e03c f9be 58bc 4209 8e3c
00000240: 7b47 0b3c 87a5 88bc 0431 cebd 1e04 2ebc
00000250: c6e7 0b3d bca4 8ebe 7288 85bd cd11 07bd
00000260: 40dd 843c 1661 223d 3503 a7bd 6ce6 eebc
00000270: 9dd3 51bd ea64 3a3c cb0a 0cbd 26f0 70bc
00000280: d0af 0d3d 74de 3abd 4393 8d3a df31 51bd
00000290: 7ec9 5cbd 12ef 863d 85c8 353e 0734 693d
000002a0: 121e 0ebe 27e7 ab3c 8157 3d3d 5a50 1c3a
000002b0: 5d93 55bc b1ed 68bd 079d 1cbd a338 8abc
000002c0: dde5 abbb 2526 9bbb d008 c83b 6b3e c4bd
000002d0: f3e7 303d 6e66 233d ed07 e33c 2f99 043d
000002e0: f8a0 99bc ea6c 7e3d e7e8 3fbd 4e41 7d3d
000002f0: 1ff6 443e f658 e0bd 5ff2 5abc db32 7cbd
00000300: 8e06 aebe 62b5 7abc e6e3 2f3d ecfa 3bbc
00000310: 2c58 cbbc 4f44 793b 0484 debc e04c 413b
00000320: 652b 6c3c c0d4 0bbf fac4 82be 33d7 24bb
00000330: 8c56 413d 26b0 9f3d 00b6 b7bb a774 93bd
00000340: a37a 8a3c 1951 18bd d7c7 15b9 f600 2bbe
00000350: 93e8 8abe ad1f e23b 536b 01bd 79fc 4cbd
00000360: 5d33 193b aaa9 c4ba 5b9a 01bd 16e5 083d
00000370: 185f 4a3c eaa2 28be d0a7 eebd ef2c 16be
00000380: b445 bdbe 43c9 fc3c f4de 6bbd 17b7 bb3b
00000390: 1aba 6dbd 87ee 6bbd c206 a23d 8d3d c63d
000003a0: b451 663c 5a91 143d dbb3 8a3e 0a60 5abd
000003b0: 927e ed3b ccdb 553d 1058 93bc 359c a3bd
000003c0: 7b8a f4bd 9075 873d af15 7d3b 3136 9b3d
000003d0: 185a 063d 2e91 90bc 1ae9 a0be f981 923e
000003e0: a239 b6bd d134 f13c a5ab 63bd eceb 2d3d
000003f0: c446 84bd 808d cdbc 7175 b63c cd34 763d
0.092112124 -0.0037633346 0.008688762 -0.04336607 -0.037385516 -0.017715016 -0.052059095 -0.46140066
0.017022857 0.0014356379 0.048005156 -0.02045266 0.031467848 0.012206048 0.03283676 0.21388632
-0.15742898 0.04389984 -0.15240058 0.032727513 0.04743634 -0.23923278 -0.007570697 -0.07763204
-0.01798684 -0.046452694 0.051382862 -0.02913905 -0.0583677 0.05446514 -0.11177655 -0.15417773
0.014448281 0.030076662 -0.054882813 -0.017402636 -0.014167907 0.5895526 -0.0177178 -0.02709247
0.12621036 -0.06345131 -0.05261234 0.00045013073 0.03545784 -0.03708027 -0.051486056 0.014694867
0.02077522 -0.06300677 0.014645606 -0.015431695 -0.050668865 -0.32330108 0.049113717 0.0086516095
-0.91204464 -0.058496617 0.004377878 -0.045005634 -0.0113185635 -0.081924364 0.024270792 -0.011576538
-0.04676586 -0.010837711 0.013258087 0.033662632 0.002706877 -0.03700758 0.0037314533 -0.011608639
-0.020109197 0.18913144 -0.024398029 -0.5352667 0.050139755 -0.30795094 -0.19990961 0.0028755239
0.080375575 0.10578611 0.0038114649 -0.081166886 -0.033926647 0.02057394 0.046594158 -0.028946865
-0.041175634 -0.03580279 -0.0521735 0.17048061 0.075699285 0.02544557 -0.03313634 0.05410684
0.032434102 0.06678721 -0.039152134 -0.05883433 -0.17315099 -0.06723998 0.021770122 0.044974282
-0.04769958 -0.22462742 0.06915156 0.027609825 -0.039343923 0.059289448 -0.047886916 0.03590086
-0.013118319 0.033957195 -0.082250334 -0.010947273 0.036359593 0.05641307 0.0028762994 0.15014732
-0.074474216 0.056495056 0.046300247 -0.21765357 0.04702709 -0.39717785 -0.0022786143 0.021340149
-0.015695633 0.027331324 0.040192742 0.034883615 0.05371794 0.03097206 0.009821989 0.008832707
-0.00539656 0.07124034 -0.00066440913 -0.031439427 -0.031359393 0.02746107 -0.013229125 0.017338399
0.008500929 -0.016680492 -0.10067943 -0.010621099 0.034156583 -0.27860057 -0.065201655 -0.03297596
0.016218781 0.03964337 -0.081549086 -0.029162608 -0.0512272 0.011376599 -0.03418998 -0.014705693
0.034591496 -0.045622304 0.0010801334 -0.05107295 -0.053903095 0.06588568 0.17752273 0.056934383
-0.13878658 0.020984245 0.04622603 0.0005962901 -0.013035622 -0.056867305 -0.03823569 -0.01687271
-0.0052459077 -0.004734772 0.006104566 -0.09582218 0.043189954 0.039892606 0.02771374 0.03237265
-0.018753514 0.062115587 -0.046852972 0.061829858 0.19234513 -0.10954468 -0.01336345 -0.061571937
-0.33989376 -0.015302034 0.04294195 -0.011473399 -0.024822317 0.00380351 -0.02716256 0.0029495284
0.014414643 -0.54621506 -0.25540906 -0.0025152683 0.04720168 0.077972695 -0.005606413 -0.07199984
0.01690418 -0.037186716 -0.00014284193 -0.16699585 -0.27130565 0.0069007487 -0.031596493 -0.050045464
0.0023376562 -0.0015004177 -0.031641345 0.0334216 0.012351774 -0.16468397 -0.116531014 -0.14665578
-0.36967242 0.030857688 -0.05758567 0.005728613 -0.05803881 -0.057600524 0.07911445 0.09679709
0.0140575655 0.03627143 0.27090344 -0.053314246 0.0072477544 0.052211568 -0.017986327 -0.079887785
-0.119404756 0.0661422 0.003861766 0.075786956 0.032800764 -0.017647352 -0.31427842 0.28614786
-0.08897711 0.02944413 -0.055583615 0.04246132 -0.0645881 -0.025091887 0.022272797 0.06010895
