DQN/DQN_complete/save/main_model_000092.pth (torch_old, 809026 bytes, 10 tensors)

main_model.InputLayer.weight f4 [256, 7]
00000000: ff69 193d 04dc b5bd a9d4 31bd d221 31bd
00000010: 1d5f c93d d3d9 5dbf 5069 99bd 12c0 903e
00000020: 969e dcbe 625e 94be 7303 2f3d 780b b73b
00000030: 0608 d2bf 06f6 aabe 71b1 6ebe 6c94 18bf
00000040: 3333 47bd da2f 2abe d29b 973e beba b2bc
00000050: 07ae 803e ef3d c6bb 96a2 82bd b357 5bbe
00000060: 012f 33be 82e9 c93c 075e 00bf 2631 58be
00000070: 5806 14bf a4df 893e 532a acbe 582c 373e
00000080: 78c3 98bd 493c c4be 121c 1e3e 955e 163c
00000090: b816 723e 3f6b 7e3c 675a 6ebf 70b5 58be
000000a0: 9c66 47bf e2f4 793e 8387 223d 6692 2ebe
000000b0: 0b11 05be 01d6 78bd 6faf f1bd 1504 36bf
000000c0: 79ae b93e beef 403e ad05 16be 1939 8e3e
000000d0: b097 853e 0a62 a1be d2a6 ddbd 4057 5cbc
000000e0: f456 7cbe 867d 6bbe c9ae 0e3e a5c8 6f3e
000000f0: 09c1 23be cb26 7c3f 7b4a 2cbe 6f35 cb3d
00000100: 530f 863e 27fe 53bd f8be 733e a77b 183e
00000110: d905 afbd 47fe a13e 7bd4 8c3e 2681 9f3e
00000120: 478a 35bd 1c85 bb3d 90f4 37be d3e1 073f
00000130: 017d 843e 2d12 b3be 44d1 833d ae7e 29be
00000140: ac48 c0be 7dde 533d ded8 a13e 2db8 a03e
00000150: e92d 18bf e446 36bf 9227 2fbd f453 7e3e
00000160: 85da 1fbe 54d8 6dbe 9880 68be 4843 2f3e
00000170: af09 c7be 690d 2abf 0b27 513d ed76 49be
00000180: 9adf 183d e8c7 683d 5aa9 36be 3435 d13d
00000190: e076 b1be 001c 353c f842 9ebe de6e 083e
000001a0: b06c 84bc e4dd 1cbe e52d 70bf c4a5 093e
000001b0: ef29 e0bc 946b a3bc bd3d 81be 9a3c aebe
000001c0: 1f76 cfbd 0ac9 a4bd f446 8bbe dc89 f8bd
000001d0: a3a3 013d 0c11 e43d 5847 8d3d b384 be3d
000001e0: b885 15be 2e59 d5bd a86c 023e d868 af3d
000001f0: 6d10 49be f8db 133d 749f 5e3e 011a 18be
00000200: 6ddf 633e 07bb fdbb 560f 42be 8d66 adbf
00000210: 7095 cf3c 467f 29bc d4de 2a3d ec5a aabc
00000220: 25b0 8ebd 067f 73be 04a0 42bc e2f1 5f3e
00000230: 8a85 1abe f03b 78be e0be 44be 493f 46be
00000240: 78d8 3e3d 5834 80be 94f1 9c3d 2b39 49be
00000250: 0c60 91be 00f7 173d 0890 76be 00aa c83b
00000260: b816 bebd 5363 a93e 8895 2dbe efdd 883e
00000270: 6433 e7bd 2275 1f3e 3962 2fbf 077a b4be
00000280: 1b10 8b3e 2191 62bd 715f a9bd 0215 803d
00000290: b386 1abe 03f5 49be 3a53 f43e 52ee 193e
000002a0: 6fef 383e 7f60 31bf b80a 99be 16dd 08bf
000002b0: 0398 8ebd 8fa5 0fbd 9102 ab3e 4309 9bbd
000002c0: f404 85bd e9db 2abc 3885 08bf 185e 093e
000002d0: b026 2ebf 74c1 fd3d fd48 76be a762 8a3d
000002e0: 2100 743e c25e 31bf bafb a6be 4e32 213f
000002f0: 2b40 b83e ac96 783d 2206 1b3c e92c e1bd
00000300: 3fae 113c 9884 d3be 8a45 babe 44be e9bd
00000310: b4bb 4d3c 27ea 2abd d965 6e3e 6e45 17bf
00000320: 0d95 d3be 101c fd3e 7864 783d e5e0 8f3e
00000330: 7a31 4bbe 7280 cbbc 812b 853e 047e c13d
00000340: e00c 37be 5f20 1abe 8d44 5cbe 67ef b9bd
00000350: 851c 62bd 6c3d f2bc 36a7 41bc 78aa 353f
00000360: a4de 9fbe e1ba 3a3e edd2 b9bd 3448 c8be
00000370: cf86 f2be ff47 f3bd e079 ce3d 9d1c babe
00000380: 6c46 90be d0cd 2b3e 163f 803e 901a 83be
00000390: 82bb 12be aa49 07bf 1eb9 613e bde3 d7bd
000003a0: 9057 5a3e bcdb abbe 5830 003e 00b6 863d
000003b0: 7da7 7bbe 1006 9f3c 352b 873d 2241 59be
000003c0: ba89 a8be 004b 19be 87e6 02be 46cd 713d
000003d0: f0d4 dfbc 8dda f9be 1299 08bf 9997 953e
000003e0: c9cd 1fbd ca4a e5bd f4ae bebf 05de 53be
000003f0: 3ec7 03be 3e20 9a3e 1505 2d3e 39d6 a23e
0.0374546 -0.08879855 -0.0434157 -0.043245144 0.098325945 -0.866605 -0.0749079 0.28271538
-0.4308974 -0.28978258 0.0427279 0.005586084 -1.6408699 -0.33390826 -0.23309876 -0.59601474
-0.04863281 -0.16619816 0.2961107 -0.021817561 0.25132772 -0.0060498635 -0.06378667 -0.21420173
-0.174984 0.024647478 -0.50143474 -0.21112499 -0.5782218 0.26928437 -0.3362604 0.1788801
-0.07459158 -0.38327244 0.15440395 0.009177824 0.23641479 0.015528499 -0.93106693 -0.21162963
-0.77890944 0.24409822 0.039680015 -0.17048034 -0.12994783 -0.060750965 -0.118010394 -0.7109998
0.36265925 0.18841454 -0.14650603 0.27777937 0.2609229 -0.3152011 -0.10822834 -0.013448536
-0.24642545 -0.22997102 0.13933863 0.23416384 -0.15991606 0.98496693 -0.16825287 0.09922301
0.26183566 -0.05175605 0.23803318 0.1489092 -0.08546037 0.3163931 0.2750586 0.3115322
-0.044321325 0.09156248 -0.17964387 0.53078955 0.2587662 -0.34974805 0.064363986 -0.1655223
-0.37555444 0.051725853 0.3161077 0.31390515 -0.59445053 -0.7120192 -0.042762347 0.24836713
-0.15610702 -0.23227054 -0.22705305 0.1711551 -0.38874575 -0.6642671 0.051062625 -0.19674273
0.037322618 0.05683127 -0.1783804 0.10215226 -0.34661007 0.011054039 -0.30910468 0.13323542
-0.016165107 -0.1531902 -0.9382003 0.13442141 -0.027363745 -0.019948758 -0.25242415 -0.3403061
-0.10129952 -0.08046158 -0.2720257 -0.121356696 0.031650197 0.11136064 0.06898373 0.09302654
-0.14601791 -0.104174 0.12736762 0.08564919 -0.19635172 0.03609845 0.21740514 -0.1485367
0.22253199 -0.0077432427 -0.18951163 -1.3546921 0.025339812 -0.010345286 0.04171641 -0.020795308
-0.06967191 -0.23778924 -0.011878971 0.21869615 -0.15090004 -0.24241614 -0.19213438 -0.19360079
0.04659316 -0.25039935 0.07663265 -0.19650714 -0.2839359 0.037100792 -0.24078381 0.006123781
-0.09281677 0.3308359 -0.16951573 0.26731822 -0.11289099 0.15572026 -0.6850925 -0.3524935
0.27160725 -0.055314187 -0.08270157 0.06254007 -0.15090446 -0.19722371 0.47719747 0.15032318
0.18060087 -0.69287866 -0.2989099 -0.5346235 -0.06962588 -0.03507 0.33400396 -0.07570126
-0.06495085 -0.010428407 -0.53328276 0.134148 -0.6802778 0.12390414 -0.2405128 0.06757098
0.23828174 -0.69285214 -0.32613927 0.62967384 0.35986456 0.060690567 0.009461911 -0.10994894
0.008891641 -0.41312099 -0.3638118 -0.114132434 0.012556959 -0.04172721 0.2328104 -0.59090316
-0.41324654 0.49435472 0.06064269 0.28101268 -0.19843093 -0.024841521 0.26009753 0.09447864
-0.17876005 -0.15051411 -0.21510525 -0.090788655 -0.05520298 -0.029570304 -0.011819651 0.7096324
-0.3122455 0.18235351 -0.09073434 -0.39117587 -0.47368476 -0.118789665 0.100818396 -0.36349955
-0.28178728 0.1677773 0.2504813 -0.25606203 -0.14329341 -0.5284678 0.22043273 -0.105414845
0.21322465 -0.33566082 0.12518442 0.065776825 -0.2457561 0.01941207 0.06600038 -0.21216252
-0.32917577 -0.14970016 -0.12783252 0.059033655 -0.027323216 -0.48799554 -0.53358567 0.29217222
-0.03901461 -0.111959055 -1.4897141 -0.20690162 -0.12868974 0.30102724 0.1689647 0.31804064

main_model.InputLayer.bias f4 [256]
00000000: 39ef b8be c592 6dbe d911 b43d e0c0 03bf
00000010: 9cf9 82bc d6c1 953e 6062 74bd 1644 c3bd
00000020: bf2d f73a 1e01 073c 5164 ab38 e7f7 ab3e
00000030: e80e 71be 2fd9 333c e891 8abe c0fd 463e
00000040: 8648 253e 79a3 373b b7ee a9bd 4207 0ebd
00000050: 256b 003e e9b6 d53e 9aec 6fbe ad82 f0bd
00000060: 109f 593e bde1 3ebd 9d96 bc3d 359b 1ebe
00000070: f7e3 883e d11d d83d bca0 2cbd 0942 febd
00000080: 129b fabc 5afb 91ba 1422 643e e322 5cbe
00000090: 49b9 4bbd 5a2e 3ebd 72a6 debc 64f3 a3bd
000000a0: b1ae a53b 2be1 8cbb 049f 2abe 3590 59bd
000000b0: b3c5 d7be b609 7dbe 09e1 a0be 6016 4abd
000000c0: 51b3 17ba d152 473e f71f 18bc cea9 49be
000000d0: 0ab0 49be 4a0f f83d 5e5f 6e3e 522e 88bb
000000e0: ba2d 01be a27d 8dbe f71b a73c 4118 87bc
000000f0: 65f2 a13e b3e6 d63d 5985 55bc 9dd8 f13c
00000100: 36cb c03d ebe5 a8be 197f e1bd 8a96 06bd
00000110: cc2d 95be a3aa 08be d088 cd3e 74ae 8ebd
00000120: b06f 98be 3354 77be 40df e3bd 61a2 eebe
00000130: c449 d6bc 3fe4 c2bc eeae bd3d 5399 dbbd
00000140: 9d1d c2bd 9ed5 1d3e 0d0c e2ba e423 c2bd
00000150: 2527 c4bb 86c9 ccbe fdcb 7d3e a49b 21be
00000160: 1a1d d43a 4839 02bf 57fa 693c eefd 813b
00000170: 9209 20ba 897c 65be 102e a9be 5d54 89be
00000180: 03be c33b 6fce 9dba 87fd 72be 1204 4c3e
00000190: 88e3 48bf d567 773e b0dd 0bbe 20e3 a93e
000001a0: 67db 3fbb f92b 303e 03f7 0f3d 803f 2e3e
000001b0: feb5 06bd d2ef a1bd 755c 723e 2e4f babd
000001c0: 9ede 3ebf 4a29 17bf bf0a a23b b588 90bf
000001d0: 38ba 85bb e3cb 2bbe 2743 debe 49be 5cbe
000001e0: a336 ddbd c5df 07bf 35ab 8dbd 3b2e ef3d
000001f0: 1ce2 5bbf a534 f7bc 0114 cbbb f033 23bd
00000200: c7dc b4bd dc77 b73e de64 bd3e cd2f 3bbf
00000210: 4fa0 a2bb e86f 0fbe 5a6d 0eba 7452 c6bd
00000220: 7e40 b6be 06ee 9c3e 01e3 9bbc ba9a ba3e
00000230: 069b c0be aaab 15bd 09f6 7dbc f830 9fbc
00000240: 0e4f 00bd 34bb 54be 69bf a53e 28ef b13e
00000250: e2ab f5bc cbcf 0dbb 7d8a debe ec4f 9ebe
00000260: e73b a5be d4c4 923b b41b 0fbe 8c3c 03bd
00000270: baa4 863e 541b a2be 86ea 84ba 9a0a 28bc
00000280: 11a4 653e 2cf8 75be 3a45 063b 3370 943e
00000290: c16d f9bd 652d 4b3c 5832 9bbe 626b 9d3b
000002a0: 449a 58be 4221 9fbe f9c3 cd3e 162b 9abe
000002b0: 6c0c 76bd 2ac1 0cbc 481d 00be 4e85 023e
000002c0: 503a 2fbe 7935 40be 66ba 84bd 0432 c63e
000002d0: c714 50bd 3237 9abd cb12 923e 371d 11bc
000002e0: abe6 bdbe d319 bc3e b6a4 593e 4994 e0be
000002f0: 00d0 b43e c4e9 d4bd 8921 2abd e944 a0be
00000300: e662 17bd f38c c63e 3558 1d3e 3506 abbb
00000310: 5cf8 923e 07d3 083e ea5b 93be 9139 173e
00000320: 53ad bfbe 6b84 0d3c 68ea 57bc 1d8a 82bd
00000330: 0205 89be 451f 0dbf e04b efbe d242 3abe
00000340: 129d 1dbe 3335 abbe fc36 44bc 1cf0 4ebd
00000350: da74 8ebe e7e4 99be 6e60 d0be f2f2 01bf
00000360: 46ca 9cbe df83 85ba 4312 c5bc 6d2e 95be
00000370: 0f7f c7ba b8e9 2ebf 0529 d5bb a990 8b3e
00000380: 72ee 643e 6304 e4bb ec24 9abe c429 70be
00000390: 52d4 9d3e 41e1 5fbd 9286 05bd 2a41 50be
000003a0: 7b62 85bd 9918 74bc 7e73 563e b6cd 4f3e
000003b0: d810 7cbd 0794 fdbc 3f6e e9bb dc7f b5bd
000003c0: 36a2 a7bd baf4 6fbe b390 febb 7257 743e
000003d0: 2bbe d63d e290 2bbd f9b2 5ab9 35b2 973d
000003e0: 3530 903c 589a 893e 4e5a 46be 3105 29bd
000003f0: f128 16bf 350d 06bf 0eba d2be d624 913e
-0.36120012 -0.2320052 0.08792467 -0.5146618 -0.015988164 0.29249448 -0.05966413 -0.09534471
0.0018858238 0.008240012 8.172601e-05 0.33587572 -0.23540843 0.010977074 -0.27064443 0.19432735
0.16140947 0.0028021021 -0.08297484 -0.03467489 0.12540872 0.41741112 -0.234301 -0.117436744
0.21252084 -0.046602 0.09208415 -0.15488894 0.26736423 0.10552562 -0.042145476 -0.12414939
-0.030591521 -0.0011137531 0.22278625 -0.21497683 -0.04973725 -0.046430923 -0.027178977 -0.080054075
0.005056225 -0.004299303 -0.16662222 -0.053116042 -0.4214302 -0.24710736 -0.31421688 -0.049337745
-0.0005786913 0.19465186 -0.009284965 -0.19693682 -0.1969606 0.12112291 0.23278567 -0.0041559124
-0.126151 -0.27634913 0.020399077 -0.016491057 0.31630245 0.10493221 -0.013032281 0.029522235
0.094137594 -0.32987913 -0.1101057 -0.03285841 -0.29136503 -0.13346343 0.40143442 -0.06966868
-0.2977271 -0.24153213 -0.11126566 -0.4660826 -0.026158221 -0.023790477 0.09261881 -0.10722604
-0.094783045 0.1541352 -0.0017246023 -0.09479502 -0.0059861117 -0.399975 0.24784847 -0.15782028
0.0016182989 -0.50868654 0.014280877 0.0039670384 -0.0006104942 -0.22410788 -0.33042955 -0.26822177
0.005973579 -0.0012039671 -0.23729526 0.19923428 -0.78472185 0.24160703 -0.13658786 0.33181095
-0.002927506 0.17204274 0.035147678 0.17016411 -0.032888405 -0.0790707 0.23668082 -0.090971336
-0.74558437 -0.5904738 0.0049451287 -1.129172 -0.004081037 -0.16776995 -0.43410608 -0.21556963
-0.10801437 -0.5307582 -0.06917421 0.1167874 -0.8589189 -0.03017647 -0.006197453 -0.039844453
-0.088311724 0.35833633 0.36991018 -0.73119813 -0.004962958 -0.14007533 -0.0005433165 -0.096836954
-0.3559608 0.30650347 -0.019029142 0.36446172 -0.37618273 -0.036540665 -0.015500554 -0.01943253
-0.031325392 -0.20774537 0.32372597 0.34752774 -0.029989187 -0.0021638747 -0.43465033 -0.3092035
-0.32272264 0.00447903 -0.13975412 -0.032040164 0.2629755 -0.31661475 -0.0010140694 -0.010256434
0.22425868 -0.24020451 0.002048804 0.2899185 -0.12179137 0.01240096 -0.30311847 0.004804061
-0.21152598 -0.3108006 0.40188578 -0.30110997 -0.06007044 -0.008590976 -0.1251117 0.12746164
-0.17112088 -0.18770398 -0.06480865 0.38710034 -0.050801065 -0.07530059 0.28529963 -0.008857063
-0.37090048 0.36738452 0.21254238 -0.43863133 0.3531494 -0.1039615 -0.041535888 -0.31302574
-0.03695955 0.3877941 0.1536568 -0.005219246 0.28705108 0.1336175 -0.28781062 0.14768054
-0.37436923 0.008637528 -0.013178445 -0.06373999 -0.26761633 -0.5512584 -0.46737576 -0.18189552
-0.15391949 -0.33439025 -0.011976 -0.050521955 -0.27823526 -0.3005745 -0.4069857 -0.5076133
-0.30623072 -0.0010186395 -0.02405656 -0.29136983 -0.0015220362 -0.68325377 -0.006505134 0.27258804
0.22356585 -0.0069585308 -0.30106294 -0.23453432 0.3082605 -0.05465818 -0.03259904 -0.20337358
-0.06512924 -0.014898443 0.20942494 0.20293316 -0.0615395 -0.030954374 -0.007123738 -0.08862278
-0.08185236 -0.234332 -0.0077687143 0.23861483 0.104854904 -0.041886218 -0.00020856773 0.07407037
0.017601112 0.26875567 -0.19370386 -0.041264717 -0.5865622 -0.523639 -0.41157573 0.28348416

main_model.hiddenlayer_0.weight f4 [256, 256]
00000000: 75bb 0ebd 2c8d e0bd c826 9cbd 2bcc 39bd
00000010: f7b0 bb3b ebc9 babd a2a0 c5ba 012a 86b9
00000020: d1ff 99bd 7bb2 7cbd 66cb 92bd de1e cc37
00000030: f0cd d23b 3421 c6bd 0219 663d 65b9 64bd
00000040: b375 933c 551d f9bc a417 553c 7f4d c7bd
00000050: 58c2 c53c 0135 88bc 801f c13b 6b50 d5bd
00000060: 67ef 063c 7121 39bd 3c35 de3a 20ec 94bd
00000070: 6271 93bd 6c0f 55bd aa61 713b fa56 5abd
00000080: 5232 0fbd e2f5 aabd bc76 12bd ae98 d9bc
00000090: c05d e5bc fd79 0dbd 1193 9ebd a80f 1d3c
000000a0: 5906 1cbd d948 92bc 757c a0bb 9bc0 b3bc
000000b0: 9465 4cbd f6fa 443d 4e89 88bd 3bf4 92bc
000000c0: ea6a 67bd 1907 eb3c c2bb 213d 171a 813c
000000d0: de3c 3e3c 67eb edbd 1a92 bfbc 8ec5 40bd
000000e0: 80f4 3439 6011 32bc a598 6ebd e7a2 9bbc
000000f0: 0c96 5bbd 3152 efbc d6f5 93bd db29 e13c
00000100: d6db b1bd 08ce 4c3d 8013 f33b 8c08 e1bc
00000110: 00d5 1fbb 7619 92bd 91a7 9dbd c8f4 afbb
00000120: 0800 7bbc 40a6 a4bd 2cea b3bc 8fee 96bd
00000130: 4d28 d9bc d788 ba3c 5a57 a4bd ffed 1abd
00000140: 999f 08bd 81e5 d9bc ee9e 3fbd 001f 233b
00000150: 01e6 89bd 76e8 8fbd b115 9dbd 0a3d bcbd
00000160: 5685 d0bc b62f ebbb 071d 1a3b 84da 44bd
00000170: 4e0a 2c3c e3da a93d 0100 91bd 7bd2 10bd
00000180: 3be3 aa3c 009d b6bd 78cb 58bc a425 46bd
00000190: 58f1 953c 5eef aabd 9eb5 02bd b16e 8fbd
000001a0: 8b4e d63b 087d 9cbd c831 43bd 7f43 aebd
000001b0: 5cad 8fbc 22ad 3d3c 10a6 9e3c e5e3 0c3d
000001c0: 78f1 9e3c ba53 443c e919 83bd 8339 a2bd
000001d0: b6e4 d63b e426 f4bc d574 a5bd e4a8 1fbd
000001e0: e035 d7bc 26bb d2bd 756b b9bd 620f 88bd
000001f0: d595 5dbd 354b 42bc 56a3 b9bd 6bff 7ebd
00000200: 1985 6a3c 7573 39bc ca58 32bc c763 d0bd
00000210: 31c1 11bd 206b 0a3c 7b61 96bd 5864 173c
00000220: 169f 19bd a89c 9abd 902e 1e3c 27c8 963c
00000230: 20f8 1abd fbbe 153d 9a8d 80bd 9d7b cebc
00000240: ac02 7abd d84e 07bd 3831 8cbd 7a68 27bc
00000250: 343f e3bc f898 273c e65c 243c 4760 8dba
00000260: 8b76 28bd 3b91 c1bd 72d0 5b3c a4da 103c
00000270: c5fb 41bd df46 19bc e736 e9bd 160b efbd
00000280: e7a2 d7bb 8cc1 cf3c 149d d0bc 382a fcbc
00000290: b2aa acbd b771 6bbd cab7 9d3c 8268 4bbd
000002a0: 1246 75bd fd1e 82bd 628e e7bc eaf7 4abd
000002b0: 4692 aebd 7753 ef3a a85b 9bbd a54c bfbc
000002c0: 5781 20bd 0b7a 6cbd fcc6 b6bc 030d 43bd
000002d0: 682d f8bc c6ac d93c 0b90 273c 6038 91bd
000002e0: 1416 4ebd 3cf5 24bc cf52 f1bc 05b0 2fbd
000002f0: f6cb 50bc 3812 df3c dbd6 bbbc 40eb 813b
00000300: 46ea a8bd 066d 3cbc 8e69 84bd ca6c 63bd
00000310: b967 32bb 874d 54bd 4a58 483d 0203 0ebd
00000320: d090 0fbc f11d e93c f42d a3bd 160d 88bd
00000330: c213 7e3d eed3 9bbd 5bbe 0e3c fc7b 2a3d
00000340: 886b 6dbd 8245 fb3c 670c 81bc 629f 03ba
00000350: b23f 9bbd 5c44 72bd 20ba ed3c b193 56bd
00000360: 2301 48bd d424 9fbd c1ce 0cbd 2721 bb3c
00000370: 0464 abbd e6db 33bd f280 66bd ac8f b4bd
00000380: a39a e23c b2dd eabc cc27 abbd 65a8 c63c
00000390: 8787 c7bb 80d4 32ba 3da0 b9bd 32a1 80bd
000003a0: f27c 9ebd 9a66 d93c 5dac b1bd 5360 0ebd
000003b0: 5c58 9bbd 81c5 cc3c 10a9 55bd b856 043c
000003c0: 467f 293d 407b f43c 9957 a7bd 0264 523b
000003d0: c72b cabc 0a49 96bd 7e6b 1abd 03e6 98bd
000003e0: 6b8a 8abd 4cd2 a6bd c680 41bd 024b b4bd
000003f0: 5065 67bd fcec 70bb 51a2 e0bb 4114 92bd
-0.03484674 -0.109644264 -0.076245844 -0.045360725 0.005727883 -0.09120544 -0.001507778 -0.00025589767
-0.07519496 -0.06169365 -0.071677014 2.4333069e-05 0.006433241 -0.09674302 0.056176193 -0.05584087
0.01800046 -0.030409494 0.013006125 -0.09731578 0.024140522 -0.016626837 0.0058936477 -0.10415729
0.008235789 -0.045197908 0.0016953121 -0.072716 -0.071993604 -0.05201666 0.0036831894 -0.053305604
-0.0349601 -0.0834768 -0.035757765 -0.026562061 -0.027998805 -0.034540165 -0.077428944 0.009586252
-0.03809199 -0.017857002 -0.004897649 -0.021942427 -0.04990156 0.048090898 -0.06666814 -0.017938724
-0.056498446 0.028689908 0.0394857 0.01575951 0.011611192 -0.11617165 -0.023385096 -0.047063403
0.00017257221 -0.0108684 -0.058251042 -0.018998576 -0.053609893 -0.029213997 -0.07224624 0.027485779
-0.086845085 0.050001174 0.007418096 -0.027469896 -0.0024388433 -0.071337625 -0.076979764 -0.0053697564
-0.015319832 -0.08039522 -0.021962248 -0.0736972 -0.026508475 0.022770328 -0.080244735 -0.037824627
-0.03335533 -0.026598694 -0.046782427 0.0024890304 -0.06733323 -0.0702676 -0.07670153 -0.0919133
-0.025454205 -0.0071773184 0.0023515837 -0.048059955 0.010500504 0.082937025 -0.07080079 -0.03535698
0.020860305 -0.08916664 -0.0132321045 -0.04837574 0.018303558 -0.08346437 -0.031911485 -0.070035346
0.006540125 -0.07641035 -0.047654897 -0.085089676 -0.017538719 0.011576923 0.019366294 0.034397025
0.01940225 0.011982853 -0.06401426 -0.07921126 0.006558026 -0.0298037 -0.080789246 -0.038979426
-0.026270807 -0.10289602 -0.09053699 -0.06643559 -0.05409797 -0.011858751 -0.09064357 -0.062255304
0.0143139595 -0.011319031 -0.010885427 -0.10175281 -0.035584632 0.008448392 -0.07342812 0.009240232
-0.03750523 -0.07549411 0.009654656 0.018405987 -0.037834287 0.036559086 -0.06277008 -0.025205428
-0.061037704 -0.033034176 -0.06845325 -0.01021778 -0.027740099 0.010229342 0.010031914 -0.0010786139
-0.041128676 -0.09451529 0.013416396 0.0088411905 -0.047359247 -0.009355276 -0.11387425 -0.11672036
-0.006580699 0.025360845 -0.025465526 -0.03078185 -0.08430995 -0.057481494 0.019252677 -0.049660213
-0.059881277 -0.06353567 -0.028266136 -0.049552836 -0.08523993 0.0018259127 -0.075858414 -0.023351977
-0.039185848 -0.057733577 -0.02231168 -0.04761983 -0.030295089 0.026571643 0.010227214 -0.07090831
-0.050314024 -0.010068234 -0.029458432 -0.042892475 -0.012743941 0.027230367 -0.0229296 0.0039648116
-0.08247809 -0.011500603 -0.064654455 -0.05552367 -0.0027222468 -0.05183175 0.048912324 -0.034670837
-0.008762553 0.02845666 -0.07967749 -0.06643121 0.06203056 -0.07608782 0.0087123765 0.041622147
-0.057963878 0.030672792 -0.015752984 -0.00050210033 -0.07580508 -0.059147224 0.029019415 -0.052386943
-0.04882921 -0.07770696 -0.034376863 0.022842957 -0.08368686 -0.043910883 -0.056275316 -0.08816466
0.027661627 -0.028670166 -0.083572 0.024250219 -0.006089154 -0.0006821826 -0.09063766 -0.062807456
-0.07738675 0.026538182 -0.08675454 -0.03475983 -0.075852126 0.024996521 -0.052163184 0.008077316
0.041381143 0.029843926 -0.08171005 0.0032103066 -0.024679078 -0.0733815 -0.03770017 -0.07465746
-0.067646824 -0.0814558 -0.04724195 -0.08803369 -0.056493104 -0.0036762347 -0.006855287 -0.071327694

main_model.hiddenlayer_0.bias f4 [256]
00000000: e6f6 a53c dbd8 b7bd 8b73 a0bd c8b0 b43c
00000010: 75c1 3bbd a93a 503d c21b 823c 5235 26bc
00000020: f802 233e df6c e0bd 080d ba3c e50b 0dbd
00000030: b0fd 42bd b7c0 bd3c a768 0bbd d631 8dbd
00000040: aded cabd 9e48 a3bd 51c9 9ebd 93db 74bd
00000050: 0b40 afbd 8e6a babd a848 efbd 27c1 90bb
00000060: 4215 15bd a3ac cc3c 4d0a a0bd e202 a03c
00000070: e7e6 55bd 2613 b8bd 0a18 7dbc 9370 debc
00000080: 6269 68bd 3c33 66bd fbe0 393e d28e 77b9
00000090: d896 c23b 8866 20bc 0d66 b2bd 9821 8abd
000000a0: b796 8f3d d641 693c 19c4 da3d 569d 253e
000000b0: f5a1 f03e c03d d3bd ba4b 8abd 3dfd c1bd
000000c0: ea79 7bbd 5e89 a13d 2a84 c2bb 2630 373d
000000d0: 85b7 92bc 565c 0cbd 00f2 babd d144 303f
000000e0: 9364 cc3c 9f1d 403c aab6 a93d 4388 a4bd
000000f0: 51df f83c b077 eb3d c3bd 3dbd e3d1 353d
00000100: a58f 98bd 3611 08bd 877a e63b 1722 99bd
00000110: 31f0 8dbd a00b c2bc 68ad 88bd ba97 33be
00000120: 1506 a03d c2f7 a2bd 73a6 37bd 0b4f 94bc
00000130: 1d36 5fbd 97e2 38bd 8f82 aa3d 6a01 e1bc
00000140: bc9d 8bbd c083 8e3d 8d92 b0bd a3b2 d93c
00000150: b62f d43b 57d5 093e 6f4f 603b 45cc c33d
00000160: 8d97 62bd 3a97 d83e 59ea 953d fcf9 aa3c
00000170: 011d 84bd f480 f5bc ee30 2a3d c4aa 94ba
00000180: a5b9 d5bc 5139 fc3a 1251 bbbc e878 fdbd
00000190: a528 2b3e f1ba 38bd 5ef6 93bd 1cfb 663d
000001a0: d34e b1bd 3754 fb3c cefd 11bd b6f1 9bbd
000001b0: 5b48 1ebd f6b5 863c 921c dabd 3a67 2abd
000001c0: 58c0 23bd 7534 1bbc 6a91 b53e ab02 e53d
000001d0: 2064 12bd a134 3fbd f318 27bd 4b42 fa39
000001e0: da56 e13c fe09 9a3c b09a 983a 38fd 92bd
000001f0: 692b 5fbd 4141 8fbc c00b bb3e 48de 08bd
00000200: 68ed c33c e1db 01bd 751b 3c3c 2dac 4bbd
00000210: 2a93 edbc 8024 613d 5d3e 0cbc 4215 68bd
00000220: d62a 00bd 9baf 043d 5478 97bc bf07 82bd
00000230: af56 9dbc e6b2 943d 4422 f43d 7573 47bd
00000240: dab9 e63d 9856 01bd 2ec8 503c 357d 8a3d
00000250: 2b64 88bd 816d 11bd 864b bd3d db67 16bc
00000260: 8b0e e0bc 14c7 c3bc 65f9 a6bd 2155 c2bd
00000270: 9587 253c f51e ef3c 809a babd ff99 3ebb
00000280: eec1 3fbd 66b0 03bc cb66 55bd 1758 1ebd
00000290: 50e6 69bd f634 95bc afce 073e 378c 3fbd
000002a0: d40f df3d 7b30 143d 7a6e 1abe a78f a93c
000002b0: 3af6 3bbd 7b7e 3abd ec9a 26bc 3ea4 f33b
000002c0: 5daa 523c b326 f73c 68f9 b4bd 3872 5abd
000002d0: 95a7 143e e6fc cc3d fd10 87bd dba0 d0bb
000002e0: 66c2 4cbd 01bc da3c e56d 04be 59c0 4abd
000002f0: 39ab 8dbd df22 e1bc 362f 95bc 4329 d83e
00000300: 8e8c 923e 64fd d43d 2b4a 31bd 57b9 4b3d
00000310: 3086 bd3b d201 ebbd b5da aabd 1a14 7bbd
00000320: b888 b23c 5c98 bebc 0a98 033e cd3a 293a
00000330: e52d 54bd 9613 033e 5244 6e3d 06f7 a1bd
00000340: 761c 8ebd 8f1f a5bc 774b 873f 283e bcbd
00000350: 373e c63d d384 eabc 0d97 cfbc 6b2d f13c
00000360: 1875 b33d 0c90 d83d 8ac4 c6bd 112a cf3e
00000370: 0621 e5bc 2ff2 9ebd 7df4 0fbd 23ad bfbc
00000380: 62c3 073d 6fb7 ca3c 57fd 20bd 2855 7c3d
00000390: 4e7c 963d f9ce 09be 74c9 8abc 96de 6dbd
000003a0: b8fa f7bc 916e 31bd abfb babd 5f0b 683d
000003b0: 467b c4bd 7c9e d2bb 5d19 77bd b232 0b3d
000003c0: 1259 60bc 3726 62bd daa5 19bd 891c 40bb
000003d0: c164 28bd 9e22 b3bc 2245 82bd 5dd0 f73c
000003e0: 7d3a 4ebc bd79 1d3a 5caf 4cbd 3e42 5dbd
000003f0: d68d 36bd 3248 90bd 8582 94bd ac6e db3d
0.020259332 -0.08976909 -0.07834538 0.022056952 -0.045838792 0.050837193 0.015882377 -0.0101445485
0.15919101 -0.109582655 0.022711292 -0.03443517 -0.047605217 0.023163183 -0.03403535 -0.06894271
-0.09908614 -0.07972835 -0.07753242 -0.059779715 -0.08557137 -0.09102355 -0.1168378 -0.004417557
-0.036397226 0.024984663 -0.07814465 0.019532625 -0.05222216 -0.08988027 -0.015447626 -0.027153289
-0.056741126 -0.056201205 0.1815223 -0.0002360896 0.005938392 -0.00979007 -0.08710871 -0.06744689
0.070111685 0.014236888 0.10681934 0.161733 0.46998563 -0.10314512 -0.06752725 -0.094721295
-0.061395563 0.07887529 -0.0059361653 0.044723652 -0.017909775 -0.034267746 -0.09128189 0.68855006
0.024950301 0.011725812 0.082867935 -0.08033802 0.030379923 0.11497438 -0.04632355 0.044389617
-0.07449273 -0.03321954 0.0070336494 -0.07477205 -0.069305785 -0.023687184 -0.066736996 -0.17538348
0.0781366 -0.07957412 -0.044836473 -0.018104097 -0.054494966 -0.045137968 0.08325683 -0.027466495
-0.06817195 0.06958723 -0.08621702 0.026574438 0.006475414 0.13460289 0.0034227034 0.09560446
-0.05532031 0.42302877 0.07320089 0.020871155 -0.064508446 -0.029968716 0.04155057 -0.0011342396
-0.026089499 0.0019243156 -0.022865806 -0.12376577 0.16714723 -0.045100156 -0.07224725 0.05639182
-0.08657613 0.030679805 -0.035642438 -0.07614462 -0.038643222 0.016444188 -0.106499806 -0.04160235
-0.039978355 -0.009472956 0.35462505 0.111821495 -0.035740018 -0.04668105 -0.040795278 0.00047733108
0.027507234 0.018803593 0.001164278 -0.07177204 -0.05448476 -0.01748717 0.36532402 -0.03341511
0.023916915 -0.031703833 0.011481156 -0.049724746 -0.029000837 0.05496645 -0.00855979 -0.056660898
-0.03129085 0.032394033 -0.018489994 -0.06349134 -0.019206373 0.07260685 0.11920598 -0.048694093
0.11265917 -0.031576723 0.012743039 0.067621626 -0.066597305 -0.03550482 0.092429206 -0.0091800345
-0.027350685 -0.023898639 -0.08153037 -0.09488893 0.010103126 0.029189566 -0.091115 -0.0029083488
-0.046815805 -0.008037662 -0.052099984 -0.038658228 -0.05710441 -0.01821373 0.13262437 -0.04676458
0.10891691 0.036179047 -0.15081206 0.020698382 -0.045889117 -0.045530777 -0.010168772 0.0074353507
0.012858001 0.03016982 -0.08836633 -0.053331584 0.14517052 0.10009174 -0.06595037 -0.0063668317
-0.04999008 0.026700975 -0.12932546 -0.049499843 -0.06917424 -0.027482448 -0.018210988 0.4221898
0.2862286 0.10399893 -0.043283623 0.0497373 0.0057838187 -0.114749566 -0.08342496 -0.061298467
0.021793708 -0.02326601 0.12850967 0.00064556004 -0.05180158 0.1280044 0.058170624 -0.07908444
-0.06939022 -0.02015665 1.0569905 -0.09191543 0.09679835 -0.028627789 -0.025340581 0.029440602
0.08762568 0.1057435 -0.097054556 0.40461782 -0.027969848 -0.077610366 -0.03514527 -0.023397988
0.033145316 0.024745671 -0.039304104 0.06160465 0.07347928 -0.1345786 -0.016941763 -0.058073603
-0.03027092 -0.043318335 -0.09130033 0.05665147 -0.09593825 -0.006427584 -0.060326923 0.033983894
-0.013693111 -0.055212226 -0.037511684 -0.0029313883 -0.04111171 -0.021867093 -0.06360842 0.030250723
-0.012587187 0.0006007215 -0.049971923 -0.05401825 -0.04456886 -0.0704502 -0.07251457 0.10714468

main_model.hiddenlayer_1.weight f4 [256, 256]
00000000: bcc6 32bd cecf 04bd 52df 2c3c c618 533d
00000010: 8b3d 6d3c a279 073d f299 c2ba d66a 043d
00000020: e07b 6cbd b88f 3ebd 0eb4 643d 8077 063c
00000030: 0074 6bba 5180 353c f567 233d ce73 adbc
00000040: e53a 99bd 1169 21bd 50dc 7b3d 205a 723c
00000050: 4095 243d 1f38 873d d6a7 18bd 09da 9a3b
00000060: c629 883a 0c9f 2cbd d357 d4bc 6f6f f43c
00000070: e5a6 043c b8c2 c3bd 64e0 1ebd 4211 18bd
00000080: 4d4f 923d d899 72bd 66c7 d43b 403d 8bba
00000090: 94cc 1bbd 14d1 4abd b2ce 46bd 2467 e8bc
000000a0: 2e8b 33bd 3ac1 023d bfcf 193d 38c3 15bc
000000b0: 1980 d3bd 360e 28bd 547a af3c 4094 c3ba
000000c0: 66a3 5a3c 51ac 01bc 63c9 82bd 21a2 6c3d
000000d0: 29b5 843d 364a 52bd a2b3 14bd dacf b4bc
000000e0: 95d0 d3bd dc89 91bc 601c 863d ce00 253d
000000f0: cf77 823c 8094 b4bb 3cd9 44bd 04fc d23c
00000100: a330 b23c 00a1 433c 522a 58bd 5038 de3b
00000110: d2a1 7e3d 6c35 243d 6f00 b23c ea17 77bd
00000120: a374 743d b517 063d 288c a8bd 0d87 c0bc
00000130: 90c1 90bd e3cc 17bd e436 efba f99e 07bd
00000140: 8a5c cebd c554 173c da72 b5bd 322c 023d
00000150: a2bf 6fbd 309a 7e3d cdb0 303c e8d1 623d
00000160: 60a8 a43c 6c3a 5fbc 0e0d 2fbc 5429 213d
00000170: a4f4 843c 1cd7 933b ec2c 87bd f0a6 203d
00000180: 55b1 66bd a338 233d d4aa 31bd 8f1b 713c
00000190: 2792 03be 1744 ae3a c797 31bd a5f5 b3bc
000001a0: cf1a 22be b7f6 0dbe a228 5ebd e93e b0bd
000001b0: 0578 8cbc 70bb 51bd 78be 92bd c8c0 3f3d
000001c0: f4e5 86bc ce37 743d 0a01 f1bd e19b 0ebc
000001d0: 0451 05bd 6191 6fbd 9e12 1bbd 1158 e0bd
000001e0: 2b1b 43bb f5be 66bd 2fa8 823d c035 efbc
000001f0: 9031 433d 08ca ca3c cc4f c3bd 2305 4d3d
00000200: 121e 653d d606 6a3d 4bf5 5e3d 84f5 c5bd
00000210: 2bf9 f1bb cca2 9cbd d41a 9ebd 3086 4ebc
00000220: 4d4d dcbc 2e3a 3cbd f7ac dd3c 069e 043d
00000230: 6561 a63c fe2b e43b 3b7d d8bd ace9 fa3c
00000240: 2c44 08be 8168 de3a c351 263d b2f1 50bd
00000250: 58d3 98bd 4d3b 5ebd 3026 733d 2fce 5b3d
00000260: 7ff6 8fbd f80a 353d dc47 74bd cb00 85bd
00000270: 6630 8abd 2a1e 063d 50c7 d4bd 1525 18bb
00000280: e084 293d 61fd 02bd 25c9 50bd 84f0 11bc
00000290: 7b6a 733d 3980 743b 0be3 a6bd 5e70 bcbb
000002a0: b029 40bd 8a81 77bc f5af ff3b 73db c03c
000002b0: bc4b ba3c a9c9 40bd d059 1a3d 0095 0c3d
000002c0: 002a 4b3c 48d6 fdbc 009b d93d 2fcd 75bd
000002d0: e93c 07bd 71c3 8c3b 19f9 97bc f6b8 303d
000002e0: 64dd 95bc 1f66 413d d19f 133d 2b2b 423d
000002f0: 907c 003d 86cf db3c 688e fbbc 2d7f b2bd
00000300: 0e12 f8bc 27f1 55bd d870 a9ba 8704 713d
00000310: 7ee5 74bd d541 14be 395d d8bc fa62 3fbd
00000320: 5b30 47bc 74e6 a9bd abf8 623d 09ba abbd
00000330: 32bb 373d 8db3 7eba 9759 22bd 7e41 223d
00000340: e031 49bc e5db 79bd c74b 49be 8807 aabc
00000350: 49ca d33c 6560 4bbc 609b 39bd 68e5 92ba
00000360: dbfa 27ba 5ce7 9bbd 5a03 17bc a1f4 25bd
00000370: c4eb 44bd 3364 41bd 2fb9 223d 5c6e 963c
00000380: 26e3 923b 5e03 30bd d214 8b3c cc2b 473c
00000390: cad8 f63c 9e50 28bc a8fc 643c 1437 0a3c
000003a0: 517a f4bc c293 96bd a33f 64bd a64d 73bc
000003b0: 0340 c53c 15cf 06bd 1ccf ea3c b2aa b5bd
000003c0: fd4c 81bd 1ac5 abbd 2944 9abd 1deb 6a3d
000003d0: 3ab5 99bd 4bf4 b2bc db44 4fbd 5599 07bd
000003e0: 035c c8bd 5038 78bc 2a90 443d 7800 613d
000003f0: 7d1e 233d c588 f8bc ede1 86bd b96e aebd
-0.04364656 -0.03242474 0.010551291 0.051537298 0.014480005 0.033074982 -0.0014846905 0.03232845
-0.057735324 -0.04652378 0.055835776 0.008207202 -0.0008981824 0.011077956 0.039894063 -0.021173384
-0.07481936 -0.03940684 0.061489403 0.014791995 0.0401814 0.06602501 -0.037269436 0.004725699
0.0010388426 -0.042143866 -0.025920784 0.029838292 0.008096431 -0.09558624 -0.038788214 -0.037125833
0.07144032 -0.059228748 0.0064934967 -0.0010623112 -0.038036898 -0.0495158 -0.048536964 -0.028369494
-0.043833904 0.031922556 0.037551638 -0.009140782 -0.10327167 -0.041029178 0.021420635 -0.0014921501
0.013344621 -0.007914619 -0.06386068 0.057771806 0.06479866 -0.051340304 -0.036304124 -0.022071768
-0.10342518 -0.017765932 0.06548381 0.04028397 0.01592627 -0.0055108666 -0.048058733 0.025754936
0.021751707 0.011940241 -0.052774735 0.0067816153 0.062166043 0.04009001 0.021728722 -0.06032554
0.059681546 0.032737453 -0.08229858 -0.023501897 -0.07068169 -0.03706063 -0.0018250612 -0.033110593
-0.10076244 0.009236519 -0.08859797 0.03178043 -0.058532365 0.062158763 0.01078434 0.055375963
0.020099819 -0.013624769 -0.010684265 0.039346054 0.016229935 0.004511727 -0.06600365 0.039221704
-0.05632146 0.039848935 -0.043375805 0.014716043 -0.12848721 0.0013295439 -0.043357637 -0.021967718
-0.15830539 -0.13863645 -0.05423797 -0.08605749 -0.017147074 -0.051204145 -0.07165235 0.04681471
-0.016467072 0.059623532 -0.11767776 -0.008704157 -0.032547966 -0.058488254 -0.03785955 -0.10954297
-0.0029770832 -0.056334455 0.06379735 -0.029200435 0.04765469 0.02475454 -0.095367044 0.050053727
0.05593688 0.057135426 0.05443315 -0.09665969 -0.0073844395 -0.076482385 -0.07719961 -0.012605235
-0.026892329 -0.045953922 0.027060015 0.032377265 0.020310113 0.006963252 -0.10570761 0.030629002
-0.13307256 0.00169684 0.040605318 -0.05101175 -0.074621856 -0.054255772 0.05936259 0.05366343
-0.07029437 0.044199914 -0.059638843 -0.06494292 -0.067475125 0.03274361 -0.10389578 -0.0023215462
0.041386485 -0.031979922 -0.050973076 -0.008907441 0.05942772 0.0037307872 -0.08148774 -0.0057507
-0.046914756 -0.015106568 0.007802958 0.023542142 0.022741191 -0.047067318 0.037683308 0.034321785
0.01240015 -0.030985966 0.10625267 -0.06001013 -0.033017073 0.0042957594 -0.018551396 0.043145142
-0.018294044 0.04721653 0.036041085 0.04740445 0.031368792 0.026832353 -0.030707553 -0.08715663
-0.030282047 -0.052231934 -0.0012927307 0.05884221 -0.059789173 -0.14478238 -0.02641164 -0.04672525
-0.012157525 -0.082959086 0.05541293 -0.08385093 0.044856258 -0.0009716086 -0.03963622 0.03961324
-0.0122799575 -0.061000723 -0.19657813 -0.020755544 0.025853293 -0.012413119 -0.045314193 -0.0011207284
-0.0006407925 -0.07612488 -0.009217108 -0.0405165 -0.048076406 -0.047214698 0.039727386 0.01836317
0.0044826446 -0.04297196 0.016977701 0.012156438 0.03013267 -0.010273127 0.013976254 0.008435983
-0.029843481 -0.07352401 -0.05572475 -0.014850056 0.024078375 -0.032912333 0.02866321 -0.08870448
-0.063135125 -0.083872035 -0.07532532 0.057353128 -0.07505269 -0.021845004 -0.050602775 -0.033105213
-0.09783175 -0.015150145 0.047989048 0.054932088 0.039823998 -0.030338654 -0.06586061 -0.085172124

main_model.hiddenlayer_1.bias f4 [256]
00000000: dc68 9fbc cd84 0a3e ed25 91bd 37d5 5cbd
00000010: 525c 73bd 5e63 94bd 0ee7 4bbd 0577 d73e
00000020: 3b52 e4bd b690 1c3e e8ae 143e 6df6 babd
00000030: dc77 48bd 5ead ce3c c5af 9cbd e42a fc3d
00000040: 622c 1abe a8ef 98bd ffc5 54bc 546d c7bc
00000050: 1592 5dbc 871e 9a3e f6d5 eebc 3ad1 3dbd
00000060: e2e6 b33c fade 8fbc eb41 91bd ed8d 663e
00000070: 1c23 98bd 37c9 043e 405f 0cbf b4f8 d4bd
00000080: 84e7 2fbe 2eee 233e a0ae cf3b 2fa6 26bd
00000090: 651a 9dbd fabe a23c 63be 923c 6b9f bbbd
000000a0: cafd 24bf baea a2bd 5c2d 1abd a55a 85bd
000000b0: 09d8 f6bd 3664 c9bd 84b3 803e c5b4 3cbd
000000c0: 957c 84bd 5e69 4d3d 01eb f3bd d7cc 95bd
000000d0: 8204 8cbc ad20 1ebd fded 07be fbbd b1bd
000000e0: 4634 2a3f c3d8 35bd 6957 5d3d 9ac0 d33d
000000f0: 560a a8bd ed4d 813d bcb3 94bd 0d38 a5bd
00000100: 22ca 82bc 76d1 90bd 8086 9bbd 05a5 c8ba
00000110: 42bf 8fbd cc26 abbd b72b b8bb f200 623d
00000120: 1693 0ebd ea10 483e babf 75bd 70dc b3be
00000130: b7bd 153e f7e9 1ebe 9ef6 103f 228e 7a3e
00000140: 482b 68bc e2d1 10bd 6e5e ebbd 2cd3 87bd
00000150: 2b3b 0abd 9dac 83bd aeed 42bd a527 86bd
00000160: 3dff 7dbd a6d3 98bd ec43 9dbd ea4c 693e
00000170: a5e5 013e 7f59 5cbd 968a 853d ddf1 a3bd
00000180: dc2c 293c 0ace 233e fe08 36bc b162 88bd
00000190: 5bf3 de3e bf30 723e e2a3 86bd 2e96 043d
000001a0: ba69 4d3e 282f 5fbc 6e83 5ebd 584e cabd
000001b0: b9e2 38bd 9d2d debd c1df 983d 3f2c 76bd
000001c0: c823 343e f7a2 55bd b52e c9bd f7c7 c0bd
000001d0: 0cde e2bd 2b4d 94bd 1b7f 63bd b7dd dabd
000001e0: 93d0 4cbc 8234 9bbd 44c7 f0bc 2445 65bd
000001f0: 4776 1dbc 2f59 113e dd2f bcbd 49c7 1c3f
00000200: 20ee d2bd ab37 96bd 1dd9 123d 5766 78bd
00000210: 27bd ac3e 5c16 193e 5382 a2bd fe81 9ebd
00000220: 2034 6c3e ac4c d33c 3930 0abc afa2 f8bd
00000230: fe25 dbba b561 f03b 57ee 9ebc d76c e9bc
00000240: dccb 67bd bfdc 12bd a22d b13d 1c34 1ebd
00000250: fb20 a7bd 252c e73d 9c9e b7bc 5e9d 73bd
00000260: d300 fbbc fd3d b5bc 2a72 1f3e 3466 2abd
00000270: d13b 2f3e ef38 22be e2db 1abd 21a3 f2bc
00000280: 7cc1 99bd 0819 e0bd c37f e3bd f19b c8bb
00000290: 78a7 0e3d e854 b73d 0901 313e 2c61 bcbd
000002a0: 4e9d 8abc 77be cfbc 81e4 223e e087 c2bd
000002b0: 584b febd 8d0d b6bc 8a2b 1d3f ddb1 bfbd
000002c0: 50b1 de3a 068e 5c3e b63b c53b 0fac 82bd
000002d0: fd16 6cbd 6127 fcbd 465e 07be ac4e c1bc
000002e0: efc5 4fbd 6ade f5bc f18e b1bd 6709 c8bd
000002f0: ec1a 9b3c 2b65 2d3d 518f 4dbd 0ece 5d3e
00000300: e1fa 873f 33bb 78bc 9852 07bd 9558 92bc
00000310: 2adc 54bd 0ae5 48bd 06ae 313d 5a46 3dbc
00000320: 5db3 c9bd 9c49 99bb 8da0 5e3e 0582 f73c
00000330: 2575 dabc 83f7 ea3b 8e2d 8ebd e026 ad3b
00000340: d6eb 23bd 73ec f3bd 58d4 97bd 1432 14bd
00000350: bc68 c83d 6f88 4d39 9e9c 81bd c7cb 88bd
00000360: 82a1 2bbb c845 22bd 164e f6bc 45cb a9bd
00000370: afcd 603e c5b0 71bd 7acf 66bd 4afd 8d3e
00000380: c933 c43b 92ff f4bd 3e22 f7bd b076 61bd
00000390: a0ee b1bb 9d52 36bc 4cea efbc ca90 c8bd
000003a0: 55c1 cebd f44d 80bc 6749 bdbc 880f 67bc
000003b0: 0567 76bd b539 74bd dfda 5f3e 67f4 a03b
000003c0: fecb 7c3e 3662 bcbd 2a92 45bd 965e dbbc
000003d0: e7dc 9b3b 10a4 90bd 562f b63d 4df6 123f
000003e0: d336 07be a03b a6bd 6350 5e3e 827a 50bd
000003f0: 36b7 02bd 7ab1 54bd d87b f7bd ad36 9abd
-0.01945918 0.13527222 -0.07087312 -0.053914275 -0.059414215 -0.07245515 -0.049780898 0.42082992
-0.11148497 0.15289578 0.14519846 -0.09129033 -0.04894243 0.025229152 -0.07650713 0.12312868
-0.15055993 -0.07467586 -0.012986659 -0.024344124 -0.013523598 0.30101416 -0.029154759 -0.046342112
0.02196068 -0.017562378 -0.07092651 0.22515078 -0.074285716 0.12967382 -0.5483284 -0.10398999
-0.1717816 0.16008827 0.0063379556 -0.04068583 -0.0767105 0.019866455 0.01791305 -0.09161266
-0.6444975 -0.07954927 -0.037640914 -0.0651143 -0.12052924 -0.09833567 0.2513696 -0.046070833
-0.06469075 0.050149314 -0.11910058 -0.07314461 -0.017091993 -0.03860538 -0.13274379 -0.08678814
0.6648601 -0.044396173 0.05403844 0.1033947 -0.082050964 0.06313691 -0.07260844 -0.080673315
-0.015965525 -0.070712015 -0.07594013 -0.0015307969 -0.070189014 -0.08357009 -0.0056204456 0.055176683
-0.03480824 0.19537702 -0.059997298 -0.35129118 0.14623152 -0.15518938 0.5662631 0.24468282
-0.014170475 -0.03535641 -0.114926204 -0.06632075 -0.033747833 -0.06429408 -0.04758995 -0.0655053
-0.062010992 -0.07462244 -0.07678971 0.22783247 0.12685259 -0.053796288 0.06520574 -0.08005116
0.010325637 0.15996566 -0.011110542 -0.06659449 0.4354504 0.23651408 -0.06574227 0.032369785
0.20059863 -0.013622083 -0.05432456 -0.09878224 -0.045138095 -0.10848544 0.07464553 -0.06010079
0.17591774 -0.05215737 -0.09823362 -0.0941314 -0.11077508 -0.07241281 -0.05554114 -0.1068682
-0.0125009 -0.075783744 -0.029391892 -0.05597414 -0.009610719 0.14194177 -0.09188817 0.61241585
-0.10299325 -0.073348366 0.035851587 -0.060644474 0.33738062 0.14949936 -0.079350136 -0.07739638
0.23066759 0.025793396 -0.008434349 -0.121404044 -0.0016719697 0.0073358663 -0.019400759 -0.028494282
-0.0565909 -0.03585505 0.08651282 -0.038623914 -0.081605874 0.11287717 -0.022414498 -0.05947625
-0.030640041 -0.022124285 0.15570894 -0.041601375 0.17112662 -0.15842031 -0.037807353 -0.029618802
-0.07507607 -0.10942274 -0.11108353 -0.0061221053 0.03482768 0.089517415 0.17285551 -0.091982216
-0.016920712 -0.025359375 0.1590748 -0.09498572 -0.124167144 -0.022223258 0.6139456 -0.093600966
0.0016990099 0.21538553 0.006019081 -0.06380474 -0.05763911 -0.123121984 -0.13219556 -0.023597084
-0.050725874 -0.030013282 -0.08669842 -0.09767418 0.018933736 0.04233281 -0.050185505 0.21660635
1.0623437 -0.0151813505 -0.033037752 -0.017864505 -0.051967777 -0.049046554 0.043378852 -0.011552418
-0.09848664 -0.0046779644 0.21740933 0.030213365 -0.026667187 0.007170619 -0.069422826 0.0052841753
-0.040019833 -0.119103335 -0.07413548 -0.03618057 0.097856015 0.00019601149 -0.063287005 -0.066794924
-0.0026188795 -0.03961733 -0.030066531 -0.08290724 0.21953462 -0.05900647 -0.05635021 0.27732307
0.0059876186 -0.11962809 -0.12067078 -0.05504483 -0.0054300576 -0.011128095 -0.029286526 -0.09793241
-0.10095469 -0.015662171 -0.02310629 -0.014102824 -0.06015684 -0.059625346 0.21860836 0.0049119475
0.24687192 -0.0919842 -0.048235096 -0.0267785 0.004756558 -0.070625424 0.08895747 0.57407075
-0.13204508 -0.08116841 0.21710353 -0.050898083 -0.031913005 -0.051927067 -0.12084168 -0.0752996

main_model.hiddenlayer_2.weight f4 [256, 256]
00000000: 48a5 bc3d 47a2 76bb 4f5b 0e3c 9fa0 31bd
00000010: 8e21 19bd 151f 91bc eb3b 55bd 2545 c9bd
00000020: 8573 8b3c 042c bc3a 0ea1 443d 568c a7bc
00000030: cd7e 813d e0fb 473c d77f 063d 6dce 92bc
00000040: ba93 ecbd 52d0 333d f34e 82bd 490d 063d
00000050: 9c4c 423d 0a06 1abe 9c13 f8bb c9bf b0bd
00000060: 2359 93bc 2e45 3ebd 9791 303d 63dc 2dbe
00000070: 1259 dabc 0f60 f33b f9e1 2abe d54d f43d
00000080: 7cb8 6c3c 5563 f63c 404e a13b f98f 8ebc
00000090: 8220 68bc 892c cc3d 54cf 653c 07f1 ddbc
000000a0: cb6e 15be c3f2 81bd 0980 57bd 86ff eb39
000000b0: c4a4 893d 7be1 17bd c675 6dbd bdc2 703c
000000c0: cb30 aa3c b209 81bd 20f4 6f3c 38d5 7cbc
000000d0: 288a 4fbd 802e 28bd 772b 493d 7bbf 0d3c
000000e0: c336 98be 269a 6fbd 4d74 8f3b d457 38bd
000000f0: 7f71 39bc ff8b ffbc 8ad3 c63c 85ab 3dbc
00000100: 8f8d 3fbd a890 31bc 7338 593c d4e1 093d
00000110: dc65 313b 4395 17bd 668b 743b a136 3ebc
00000120: 0bbc a4bc 1ab2 d63d 60de c7bc 1089 01be
00000130: 585f 4d3d 8dd6 61bd 2300 8dbd 4973 3c3b
00000140: e7ee c43d 6098 993d c5c9 793b 9589 943c
00000150: abf6 0abd ae8a a83c 84d9 3e3d fa21 edbc
00000160: c8a7 28bd f2a5 12bd e1b3 55bd 510d 18bd
00000170: 4e6e 3a3d 3a73 d03c f9b9 07bd 82d2 603d
00000180: 9fd9 043d bcc7 883d fd5d 20bd 44fc 70bd
00000190: d0dd 2fbe e980 e1bd e89e 23bc 6bbc e1bd
000001a0: 6fcf 84bc f237 51be 9d80 1a3d 002e e23c
000001b0: 1827 21bd 3972 ba3d 1225 44bd c80c 133d
000001c0: 69b4 983c b316 0b3d 8f03 25bd 315c 33bc
000001d0: cced 143d 6411 673d e3d5 0d3d 1424 963d
000001e0: 7185 81bd 5c67 673d 54a5 3d3d 18eb b4bd
000001f0: 7a9f 403d e5a0 5bbe ce54 15bb a926 8bbd
00000200: 2194 80bc f1e5 df3c 25a1 243d 1fe2 0e3d
00000210: def9 b33c 132f bb3c 68ec 203c 0fb7 103c
00000220: a0d5 b0bb 75e6 913d be2b 2eba a1c6 00bd
00000230: b572 00bd 0af6 e03c f9be 58bc 4209 8e3c
00000240: 6303 e73c 87a5 88bc 0839 44bc 1e04 2ebc
00000250: c6e7 0b3d ca5d d9bd 7288 85bd cd11 07bd
00000260: 40dd 843c 1661 223d af02 4cbd 9032 d4bc
00000270: 9dd3 51bd ea64 3a3c cb0a 0cbd 26f0 70bc
00000280: d0af 0d3d a2aa 63bc 4393 8d3a df31 51bd
00000290: 7ec9 5cbd 4137 97bd 93ad c1bc 0734 693d
000002a0: 1e95 b73c 27e7 ab3c f275 6d3c 5a50 1c3a
000002b0: 5d93 55bc c5e5 d2bc 2cc7 a2bc a338 8abc
000002c0: dde5 abbb 2526 9bbb d008 c83b af91 83bd
000002d0: f3e7 303d 6e66 233d d69d 733d 2f99 043d
000002e0: f8a0 99bc ea6c 7e3d e7e8 3fbd 4e41 7d3d
000002f0: 11b9 96bc 24b2 b4bd 5ff2 5abc 66dd 2ebd
00000300: d677 08be 62b5 7abc e6e3 2f3d 004f e5bc
00000310: 2c58 cbbc a035 ba3c 41a9 763e e04c 413b
00000320: 652b 6c3c a7c8 56be 97b6 37be 33d7 24bb
00000330: 1162 7d3c 905b 793d 11dd 2abb a774 93bd
00000340: a37a 8a3c 1951 18bd d7c7 15b9 358c 3c3d
00000350: 199c 2a3d ad1f e23b 536b 01bd 79fc 4cbd
00000360: 7ec6 253c aee3 f73c 5b9a 01bd 16e5 083d
00000370: 185f 4a3c 2740 1bbc dbcd 59bb ef2c 16be
00000380: 98e5 62be 2370 213d f4de 6bbd fad4 103d
00000390: 1aba 6dbd 87ee 6bbd 1604 423d 175d 87be
000003a0: b451 663c 5a91 143d 4ddf 6b3c 0a60 5abd
000003b0: 927e ed3b ccdb 553d df91 48bd 359c a3bd
000003c0: 6e38 a8bd a964 0d3d af15 7d3b 3136 9b3d
000003d0: 185a 063d 2e91 90bc 0f1b 19bd 90be 96bd
000003e0: a239 b6bd d134 f13c a5ab 63bd eceb 2d3d
000003f0: c446 84bd 808d cdbc 7175 b63c cd34 763d
0.092112124 -0.0037633346 0.008688762 -0.04336607 -0.037385516 -0.017715016 -0.052059095 -0.098276414
0.017022857 0.0014356379 0.048005156 -0.02045266 0.063230135 0.012206048 0.03283676 -0.017920697
-0.11551614 0.04389984 -0.063627146 0.032727513 0.04743634 -0.15041366 -0.007570697 -0.0863033
-0.01798684 -0.046452694 0.043107595 -0.16978602 -0.0266538 0.0074272226 -0.16687764 0.11928908
0.014448281 0.030076662 0.004922658 -0.017402636 -0.014167907 0.09969432 0.014026482 -0.02709247
-0.14593045 -0.06345131 -0.05261234 0.00045013073 0.0672088 -0.03708027 -0.057973646 0.014694867
0.02077522 -0.06300677 0.014645606 -0.015431695 -0.050668865 -0.04105997 0.049113717 0.0086516095
-0.2972928 -0.058496617 0.004377878 -0.045005634 -0.0113185635 -0.031194685 0.024270792 -0.011576538
-0.04676586 -0.010837711 0.013258087 0.033662632 0.002706877 -0.03700758 0.0037314533 -0.011609704
-0.020109197 0.10483189 -0.024398029 -0.12649941 0.050139755 -0.055136252 -0.06884792 0.0028755239
0.096158795 0.07499766 0.0038114649 0.01813201 -0.033926647 0.02057394 0.046594158 -0.028946865
-0.041175634 -0.03580279 -0.0521735 -0.037122075 0.04551535 0.02544557 -0.03313634 0.054888256
0.032434102 0.06678721 -0.039152134 -0.05883433 -0.17174459 -0.11010916 -0.009986617 -0.11022266
-0.016212193 -0.20431498 0.03772031 0.027609825 -0.039343923 0.091038175 -0.047886916 0.03590086
0.018640714 0.033957195 -0.040286597 -0.010947273 0.036359593 0.05641307 0.034627806 0.073311
-0.0632428 0.056495056 0.046300247 -0.08833903 0.04702709 -0.21448095 -0.0022786143 -0.06794483
-0.015695633 0.027331324 0.040192742 0.034883615 0.021969732 0.022849595 0.009821989 0.008832707
-0.00539656 0.07124034 -0.00066440913 -0.031439427 -0.031359393 0.02746107 -0.013229125 0.017338399
0.028199857 -0.016680492 -0.011976488 -0.010621099 0.034156583 -0.10613592 -0.065201655 -0.03297596
0.016218781 0.03964337 -0.049807247 -0.025903016 -0.0512272 0.011376599 -0.03418998 -0.014705693
0.034591496 -0.0138956625 0.0010801334 -0.05107295 -0.053903095 -0.07383586 -0.023642337 0.056934383
0.022409972 0.020984245 0.014493452 0.0005962901 -0.013035622 -0.025744328 -0.019870363 -0.01687271
-0.0052459077 -0.004734772 0.006104566 -0.06424271 0.043189954 0.039892606 0.059476696 0.03237265
-0.018753514 0.062115587 -0.046852972 0.061829858 -0.018398793 -0.0882304 -0.01336345 -0.04269161
-0.13326964 -0.015302034 0.04294195 -0.027991772 -0.024822317 0.022730649 0.24088003 0.0029495284
0.014414643 -0.2097498 -0.17940746 -0.0025152683 0.015465275 0.060878336 -0.0026071707 -0.07199984
0.01690418 -0.037186716 -0.00014284193 0.04603215 0.041652773 0.0069007487 -0.031596493 -0.050045464
0.010118125 0.030259933 -0.031641345 0.0334216 0.012351774 -0.009475744 -0.0033234272 -0.14665578
-0.22157896 0.039413583 -0.05758567 0.03535936 -0.05803881 -0.057600524 0.047367178 -0.2643821
0.0140575655 0.03627143 0.014396501 -0.053314246 0.0072477544 0.052211568 -0.04896724 -0.079887785
-0.08213888 0.034519825 0.003861766 0.075786956 0.032800764 -0.017647352 -0.03737932 -0.07360566
-0.08897711 0.02944413 -0.055583615 0.04246132 -0.0645881 -0.025091887 0.022272797 0.06010895
