DQN/DQN_complete/save/main_model_000021.pth (torch_old, 809026 bytes, 10 tensors)

main_model.InputLayer.weight f4 [256, 7]
-0.23924111 -0.13490118 -0.2607934 0.066655666 -0.32409912 -0.13791189 0.12998042 -0.20132692
-0.19264236 0.3519881 -0.18865743 -0.0034398169 0.10137232 0.12846836 0.15205994 -0.18825988
-0.29892492 0.15477446 0.02450955 -0.08347002 -0.36456537 0.24123733 -0.30616954 0.04905823
-0.098901935 0.29493806 -0.2557563 0.37486318 -0.26974612 -0.10791811 0.23695776 -0.34215498
-0.22273402 0.17467025 -0.34926954 -0.3729109 -0.09581539 0.2492967 -0.23689319 -0.3394138
-0.10296303 0.040781796 0.026774913 -0.026444644 -0.06439033 0.13700184 -0.25875145 0.19711241
-0.13358007 0.24250601 0.29845524 0.28672925 -0.015538834 0.29408818 0.101701416 -0.31080455
0.25825423 -0.19358289 0.22029996 0.27073514 -0.059631936 0.26442018 -0.05172503 -0.022594485
-0.20350339 0.2585906 0.31142458 0.21065651 -0.074928485 0.25131634 -0.18818292 0.21494487
-0.06043935 -0.26658127 -0.334473 -0.35829714 0.13792732 0.2596514 0.33072567 -0.15042241
0.010575178 -0.2845263 0.1231509 -0.12187073 -0.32835355 -0.2685772 -0.3411525 0.08115798
-0.08529982 0.17515895 0.34781048 0.33005068 -0.31982633 -0.19441113 0.28922608 -0.3261182
0.00639615 -0.31572524 0.035496533 -0.22397543 -0.16372956 -0.08718723 0.07063192 -0.19741021
-0.037161738 0.024042934 -0.07105306 -0.039045334 -0.104316324 0.012904704 -0.37412786 -0.09482819
0.098454736 0.059658017 0.35544574 0.3207935 0.28611368 0.41036788 0.0064989924 -0.13480976
-0.2859868 -0.11200473 -0.32763755 0.02072391 -0.073153436 0.1749073 0.06134209 -0.24571943
-0.047787696 -0.004677713 -0.30790663 -0.3203717 0.2862983 -0.33481592 0.14879592 -0.14000201
0.24406736 0.11983 -0.5300891 -0.12777323 0.18765695 -0.3046448 -0.020474754 0.1959429
-0.3314757 -0.20227112 -0.15720642 0.18633167 -0.20206814 0.07040451 0.16376643 0.0144865485
-0.3169748 0.2303724 -0.06760758 -0.158768 0.34829262 -0.24088235 -0.3775562 -0.34565413
-0.2543071 -0.06760518 0.33951238 0.3445489 0.26230696 0.062647425 0.3419806 -0.27942666
0.17008302 -0.32950395 -0.13295424 -0.020681143 -0.22877471 0.2784216 0.25510237 0.33336824
-0.24502672 0.17657708 -0.24354158 0.021528922 0.05049782 0.042586148 -0.15156585 0.25083318
0.24591018 0.0313499 -0.18537477 -0.11864236 0.18342093 0.19197045 -0.33324632 -0.16142862
0.1615047 -0.08461894 0.096511126 -0.19171844 -0.15941213 0.010761639 -0.29830265 0.28246608
-0.2352241 -0.2624496 -0.31258684 -0.012081592 -0.27153608 0.21586879 0.15805711 0.22968507
0.35430828 -0.088585734 0.09223196 -0.25367475 -0.3509299 -0.2953721 0.17170921 0.30974528
0.24202546 -0.30222714 0.1076484 -0.18841934 0.17939562 -0.04169308 -0.05839025 -0.37161225
-0.2571837 -0.16711324 -0.09272331 -0.017957449 -0.35306102 -0.06268677 0.18334702 0.052278154
0.025694748 -0.29544222 -0.063418515 0.24823116 0.10763926 -0.08494991 -0.26159844 0.25090498
0.23786643 0.16937342 0.03297402 -0.045285236 -0.26449773 0.23755825 0.023914954 0.21122096
0.0046575204 -0.09189619 0.34429514 -0.06614199 -0.05731019 0.076028764 -0.19185604 0.11420001
00000000: 9ffb 74be 8923 0abe b686 85be c482 883d
00000010: 52f0 a5be c638 0dbe 9619 053e a528 4ebe
00000020: 0a44 45be c937 b43e 6a2f 41be 8d6e 61bb
00000030: 4a9c cf3d 368d 033e 9ab5 1b3e 33c7 40be
00000040: b00c 99be 327d 1e3e 40c8 c83c 54f2 aabd
00000050: 50a8 babe eb06 773e 41c2 9cbe 48f1 483d
00000060: 198d cabd 1f02 973e 7df2 82be 11ee bf3e
00000070: 2a1c 8abe 2c04 ddbd 0ea5 723e f02e afbe
00000080: 6314 64be c2dc 323e 75d3 b2be 2dee bebe
00000090: dc3a c4bd a247 7f3e 2194 72be a5c7 adbe
000000a0: 48de d2bd d00a 273d 1057 db3c 70a2 d8bc
000000b0: 14df 83bd 364a 0c3e 127b 84be d6d7 493e
000000c0: 37c9 08be 7f53 783e 20cf 983e 2dce 923e
000000d0: 9896 7ebc ba92 963e d548 d03d c621 9fbe
000000e0: e639 843e 983a 46be 5096 613e cc9d 8a3e
000000f0: 9e40 74bd 1562 873e a0dd 53bd 1218 b9bc
00000100: 3163 50be fd65 843e 0b73 9f3e 57b6 573e
00000110: 1b74 99bd 89ac 803e 06b3 40be 821a 5c3e
00000120: 408f 77bd 577d 88be 0c40 abbe b972 b7be
00000130: d23c 0d3e 07f1 843e e054 a93e 5508 1abe
00000140: 8343 2d3c 6ead 91be 8a36 fc3d 5c97 f9bd
00000150: f51d a8be f382 89be 8aab aebe 2836 a63d
00000160: acb1 aebd de5c 333e 3714 b23e 67fc a83e
00000170: 47c0 a3be b613 47be 7115 943e f7f8 a6be
00000180: cc96 d13b bda6 a1be d064 113d d159 65be
00000190: b9a8 27be 388f b2bd 78a7 903d e725 4abe
000001a0: e836 18bd b0f5 c43c 4484 91bd 00ee 1fbd
000001b0: cca3 d5bd 406e 533c b08d bfbe 4835 c2bd
000001c0: a3a2 c93d f75b 743d fcfc b53e 0c3f a43e
000001d0: 7e7d 923e bd1b d23e 80f5 d43b 920b 0abe
000001e0: dd6c 92be bc62 e5bd 1cc0 a7be 30c5 a93c
000001f0: 78d1 95bd e61a 333e d841 7b3d e09d 7bbe
00000200: 08bd 43bd 8047 99bb f0a5 9dbe c207 a4be
00000210: b195 923e fe6c abbe f55d 183e b05c 0fbe
00000220: cbec 793e 6e69 f53d ebb3 07bf fcd6 02be
00000230: 2529 403e 67fa 9bbe acba a7bc 41a5 483e
00000240: 2fb7 a9be 2920 4fbe b8fa 20be bbcd 3e3e
00000250: f3ea 4ebe 3d30 903d 63b2 273e fd58 6d3c
00000260: 854a a2be bee6 6b3e d875 8abd 1494 22be
00000270: 6953 b23e dda9 76be 0c4f c1be 94f9 b0be
00000280: 8a34 82be 9674 8abd 91d4 ad3e b768 b03e
00000290: 194d 863e 4b4d 803d 1518 af3e 0311 8fbe
000002a0: 3e2a 2e3e beb4 a8be 2825 08be 806b a9bc
000002b0: eb43 6abe 478d 8e3e c79c 823e 3eaf aa3e
000002c0: 49e8 7abe 9fd0 343e f762 79be 6c5d b03c
000002d0: cdd6 4e3d d06e 2e3d 1434 1bbe 356d 803e
000002e0: e1cf 7b3e c168 003d e2d2 3dbe c4fa f2bd
000002f0: b2d2 3b3e e793 443e 439f aabe 8b4d 25be
00000300: 7d61 253e b24c adbd a0a7 c53d d751 44be
00000310: ef3c 23be 9651 303c 20bb 98be 659f 903e
00000320: 96de 70be cb5f 86be 620b a0be dff1 45bc
00000330: c706 8bbe b50c 5d3e b9d9 213e 9032 6b3e
00000340: e567 b53e 706c b5bd 1ce4 bc3d a8e1 81be
00000350: 15ad b3be 033b 97be 8ad4 2f3e ef96 9e3e
00000360: 86d5 773e 84bd 9abe c476 dc3d 00f1 40be
00000370: 7cb3 373e 5dc6 2abd 9d2a 6fbd f643 bebe
00000380: 95ad 83be bc1f 2bbe b8e5 bdbd 801b 93bc
00000390: 6ac4 b4be ec61 80bd 52bf 3b3e 9e21 563d
000003a0: cb7d d23c 3444 97be 91e1 81bd 4f30 7e3e
000003b0: f971 dc3d 38fa adbd 3bf0 85be 9e76 803e
000003c0: 4293 733e 3a70 2d3e c40f 073d 037d 39bd
000003d0: 3f6c 87be 7842 733e 4be9 c33c 4f4a 583e
000003e0: 1d9e 983b 1234 bcbd 7447 b03e 7475 87bd
000003f0: 17be 6abd f8b4 9b3d e975 44be b2e1 e93d

main_model.InputLayer.bias f4 [256]
0.031232469 0.14216757 -0.31100565 -0.21375652 -0.3465064 0.24238804 0.2727427 0.06703972
-0.33324262 -0.22833736 -0.07817075 -0.32358262 0.30079278 0.13034275 0.2253139 0.25023544
0.34675384 -0.30864662 0.40382144 0.12754895 0.040387973 -0.3770364 -0.1653933 -0.01844206
-0.015062481 -0.22511262 -0.10856025 -0.23527834 -0.24184595 0.2617959 0.3735832 0.14482453
0.061723094 -0.11831025 0.25778764 0.390666 0.36825138 0.2335791 0.18142448 -0.16745703
0.38133875 -0.24334547 0.078433745 0.16651887 0.2504464 -0.124705985 -0.07168329 -0.018055923
-0.16155417 0.09806622 -0.06852106 0.083485045 0.355024 0.37931 -0.28918025 0.17878102
-0.17608881 -0.33796933 -0.020051807 0.30843624 -0.3728738 0.25716606 0.2187005 -0.3404187
0.13609417 0.17252658 0.08114305 0.18852319 0.20587482 -0.063779354 0.09528927 0.27150357
0.26716885 0.03733303 0.14375086 0.16004096 -0.108129375 0.2860939 -0.010438453 0.239488
-0.15770037 -0.129046 0.0030186465 -0.27639607 -0.19834618 -0.36855927 0.18985969 0.06842028
-0.3419475 -0.07953434 -0.3760623 -0.17551738 0.28802326 -0.21651107 0.3468118 -0.13670999
-0.1209447 -0.079071134 -0.08285427 0.21589458 -0.23079471 0.1846789 0.16144425 0.32740512
-0.06634067 0.12735288 0.23732512 0.09767903 0.03999158 -0.03369606 -0.32867786 0.36268094
-0.15156622 -0.14930709 0.11646236 0.3587993 -0.32047993 -0.1543339 0.13983968 0.3838389
0.0775208 -0.06540803 0.29310843 0.3820554 0.36691982 0.1429231 0.27715665 -0.28757834
0.34482616 -0.25896236 0.36544576 -0.16979925 -0.09675921 0.38960764 0.22918426 0.2534459
-0.09377587 -0.32292905 0.32992586 -0.27954614 -0.29481065 0.23001568 -0.25675127 0.2896137
-0.1286931 -0.083944276 0.22963798 0.36030838 -0.015557468 -0.120902546 0.17927983 0.07613453
0.34040162 0.1141058 -0.13750798 0.14294744 -0.088781275 -0.056803297 -0.13599414 0.21910629
0.15201315 -0.36964095 0.25123262 0.11200126 0.28240785 0.20477055 -0.13598081 -0.16221264
-0.07937145 -0.27331737 0.34191325 -0.29875594 -0.0503398 0.3543742 -0.24790788 0.008064775
0.16357945 0.25355724 0.23268394 0.31840053 0.17776431 -0.14627098 0.29026788 -0.23989204
0.065548815 0.35326147 0.13062043 -0.35665157 -0.06282717 0.24162763 -0.2688867 0.15553541
-0.20111655 -0.21939908 0.061567824 0.15120298 0.15151793 0.35801417 0.2675907 -0.29586196
-0.015509918 0.097669624 0.3555317 -0.008060441 0.08579765 0.2476405 -0.20974958 0.14689942
0.18685879 -0.2482189 -0.33786628 0.15730639 0.06114069 0.13036974 -0.01620844 -0.08257213
-0.28506893 -0.13438872 -0.30375376 0.4123154 -0.24231414 0.29826084 0.15177706 -0.111211985
0.28687635 -0.09333913 0.15931916 -0.19894509 0.23986584 0.36479762 -0.33823258 -0.18547167
-0.1807197 -0.24272855 -0.041194413 -0.31919354 0.15807876 0.043834016 -0.11133962 -0.2177111
0.10291944 0.10923034 0.060936265 -0.065788135 0.12929884 0.023606509 -0.016250037 -0.1214523
-0.15189105 -0.20066868 0.41003162 0.22120307 -0.099345595 0.332102 -0.03460471 0.2679416
00000000: 3cdb ff3c 6094 113e 223c 9fbe fde2 5abe
00000010: 4969 b1be 9234 783e eea4 8b3e 1f4c 893d
00000020: c79e aabe 45d1 69be fc17 a0bd 9fac a5be
00000030: 8301 9a3e 9278 053e b0b8 663e dc1e 803e
00000040: b889 b13e ee06 9ebe afc1 ce3e 319c 023e
00000050: dc6d 253d ea0a c1be dc5c 29be ce13 97bc
00000060: a0c8 76bc ec83 66be d654 debd ceec 70be
00000070: 77a6 77be 1d0a 863e 4c46 bf3e e24c 143e
00000080: 5bd1 7c3d a54c f2bd befc 833e 6005 c83e
00000090: 728b bc3e 5c2f 6f3e 57c7 393e db79 2bbe
000000a0: d53e c33e 8e2f 79be dfa1 a03d ec83 2a3e
000000b0: 833a 803e da65 ffbd b0ce 92bd 04ea 93bc
000000c0: 756e 25be f1d6 c83d c554 8cbd 35fa aa3d
000000d0: b5c5 b53e ec34 c23e 6f0f 94be 5f12 373e
000000e0: a050 34be 510a adbe b043 a4bc 5beb 9d3e
000000f0: 51e9 bebe 45ab 833e 06f3 5f3e 5c4b aebe
00000100: 455c 0b3e cfaa 303e 542e a63d 390c 413e
00000110: d9d0 523e c09e 82bd 0527 c33d 8402 8b3e
00000120: 5bca 883e 85ea 183d 6d33 133e c7e1 233e
00000130: ef72 ddbd e67a 923e 0c06 2bbc 583c 753e
00000140: 357c 21be a224 04be 7cd4 453b c983 8dbe
00000150: 431b 4bbe cdb3 bcbe 946a 423e ef1f 8c3d
00000160: be13 afbe e6e2 a2bd 3d8b c0be d4ba 33be
00000170: c977 933e 14b5 5dbe 5191 b13e b4fd 0bbe
00000180: dbb1 f7bd 0cf0 a1bd 80af a9bd 7813 5d3e
00000190: 7355 6cbe 771c 3d3e a451 253e a5a1 a73e
000001a0: 9edd 87bd cb68 023e 5b05 733e f10b c83d
000001b0: 36ce 233d e104 0abd 7748 a8be 51b1 b93e
000001c0: 2d34 1bbe f5e3 18be d183 ee3d 8bb4 b73e
000001d0: f215 a4be b509 1ebe 2232 0f3e 8886 c43e
000001e0: 3ac3 9e3d a5f4 85bd 4f12 963e c49c c33e
000001f0: eadc bb3e 6f5a 123e 7ae7 8d3e 783d 93be
00000200: 0e8d b03e b796 84be b51b bb3e dbdf 2dbe
00000210: b129 c6bd a77a c73e 47af 6a3e a9c3 813e
00000220: 900d c0bd f556 a5be 0bec a83e ac20 8fbe
00000230: 6cf1 96be 3b89 6b3e e774 83be 3f48 943e
00000240: 20c8 03be faea abbd 3826 6b3e 577a b83e
00000250: c0e4 7ebc c19b f7bd 2295 373e 6cec 9b3d
00000260: 1f49 ae3e 4db0 e93d e4ce 0cbe d060 123e
00000270: f5d2 b5bd 93aa 68bd 0c42 0bbe 665d 603e
00000280: 56a9 1b3e 9441 bdbe 90a1 803e eb60 e53d
00000290: c397 903e 5faf 513e 8e3e 0bbe 121b 26be
000002a0: 808d a2bd 41f0 8bbe 410f af3e 8af6 98be
000002b0: 1b31 4ebd 8970 b53e 90db 7dbe 1e22 043c
000002c0: 5f81 273e 41d2 813e b344 6e3e 6505 a33e
000002d0: d907 363e 0fc8 15be fe9d 943e 42a6 75be
000002e0: 753e 863d b0de b43e 5dc1 053e 099b b6be
000002f0: 88ab 80bd 3c6d 773e 84ab 89be ad44 1f3e
00000300: 7ff1 4dbe 27aa 60be 8b2e 7c3d f4d4 1a3e
00000310: 8427 1b3e a24d b73e a601 893e 387b 97be
00000320: 501d 7ebc 0307 c83d 4008 b63e f10f 04bc
00000330: aeb6 af3d 7995 7d3e 98c8 56be cd6c 163e
00000340: e957 3f3e 182d 7ebe cffc acbe ed14 213e
00000350: a96e 7a3d a57f 053e 90c7 84bc 941b a9bd
00000360: 8ef4 91be 329d 09be 9d85 9bbe 011b d33e
00000370: 3321 78be a5b5 983e 726b 1b3e 1cc3 e3bd
00000380: 75e1 923e 9628 bfbd 9024 233e 43b8 4bbe
00000390: 649f 753e c1c6 ba3e d22c adbe 49ec 3dbe
000003a0: 960e 39be d58d 78be 79bb 28bd 566d a3be
000003b0: 66df 213e 4c8b 333d 0706 e4bd a9ef 5ebe
000003c0: 6dc7 d23d 28b4 df3d 4e98 793d eebb 86bd
000003d0: ea66 043e 7062 c13c cc1e 85bc fcbb f8bd
000003e0: 5489 1bbe 177c 4dbe aaef d13e 0f83 623e
000003f0: b475 cbbd 4609 aa3e abbd 0dbd a42f 893e

main_model.hiddenlayer_0.weight f4 [256, 256]
-0.018864825 0.029775374 0.012258917 -0.04967256 0.008550532 -0.026830904 -0.043717347 -0.03919623
0.013083324 -0.0529525 -0.003852442 0.018005073 -0.05545438 -0.0544049 -0.057025574 0.025272705
-0.028482959 -0.021550767 -0.042920485 0.032930456 -0.0028967187 -0.017624602 0.0030726194 0.05292277
0.06062644 -0.051496208 0.035473213 -0.037745096 0.019233167 0.011008479 -0.029219098 -0.021195814
0.033839174 -0.029086247 -0.056594066 -0.037785977 -0.020412795 -0.009621009 0.0050137416 0.052928783
-0.05640503 0.058005646 0.00425943 -0.032051377 -7.1674585e-05 -0.009906031 0.01934138 -0.019325614
0.017873682 0.06169024 0.016794592 -0.0032491162 -0.02706112 0.002347052 -0.029127464 -0.015446968
0.03045509 -0.053914748 -0.040765844 0.060221784 0.03987077 -0.03466522 -0.057731017 0.014169708
-0.012778044 0.019988552 0.027836114 0.021978877 -0.046949632 0.01176247 -0.03969626 0.0018690601
-0.061435588 -0.012971766 0.047860064 0.020449296 0.040794924 -0.060898624 -0.060108043 0.0019756854
-0.033274174 0.0486662 -0.049020067 0.059555143 -0.02373109 0.059398867 0.035272993 0.056006953
-0.028759986 -0.0020821318 -0.037449487 -0.061990216 -0.05404856 -0.0066450685 0.020074211 0.033094563
-0.026587442 -0.05380778 0.02599138 -0.03686481 0.057249486 -0.036768764 -0.031007014 -0.021758452
-0.051145397 0.02086477 0.0011396408 -0.0007767007 -0.027730905 -0.05272445 0.008254521 -0.031458408
0.021493807 -0.017139986 -0.03347931 0.045747645 -0.010735668 -0.00099051 0.010445043 0.060124822
-0.0004788339 0.024488434 -2.041459e-06 0.04666034 0.008756854 -0.04979507 0.029722042 0.054429762
0.007894948 -0.0012486726 -0.027580082 0.034071922 -0.055177085 0.015941888 -0.029632159 -0.04095543
-0.010525756 0.02629093 0.014923058 0.0052604526 -0.02738379 -0.015639223 -0.001274176 -0.026998922
0.00048672408 -0.0033562407 -0.032904223 0.053168975 -0.03573803 0.008883379 0.05016698 0.0058932975
0.024225421 0.009586759 0.029346801 0.035782076 0.06113608 -0.052287214 0.009027399 -0.016745903
0.012826964 0.021796681 0.02498208 -0.036728993 -0.049256146 -0.043846674 0.054422967 0.03925217
-0.0028567389 -0.001678668 0.036885493 -0.020081185 -0.04741677 0.04272441 -0.010918826 0.01627674
-0.040257357 -0.024651766 0.027345203 0.023045205 0.009053566 0.024205662 -0.04559125 -0.033199124
-0.018119179 0.0074343607 0.024595097 0.016299091 0.052081816 -0.0041587725 -0.021794342 -0.057795085
-0.032575376 0.06238185 -0.038251497 0.03807775 0.04262001 0.022110388 -0.008686058 0.022180274
0.025021024 0.04119827 0.061739407 -0.044091485 0.051322415 -0.036255024 0.061740443 -0.050120726
0.05216279 -0.04222683 -0.023786418 0.04843729 0.004176587 0.0055477247 -0.016438551 0.054492168
-0.023160689 -0.015396431 0.02221784 0.028223015 -0.048002087 -0.005713962 -0.034087516 0.0010752007
-0.03570383 -0.02751556 0.039996408 -0.060511626 0.0076629445 0.040414236 -0.03638061 -0.03906595
-0.04370887 -0.027227275 0.06249077 0.057816394 0.016752496 -0.016841084 -0.027509429 -0.007519342
-0.003258407 -0.032834575 -0.058855653 0.01667878 0.05947534 0.01097773 -0.015203565 0.049950056
0.017347693 -0.032405235 0.0073122233 0.03349427 0.052715197 0.03737598 0.0049571693 0.035298355
00000000: 688a 9abc 7ceb f33c a0d9 483c 7475 4bbd
00000010: 8817 0c3c 7ccc dbbc f610 33bd 3a8c 20bd
00000020: 705b 563c b8e4 58bd 4079 7cbb 607f 933c
00000030: 2224 63bd acd7 5ebd a693 69bd b408 cf3c
00000040: 1855 e9bc 3c8b b0bc 64cd 2fbd 16e2 063d
00000050: e0d6 3dbb 7861 90bc 005e 493b 8cc5 583d
00000060: 6e53 783d b0ed 52bd 5c4c 113d 9a9a 1abd
00000070: e08e 9d3c e85c 343c e45c efbc d8a2 adbc
00000080: f29a 0a3d 4846 eebc 2ecf 67bd 78c5 1abd
00000090: bc38 a7bc 70a1 1dbc 504a a43b dacb 583d
000000a0: f608 67bd 5497 6d3d b092 8b3b 4e48 03bd
000000b0: 0050 96b8 e84c 22bc d071 9e3c c050 9ebc
000000c0: d46b 923c e8ae 7c3d d094 893c 20ef 54bb
000000d0: 48af ddbc 00d1 193b b89c eebc 4815 7dbc
000000e0: f47c f93c b6d5 5cbd 16fa 26bd 1eab 763d
000000f0: 884f 233d 1efd 0dbd 5c77 6cbd 1028 683c
00000100: 005b 51bc 08bf a33c 9008 e43c 0c0d b43c
00000110: 424e 40bd 60b7 403c 8c98 22bd 40fb f43a
00000120: e2a3 7bbd 8887 54bc ea08 443d 4885 a73c
00000130: 9418 273d d670 79bd da33 76bd 807a 013b
00000140: 804a 08bd 3656 473d 44c9 48bd 18f0 733d
00000150: b467 c2bc 3a4c 733d 6a7a 103d 8c67 653d
00000160: 109a ebbc 6074 08bb a264 19bd 74e9 7dbd
00000170: 0662 5dbd e0be d9bb ac72 a43c 2a8e 073d
00000180: e8cd d9bc 8c65 5cbd e0eb d43c 8eff 16bd
00000190: 707e 6a3d d89a 16bd 6c02 febc c83e b2bc
000001a0: d67d 51bd 98ec aa3c 0060 953a 809b 4bba
000001b0: ec2b e3bc 98f5 57bd f83d 073c 88da 00bd
000001c0: c813 b03c 2869 8cbc 9a21 09bd e261 3b3d
000001d0: a8e4 2fbc 00d4 81ba b021 2b3c 7245 763d
000001e0: 000c fbb9 f89b c83c 0000 09b6 ea1e 3f3d
000001f0: e878 0f3c eaf5 4bbd a47b f33c bef1 5e3d
00000200: d059 013c 80aa a3ba a0ef e1bc 008f 0b3d
00000210: 5e01 62bd 9098 823c 24bf f2bc e2c0 27bd
00000220: 3874 2cbc 1460 d73c d87f 743c e05f ac3b
00000230: f853 e0bc d41d 80bc 4002 a7ba d82c ddbc
00000240: 002f ff39 60f4 5bbb 94c6 06bd b6c7 593d
00000250: 0a62 12bd 988b 113c e47b 4d3d 901c c13b
00000260: 6474 c63c c811 1d3c b468 f03c 3a90 123d
00000270: d469 7a3d 1e2b 56bd a8e7 133c b42e 89bc
00000280: 3028 523c f48e b23c 38a7 cc3c 2471 16bd
00000290: d0c0 49bd 9298 33bd 9eea 5e3d e2c6 203d
000002a0: 2038 3bbb c006 dcba 3e15 173d 4c81 a4bc
000002b0: 1638 42bd caff 2e3d e0e4 32bc cc56 853c
000002c0: e6e4 24bd 80f2 c9bc 0c03 e03c 4cc9 bc3c
000002d0: 6855 143c f44a c63c e4bd 3abd cefb 07bd
000002e0: ac6e 94bc f09b f33b a87b c93c ac85 853c
000002f0: be53 553d 5046 88bb 0c8a b2bc 8aba 6cbd
00000300: c26d 05bd 1c84 7f3d 9aad 1cbd 6af7 1b3d
00000310: 5292 2e3d d820 b53c f84f 0ebc 68b3 b53c
00000320: e4f8 cc3c 84bf 283d 76e2 7c3d 4699 34bd
00000330: 7437 523d 2680 14bd 8ce3 7c3d 644b 4dbd
00000340: a6a8 553d 0af6 2cbd bcdb c2bc 2e66 463d
00000350: c0db 883b b0c9 b53b 24aa 86bc 2e33 5f3d
00000360: 7cbb bdbc 5041 7cbc 3002 b63c f433 e73c
00000370: d69d 44bd 303c bbbb 5a9f 0bbd c0ed 8c3a
00000380: 2e3e 12bd 5068 e1bc 46d3 233d 0adb 77bd
00000390: 7019 fb3b 6689 253d d603 15bd 9e03 20bd
000003a0: 1208 33bd bc0b dfbc 52f6 7f3d e2d0 6c3d
000003b0: 883c 893c 50f6 89bc 745b e1bc d064 f6bb
000003c0: 008b 55bb 8c7d 06bd a012 71bd f0a1 883c
000003d0: 6a9c 733d f0db 333c 6018 79bc 6e98 4c3d
000003e0: c01c 8e3c 5abb 04bd 609b ef3b 4a31 093d
000003f0: e4eb 573d 8e17 193d c06f a23b 0295 103d

main_model.hiddenlayer_0.bias f4 [256]
0.038554795 0.026590364 0.044093326 0.07812958 0.0072130384 -0.05029231 0.052457083 -0.056102317
-0.060889088 0.024297448 0.034990415 -0.07158095 0.0022506732 0.04438175 -0.0047806725 -0.032903634
-0.034722105 -0.055737063 0.043235295 0.040061753 -0.025015468 -0.0010353178 -0.04030888 0.060413554
0.07061548 0.008897788 -0.011602916 0.04928732 0.03740086 0.018415121 -0.0019552195 -0.012650902
0.054094933 -0.006358251 0.061306663 0.050467238 0.06425803 -0.060906775 -0.013253924 -0.023870006
-0.017823609 0.016806968 0.016079951 0.020694194 -0.020275952 -0.07405004 0.038218632 0.03832643
-0.05136641 -0.03788357 -0.025630228 0.033197626 -0.041314393 -0.024312228 0.052803718 0.002120012
0.089308485 -0.054811366 -0.021499036 0.040637348 -0.03454158 0.0481904 -0.017180497 0.055365205
0.06811084 0.026796386 0.0012897679 0.0693506 0.004842793 0.043485478 0.029688433 -0.025890935
0.036909245 -0.048143297 -0.03760206 0.0009445046 0.031117052 -0.011843745 0.024587817 -0.035977177
-0.029225811 0.019606337 -0.02509773 0.03851837 -0.0479976 -0.0014462975 0.03154357 -0.009842222
-0.0006884411 0.03987225 -0.00253512 -0.013542735 0.017593384 -0.031003125 0.05853246 -0.029531345
0.05094407 -0.055738058 -0.015957706 0.019147735 0.0715891 0.08719108 0.010355867 0.03759988
0.055862937 0.0916083 0.056266446 -0.037788257 -0.0040593054 -0.038103793 0.06073227 -0.034382183
0.083179034 0.107502185 -0.032440167 0.024069736 0.013539626 -0.06453826 -0.03769313 -0.047520548
-0.014395982 -0.022953838 0.04082448 -0.02070906 0.010458104 -0.031937227 0.015363894 -0.030456796
0.041565463 -0.03992887 -0.004859127 -0.015142284 0.0540656 0.07916935 0.0057182955 -0.0075021638
-0.06364818 0.04213511 -0.0062666656 0.05623516 -0.0043915138 -0.006728233 -0.011215232 0.033672936
0.042464476 -0.03201582 0.019736739 -0.003873032 -0.031735957 -0.040660683 0.04310776 -0.027491145
-0.06611915 0.009973094 -0.03241338 0.05070501 -0.01767617 0.015558852 0.021931302 0.053509004
-0.029700864 0.007348908 0.025600307 0.06254252 0.023351628 -0.04464519 0.0888836 0.080088206
0.005017385 -0.0148032345 0.031629764 0.06061873 -0.05958397 0.01688245 -0.022050152 0.007584496
0.005550165 0.039000656 0.07505682 0.028666945 0.021295372 0.08494267 -0.040426135 -0.018630864
0.05466777 0.021257412 -0.062154032 0.003076871 0.04400737 0.01689481 0.064230315 -0.075916104
-0.040634125 -0.017049933 -0.025140863 0.009219378 0.08721926 0.0420804 -0.025352102 -0.06440355
0.06115065 0.0277527 -0.060376007 0.032256953 -0.06213171 -0.022695243 0.01460892 0.049680017
0.0078909695 0.030326761 -0.0043477183 0.008080427 -0.04448887 0.007958218 0.045323834 -0.024888633
-0.02925416 0.08080022 -0.013006683 0.034240503 -0.035727102 0.0640959 0.07748105 -0.005371639
-0.0058396747 0.030439576 0.050155766 0.07578748 -0.025920475 -0.02636867 0.052394994 0.0897146
0.020035414 -0.0607128 0.052063663 0.02296427 -0.044579633 0.019384133 0.03695441 -0.02247574
0.051059164 -0.06383389 -0.014136756 0.0736856 -0.020124169 -0.056183554 -0.016023371 -0.05865905
0.011333965 -0.016845623 0.07986133 0.02027579 0.04112216 -0.06505742 0.012130748 0.069749884
00000000: a2eb 1d3d 09d4 d93c 349b 343d 6702 a03d
00000010: 5a5b ec3b 4fff 4dbd 3ddd 563d 8bcb 65bd
00000020: d666 79bd 710b c73c 1c52 0f3d 0899 92bd
00000030: 0880 133b a3c9 353d 30a7 9cbb f6c5 06bd
00000040: c438 0ebd 8c4c 64bd 7e17 313d cb17 243d
00000050: 3ded ccbc 80b3 87ba ed1a 25bd 3474 773d
00000060: d99e 903d 07c8 113c 281a 3ebc 80e1 493d
00000070: a531 193d 4fdb 963c 2423 00bb bb45 4fbc
00000080: a692 5d3d e058 d0bb b21c 7b3d bcb6 4e3d
00000090: b799 833d 6279 79bd fd26 59bc 088b c3bc
000000a0: d102 92bc c4ae 893c 1aba 833c df86 a93c
000000b0: c119 a6bc 8ca7 97bd 248b 1c3d 2dfc 1c3d
000000c0: 9665 52bd cd2b 1bbd 7cf6 d1bc 3cfa 073d
000000d0: 4839 29bd 702a c7bc b648 583d e6ef 0a3b
000000e0: 5ee7 b63d e281 60bd bf1e b0bc 5973 263d
000000f0: 797b 0dbd 4c63 453d 1dbe 8cbc a0c6 623d
00000100: b27d 8b3d 1884 db3c 6e0d a93a b007 8e3d
00000110: 4bb0 9e3b d41d 323d 2835 f33c 3a19 d4bc
00000120: 262e 173d e831 45bd 9e04 1abd a198 773a
00000130: 30e9 fe3c 440c 42bc 646c c93c ce5c 13bd
00000140: f86a efbc 789d a03c c199 cdbc 70c5 1d3d
00000150: 2299 44bd b191 bdba d533 013d 4541 21bc
00000160: 8078 34ba 1651 233d 4124 26bb 59e2 5dbc
00000170: 0020 903c 44fa fdbc bcbf 6f3d b8eb f1bc
00000180: bbaa 503d 974d 64bd bcb9 82bc b6db 9c3c
00000190: 4e9d 923d 3d91 b23d a8ab 293c 5502 1a3d
000001a0: 89d0 643d 229d bb3d a577 663d dcc7 1abd
000001b0: ec03 85bb b912 1cbd 67c2 783d 55d4 0cbd
000001c0: c559 aa3d 1b2a dc3d fbdf 04bd e52d c53c
000001d0: 4fd5 5d3c a32c 84bd 1d64 1abd e8a4 42bd
000001e0: 20dd 6bbc b009 bcbc 9237 273d 0ca6 a9bc
000001f0: 7858 2b3c 9cd0 02bd d8b8 7b3c 8880 f9bc
00000200: 8c40 2a3d 748c 23bd 5039 9fbb 5817 78bc
00000210: e473 5d3d 8a23 a23d 8a60 bb3b b6d4 f5bb
00000220: fa59 82bd dd95 2c3d 9a58 cdbb d756 663d
00000230: b0e6 8fbb 8278 dcbb 18c0 37bc a2ec 093d
00000240: 3bef 2d3d 0523 03bd f1ae a13c b2d2 7dbb
00000250: 90fd 01bd d18b 26bd c391 303d 1c35 e1bc
00000260: 7a69 87bd 3066 233c e4c3 04bd 0eb0 4f3d
00000270: 9ecd 90bc 8eea 7e3c 46a9 b33c 422c 5b3d
00000280: 3a4f f3bc 1ccf f03b bcb7 d13c 4b16 803d
00000290: ea4b bf3c e0dd 36bd 9b08 b63d 4905 a43d
000002a0: e068 a43b 4489 72bc 368e 013d 584b 783d
000002b0: 520e 74bd 104d 8a3c 85a2 b4bc 5d87 f83b
000002c0: 29de b53b 27bf 1f3d 64b7 993d f1d6 ea3c
000002d0: a273 ae3c 6cf6 ad3d e095 25bd c19f 98bc
000002e0: 50eb 5f3d 0624 ae3c 3a95 7ebd 54a5 493b
000002f0: 1241 343d fc66 8a3c 2f8b 833d e779 9bbd
00000300: f86f 26bd 4dac 8bbc 36f4 cdbc e00c 173c
00000310: 03a0 b23d 7f5c 2c3d 36af cfbc 02e6 83bd
00000320: 1b79 7a3d a159 e33c d54c 77bd de1f 043d
00000330: d27d 7ebd 60eb b9bc 405a 6f3c 467d 4b3d
00000340: 2049 013c d46f f83c 4e77 8ebb c463 043c
00000350: f639 36bd 3063 023c 7ca5 393d 3fe3 cbbc
00000360: 6ca6 efbc 967a a53d fc19 55bc c53f 0c3d
00000370: 9556 12bd b644 833d 62ae 9e3d 9304 b0bb
00000380: be5a bfbb 6b5c f93c 2270 4d3d 7736 9b3d
00000390: 2d57 d4bc 1c03 d8bc 229c 563d 4abc b73d
000003a0: 4f21 a43c fcad 78bd b540 553d 911f bc3c
000003b0: 2299 36bd 79cb 9e3c 825d 173d 0b1f b8bc
000003c0: 6a23 513d 58bb 82bd da9d 67bc 7ae8 963d
000003d0: 71db a4bc ba20 66bd 7243 83bc 7944 70bd
000003e0: 18b2 393c d5ff 89bc 568e a33d 6a19 a63c
000003f0: b66f 283d d33c 85bd 0bc0 463c 07d9 8e3d

main_model.hiddenlayer_1.weight f4 [256, 256]
-0.061038367 0.04193602 0.05225467 -0.031664453 -0.007971142 0.016561106 0.055707917 -0.04903203
-0.057278663 -0.033838928 0.035002835 0.0043311985 -0.021311304 -0.028385436 -0.008819982 0.0067193783
0.0059399605 -0.028626807 -0.023179136 -0.020477593 0.05634787 -0.04447504 0.012699942 -0.012603849
-0.013536444 0.027681516 0.031745926 -0.057873156 -0.05582631 0.005642064 0.020643786 -0.05066707
-0.033431366 0.059523612 0.036741547 -0.038327567 -0.03763455 -0.032837346 -0.058433045 0.04264965
0.0069378056 -0.0071064755 -0.019551734 -0.010561429 -0.036124457 0.011039898 0.012125 0.016496379
-0.04730069 -0.03836139 0.041426104 0.030427229 -0.01151268 -0.058124963 -0.06132474 -0.034265935
0.05105401 0.022453912 0.040501785 0.009142183 0.038103376 0.009118497 -0.021363616 -0.038737692
0.056014486 0.0062375776 0.032022186 -0.009770318 -0.052873135 -0.032960314 0.036126338 0.034511983
-0.0056743864 0.0027088616 -0.026980042 -0.071917556 0.0501229 -0.012606502 -0.0012019724 0.018028341
0.018205844 -0.00014951825 0.05029408 -0.05052326 -0.023646787 -0.007107589 0.05990938 -0.06493427
-0.039470762 -0.041727595 -0.027039632 -0.067879975 0.0364402 0.028099947 0.020270139 0.047565915
-0.021856824 -0.061950162 -0.03728362 -0.056833167 -0.020712875 0.047524378 -0.029126696 0.023496341
-0.011847667 -0.070444375 -0.009834289 0.03992197 -0.0561072 0.0024103343 0.051673163 0.020135641
-0.015096557 -0.0007610321 -0.045673013 0.014650268 0.020097623 0.03452395 -0.059907876 0.008430027
-0.012951985 -0.06994566 -0.0197369 -0.049258985 0.04621979 -0.034329407 -0.022192076 0.03740313
-0.021593638 -0.0004576846 0.026242815 -0.061132543 0.052058302 -0.025223708 0.008486926 -0.030245282
0.019169902 -0.06036575 -0.02655255 0.04371016 -0.008303858 0.017798606 -0.0077238455 0.016443333
-0.04322613 -0.05005393 -0.029673547 0.0016569992 -0.03269675 0.020657156 -0.0006377302 -0.020201027
-0.00063794275 -0.013299495 0.02277153 0.036987424 -0.052079365 -0.0384818 -0.0059963223 0.008479334
-0.014553149 0.006358936 0.017034093 0.045221485 0.04085982 -0.057641722 0.022416994 -0.060966864
0.01842577 0.012231112 -0.0384584 -0.03243029 -0.053771958 0.0010088757 0.043815374 -0.018880893
0.017464746 -0.06303309 0.0258679 0.043431215 0.030247083 -0.041763537 -0.036395125 -0.035842244
0.044160455 -0.059146747 -0.056823086 -0.0036991835 -0.071717106 -0.05237979 -0.05636788 -0.032909624
0.021772653 -0.04654424 0.00780606 0.00028975308 -0.030631617 0.036169395 -0.06587292 -0.05411943
-0.033862166 0.028796537 -0.031154066 -0.0031720474 0.020609893 0.037598774 -0.016808935 -0.042693794
0.04523245 -0.02195388 -0.005349003 -0.021033512 0.005393526 0.014634241 0.060020454 0.029232398
0.043327123 -0.038444065 0.008204356 -0.028945917 0.014314584 0.030284641 -0.042402115 0.0022985563
0.023461178 -0.04122915 -0.020698518 0.055597506 -0.070053965 -0.0046221167 0.018763326 0.019743579
0.007417409 -0.011876434 0.019344233 0.012552888 0.05972056 0.014410012 -0.06270348 0.015945539
0.013346537 0.04322684 0.005253248 -0.033478603 0.042012252 0.046643842 -0.040245656 0.047551982
-0.04812799 -0.034932673 0.015155358 -0.059228025 0.004917629 -0.0044332948 0.034491338 0.024227368
00000000: 5e03 7abd 1bc5 2b3d fe08 563d 96b2 01bd
00000010: 6599 02bc 28ab 873c fc2d 643d cfd5 48bd
00000020: 089d 6abd b09a 0abd 225f 0f3d baec 8d3b
00000030: 0b95 aebc 9388 e8bc b081 10bc 3b2e dc3b
00000040: 00a4 c23b c482 eabc 2ce2 bdbc a0c0 a7bc
00000050: 06cd 663d 762b 36bd 6b13 503c 6080 4ebc
00000060: f6c7 5dbc 59c4 e23c 0408 023d 670c 6dbd
00000070: 21aa 64bd 10e1 b83b 281d a93c 4688 4fbd
00000080: 54ef 08bd 08cf 733d 4e7e 163d 5efd 1cbd
00000090: b026 1abd 7480 06bd 7d57 6fbd 66b1 2e3d
000000a0: 8856 e33b 70dd e8bb f52a a0bc d809 2dbc
000000b0: 3df7 13bd b0e0 343c f0a7 463c 6a23 873c
000000c0: 5ebe 41bd d520 1dbd 6bae 293d 8642 f93c
000000d0: ae9f 3cbc 7114 6ebd a72f 7bbd 705a 0cbd
000000e0: 021e 513d 44f1 b73c 33e5 253d 18c9 153c
000000f0: 4912 1c3d c065 153c c002 afbc 6aab 1ebd
00000100: 726f 653d 9864 cc3b b229 033d af13 20bc
00000110: 8091 58bd 6501 07bd 36f9 133d 705c 0d3d
00000120: 34f0 b9bb 2887 313b 4005 ddbc 8349 93bd
00000130: ac4d 4d3d 808b 4ebc 808b 9dba 2cb0 933c
00000140: 6c24 953c 00c8 1cb9 2a01 4e3d 7af1 4ebd
00000150: e8b6 c1bc c7e6 e8bb 8a63 753d 42fc 84bd
00000160: 18ac 21bd 8eea 2abd 3882 ddbc a804 8bbd
00000170: 5242 153d dc31 e63c 900d a63c 7ad4 423d
00000180: 150d b3bc 74bf 7dbd b6b6 18bd e5c9 68bd
00000190: 0cae a9bc eca8 423d 1c9b eebc 667b c03c
000001a0: b81c 42bc 2445 90bd ff1f 21bc 3885 233d
000001b0: aad0 65bd b3f6 1d3b 3da7 533d 80f3 a43c
000001c0: 8d57 77bc 0080 47ba a013 3bbd ad07 703c
000001d0: c5a3 a43c fc68 0d3d f661 75bd 191e 0a3c
000001e0: 9034 54bc ac3f 8fbd 48af a1bc cac3 49bd
000001f0: f650 3d3d fe9c 0cbd 28cc b5bc 0634 193d
00000200: 24e5 b0bc 63f5 efb9 2cfb d63c 1e66 7abd
00000210: 163b 553d f3a1 cebc bf0c 0b3c f4c4 f7bc
00000220: 330a 9d3c 1442 77bd bc84 d9bc 6d09 333d
00000230: e80c 08bc 62ce 913c 5018 fdbb 2bb4 863c
00000240: e20d 31bd 5a05 4dbd f015 f3bc ab2f d93a
00000250: 07ed 05bd 3239 a93c 592d 27ba a07c a5bc
00000260: 9d3b 27ba 20e6 59bc 5c8b ba3c 2080 173d
00000270: 2c51 55bd 189f 1dbd cc7c c4bb e8ec 0a3c
00000280: 5570 6ebc 9f5e d03b 158b 8b3c 2a3a 393d
00000290: a05c 273d ba19 6cbd d8a3 b73c 64b8 79bd
000002a0: a4f1 963c 0165 483c 8e86 1dbd a0d5 04bd
000002b0: fc3f 5cbd 403c 843a c077 333d 1aac 9abc
000002c0: 3a12 8f3c 7e17 81bd ebe8 d33c eee4 313d
000002d0: bbc8 f73c 3e10 2bbd 0e13 15bd 51cf 12bd
000002e0: 98e1 343d dc43 72bd 53bf 68bd 006e 72bb
000002f0: 6be0 92bd 318c 56bd 02e2 66bd 3ecc 06bd
00000300: 905c b23c 2ca5 3ebd fac9 ff3b 00ea 9739
00000310: 28ef fabc 5c26 143d 62e8 86bd 56ac 5dbd
00000320: 0eb3 0abd b7e6 eb3c d036 ffbc 20e2 4fbb
00000330: 14d6 a83c 2c01 1a3d e4b2 89bc b0df 2ebd
00000340: a945 393d a0d8 b3bc b046 afbb 794e acbc
00000350: 2dbc b03b 75c4 6f3c 02d8 753d c878 ef3c
00000360: c877 313d 8677 1dbd 906b 063c fd1f edbc
00000370: b887 6a3c 7f17 f83c d7ad 2dbd 60a3 163b
00000380: a831 c03c e6df 28bd f08f a9bc 36ba 633d
00000390: 7478 8fbd 2075 97bb 8cb5 993c 49bd a13c
000003a0: bd0d f33b 6095 42bc cc77 9e3c a1aa 4d3c
000003b0: 8c9d 743d f917 6c3c af6a 80bd 38a0 823c
000003c0: 6fab 5a3c a10e 313d 7023 ac3b dc20 09bd
000003d0: 0a15 2c3d 9d0d 3f3d a1d8 24bd dec5 423d
000003e0: db21 45bd 9015 0fbd 2e4e 783c 1699 72bd
000003f0: 1024 a13b 2c45 91bb ca46 0d3d 7978 c63c

main_model.hiddenlayer_1.bias f4 [256]
-0.067182675 -0.025397675 -0.04818928 0.014071359 0.054873787 0.049315456 0.048278514 -0.03780087
-0.03391785 0.033399243 -0.00290261 -0.005388528 0.07711524 -0.05658133 -0.011347168 -0.002716102
0.029260501 -0.015719794 0.10073795 -0.004585125 -0.004951721 -0.047262758 -0.052398816 -0.044746745
0.01347877 -0.017246448 9.815683e-05 0.0064457417 0.071948744 0.026349487 0.0728785 -0.0062139626
-0.02677961 -0.043652803 0.0749805 -0.008142696 0.015117213 0.025989514 0.054044407 0.027286885
0.0024393457 -0.02830731 -0.06915182 -0.037627563 -0.03835751 -0.064561754 0.050120387 -0.029341897
0.050226297 -0.026738033 0.0109936 -0.019946814 -0.061222028 -0.03697157 -0.03068024 0.04753087
0.07674803 -0.046730187 0.0064356565 0.03253241 -0.008390431 -0.036518402 0.013288305 0.08294432
0.10915319 0.05731935 0.03718802 -0.0087261945 -0.048605703 0.05231907 0.032408684 -0.032700576
0.051423714 0.024707854 -0.060278025 0.061184276 0.06650823 0.041257627 0.0073645245 -0.054865144
-0.029336443 -0.052608576 -0.020235343 -0.008179546 0.088543 0.012081273 -0.0077184364 0.041666143
-0.03346307 0.06836416 -0.016511897 -0.021253422 0.025453128 0.039679762 -0.02916514 -0.00131864
0.038205873 0.0066963155 -0.029542416 -0.01713425 0.035491012 -0.024896108 -0.026361233 -0.063681155
0.08083523 -0.0066366587 -0.03703035 -0.04759278 0.02820056 0.0045642992 -0.029811101 -0.051074427
-0.06241393 0.044105295 -0.029789217 -0.040345088 0.022561174 0.0631261 0.02050993 0.068983994
0.034899928 0.06118536 0.042742968 -0.03892283 -0.011396998 0.06573876 -0.032451153 0.054041825
-0.04306272 0.09175899 0.032881055 0.09324223 -0.060543902 0.083009996 0.040439535 -0.04675572
-0.007054779 -0.024545763 -0.048186995 0.010373067 0.0045928066 -0.018429548 0.09728351 -0.04751965
-0.022480743 -0.03636689 0.06404636 -0.06317427 -0.045942463 0.023700187 -0.05766271 0.084367834
0.04163162 -0.025752012 -0.046264213 0.043072008 0.054946776 0.014575671 -0.027952174 0.028049666
0.08619584 -0.017946657 0.0007545001 -0.0706718 -0.03970447 0.092253745 -0.060358465 0.036995325
-0.02525076 0.059661783 0.049396705 -0.031775367 -0.011492876 -0.054757755 -0.010657659 0.025875896
-0.024003342 0.09227049 -0.020838747 0.056124277 0.030735387 0.050521553 0.049599234 0.0025706813
0.04848617 -0.059870332 -0.058051817 0.07343944 0.055064205 0.108465575 0.07147467 0.050108712
0.05152984 0.043895666 0.039403886 -0.052163966 0.040088728 0.03928851 0.0012826229 -0.015268721
0.041019954 -0.009994804 -0.041698102 0.08725612 0.07329521 -0.06040612 -0.046194654 0.05619303
0.06889071 0.101408675 -0.044016995 0.023892663 -0.024842408 0.037246868 -0.04279508 -0.008041007
-0.020207616 -0.055914868 0.07630905 0.020664874 0.03169608 -0.047587384 -0.0036277962 0.049648307
0.02035244 -0.03241545 0.02955428 0.06207726 -0.013281976 -0.044202376 -0.015330672 -0.015122794
0.022629185 0.0371266 0.0030968504 -0.04819512 -0.05259316 0.05796359 0.08781222 -0.06409517
0.08154761 0.005321323 -0.049534716 -0.0714781 0.015014184 0.039226856 -0.01766066 0.0038519278
0.04456424 -0.035549182 -0.07026299 -0.033741668 -0.015742248 -0.031941783 0.03075096 0.050562475
00000000: 1297 89bd c90e d0bc 1f62 45bd 8f8b 663c
00000010: 56c3 603d 01ff 493d b1bf 453d 16d5 1abd
00000020: 72ed 0abd a5cd 083d b739 3ebb 4092 b0bb
00000030: 98ee 9d3d d3c1 67bd 79e9 39bc a100 32bb
00000040: b8b3 ef3c ccc6 80bc b34f ce3d d13e 96bb
00000050: 0c42 a2bb 9896 41bd 24a0 56bd 5d48 37bd
00000060: 0fd6 5c3c 6c48 8dbc 8cd9 cd38 cd36 d33b
00000070: dd59 933d e1da d73c 5341 953d 7f9e cbbb
00000080: ea60 dbbc 48cd 32bd 608f 993d f168 05bc
00000090: 30ae 773c f6e7 d43c ab5d 5d3d bf88 df3c
000000a0: 6edd 1f3b bbe4 e7bc 789f 8dbd 5c1f 1abd
000000b0: c41c 1dbd f438 84bd 094b 4d3d 6b5e f0bc
000000c0: 17ba 4d3d b809 dbbc 801e 343c 8067 a3bc
000000d0: f3c3 7abd 806f 17bd 2055 fbbc bbaf 423d
000000e0: 122e 9d3d 2768 3fbd 33e2 d23b b440 053d
000000f0: 0578 09bc 5294 15bd 31b7 593c b6de a93d
00000100: b58b df3d b2c7 6a3d 7752 183d 50f8 0ebc
00000110: c616 47bd 854c 563d f8be 043d 0af1 05bd
00000120: aca1 523d 2068 ca3c 17e6 76bd 5d9c 7a3d
00000130: 7835 883d c2fd 283d 1c52 f13b 46ba 60bd
00000140: fb52 f0bc 177c 57bd 97c4 a5bc 8103 06bc
00000150: 0856 b53d 88f0 453c f0ea fcbb 1eaa 2a3d
00000160: 9210 09bd 8202 8c3d f543 87bc a81b aebc
00000170: 1483 d03c 3f87 223d bbeb eebc 37d6 acba
00000180: c37d 1c3d c46c db3b f002 f2bc 205d 8cbc
00000190: 065f 113d ecf2 cbbc 83f3 d7bc 446b 82bd
000001a0: f18c a53d 5478 d9bb 23ad 17bd a6f0 42bd
000001b0: dc04 e73c 1e90 953b 6936 f4bc 6b33 51bd
000001c0: c0a5 7fbd c1a7 343d 8408 f4bc e440 25bd
000001d0: 36d2 b83c 4248 813d 7104 a83c 7b47 8d3d
000001e0: 3af3 0e3d 809d 7a3d 4013 2f3d 8c6d 1fbd
000001f0: 79ba 3abc 0ba2 863d 80eb 04bd f65a 5d3d
00000200: 8962 30bd 23ec bb3d 49ae 063d c8f5 be3d
00000210: e2fc 77bd 2501 aa3d eda3 253d ed82 3fbd
00000220: c72b e7bb 3214 c9bc ba5f 45bd ccf3 293c
00000230: 417f 963b 90f9 96bc 943c c73d f7a3 42bd
00000240: 8929 b8bc 73f5 14bd bd2a 833d 8361 81bd
00000250: 2a2e 3cbd e526 c23c bc2f 6cbd 0bc9 ac3d
00000260: eb85 2a3d e2f5 d2bc 8b7f 3dbd 466c 303d
00000270: df0f 613d ccce 6e3c f5fb e4bc 6ac8 e53c
00000280: 7287 b03d de04 93bc a5c9 453a 60bc 90bd
00000290: 28a1 22bd 88ef bc3d 703a 77bd 6988 173d
000002a0: afda cebc ea5f 743d 3354 4a3d e326 02bd
000002b0: 9e4c 3cbc ab49 60bd 769d 2ebc b0f9 d33c
000002c0: a8a2 c4bc 50f8 bc3d 05b6 aabc 92e2 653d
000002d0: c7c8 fb3c b0ef 4e3d 9128 4b3d e078 283b
000002e0: 6f99 463d 983a 75bd bec7 6dbd 6b67 963d
000002f0: 018b 613d 3323 de3d 5061 923d cb3e 4d3d
00000300: f410 533d f1cb 333d f865 213d e2a9 55bd
00000310: 1434 243d fdec 203d af1d a83a a829 7abc
00000320: 8a04 283d 3fc1 23bc a1cb 2abd 56b3 b23d
00000330: cd1b 963d 686c 77bd 9b36 3dbd aa2a 663d
00000340: 9316 8d3d 5aaf cf3d 2a4b 34bd 8cba c33c
00000350: 4e82 cbbc 2c90 183d e549 2fbd 6ebe 03bc
00000360: 718a a5bc fd06 65bd eb47 9c3d 6249 a93c
00000370: c0d3 013d fdea 42bd 52c0 6dbb 065c 4b3d
00000380: 29ba a63c 10c6 04bd d11b f23c ba44 7e3d
00000390: a59c 59bc 8d0d 35bd 802d 7bbc 98c5 77bc
000003a0: d760 b93c 1012 183d 87f4 4a3b 3f68 45bd
000003b0: ed6b 57bd 3b6b 6d3d e5d6 b33d 5444 83bd
000003c0: 6f02 a73d 7e5e ae3b eae4 4abd 1c63 92bd
000003d0: 0dfe 753c 57ac 203d 17ad 90bc a070 7c3b
000003e0: fe88 363d 059c 11bd 0be6 8fbd b434 0abd
000003f0: e3f5 80bc 63d5 02bd 70e9 fb3c 991a 4f3d

main_model.hiddenlayer_2.weight f4 [256, 256]
0.0430732 0.03673394 0.03845437 -0.019285128 -0.0052721947 0.02492667 -0.005399839 0.012870251
-0.023720723 -0.067541026 -0.007848341 0.044610053 -0.015029055 -0.010623074 -0.056861304 0.0054695937
-0.008243412 0.0027605265 -0.026570484 0.011752978 -0.014500607 0.006268665 -0.049399786 -0.05601033
-0.054142516 0.050298393 -0.0574365 -0.06689065 0.04740147 0.022917889 0.007575795 0.049244866
0.046044752 -0.05055748 -0.047536194 0.02961506 -0.013801903 -0.05998227 -0.06457685 0.054746654
0.023385396 0.019939486 -0.015959434 -0.043742035 0.028816417 0.020817257 0.005365781 0.041721143
0.030548153 0.040250912 -0.046185926 0.043496028 0.042346284 -0.009840779 -0.030647384 -0.011516359
-0.023747282 0.037836187 0.05500994 0.012022548 0.03966061 0.0152334515 -0.007971505 -0.039371006
-0.005664461 -0.021056749 -0.0052830228 0.022462375 -0.039261237 0.015111297 -0.041795477 0.027869035
-0.050094884 -0.019407466 0.056082986 0.02652831 -0.06290605 -0.042440634 -0.05415202 0.049374327
0.0048157647 0.028751627 -0.070141435 -0.062494196 0.045781694 -0.04049036 0.023721926 0.014436975
0.04675263 0.0058839214 -0.026932934 0.01300922 -0.060150355 0.036599852 0.023220817 0.030697722
-0.03785017 0.024560861 -0.019594131 0.0096311495 -0.039339337 -0.061242975 0.051291794 -0.041142523
0.044707876 0.018380597 0.037484765 0.053038504 -0.044555422 -0.0643521 -0.04453004 0.0058821402
0.044854857 0.041898943 0.01682517 0.049341828 0.008642398 0.028552376 -0.02043353 -0.06952325
-0.045412615 -0.0045595733 -0.008072689 -0.040243387 0.014826156 -0.030992664 0.036045738 0.01374164
0.012635373 0.010495683 -0.064481735 -0.058802105 -0.001595507 0.03551503 -0.035376403 -0.00065090053
-0.01318666 0.010523602 -0.01940836 6.162375e-05 0.021210358 0.027675318 -0.05406809 -0.00634123
-0.057655342 0.0039816643 0.036825083 0.018926673 -0.021425582 -0.06184171 -0.051289238 -0.054224696
-0.04894014 0.034541093 -0.02275066 -0.021738142 0.025588013 -0.047771525 0.0056095994 0.027766168
0.014852182 0.0034368085 0.03765413 -0.0041106045 0.045097336 -0.019027561 -0.03598667 -0.006303822
-0.03155723 0.0072956276 0.026318772 -0.029260056 -0.059171483 0.020309707 -0.04642433 -0.06784305
-0.0428707 -0.024059132 -0.057398383 0.028607098 0.026584126 0.026513465 0.056040026 0.024112822
-0.059061885 0.051346317 0.05275263 0.016070627 0.0112303 -0.0066938084 -0.052333847 -0.04595218
0.009257704 0.0057918327 0.040234145 0.021223098 -0.04128457 0.01150886 -0.06238854 -0.03748057
-0.0018605854 -0.00082898885 -0.056863062 0.048141483 -0.013532608 0.052198984 0.04628264 0.026920443
-0.054249648 -0.014636977 0.03374347 0.002773015 -0.03175144 -0.062396362 -0.022719035 -0.048702866
0.034722716 0.050468743 -0.051205963 -0.021567822 -0.028513424 0.05999974 -0.017034398 -0.04322216
0.01505831 -0.019732244 -0.042813715 0.01147606 0.038839698 0.03007603 0.03594148 -0.022322342
-0.0020150936 -0.032019045 -0.016888017 0.028958127 -0.022127414 0.008781645 0.033403277 0.051205017
-0.03627432 -0.008337104 -0.043549374 0.027822584 0.0382246 -0.0026806556 0.048583828 0.033888005
-0.062090743 0.0027212927 0.011336714 0.012343377 0.032070573 -0.006179305 -0.052501746 -0.04799769
00000000: 866d 303d 5476 163d 5482 1d3d d8fb 9dbc
00000010: 60c2 acbb 0433 cc3c 22f1 b0bb bfdd 523c
00000020: f651 c2bc f352 8abd 5496 00bc 08b9 363d
00000030: 6d3c 76bc 670c 2ebc 66e7 68bd 473a b33b
00000040: 600f 07bc f3e9 343b 58aa d9bc 908f 403c
00000050: f493 6dbc 6069 cd3b 6e57 4abd 166b 65bd
00000060: 8bc4 5dbd b005 4e3d 8942 6bbd f7fd 88bd
00000070: 0b28 423d 4cbe bb3c 603e f83b fcb4 493d
00000080: 6c99 3c3d 5c15 4fbd 50b5 42bd 489b f23c
00000090: 6121 62bc f8af 75bd de40 84bd 073e 603d
000000a0: bb92 bf3c 2258 a33c 5cbd 82bc d92a 33bd
000000b0: 6810 ec3c f488 aa3c 6fd3 af3b cae3 2a3d
000000c0: 1f40 fa3c 24de 243d 742d 3dbd e428 323d
000000d0: 4c73 2d3d 383b 21bc 3910 fbbc 1caf 3cbc
000000e0: a989 c2bc 1efa 1a3d 1a52 613d 39fa 443c
000000f0: 2a73 223d ba95 793c ea9a 02bc 7e43 21bd
00000100: f19c b9bb 347f acbc 351d adbb 0403 b83c
00000110: 64d0 20bd 6095 773c bc31 2bbd 9a4d e43c
00000120: 4b30 4dbd 68fc 9ebc 46b7 653d e651 d93c
00000130: e3d4 80bd 3bd6 2dbd 82ce 5dbd bc3c 4a3d
00000140: 90cd 9d3b 8888 eb3c 50a6 8fbd eaf9 7fbd
00000150: 9685 3b3d 38d9 25bd 7c54 c23c 1089 6c3c
00000160: b07f 3f3d e9cd c03b 75a2 dcbc a024 553c
00000170: 3860 76bd bae9 153d 9539 be3c ca79 fb3c
00000180: c808 1bbd dc33 c93c df83 a0bc f8cb 1d3c
00000190: 4922 21bd ead9 7abd 5817 523d 1085 28bd
000001a0: 9b1f 373d e892 963c a089 193d e73e 593d
000001b0: bf7f 36bd 09cb 83bd 2265 36bd f8be c03b
000001c0: bab9 373d 3a9e 2b3d f0d4 893c a81a 4a3d
000001d0: d898 0d3c ace6 e93c 3864 a7bc 3562 8ebd
000001e0: 9402 3abd 7968 95bb 5043 04bc 40d6 24bd
000001f0: 68e9 723c 54e4 fdbc b2a4 133d 9e24 613c
00000200: 9804 4f3c 16f6 2b3c 000f 84bd 7ada 70bd
00000210: 5520 d1ba 3578 113d d9e6 10bd 32a1 2aba
00000220: dc0c 58bc 306b 2c3c 48fe 9ebc 003c 8138
00000230: 58c1 ad3c 59b7 e23c 8076 5dbd 18ca cfbb
00000240: 0228 6cbd 9f78 823b e6d5 163d 1c0c 9b3c
00000250: b484 afbc bc4d 7dbd aa14 52bd b71a 5ebd
00000260: 7575 48bd f67a 0d3d 985f babc 3014 b2bc
00000270: f49d d13c 13ac 43bd bbd0 b73b e075 e33c
00000280: 9156 733c 143c 613b 383b 1a3d 40b2 86bb
00000290: fcb7 383d b0df 9bbc c266 13bd 4b90 cebb
000002a0: 2742 01bd 2910 ef3b 779a d73c c9b2 efbc
000002b0: cc5d 72bd 8b60 a63c 7027 3ebd 4cf1 8abd
000002c0: 3099 2fbd a817 c5bc 911a 6bbd 6f59 ea3c
000002d0: f4c6 d93c c432 d93c 3a8a 653d 4188 c53c
000002e0: e0ea 71bd 8450 523d 2413 583d 8ca6 833c
000002f0: 4bff 373c bc57 dbbb 045c 56bd 5a38 3cbd
00000300: a0ad 173c 6ac9 bd3b 8fcc 243d 10dc ad3c
00000310: 021a 29bd a88f 3c3c 208b 7fbd 3a85 19bd
00000320: e3de f3ba 8050 59ba 3ee9 68bd 0130 453d
00000330: dfb7 5dbc 9ace 553d de92 3d3d 4388 dc3c
00000340: e134 5ebd eecf 6fbc 9836 0a3d 79bb 353b
00000350: cc0d 02bd 5493 7fbd 451d babc a87c 47bd
00000360: 6839 0e3d 50b8 4e3d 58bd 51bd 00af b0bc
00000370: fc94 e9bc 4ac2 753d b98b 8bbc b809 31bd
00000380: 21b7 763c 84a5 a1bc 6f5d 2fbd 1606 3c3c
00000390: 6016 1f3d 0262 f63c 6037 133d 58dd b6bc
000003a0: a90f 04bb 6726 03bd bd58 8abc 9839 ed3c
000003b0: 8d44 b5bc e4e0 0f3c e0d1 083d 5abc 513d
000003c0: 6294 14bd 5998 08bc d460 32bd 30ec e33c
000003d0: 6691 1c3d f0ad 2fbb d6ff 463d 26ce 0a3d
000003e0: dd52 7ebd b757 323b a0bd 393c e03b 4a3c
000003f0: 6f5c 033d c47b cabb 120c 57bd 3a99 44bd
