DQN/DQN_complete/save/main_model_000002.pth (torch_old, 809026 bytes, 10 tensors)

main_model.InputLayer.weight f4 [256, 7]
00000000: f0f1 0c3e 9c52 3abd 9c1f 4e3d c041 2c3e
00000010: 9bba b23e bda5 babe 5069 99bd 5ddf 9a3e
00000020: 876d bfbe 29a0 41be a486 943d 2061 bd3d
00000030: c76d 72be 06f6 aabe ae88 34be befa 1ebe
00000040: 68a0 963d 5b28 19be 2b26 ad3e ac67 ed3d
00000050: 07ae 803e ff4f 9b3e 8dbb 403e b041 69bd
00000060: 0675 5abc 8316 a93e 6679 27be 2631 58be
00000070: 24aa 6ebe 4c2b 963e ef53 90be b829 a93e
00000080: 2abe 913d d5fa ebbc 121c 1e3e 00cb f73a
00000090: 06c3 263e bc1f e13d b7fb 6fbe 031d b1be
000000a0: 00b8 adbe e2f4 793e 13ab b73d 85bc 89bd
000000b0: d5b3 8bbd 3473 6f3e 10fa 263e 1bcf 3abe
000000c0: 79ae b93e 7134 593e e506 f6bd 106d b83e
000000d0: 4a2a 9d3e 2f38 83be 1994 023d 4057 5cbc
000000e0: 067a 6bbe a2fc 99be 8528 683e 93a5 b23e
000000f0: eee9 83bd 8180 8c3e 7b4a 2cbe 5f6f 093e
00000100: 1105 933e 5c83 ebbb 8565 943e 17fe 553e
00000110: 1567 dabc 47fe a13e 8dd7 a73e 918c b43e
00000120: d1eb 003c 42b1 8b3d c7a2 2cbe 1218 8c3e
00000130: 017d 843e 5c2b a5be 929a 0e3e 10d5 97bd
00000140: 5bd3 a1be 3466 a53d 45fc 993e 2db8 a03e
00000150: 0aea 11be 2763 92be 60f9 36bc 4d6a a43e
00000160: f616 44be 7c6a ccbd 9880 68be 5e8e 453e
00000170: 2b30 6bbe eb40 67be 78c1 3f3d f0f3 debd
00000180: 9540 9b3e e8c7 683d 5aa9 36be 3435 d13d
00000190: e076 b1be 001c 353c f842 9ebe de6e 083e
000001a0: b06c 84bc 8bc2 34be 6121 5dbe 4a6a 5b3e
000001b0: c0e9 283c 6007 6b3d 98b2 1e3d 9a3c aebe
000001c0: 08ca cabd 10f7 88bd e576 80be fc5f cebd
000001d0: 58a1 0a3d 0c11 e43d 5847 8d3d aab1 173e
000001e0: e214 0dbe 4c61 05bd ca5b 6f3e 4664 653e
000001f0: a3d5 81bd f8db 133d 3c7a a93e 6e9b 10be
00000200: a84a aa3e 1814 283e e6b8 2fbe cd84 84be
00000210: 7095 cf3c 7db5 753e af84 b93e e3ee 843e
00000220: fb31 5a3d 4a85 37be ceb0 9d3e e2f1 5f3e
00000230: c8f2 e5bd 0362 50be 6101 14be 98b7 16be
00000240: f475 ad3d 4236 93be 94f1 9c3d 2b39 49be
00000250: 0c60 91be 00f7 173d 0890 76be 00aa c83b
00000260: b816 bebd 5363 a93e ccbf 0bbe 1a11 af3e
00000270: b544 80bd 9cb9 3d3e 7003 6fbe 6429 27bd
00000280: 1b10 8b3e 797d 973e 65f3 683e 95c9 b53e
00000290: 3f07 24bb 4d35 0ebd d662 9b3e 52ee 193e
000002a0: 4d16 8a3e a498 99be cf37 37be 0464 b8be
000002b0: a044 863d 1f18 a93e 9102 ab3e 6b17 bebd
000002c0: c552 aabc 7848 303d 47fc 20be 4d92 953e
000002d0: 46c2 bbbe 74c1 fd3d 4b4a 32be 2806 c13d
000002e0: 3b70 883e 56d6 11be 0434 31be 5579 be3e
000002f0: 2b40 b83e 3d25 f83d 0370 183e 3938 ed3b
00000300: 0f10 313e 1bb7 d4bd 6efc 4c3e 44be e9bd
00000310: 900d f6bc 6c2f 9fbd 21ab 803e 6822 fdbd
00000320: 0014 a7bd 4e83 413e 7864 783d 45d5 a53e
00000330: e118 40be 62f9 f03c 5f52 ad3e e071 3d3e
00000340: 380b 73be 5f20 1abe bb47 873c 7291 2c3b
00000350: 0d83 603e 1e50 903e 2ad4 993e f28d 973d
00000360: a4de 9fbe ef60 883e 30b8 89bd 890f 8dbe
00000370: a669 93be c018 cdbc 5bda ab3e 9d1c babe
00000380: 5319 d6bd bc67 803e 04ba a73e 0faa 83be
00000390: 83ba c6bd 7bc4 843c 1eb9 613e 29d7 90bd
000003a0: dfa6 783e 23b0 a6be 7752 743e 87dd 5b3e
000003b0: 5827 c2be 1006 9f3c f0bd b63d d065 42be
000003c0: f5ef 9cbe 2a81 01be 986b d6bd 5079 a83d
000003d0: f0d4 dfbc 394f bebe dfd8 70be 2df4 923e
000003e0: 5807 74bd e819 8ebd e9b6 45be 05de 53be
000003f0: 2a1b 89bd 5f81 b43e 2c8a 7c3e 9934 ae3e
0.13764167 -0.04548894 0.050323114 0.16821957 0.34907994 -0.36454573 -0.0749079 0.30248538
-0.3738825 -0.18908753 0.07252243 0.09247041 -0.23674689 -0.33390826 -0.17630264 -0.15525338
0.07354814 -0.149568 0.33818182 0.115920395 0.25132772 0.3033447 0.18821545 -0.05694741
-0.013333565 0.33024988 -0.16354904 -0.21112499 -0.23307091 0.29329908 -0.28189036 0.3303964
0.07116349 -0.02880613 0.15440395 0.0018905103 0.16285333 0.10992381 -0.23435865 -0.34592447
-0.33929443 0.24409822 0.08968177 -0.0672541 -0.068214096 0.2338379 0.16306329 -0.18243067
0.36265925 0.21211411 -0.12013034 0.36020708 0.30696326 -0.25628802 0.03187952 -0.013448536
-0.22995767 -0.30075556 0.22671707 0.34891948 -0.06441103 0.2744179 -0.16825287 0.13421391
0.28714803 -0.00718729 0.28983703 0.20897709 -0.026660481 0.3163931 0.3278164 0.35263494
0.007868723 0.068209186 -0.1685897 0.27362114 0.2587662 -0.32259643 0.13926151 -0.07413685
-0.31606564 0.08076134 0.3007528 0.31390515 -0.14249435 -0.28591272 -0.011167854 0.3211235
-0.19149384 -0.09981248 -0.22705305 0.1929259 -0.22967593 -0.22583358 0.046815366 -0.10886371
0.3032271 0.05683127 -0.1783804 0.10215226 -0.34661007 0.011054039 -0.30910468 0.13323542
-0.016165107 -0.17652337 -0.21594764 0.21427265 0.010309637 0.05738008 0.03874454 -0.3403061
-0.09901816 -0.066877484 -0.2509071 -0.10076901 0.033845276 0.11136064 0.06898373 0.14813867
-0.13777497 -0.032563493 0.23374858 0.22401533 -0.06339576 0.03609845 0.3310107 -0.14121792
0.33260083 0.16413915 -0.17160377 -0.2588257 0.025339812 0.23995014 0.36234042 0.25963506
0.05327032 -0.1792194 0.30798954 0.21869615 -0.112279475 -0.20349889 -0.14453651 -0.14718473
0.084697634 -0.28752333 0.07663265 -0.19650714 -0.2839359 0.037100792 -0.24078381 0.006123781
-0.09281677 0.3308359 -0.13647383 0.34192735 -0.06263105 0.18527836 -0.23341155 -0.040810958
0.27160725 0.29587916 0.22749098 0.35505357 -0.0025028733 -0.0347188 0.30348843 0.15032318
0.2697014 -0.29999268 -0.17892383 -0.36013806 0.06556058 0.33026215 0.33400396 -0.092818104
-0.02079142 0.04303786 -0.15721236 0.2921318 -0.36671656 0.12390414 -0.17411153 0.09425002
0.26648125 -0.14241919 -0.17304999 0.37201944 0.35986456 0.12116478 0.14886479 0.0072393683
0.17291282 -0.10386487 0.2001817 -0.114132434 -0.030035764 -0.07772717 0.2513056 -0.12360078
-0.081581116 0.18897745 0.06064269 0.32389274 -0.1875949 0.02941579 0.33851907 0.18500471
-0.23734748 -0.15051411 0.016513696 0.002633181 0.21924992 0.28186125 0.3004468 0.07400121
-0.3122455 0.26636454 -0.06724584 -0.27550915 -0.2879154 -0.025036216 0.3356503 -0.36349955
-0.10454049 0.25079143 0.32759106 -0.25715682 -0.09703543 0.01620697 0.22043273 -0.070722885
0.24282406 -0.32556257 0.23859583 0.21471225 -0.37920642 0.01941207 0.089229465 -0.18984151
-0.30651823 -0.12646928 -0.10469741 0.082262635 -0.027323216 -0.37169817 -0.2352023 0.28701916
-0.059577316 -0.06938535 -0.19308056 -0.20690162 -0.06694634 0.35254952 0.24662083 0.34024504

main_model.InputLayer.bias f4 [256]
00000000: d2c8 99be 89ad 6bbe b7d3 403e 2c71 4fbe
00000010: d0c1 0f3e 4b1a 9a3e c95c 4f3e e32c abbe
00000020: dda3 953e fb08 05be 74f3 36be 6e9c b23e
00000030: 8dca 27be 8bde bb3d e891 8abe df8e 923e
00000040: f78a 383e 22ff 2abe 6062 0abe 2a42 6f3d
00000050: 1844 1b3e 59fa d93e 466a 41be b5dd 62bc
00000060: 5fad 843e 90e9 be3d 7298 063e 0681 27bd
00000070: 123f 943e 4e77 063e 56e6 203e 60aa c8bc
00000080: 1839 503d dc3b 343e 32bc 793e 5f6c 61be
00000090: 57aa 9cbe 3c66 ed3d 2003 003e 1fc3 a2bd
000000a0: 380d 50bd 52cd f8bd d309 2ebd eaf2 c03d
000000b0: c236 bcbe b609 7dbe a9c5 98be c854 d5bb
000000c0: acfa d03b fab5 7c3e b55e 933b 4a5e ba3d
000000d0: 4d08 17bc ffaa 1a3e 44b5 8e3e 08cf 20be
000000e0: 5cc8 c2bd 7519 7dbe f991 9c3d 07eb 503e
000000f0: af18 b93e 757e 0c3e 2874 103e a275 9d3d
00000100: a8e4 a93e ebe5 a8be 80b5 1dbd 9385 a93e
00000110: cc2d 95be 7bc9 a53e 782f c63e 5812 f6bd
00000120: b06f 98be d7b9 a6be 40df e3bd 0b91 6cbe
00000130: 457d b93e 79f0 86bd 925f 023e 6531 dd3d
00000140: 98bf db3c 0b22 bc3e f71c ad3d e423 c2bd
00000150: da27 873e b813 8cbe bd0f 853e a400 a0bd
00000160: 0a07 39bd c1d5 bdbe 6a29 a23d e6f8 1ebe
00000170: e0be 1ebc b21d 72be eca1 2bbe c7b5 84be
00000180: 8e41 20be b6d4 9ebd 5951 a7be 6586 7b3e
00000190: e939 75be 38ce 8d3e f49d debd fe53 b93e
000001a0: f4e2 123e 0195 673e 865c a73d 43b3 313e
000001b0: 5ce9 94bd dde8 b03e eeaf 7f3e 5086 a1be
000001c0: 23d4 1bbe 1bc6 b7be 9d42 3a3d b2f4 aebe
000001d0: 60db 68be b637 2fbe 2cf8 a2be 4b06 17be
000001e0: 5c87 42be ac98 62be 21b9 1ebe 0256 223e
000001f0: 4892 0bbd 2ee2 d53d e306 953e 0403 383e
00000200: fc8b 843c bad7 c33e 04bb c73e 57f0 9a3e
00000210: 0086 9bbd f80e 8ebe 685b fabd 8679 03be
00000220: 7eef 6cbe 5302 a73e a8aa 75bd ddda ca3e
00000230: cee5 45be 67fa 0b3e a499 a13e e952 813e
00000240: b04f ffbc ea3a 2fbe 7e26 af3e 7e3e c53e
00000250: 1216 583e 8a40 fdbd abac 2cbe dc3d 08be
00000260: 032f c2be f77b b93e c883 afbd 7026 213e
00000270: fe27 923e 21ff 903c 7c7c 1ebe 1511 8e3e
00000280: 1d1d b03e 1c27 94be 2a71 e33d 82ab 9a3e
00000290: 8c19 c8bd 204e a43d 8eac c3bd 9646 55be
000002a0: 0a3c 96be f8f7 babe 94eb d43e 454f c4be
000002b0: 139f b13e 3fa4 7b3d 5fa2 b4be 7ea2 513e
000002c0: 3fa9 6ebe c121 423d ad1c f6bc 6b51 d43e
000002d0: 0ec0 8dbc 0fc4 bcbd 94f5 993e d299 b63e
000002e0: c1bd a2be 104f be3e b019 773e 85ab 9cbe
000002f0: a7e0 c33e c4e9 d4bd 02ce e63d d878 95be
00000300: f1cd 0e3e a161 d03e 57a6 443e 500c ad3e
00000310: b1f5 983e 5aa7 283e ea5b 93be a457 2a3e
00000320: 8846 02bd a452 af3e 864e 8b3e 2629 933e
00000330: 0205 89be 6322 953e cdcd 8ebe 9497 f7bd
00000340: ec79 1f3d a631 b1be 9037 173d 774c 273e
00000350: f53d acbe 015e 8dbe e95d 9fbe f6b3 c1be
00000360: 5eba 49be 2fc6 663e b3b5 453e 96af 9fbe
00000370: 7f84 053e ab4f 36be 0d9e 733e e240 9b3e
00000380: bd0b 823e 4bcd 893d aa1f 44be e190 9fbd
00000390: c7a0 ab3e a8ee eebd 26b7 8bbd 59ee 8bbe
000003a0: 8f93 8c3e a926 133d 198a 753e efc8 613e
000003b0: 013f b2be b802 34bd 852d 84bd dc7f b5bd
000003c0: 6c47 1abe 2518 5abe 6018 08be 6342 893e
000003d0: dd2b 073e 1280 16be c066 303e 77e1 e63d
000003e0: 88b8 8e3e 6f6a b13e f8d2 c2bd 299a afbe
000003f0: b1a9 3c3e ab53 bbbe 0f13 76be 581a a03e
-0.30036026 -0.23015417 0.18830763 -0.20258015 0.14038777 0.30098185 0.20250238 -0.33432683
0.2922658 -0.12991707 -0.17866307 0.3488497 -0.1638586 0.09173306 -0.27064443 0.28624627
0.18021761 -0.16698888 -0.1351409 0.05841271 0.15162694 0.42573813 -0.18888196 -0.013846804
0.25913522 0.09321892 0.13144091 -0.04089453 0.2895437 0.13131449 0.15712866 -0.024495304
0.0508357 0.1760096 0.24388197 -0.22013997 -0.3059871 0.11591765 0.12501192 -0.07947373
-0.050793856 -0.12148537 -0.042489838 0.09421332 -0.36760527 -0.24710736 -0.29838303 -0.006510351
0.0063775387 0.24678794 0.004497374 0.091000155 -0.009218288 0.15104292 0.2787267 -0.15703976
-0.09510872 -0.24716742 0.076450296 0.20402156 0.36151645 0.13720115 0.1410681 0.07688452
0.33182263 -0.32987913 -0.03850317 0.33109722 -0.29136503 0.3238028 0.3870809 -0.120152175
-0.2977271 -0.3256366 -0.11126566 -0.23102205 0.36228386 -0.06588835 0.1273177 0.10800437
0.026824757 0.36744723 0.0845279 -0.09479502 0.26397592 -0.27358794 0.2598857 -0.07812622
-0.04517273 -0.37077144 0.07918055 -0.15524635 -0.009689063 -0.2364414 -0.16760987 -0.25919935
-0.15650007 -0.07755415 -0.3267925 0.24562986 -0.23947872 0.27696395 -0.10869971 0.36196893
0.14344388 0.22615434 0.08171944 0.17353539 -0.07271072 0.3455266 0.24969456 -0.31547785
-0.15217642 -0.3589333 0.045473684 -0.34171063 -0.22739935 -0.17111096 -0.31829965 -0.14748494
-0.18996948 -0.22128552 -0.15500309 0.15853122 -0.03407505 0.10443531 0.29106817 0.179699
0.016180031 0.38250524 0.3900987 0.3026149 -0.07593918 -0.27745795 -0.122244656 -0.12839326
-0.23138234 0.3261896 -0.059977204 0.39620104 -0.19325945 0.1366974 0.3156253 0.25258568
-0.031165928 -0.17112318 0.34209055 0.3852424 0.21102169 -0.123658255 -0.16862743 -0.13304847
-0.37926492 0.3622739 -0.08570057 0.15737319 0.28546137 0.01769978 -0.15477175 0.27747408
0.34397212 -0.28936088 0.11105569 0.30208975 -0.09770498 0.08022714 -0.095543966 -0.20827708
-0.2934268 -0.3651731 0.41585982 -0.38341728 0.34691676 0.061435934 -0.3528013 0.20472142
-0.2330675 0.04739547 -0.03004297 0.41468367 -0.017303493 -0.09217083 0.30070174 0.3566423
-0.31785396 0.37169695 0.24130893 -0.3059961 0.38257334 -0.1039615 0.112697616 -0.2919376
0.13945748 0.40699485 0.19204079 0.33798456 0.29874948 0.1647009 -0.28781062 0.16634995
-0.031805545 0.34242737 0.27208346 0.2874233 -0.26761633 0.29127797 -0.2789139 -0.12089458
0.038934633 -0.3460819 0.036918223 0.16337763 -0.3364102 -0.27610782 -0.31126335 -0.37832612
-0.197 0.22536539 0.19307594 -0.3118865 0.13038824 -0.17803828 0.2379076 0.3032294
0.2539958 0.0672861 -0.19152704 -0.07791305 0.335211 -0.11666614 -0.06822042 -0.27330282
0.27456328 0.03592554 0.23978461 0.22049306 -0.34813693 -0.043947905 -0.06453995 -0.08862278
-0.15066308 -0.21298273 -0.13290548 0.26808462 0.13200326 -0.14697292 0.17226696 0.11273473
0.2787516 0.34651515 -0.09512895 -0.34297302 0.18424107 -0.3658727 -0.24030708 0.312701

main_model.hiddenlayer_0.weight f4 [256, 256]
00000000: 7048 a0bb 3e27 7cbd f490 48bd 48b4 53bc
00000010: ee35 1a3d a841 73bd 2896 073d 1ec8 2e3d
00000020: 386b 2dbd 8077 f6bc 1687 23bd 504d 023d
00000030: f0cd d23b d2b5 76bd 0219 663d 20b2 bcbb
00000040: b89a 4c3d 8005 923a f8ec 633d 8af0 72bd
00000050: 6403 663d 70d8 773c 801f c13b 121a 55bd
00000060: c6df 293d 2c29 96bc f054 0a3d 56fb 27bd
00000070: 7e87 24bd 14ac 99bc 08a4 dd3c d894 b0bc
00000080: 0097 55bb 881e 7dbd 600a 7fbb 20b1 a83b
00000090: c05d e5bc 2061 90bc 08fc ddbc 92a2 7b3d
000000a0: 007a 89b9 e05e 1e3c dc8e d63c 18b6 1f3c
000000b0: 9465 4cbd f6fa 443d f206 00bd 6887 5e3c
000000c0: 1048 c2bc 7ab5 7e3d c2bb 213d 42d1 573d
000000d0: fa73 0d3d 6440 66bd 287b 0a3c 3c76 babc
000000e0: 98b8 e03c 6011 32bc 381f d4bc 2a04 113d
000000f0: 2c42 b2bc 4091 3a3b f000 39bd 4632 753d
00000100: 4620 48bd 08ce 4c3d 6a0f 073d 0008 63bb
00000110: 00d5 1fbb 5868 0abc 7ea5 57bd 38f2 d73c
00000120: 0800 7bbc 9ae3 43bd 2cea b3bc f8ff 3bbd
00000130: 488a 663c 4414 4d3d 8e3a 45bd d846 66bc
00000140: 0080 ea38 b2b7 5d3d c408 ecbc 001f 233b
00000150: a87b 11bd 1e48 3cbd a0b8 37bd d8ca 76bd
00000160: 30b8 243c 30f7 ef3c 8eb8 093d bcb7 07bd
00000170: 40e8 0bbd ee0c 523d f80a 09bd 807b 1eba
00000180: 448a 5f3d 4eed 6bbd 78cb 58bc d8cd 7dbc
00000190: 6064 7b3d 2a73 53bd 9eb5 02bd 6a49 04bd
000001a0: 6cd9 403d 8097 6dba 1836 753c e2a9 59bd
000001b0: 5cad 8fbc 8c4e 333d 76cf 513d 58e1 7d3d
000001c0: 8486 513d 502a 423d 0066 3bba a201 43bd
000001d0: c09a dd3c e426 f4bc 6cfc 48bd e4a8 1fbd
000001e0: 5022 b33b 9e49 73bd 7add 70bd 6451 ddbc
000001f0: 8046 5cba 88f4 213d a05a 4ebd 406d e6bb
00000200: 68dd 553d 548c a73c a012 ab3c a6aa 1abd
00000210: fc9e fdbc 6ad5 253d 644a 0dbd 5864 173c
00000220: 0061 003a f4de 8cbc 902e 1e3c 9eb9 753d
00000230: a0e0 37bc fe7d 6b3d f605 01bd 00ae e63c
00000240: ac02 7abd 80ae a9ba b221 0bbd 9c51 b33c
00000250: b86d f63c 2c04 573d 32bc 373d 0ec3 193d
00000260: 5049 94bb 6afc 63bd 0630 1c3d 4841 f23c
00000270: 2071 7ebc 04ff b63c 9482 7abd f820 6ebd
00000280: 46c6 0b3d 8cc1 cf3c 80d9 ae3a c066 873a
00000290: d0ad 57bd 0c30 8bbc b610 343d 9862 9abc
000002a0: 1246 75bd f807 d0bc 006c e73c a0dd ccbb
000002b0: 88de 54bd f054 793c bc48 b8bc a081 c83c
000002c0: f873 7ebc 90d9 d4bc 7062 063c a8ed 81bc
000002d0: f82b 723c 0cb9 6d3d 9635 2c3d 5869 bcbc
000002e0: 1416 4ebd a087 5d3d c0a9 563c d86b 97bc
000002f0: f45c 9c3c 3812 df3c e60d 433d f64b 123d
00000300: 00b5 b1bc e4fa a53c 9007 06bd 2c2e c2bc
00000310: a456 ee3c b08d a2bc 4a58 483d e05d 30bb
00000320: 1c55 bc3c 02a6 683d eac7 65bd 1a2a 18bd
00000330: c213 7e3d 0089 45bd 6215 1b3d fc7b 2a3d
00000340: 886b 6dbd 0eae 7f3d 901f e23b d0ae 583c
00000350: b471 34bd 5830 e1bc bae4 783d 1cb9 cabc
00000360: 80da 1dbc 7656 3ebd 6091 34bb ae07 5f3d
00000370: 0044 a6bc 1037 ccbb 5c71 d8bc a0cc 66bd
00000380: c035 6d3d a06d c53b 42ba 0abd b418 523d
00000390: ae46 553d 80d4 32ba 6234 71bd 54b0 cfbc
000003a0: 9446 07bd 4abb 6e3d 82ce 60bd 4016 3cbb
000003b0: c4cb 4fbd 5031 4b3d 10a9 55bd b856 043c
000003c0: 467f 293d 407b f43c 4cad efbc 1295 0f3d
000003d0: a04b f23b 2087 2abd a070 24bc 7220 2ebd
000003e0: dccb cdbc 4c33 86bc 4814 7ebc 5a58 21bd
000003f0: 5899 3cbc 2620 023d 382f 093d d2db 21bd
-0.0048914477 -0.06156086 -0.048966363 -0.0129214 0.037649088 -0.059388787 0.033102185 0.042671315
-0.04233858 -0.030086279 -0.03992375 0.031812012 0.006433241 -0.06023199 0.056176193 -0.005758539
0.04995224 0.0011140555 0.055645913 -0.059311427 0.056155577 0.015127286 0.0058936477 -0.052026816
0.041473173 -0.01833018 0.03377241 -0.041011177 -0.040168278 -0.018758811 0.027055755 -0.02155535
-0.0032591224 -0.061796695 -0.0038916096 0.005148068 -0.027998805 -0.017624438 -0.027097717 0.061434336
-0.00026221573 0.009666175 0.026191168 0.009748004 -0.04990156 0.048090898 -0.031256624 0.013582088
-0.023716003 0.06218479 0.0394857 0.0526898 0.034534432 -0.05621375 0.008452214 -0.022761457
0.027431771 -0.0108684 -0.025893793 0.03540436 -0.021760069 0.0028467923 -0.04516691 0.059862398
-0.048858903 0.050001174 0.032973684 -0.003464222 -0.0024388433 -0.008447729 -0.05264806 0.026360616
-0.015319832 -0.04782448 -0.021962248 -0.045898408 0.014071055 0.050068155 -0.048151545 -0.014054976
0.00011181831 0.054130264 -0.028812774 0.0024890304 -0.03551832 -0.045967214 -0.044853806 -0.06025204
0.010053679 0.029292673 0.03362327 -0.033134207 -0.034157038 0.051281862 -0.033457726 -0.00060456246
0.05457522 -0.05759936 -0.0132321045 -0.0154909715 0.061375022 -0.0516235 -0.031911485 -0.032296576
0.04708235 -0.0009063408 0.01496651 -0.05314053 -0.017538719 0.04377608 0.05122324 0.061982483
0.051153675 0.047403634 -0.0007148683 -0.04760898 0.02705133 -0.0298037 -0.049068853 -0.038979426
0.005466737 -0.05939638 -0.058804967 -0.02701635 -0.00084028393 0.039539844 -0.050379395 -0.0070320666
0.052213103 0.020452656 0.020882905 -0.0377604 -0.030959599 0.04048673 -0.034494773 0.009240232
0.00048972666 -0.017196156 0.009654656 0.05999147 -0.011222988 0.057493202 -0.031499825 0.028159142
-0.061037704 -0.0012945682 -0.03396768 0.0218895 0.030081615 0.052494213 0.04485721 0.037539534
-0.004525341 -0.055660643 0.038131736 0.029572144 -0.015529901 0.022338398 -0.061159685 -0.05813691
0.034124635 0.025360845 0.0013339967 0.0010330305 -0.052655995 -0.016990684 0.04396125 -0.018845841
-0.059881277 -0.025394425 0.02824974 -0.0062520057 -0.051970035 0.015218005 -0.02249562 0.024475873
-0.015530579 -0.025982648 0.00820218 -0.015860394 0.014780991 0.058037803 0.04204329 -0.02299945
-0.050314024 0.05408442 0.013101995 -0.018484041 0.019087292 0.027230367 0.047620676 0.035716973
-0.021692753 0.020261236 -0.032722056 -0.023703657 0.029094048 -0.019842952 0.048912324 -0.0026911423
0.022989802 0.056798942 -0.056098856 -0.037149526 0.06203056 -0.048226357 0.03786219 0.041622147
-0.057963878 0.06242185 0.006900735 0.013225272 -0.04405375 -0.027488872 0.060765006 -0.02474647
-0.009634614 -0.046469174 -0.002755247 0.054450683 -0.020296097 -0.00623215 -0.026421241 -0.05634749
0.057912588 0.006025031 -0.033869036 0.05129309 0.05206936 -0.0006821826 -0.058887847 -0.025352634
-0.033026293 0.05828408 -0.05488444 -0.0028699785 -0.050731435 0.049607575 -0.052163184 0.008077316
0.041381143 0.029843926 -0.02925744 0.035054274 0.007394269 -0.04163277 -0.0100366175 -0.04251141
-0.025121622 -0.016381882 -0.015507765 -0.0393909 -0.011511169 0.03176894 0.033492297 -0.039516278

main_model.hiddenlayer_0.bias f4 [256]
00000000: 3c00 5a3d 68b7 92bd 4753 33bc a324 543d
00000010: 5608 a1bb a93a 503d 7971 223d 380e 7e3c
00000020: b8a1 be3d 82a4 43bd 080d ba3c 166a be3c
00000030: e097 9cbc 382b 373d 5695 1f3d 9079 8b3c
00000040: 2817 51bd 8670 46bd 30e2 3cbd 5827 e6bc
00000050: 09c6 f2bc 972a 2b3c eabf 5ebd dd0e 1e3d
00000060: bee5 56bb a575 0e3d 0699 93bc 0732 503d
00000070: dd2d b7bc 2780 42bd e466 c83b 00db 32bb
00000080: dc25 1bbd 5225 34bd 18eb ae3d cc6a c73c
00000090: 7e26 1d3d 10e6 d73b 1613 15bd 26c3 9bbb
000000a0: aefb a53d c061 cc3d 34c0 943d 776b df3d
000000b0: 9909 613d db12 bfbc ced9 13bd 6ca5 6ebd
000000c0: c8cd b4bc ca95 da3c e855 2b3c 8b7e 893d
000000d0: d4f7 603c ce07 1cbc d6b1 17bd e674 793d
000000e0: a36b 863c 3454 e63c 7d4a d03b 1679 56bd
000000f0: aa34 31ba afb1 153d b661 b1bc 4c33 dc3c
00000100: e47c 44bd 5049 abbb 877a e63b 748e 54bd
00000110: 70b2 7a3c a00b c2bc b074 1bbd fde7 27bd
00000120: 8f86 d33c 9d38 5dbd 68c4 00bd 6abb 3e3c
00000130: d63b 2bbd ea12 d03b 2803 3c3d 3a71 fa3a
00000140: 7a98 37bd 6f39 a3bc 4ad4 84bd b591 013d
00000150: c2e9 023d a32e 593d 784e d33c a01f 263c
00000160: 1254 5b3d c146 533d 3703 19bd fcf9 aa3c
00000170: 0e24 623c 48a9 cbbc 5b12 1c3d 4115 bb3c
00000180: 009c 0d3c 09ea a43c d019 e13b b5e1 1bbd
00000190: 324a 683d 8365 113d d4ae 243d 1663 6c3d
000001a0: 9b41 4bbd 31ec 143d 3298 7f39 d4ea 49bd
000001b0: 59d7 003c 381c 023d b811 80bd 3046 26bc
000001c0: 522f b93c d82e 103c 5991 64bc 652e c33d
000001d0: 28a1 2c3c 2423 f8bc 5848 9a3c eec1 693b
000001e0: 6045 593d fe09 9a3c a535 ea3c 9a9a 5fbd
000001f0: 7b82 2dbc 98c2 77bc 23ab 693d 3bfc 18bc
00000200: 1443 663d 50eb eabb 11ca 363d 0b2b 19bc
00000210: 008c 2bb9 41a5 19bc cd12 1c3d dfe6 32bd
00000220: 8e97 25ba 58be 613d f2e8 c9bb d38d d1bc
00000230: a78d 75ba ef52 5a3d 47e4 203d a0bc 04bd
00000240: a457 d03b 69eb 2dbc 2ec8 503c 7a04 363c
00000250: e602 563d fb91 04bd d3b6 9f3d d2c0 023d
00000260: 90e4 6cbd 069c c2bc 2fad 3b3d 605f 96bc
00000270: 001e 633d 2013 fa3c 8a96 0a3b 1af0 623d
00000280: e2bc 52bc 7003 093c e622 3fbc 1815 8dbc
00000290: 6534 513c 2c32 3f3d b3c5 333d a018 853b
000002a0: 4a3f 3a3c d481 b7bc e6f1 68bd fa3b 2c3d
000002b0: 0e1b 54bc e97b bebb ec9a 26bc c0d8 1b3d
000002c0: 52fb 313d ac1f 603d b65c 04bd b926 d9bc
000002d0: 26f7 8a3d 39b2 dd3c 42ba 41bd d8fa 8cbb
000002e0: 3dbf eebc 91cd ac3c 48d9 57bd 2a69 92bc
000002f0: 1815 0a3c 1cb9 003d 78af 0b3c 7af4 f23c
00000300: 46d3 ebbb cd2b 493d eeb0 2cbd 42bd 7c3d
00000310: 88e1 29bc c5f2 7cbd 4c3e 64bd 80bb 30bd
00000320: 47ec 6f3d ab80 633b 1f89 d63c 9a88 303d
00000330: 5017 3bbd 39d6 1c3d 838c f0ba 8804 35bd
00000340: c25f 7fbd 8074 f4bb 2e69 b4bc 821a 7bbd
00000350: 27f9 183c f0d8 81bc 32ed c9bb d29f 4f3d
00000360: 5917 b43c 7b82 cf3c 1edf 34bd 76ff f43c
00000370: 1226 87bc 16b8 7abd 519b a63c 9531 8c3d
00000380: d8e1 173d 6fb7 ca3c a197 67bc b20b 113d
00000390: ac45 a13d 4325 28bc 49ce 0b3c 9a7d 2ebd
000003a0: c5c3 d9bc c07c 93ba 89b7 d0bc 8a70 81bc
000003b0: a5c4 60bc 8b0b 213d 1c54 ccbc 12eb 763d
000003c0: 31d7 47bb 42ba 83bc 84e2 83bc 23f5 663d
000003d0: 5212 d53c 87dc acbb 2575 87bc 96cf 673d
000003e0: 34f4 d0bc 65f6 603c 906b d9bc 718a c5bc
000003f0: d410 79bb 19c3 14bd 0e7d 6bbd 9b79 353d
0.05322288 -0.07163888 -0.010945148 0.051792752 -0.004914324 0.050837193 0.039658997 0.01550632
0.09308189 -0.04776431 0.022711292 0.023243945 -0.019115388 0.04471895 0.038960777 0.017025739
-0.051047474 -0.048447154 -0.046114147 -0.028094932 -0.029635446 0.010447166 -0.054382242 0.038588393
-0.0032790746 0.034780163 -0.018017303 0.05082896 -0.022360737 -0.047485497 0.006115781 -0.0027291179
-0.037877902 -0.043980904 0.08540934 0.024342917 0.038366787 0.006588705 -0.036395155 -0.004753488
0.08104645 0.09979582 0.07263222 0.10909169 0.054940794 -0.02332442 -0.036096387 -0.058263227
-0.02207078 0.026682753 0.010457493 0.06713589 0.013730962 -0.009523345 -0.037034832 0.0609025
0.016408747 0.028116323 0.006356536 -0.05236157 -0.0006759862 0.036546405 -0.021653038 0.026879929
-0.047970667 -0.0052272454 0.0070336494 -0.051893666 0.015301332 -0.023687184 -0.03795308 -0.040992726
0.025820998 -0.05400907 -0.031437308 0.011641363 -0.04180511 0.006349911 0.045901448 0.001910723
-0.044823147 -0.019924847 -0.064858034 0.031633098 0.03196121 0.053022992 0.025794253 0.010139376
0.053546973 0.051581148 -0.03735658 0.020871155 0.013802541 -0.024860993 0.038103443 0.022837283
0.00864315 0.020131128 0.006869532 -0.038057048 0.056711383 0.0354972 0.04020579 0.057711683
-0.049623113 0.036358062 0.00024375392 -0.049296215 0.007863843 0.031765193 -0.062533796 -0.01014857
0.022605572 0.008800231 -0.013950669 0.095303334 0.0105364695 -0.030290194 0.018833324 0.003566857
0.053044677 0.018803593 0.028590033 -0.0545908 -0.010590191 -0.015122078 0.057047974 -0.00933748
0.056216314 -0.0071691647 0.0446263 -0.009348641 -0.00016359985 -0.0093777785 0.038103867 -0.043677207
-0.0006316834 0.055113167 -0.0061618024 -0.025580322 -0.0009367116 0.053301748 0.039280202 -0.03240645
0.006358104 -0.010615208 0.012743039 0.011109466 0.052248858 -0.03236578 0.07798543 0.03192217
-0.05783516 -0.023756038 0.045819458 -0.018356025 0.055448532 0.030526698 0.0021146857 0.05540476
-0.012862416 0.008362636 -0.011666035 -0.017221972 0.0127688395 0.046678707 0.043889713 0.0040617734
0.011367628 -0.022400774 -0.056871317 0.042049386 -0.012945903 -0.005813111 -0.010168772 0.038048506
0.04345257 0.054717705 -0.03231498 -0.026507722 0.06785421 0.027062522 -0.04729677 -0.004302364
-0.029143924 0.021094115 -0.05269745 -0.017872412 0.008427881 0.031426534 0.008525722 0.029657591
-0.0071968166 0.049114037 -0.04216092 0.061703928 -0.010368712 -0.06175496 -0.055723473 -0.043147564
0.05857494 0.0034714143 0.026188431 0.043099023 -0.04567653 0.038290236 -0.0018352423 -0.044193774
-0.06234718 -0.007460177 -0.02202281 -0.061304577 0.009336746 -0.015850514 -0.006162309 0.050689526
0.02198379 0.025330773 -0.044158094 0.02990697 -0.016497646 -0.061210714 0.020337733 0.068453945
0.037080616 0.024745671 -0.014135272 0.035411544 0.07874617 -0.01026279 0.008533069 -0.04260025
-0.026582608 -0.0011252388 -0.025478141 -0.015800733 -0.013718759 0.03931765 -0.02494245 0.060282774
-0.0030493254 -0.016080026 -0.016099222 0.056386124 0.026009712 -0.0052753123 -0.016535351 0.056594454
-0.02550707 0.01373062 -0.026540548 -0.024113866 -0.0038004415 -0.036318872 -0.05749231 0.044305425

main_model.hiddenlayer_1.weight f4 [256, 256]
00000000: a06d 31bd cecf 04bd 0bb9 083d c618 533d
00000010: b83f 963c a279 073d f299 c2ba 5063 d9bb
00000020: 7817 233c b88f 3ebd 0eb4 643d 78dd 3d3c
00000030: 0074 6bba 208f 4d3c 39cc f13d acb7 893a
00000040: 3a2f 6fbd fc9b 00bc 50dc 7b3d 205a 723c
00000050: 4095 243d 6bf3 963d 8c9f b9bc 8754 583d
00000060: c629 883a d58a 2bbd cff5 36bc 6f6f f43c
00000070: e5a6 043c 7a27 52bd 64e0 1ebd 4211 18bd
00000080: 4d4f 923d bebc 543c 2e10 013d 403d 8bba
00000090: 94cc 1bbd faa1 07bd a8f5 fbbc e7bf 193d
000000a0: b227 c33c ec61 af3d 040b bf3d 1490 5c3d
000000b0: 0925 08bd 6224 1cbc 547a af3c 4094 c3ba
000000c0: 3a11 183d 97cb 0e3d 9a4c 42bd 5874 e83d
000000d0: 29b5 843d 364a 52bd a2b3 14bd 01ea 0a3c
000000e0: 642c 7ebd 00b8 b2ba 1078 e73d 5037 283d
000000f0: 9bf5 a13d 71df 113d 3cd9 44bd 7c0e 9a3d
00000100: a330 b23c 00a1 433c 522a 58bd 5038 de3b
00000110: 8457 853d 6c35 243d b42b 243d 3481 2bba
00000120: b7db f53d b517 063d 855a 1abd 0d87 c0bc
00000130: 9abe 12bd f464 05bd 55b6 683d 816d abbc
00000140: e0cc 4ebd 0b81 5c3d 2386 763d 841a 5a3d
00000150: 4c7e 42bd 69a2 b33d e0aa fe3c 3914 cc3d
00000160: 3b6a 263d 34f1 983d 1629 f03c 5429 213d
00000170: 22c9 dd3c 3af3 90bc 5e24 cd3b d23e dc3d
00000180: 0c5b 07bd a338 233d d4aa 31bd e172 d83c
00000190: 6f44 05bc aa10 5d3d 776d 83bc 0670 d13c
000001a0: 1df3 3dbd 4687 96bc a228 5ebd 48f6 2cbd
000001b0: 2669 103d e455 f8bc 91bb 7cbd c8c0 3f3d
000001c0: a129 58bc 046e 933d f5b5 11bc eb89 623d
000001d0: 0451 05bd 3862 2cbd d35d 92bc 0760 afbc
000001e0: 5c26 523d f5be 66bd 2fa8 823d c035 efbc
000001f0: 9031 433d 08ca ca3c 9b33 7cbd 2305 4d3d
00000200: 121e 653d d606 6a3d 4bf5 5e3d f62d 893d
00000210: ecfa 9dbc 039a 6a3d bf75 d9bc 28fc cdba
00000220: 4d4d dcbc 2e3a 3cbd f7ac dd3c 81af c53d
00000230: 6561 a63c 20e6 283d 7282 7fbc 3ea2 403d
00000240: d8cf 95bb 8168 de3a c351 263d 5296 06ba
00000250: c617 133d 4d3b 5ebd 35f9 ed3d a193 f53d
00000260: 120d 293c b386 613d 0669 e3bb b9c0 4a3c
00000270: dcd2 2fbd 2a1e 063d aa1e 943d fa7b 7b3d
00000280: e4bf 4b3d e038 7fbc 32af d3ba a8ce 4d3c
00000290: 7c58 f83d 9948 8e3d 7247 26bd e7ba 78ba
000002a0: a3ec 5b3c 4657 3a3d a0ce bf3c ec5c 383d
000002b0: bc4b ba3c 3d7a e8bc d059 1a3d 0095 0c3d
000002c0: 002a 4b3c d0ae d2bb c3b4 7c3d 2828 6cbd
000002d0: c549 4e3c b69e 5a3d 0036 b439 855e d43d
000002e0: 64dd 95bc bf46 ea3d e0ee 52bc 2b2b 423d
000002f0: c041 bb3b a89c b13d 688e fbbc e851 cdbc
00000300: 1f5d cfbb 6d1b d5ba a82a b63c fc2b ff3c
00000310: d056 11bd 329c 083d f810 40bc fa62 3fbd
00000320: f828 493d 7420 54bd 141d af3d 845e 55bd
00000330: 2cc7 e63d 7db4 573d a905 b13c 7e41 223d
00000340: 68d5 013c ae60 2abd 8cb2 723c 8807 aabc
00000350: 199b be3d 6560 4bbc 6fd0 9fbc 5cb0 a63c
00000360: 7816 123d f4a5 b13b a5b9 3c3d d9bf a3bc
00000370: c4eb 44bd 386a fcbc 48be 993d 439a 283d
00000380: 8578 543d 5e03 30bd d214 8b3c 0b7a 5e3d
00000390: 1145 b83d e821 033c a8fc 643c 109a 713d
000003a0: 018f 53bb 5031 48bd b137 62bd 4ca2 15bb
000003b0: ea97 083d 9945 06bd 1a4f 5b3d 207d 7fbd
000003c0: fd4c 81bd a13b 51bd c69e 5cbd 7f2d 3d3d
000003d0: e6e5 59bd 500e a7bb f957 5d3c 0460 15bd
000003e0: 91c3 f1bc 5038 78bc 2a90 443d 7800 613d
000003f0: 92f2 223d 4438 54bd c994 4abd e42c c9bc
-0.043317437 -0.03242474 0.033379596 0.051537298 0.01834093 0.033074982 -0.0014846905 -0.0066341534
0.009954326 -0.04652378 0.055835776 0.011588447 -0.0008981824 0.012546331 0.118065305 0.0010507009
-0.058394648 -0.00784969 0.061489403 0.014791995 0.0401814 0.07370647 -0.022659086 0.052814987
0.0010388426 -0.041880447 -0.011167004 0.029838292 0.008096431 -0.05130718 -0.038788214 -0.037125833
0.07144032 0.012984453 0.03150957 -0.0010623112 -0.038036898 -0.033113457 -0.030756786 0.037536528
0.02382264 0.08563599 0.09328273 0.05384834 -0.033238444 -0.009530159 0.021420635 -0.0014921501
0.037125804 0.034862127 -0.047436334 0.11350316 0.06479866 -0.051340304 -0.036304124 0.008478642
-0.062054053 -0.0013635159 0.11302197 0.041068375 0.07908174 0.03561348 -0.048058733 0.07522294
0.021751707 0.011940241 -0.052774735 0.0067816153 0.06510833 0.04009001 0.04008074 -0.0006542385
0.12004798 0.032737453 -0.037683982 -0.023501897 -0.035826303 -0.03256698 0.05681451 -0.020926239
-0.050488353 0.053834002 0.060186516 0.053247944 -0.047483727 0.08771212 0.031087339 0.09964795
0.040628653 0.07467881 0.029316466 0.039346054 0.027073447 -0.017694104 0.006260439 0.107541695
-0.033045813 0.039848935 -0.043375805 0.026421966 -0.008133992 0.05397097 -0.016043408 0.025566112
-0.04637443 -0.01837505 -0.05423797 -0.04222706 0.035256527 -0.030314393 -0.061702315 0.04681471
-0.013193519 0.07198718 -0.00889348 0.05530731 -0.032547966 -0.042085856 -0.017867004 -0.021408094
0.051306114 -0.056334455 0.06379735 -0.029200435 0.04765469 0.02475454 -0.061572652 0.050053727
0.05593688 0.057135426 0.05443315 0.066982195 -0.019284688 0.057275783 -0.026545404 -0.0015715407
-0.026892329 -0.045953922 0.027060015 0.09652615 0.020310113 0.04123509 -0.015595065 0.047029726
-0.004571896 0.00169684 0.040605318 -0.0005134094 0.035911344 -0.054255772 0.11619798 0.119910486
0.010318058 0.0550601 -0.00694001 0.01237505 -0.0429257 0.03274361 0.07232411 0.06139753
0.049743548 -0.015577525 -0.0016150235 0.012561478 0.12126252 0.06947441 -0.04059548 -0.00094883
0.013423118 0.045493387 0.023413956 0.045010492 0.022741191 -0.0283786 0.037683308 0.034321785
0.01240015 -0.0064295307 0.061695825 -0.057655483 0.01259083 0.053374015 0.00034372509 0.10369591
-0.018294044 0.11439275 -0.012874335 0.04740445 0.005714625 0.08672458 -0.030707553 -0.02506347
-0.0063282396 -0.0016258784 0.022237137 0.031148903 -0.03548318 0.033352084 -0.011722796 -0.04672525
0.049111336 -0.051788762 0.08550468 -0.05209209 0.11268458 0.05266236 0.021609144 0.03961324
0.007924415 -0.041596107 0.014813077 -0.020755544 0.09306926 -0.012413119 -0.019508569 0.020347767
0.03566596 0.0054213945 0.046075482 -0.019988941 -0.048076406 -0.030812368 0.075069964 0.04116274
0.05187275 -0.04297196 0.016977701 0.054315608 0.08997548 0.008003689 0.013976254 0.058984816
-0.0032281282 -0.048875153 -0.055228893 -0.0022832332 0.033348 -0.032781217 0.053542234 -0.062375188
-0.063135125 -0.051082257 -0.053862356 0.046185967 -0.053197764 -0.0050981417 0.013509744 -0.03646852
-0.029512199 -0.015150145 0.047989048 0.054932088 0.039782114 -0.05181147 -0.0494583 -0.024557538

main_model.hiddenlayer_1.bias f4 [256]
00000000: 3951 263d 3e4d 773c c94f a2bc 168b babc
00000010: 5d8b 3bbd 010b 14bd d1ce 98bc 6d3b 823d
00000020: d0f4 51bd d5db 34bb 74bc 05bb cc40 23bd
00000030: 49af 833c 1ccc 683d 4911 1abd 87ea 413d
00000040: 6f8d 5bbd 8869 2ebd f710 b03b 34f1 ed3c
00000050: db4c b6b9 2e17 4e3d 6d12 073d 334d c8bc
00000060: cda4 523d 3043 f93b bc2f 91bb f2f5 69bd
00000070: 8903 d13b c195 d63b 1717 653d a583 d13c
00000080: 8ad3 81bd 2ed3 6c3b d610 6bbc b2c7 92bc
00000090: badd 0cbd b14b 363d 96aa 30bd 4ea4 6ebd
000000a0: 54ac 02bd b2f7 6dbd 4c50 2d3c b713 babb
000000b0: 582e 85bd c45b 27bd a737 db3c 650f 1f3d
000000c0: 12bc 33bd 2115 4c3d a863 82bd 8bb3 41bd
000000d0: 33e0 623c 9d44 8fbd 20b9 76bd 3ad5 45bd
000000e0: 1034 593d 8bd6 203c 7d6c 423d 6e27 22bc
000000f0: 9538 cabc 7c6c 3cbc 41e6 25bd e898 eabc
00000100: 8c52 073d 00da db3b 3cc4 a2bc 4434 d93c
00000110: 696f 1fbc 94f7 dbbc 62ab a8bc 7daf cbbc
00000120: 64e7 053d f548 1f3d 461c 49bc f84d 55bc
00000130: 0bac c73b 9447 52bd 232c 8e3c d65c 613d
00000140: 4018 03bd 835e f33b 587c 6fbd f115 443d
00000150: 50d7 b6bc 217d 46bc e7a3 373d a353 2cba
00000160: 253f 8a3c 473a 4fbd a54c 933c 3f29 09bd
00000170: b5cb 833d 23ca 373c 4280 193d 9c48 93bc
00000180: 6fdf 543d 87e7 0e3d 8166 16bb b9c7 dd3c
00000190: f7de efbc a842 7dbb 3c5e 34bd 3d2c 09bd
000001a0: fdf1 863d 59e5 1dbc feaa abbc 885a 84bc
000001b0: 63dc e53c f253 3fbd b317 613d d00b f33b
000001c0: a791 613c 523e a5bc 10d8 47bd c0dd a7bc
000001d0: c5c5 44bd 460f 43bd 5f66 4cbb a0f5 0ebb
000001e0: 35cf 01bc e24e 57bc 148e c83c cfc6 c03b
000001f0: d3a7 ddbc d9bc d9bb 2048 1cbd 7a73 813d
00000200: 68b2 5cbd df83 2dbd 470e 513d b9cc 46bd
00000210: 7708 fd3d 9b99 8d3d 1838 3abd f8d2 2ebd
00000220: b86f 723d a6e3 2a3d eb93 f03c 4e4e 3fbd
00000230: 4794 353d 23fc 96ba ae7f 4d3d 31db e63c
00000240: af3a ffba cd8b ba3c 7268 5c3d 7a1c 8a3c
00000250: 80d8 af3a 8a4a 35bd c167 ffbb c01d b03a
00000260: 0bc0 1fbb 70cf 0bba 8128 82bc e8ec ce3c
00000270: 34d4 863d 5ae0 33bd c1fe 28bc 472d febb
00000280: 0149 3bbb a0ff 68bd 9112 7abd ae3b a33c
00000290: f5c0 b8bb b378 3abd 9cb2 f3bc a599 2abd
000002a0: adf1 1bbd 8736 803d fe48 ffba 48c2 5dbc
000002b0: f6c5 5bbd 1673 e83b c848 333d 83e5 14bd
000002c0: 91c2 d03c 1ae4 813d 96b8 193d afd8 a0bc
000002d0: da53 08bd 4027 3ebd 5aec 0abd 34ae 193d
000002e0: ad26 a4bc 85fe 9a3a 0574 5e3b 2e27 46bd
000002f0: a96f 21bc c89f bc3c a07d e2bb 837d 5c3d
00000300: 6bf6 33bc d4a0 b03c 5058 86bc 3251 31bc
00000310: 58b5 34bd 6ff9 08bc 5270 443b 1499 823c
00000320: 2891 41bd 1e60 193d 9c43 363c d9c4 023d
00000330: d44e 953c b835 2a3d b99c 28bc 74ec 3cbc
00000340: 04db 823c 2cc7 14bd e5bc 2fbc 2d15 6dbd
00000350: ac66 40bd 6f88 4d39 582f 84bc 2df8 743b
00000360: 673a 493b 4d5a 04bc d2e9 d33a af74 26bd
00000370: 84c4 8c3d aff1 a53c 13f0 72bc 8532 363d
00000380: 6c7f bebc 4334 cbbc df52 65bd 8b3c 4ebc
00000390: 7c8c c23c f488 963b b8e6 c33c c92f 47bd
000003a0: 8b98 50bd f330 79bc 6749 bdbc ad9c a53c
000003b0: c712 fdbc ce70 62bc bd53 683d 2b1f 5b3c
000003c0: e1f6 513d 852e 85bd 83ba a5bb e0c5 7f3c
000003d0: ec1b 833c a808 7abd 7876 983c cd9f 893c
000003e0: 6620 87bd a462 4dbd 61cc 813d aed2 4dbc
000003f0: 0ad4 56bc 179b 053d baa7 67bd c7b2 5bbd
0.040604804 0.0150941 -0.019813435 -0.0227714 -0.045787204 -0.036143307 -0.018653305 0.06358991
-0.051258862 -0.002759685 -0.0020406516 -0.039856717 0.016074793 0.05683528 -0.03761414 0.047342803
-0.05360168 -0.04258111 0.005373116 0.029045679 -0.00034771007 0.050315075 0.032976557 -0.024450874
0.051426698 0.0076068863 -0.004430739 -0.057119317 0.0063785953 0.006548614 0.055930223 0.025575468
-0.06339176 0.0036136615 -0.014347276 -0.017917488 -0.034391142 0.04450578 -0.043131433 -0.058262162
-0.031902626 -0.05809755 0.010578226 -0.0056786197 -0.0650298 -0.040859 0.026759936 0.03883304
-0.04388053 0.049824838 -0.06366664 -0.047290366 0.013847399 -0.06995509 -0.060235143 -0.04829905
0.053028166 0.009816776 0.047466744 -0.009897096 -0.024685184 -0.011500474 -0.04050279 -0.028637365
0.033037707 0.0067093372 -0.019868962 0.02651418 -0.009731152 -0.026851453 -0.020589534 -0.024863953
0.032691374 0.038887937 -0.012274807 -0.0130190775 0.006093507 -0.051337793 0.01735503 0.055020176
-0.03200555 0.007427038 -0.058468193 0.047872487 -0.022319466 -0.012114794 0.044834044 -0.0006573742
0.016875813 -0.050592687 0.017980883 -0.0334866 0.064353384 0.011217627 0.03747583 -0.017978959
0.051970895 0.03488877 -0.002294928 0.027072774 -0.029281123 -0.0038644467 -0.04403518 -0.033489455
0.06589124 -0.0096372 -0.020955559 -0.01615645 0.02805919 -0.046710916 0.054954242 0.0074171796
0.013767636 -0.020171318 -0.048790038 -0.02049148 -0.04804017 -0.047621988 -0.0031188948 -0.0021813884
-0.007922937 -0.013141366 0.02448181 0.005883075 -0.027057564 -0.006644827 -0.03815472 0.063208535
-0.05388108 -0.04236209 0.051039007 -0.048535082 0.1235513 0.069140635 -0.04546365 -0.042681664
0.059188575 0.04172101 0.029367408 -0.046705537 0.04433086 -0.0011519234 0.050170593 0.02818069
-0.0019472445 0.02277174 0.053810544 0.016859282 0.0013415962 -0.04426054 -0.007794351 0.00134366
-0.002437594 -0.000533334 -0.015888454 0.02525945 0.06583443 -0.04391513 -0.010314644 -0.0077568623
-0.002857745 -0.056884408 -0.061052863 0.019925918 -0.0056382366 -0.045525264 -0.029748254 -0.041650433
-0.038072277 0.062604 -0.001947671 -0.01353509 -0.053655587 0.0070937974 0.04377058 -0.036351692
0.025483401 0.06342335 0.03752955 -0.019634573 -0.033283092 -0.04642415 -0.03391681 0.03751965
-0.020037973 0.001182512 0.0033943665 -0.04837721 -0.009853282 0.023025408 -0.0069119483 0.053830635
-0.010984044 0.021561064 -0.016399533 -0.010822581 -0.044118255 -0.008360251 0.0029974175 0.015942134
-0.047257572 0.03744518 0.011124518 0.03192601 0.018226065 0.041555136 -0.010291272 -0.011530984
0.015973575 -0.036322758 -0.010726188 -0.057881523 -0.046972916 0.00019601149 -0.016135857 0.003737937
0.0030704977 -0.00807817 0.0016167706 -0.040638622 0.0687342 0.020256845 -0.014827746 0.044481773
-0.023254119 -0.024805194 -0.055987235 -0.012587677 0.023748629 0.004593963 0.023913726 -0.048629556
-0.050926726 -0.015209424 -0.02310629 0.02021631 -0.030892743 -0.01382084 0.056720484 0.01337413
0.051260833 -0.065030135 -0.0050576343 0.015611142 0.016004525 -0.06104341 0.018611178 0.016799832
-0.065979764 -0.0501429 0.0633781 -0.012562437 -0.0131120775 0.03261861 -0.05655644 -0.053637292

main_model.hiddenlayer_2.weight f4 [256, 256]
00000000: 21c2 ff3c 26f3 6a3c f0c4 1d3c 44a0 46bd
00000010: 5b90 82bc ae06 49bd eb3b 55bd f834 cfbc
00000020: d55c ab3c 6437 fe3b 8630 3a3d 114c 503c
00000030: a1cb 7d3d e0fb 473c 89e9 0d3d c62d cd3c
00000040: c802 3f3d c098 4d3d f34e 82bd ceb6 5d3d
00000050: 6fd7 4f3d 02ee aebb d8d0 473d 48eb 7cbd
00000060: b263 09bb 3052 dbbb 3e4c 383d 4f07 b13c
00000070: a53b afbc bbc5 103d 1714 5ebb 5926 103d
00000080: dd5f cc3c 9d16 483c 23a4 10bc cbf8 8a3c
00000090: 2f53 7cbc 5d2a aeba f512 053d 1c35 d9bc
000000a0: 0290 1fbd be1b 2cbd 1907 17bb 4c31 d13a
000000b0: c7f8 073d 8ab8 53bd d157 13bd b947 febc
000000c0: fd24 e93c 778f e5bc 20f4 6f3c 30d9 04bd
000000d0: 6e68 4ebd 50de 433c d1d7 513d f658 fe3b
000000e0: 0f2b 103d df36 3dbd 4d0f 7abd 026b c1bc
000000f0: b0a7 38bc 71c7 1fbd 8a68 463d a46c d8bc
00000100: faee 28bd 3097 d6bb 58ed 1a3d 5a23 453d
00000110: f40e 52bb 163b 3abc d267 5e3c 30ef 733d
00000120: 8311 70bc 42c4 383d 547d aebc 50ac d63c
00000130: 8a24 5c3d a715 cebc ed9e 753c 14e4 94bc
00000140: 7021 423d 9e2d 183d a41d d13c 0fb3 17bc
00000150: 191f 04bd 778c b93c 4396 4e3d 16ac 1dbd
00000160: 9379 25bd f2a5 12bd 68c4 70bd 3a51 5b3d
00000170: 2300 da3c 7898 d23c b220 c7bc 82d2 603d
00000180: 3cd0 573d f7d8 5d3d 478d 1ebd d7f7 59bd
00000190: 1351 a53c 775d 603d e89e 23bc de98 1cbd
000001a0: 466e febc bf17 81bd bb0a 1a3d 002e e23c
000001b0: 0fc8 1bbd cabb 3f3d 1670 b6bc 6fc9 233d
000001c0: f3a6 253d af3b 0e3d b51c 7ebc 7f47 95bb
000001d0: ebf1 143d 12c8 543d 5041 733c 68b7 a83c
000001e0: e350 2dbd 5c67 673d 6229 5e3d c273 76bd
000001f0: 8a96 043d cff1 eabb 4c74 23bb d7f2 713c
00000200: 2194 80bc 54e1 f33c 1e75 d03c 1fe2 0e3d
00000210: c698 dfbb 5c43 203d a80c b1bc f74d b03b
00000220: 9d43 eabc 47a8 763d dfcc a83c 865f 1bbd
00000230: e15e 04ba 857e 593d 1eae 30bd 7732 053c
00000240: 6303 e73c f55e a0bc 06dc bebc de35 49bc
00000250: 7501 ae3c faaf 6d3c 7288 85bd c09d 6bbd
00000260: 40dd 843c aac8 603d face 8abd ba22 52bd
00000270: e9c4 25bd ee46 323c cb0a 0cbd 9396 ccbb
00000280: d0af 0d3d 8448 8ebc 53ab b13c 4e8d 52bd
00000290: 3a83 63bd 7b0c 223c 6655 243d f507 6d3d
000002a0: 5251 01bd 2f54 cb3c ee8c d03c 9da0 b13c
000002b0: f896 353c bcae cfbc 272f e43c 04e2 89bc
000002c0: dde5 abbb 45ba 0ebc d008 c83b 3735 81bd
000002d0: f3e7 303d 5e15 253d ec99 433d 6d6e d03c
000002e0: 95f3 75bc d268 7e3d 34f9 e2bc d227 5f3d
000002f0: 9645 01bd 2db1 65bd 4c50 f8bc 435d 4ebd
00000300: 3178 a23c 2acd 83bc d400 4d3d 50c9 1d3d
00000310: 2c58 cbbc bdf1 723c 368a 3c3d e04c 413b
00000320: 609d cabc 097d e0bc 46a3 333d 11c3 7a3c
00000330: 9b04 653c 92d1 793c 2fc2 a23c d1c3 59bd
00000340: f4ac b7bc 88ea 10bd 128f 6239 f966 5e3d
00000350: c593 4c3d ad1f e23b 6905 09bd aeeb 4abd
00000360: ac44 503d aee3 f73c 5b9a 01bd d285 263d
00000370: cbd8 fcbb 9962 293d 98ca 013d cfcc 09bd
00000380: e0fb 1abb daf6 243d 8b44 70bd ad2e 643c
00000390: ee9d 63bd 820b 14bd b203 723d 0b64 70bd
000003a0: 46d5 613c d11d bb3c 4ddf 6b3c 0a60 5abd
000003b0: 927e ed3b ccff 5b3d 314b 00bd 0668 75bd
000003c0: f95d a93b 74f9 5a3d 6f80 86bc a4cb 723d
000003d0: d2cc c93c 64a6 f9bc fb19 d2bc e60a 023d
000003e0: 521e 3dbd 673b 333c 2289 78bd e5f2 2d3d
000003f0: 6185 2ebd fa2a a7bc c436 223d cd34 763d
0.031220498 0.014340198 0.009629473 -0.048492685 -0.015937975 -0.049078636 -0.052059095 -0.025293812
0.02091829 0.007758068 0.04545643 0.012713448 0.061961774 0.012206048 0.034646545 0.02504624
0.04663351 0.050194502 -0.063627146 0.054129414 0.050742563 -0.0053384313 0.048783153 -0.06174782
-0.0020963964 -0.006693147 0.044994585 0.02160993 -0.021390745 0.03534482 -0.0033886486 0.03519282
0.024948055 0.012212423 -0.008828196 0.016964337 -0.015400692 -0.0013287772 0.032488782 -0.026514582
-0.038955696 -0.042018645 -0.0023045002 0.0015960126 0.033196237 -0.051689662 -0.03597242 -0.03104006
0.02846002 -0.02802251 0.014645606 -0.03243369 -0.05039256 0.011954859 0.05123121 0.00776207
0.035197314 -0.046194907 -0.06104975 -0.023610596 -0.011270449 -0.03900856 0.04843954 -0.026418991
-0.04124353 -0.0065487847 0.037824005 0.048129417 -0.003205237 -0.011366626 0.013574557 0.05955428
-0.014652613 0.04510904 -0.021299995 0.026205212 0.053745784 -0.025156809 0.014991504 -0.018175162
0.04739517 0.03715288 0.025526829 -0.0092589995 -0.03225622 0.022649987 0.05043627 -0.038494192
-0.040399145 -0.03580279 -0.058781058 0.05354426 0.026611393 0.025707468 -0.024307583 0.054888256
0.052688822 0.054161992 -0.03870895 -0.053214874 0.02018026 0.054776635 -0.009986617 -0.038231723
-0.031058442 -0.06303357 0.03760789 0.027609825 -0.038032588 0.04680995 -0.022270244 0.039987024
0.04044242 0.034724887 -0.015509774 -0.004555642 0.036363523 0.051948614 0.014847115 0.020595267
-0.042313468 0.056495056 0.054238684 -0.06016899 0.032370128 -0.007169939 -0.0024941145 0.01476737
-0.015695633 0.02977053 0.02544647 0.034883615 -0.006823632 0.03912674 -0.02161248 0.005380388
-0.028596694 0.060219076 0.020605503 -0.037932895 -0.00050495384 0.053099174 -0.0431348 0.008129708
0.028199857 -0.019576529 -0.023298275 -0.012280909 0.02124093 0.014507288 -0.065201655 -0.05752349
0.016218781 0.05487887 -0.06777759 -0.05130265 -0.04047099 0.010881169 -0.03418998 -0.006243536
0.034591496 -0.017368563 0.021688139 -0.05140429 -0.05554507 0.009890671 0.040120505 0.057868917
-0.031571694 0.024820415 0.025457826 0.021683032 0.011083357 -0.025351875 0.027854515 -0.016831405
-0.0052459077 -0.008711402 0.006104566 -0.06308978 0.043189954 0.04030358 0.047754213 0.02544328
-0.015011688 0.062111683 -0.02770672 0.054481335 -0.031560503 -0.05607717 -0.030311726 -0.05038191
0.019832702 -0.01608904 0.050049618 0.038522065 -0.024822317 0.014828143 0.046030246 0.0029495284
-0.024733245 -0.027403371 0.04385688 0.0153052965 0.013978149 0.015247719 0.019867985 -0.05316526
-0.022421338 -0.035379916 0.00021606337 0.05429742 0.04994561 0.0069007487 -0.033452425 -0.049541168
0.05084674 0.030259933 -0.031641345 0.040654965 -0.0077162734 0.041353796 0.03168735 -0.033642586
-0.0023648664 0.04027448 -0.058659118 0.013927144 -0.055570535 -0.036143787 0.059085555 -0.05868916
0.0137837585 0.022841366 0.014396501 -0.053314246 0.0072477544 0.053710744 -0.031321708 -0.059913658
0.005168673 0.053460553 -0.016418664 0.059276238 0.024633799 -0.030474849 -0.025647154 0.031748675
-0.046171494 0.010939456 -0.060677655 0.04246797 -0.04260767 -0.020406235 0.03960301 0.06010895
