DQN/DQN_complete/save/main_model_000005.pth (torch_old, 809026 bytes, 10 tensors)

main_model.InputLayer.weight f4 [256, 7]
0.13477011 -0.051246624 0.047421046 0.16307883 0.34402624 -0.37524074 -0.0749079 0.2994099
-0.33733404 -0.23522222 0.04138071 0.032904822 -0.4548068 -0.33390826 -0.19333583 -0.16962907
0.030503465 -0.17907631 0.31324404 0.07501159 0.25132772 0.29953423 0.18407813 -0.062687285
-0.02118484 0.32260442 -0.17484657 -0.21112499 -0.24603382 0.2814125 -0.29510248 0.31507725
0.05549682 -0.027133616 0.15440395 -0.027349593 0.11957788 0.077889055 -0.32278824 -0.4050037
-0.31386906 0.24409822 0.0843876 -0.07437009 -0.07668355 0.2260385 0.15624562 -0.20438448
0.36265925 0.20958781 -0.12518829 0.35616872 0.30464482 -0.26048613 0.026682459 -0.013448536
-0.23570734 -0.30242112 0.22057745 0.33718744 -0.07624025 0.2857358 -0.16825287 0.13565916
0.28658274 -0.008101912 0.29344743 0.21258135 -0.041987993 0.3163931 0.32716355 0.35187426
0.0075695952 0.06942756 -0.16988923 0.27678883 0.2587662 -0.32259643 0.13926151 -0.07413685
-0.31606564 0.08076134 0.3007528 0.31390515 -0.18954399 -0.3015106 -0.02005317 0.29454508
-0.20666371 -0.04231767 -0.22705305 0.16092417 -0.27251902 -0.2564412 0.028386721 -0.12810288
0.2722356 0.05683127 -0.1783804 0.10215226 -0.34661007 0.011054039 -0.30910468 0.13323542
-0.016165107 -0.19708453 -0.2362156 0.16678193 -0.023552334 0.030708587 0.008037008 -0.3403061
-0.09901816 -0.066877484 -0.2509071 -0.10076901 0.033845276 0.11136064 0.06898373 0.14585578
-0.13923039 -0.03358512 0.23270014 0.22053118 -0.07476097 0.03609845 0.32193673 -0.14765266
0.32344577 0.15522334 -0.17971548 -0.2555948 0.025339812 0.23089236 0.35396066 0.25548446
0.046320744 -0.18979497 0.31311592 0.21869615 -0.13878307 -0.22976443 -0.17164432 -0.17430477
0.058237392 -0.28752333 0.07663265 -0.19650714 -0.2839359 0.037100792 -0.24078381 0.006123781
-0.09281677 0.3308359 -0.13878696 0.33948594 -0.06444505 0.18279444 -0.23669279 -0.040188592
0.27160725 0.2862218 0.21618092 0.34628466 -0.012434604 -0.045672525 0.2918092 0.15032318
0.23415262 -0.32545426 -0.19970877 -0.3800903 0.04880147 0.30534983 0.33400396 -0.093294784
-0.021525893 0.039591838 -0.16292219 0.28563538 -0.37842208 0.12390414 -0.18025017 0.069251575
0.2486242 -0.31628358 -0.26691717 0.6423019 0.35986456 0.113766216 0.13810807 -0.002727799
0.16314486 -0.11225337 0.18930559 -0.114132434 -0.04380492 -0.07954289 0.21611829 -0.24732526
-0.17024 0.39235923 0.06064269 0.31932914 -0.19000512 0.027705781 0.33580583 0.1787831
-0.25836846 -0.15051411 0.01574662 0.001168133 0.21501929 0.27851674 0.29853034 0.0751326
-0.3122455 0.27887884 -0.049481343 -0.2768464 -0.29697448 0.005187266 0.29023713 -0.36349955
-0.106515996 0.24956356 0.3260999 -0.257148 -0.098371826 0.016883045 0.22043273 -0.075392716
0.23695862 -0.33543605 0.22974026 0.20645945 -0.39005375 0.01941207 0.06600038 -0.21216252
-0.32917577 -0.14970016 -0.12783252 0.059033655 -0.027323216 -0.38031355 -0.25481045 0.2699613
-0.09618853 -0.08681062 -0.34488884 -0.20690162 -0.065466814 0.35308543 0.25221345 0.3415569
00000000: 2d01 0a3e fbe7 51bd 923c 423d 23fe 263e
00000010: 3524 b03e 8e1f c0be 5069 99bd 414c 993e
00000020: 0cb7 acbe 18de 70be d27e 293d 35c7 063d
00000030: 70dc e8be 06f6 aabe d4f9 45be 3eb3 2dbe
00000040: 67e2 f93c c85f 37be 8661 a03e ad9f 993d
00000050: 07ae 803e 8d5c 993e fa7e 3c3e 3162 80bd
00000060: d48b adbc 682c a53e fb0a 33be 2631 58be
00000070: 4af0 7bbe 4d15 903e ac17 97be ce51 a13e
00000080: a250 633d 5147 debc 121c 1e3e 410c e0bc
00000090: 3fe5 f43d 4c84 9f3d 8044 a5be a55c cfbe
000000a0: 72b3 a0be e2f4 793e 68d3 ac3d 594f 98bd
000000b0: 440c 9dbd a376 673e dafe 1f3e 2a4a 51be
000000c0: 79ae b93e 309e 563e 5c31 00be bf5b b63e
000000d0: 68fa 9b3e 705e 85be 2c95 da3c 4057 5cbc
000000e0: 445d 71be f1d6 9abe 0edf 613e d5a3 ac3e
000000f0: d923 9cbd f64b 923e 7b4a 2cbe 3cea 0a3e
00000100: f9ba 923e e2bd 04bc be3e 963e edae 593e
00000110: 9afb 2bbd 47fe a13e fb81 a73e dd28 b43e
00000120: 5e0a f83b 0930 8e3d 71f7 2dbe 44b7 8d3e
00000130: 017d 843e 5c2b a5be 929a 0e3e 10d5 97bd
00000140: 5bd3 a1be 3466 a53d 45fc 993e 2db8 a03e
00000150: d217 42be 995f 9abe 8c46 a4bc 9dce 963e
00000160: a79f 53be 4b55 2dbd 9880 68be 4ec9 243e
00000170: 9d87 8bbe 434c 83be 458b e83c 672d 03be
00000180: 7762 8b3e e8c7 683d 5aa9 36be 3435 d13d
00000190: e076 b1be 001c 353c f842 9ebe de6e 083e
000001a0: b06c 84bc 87d0 49be 81e2 71be e2c8 2a3e
000001b0: d3f0 c0bc 9390 fb3c a8ad 033c 9a3c aebe
000001c0: 08ca cabd 10f7 88bd e576 80be fc5f cebd
000001d0: 58a1 0a3d 0c11 e43d 5847 8d3d 385b 153e
000001e0: 6992 0ebe 8d90 09bd f248 6e3e edd2 613e
000001f0: 481c 99bd f8db 133d e4d4 a43e 4232 17be
00000200: af9a a53e def2 1e3e 5607 38be 52dd 82be
00000210: 7095 cf3c 0c6f 6c3e 553a b53e dcce 823e
00000220: d2ba 3d3d 9d59 42be bb50 a03e e2f1 5f3e
00000230: 261d 0ebe 5e47 6bbe 87c3 2fbe f37c 32be
00000240: 558a 6e3d 4236 93be 94f1 9c3d 2b39 49be
00000250: 0c60 91be 00f7 173d 0890 76be 00aa c83b
00000260: b816 bebd 5363 a93e 2b1e 0ebe 1ad1 ad3e
00000270: c4fb 83bd 772e 3b3e 985f 72be cb9c 24bd
00000280: 1b10 8b3e aa8b 923e 885e 5d3e 394c b13e
00000290: 82ba 4bbc 1d13 3bbd 0468 953e 52ee 193e
000002a0: b4c5 6f3e f1a1 a6be 7580 4cbe 329b c2be
000002b0: 0de4 473d d056 9c3e 9102 ab3e 5611 bfbd
000002c0: 1257 b0bc 0d2b 223d 13d5 26be cd3e 923e
000002d0: 8ac0 c1be 74c1 fd3d 8093 38be c5d3 8d3d
000002e0: 5897 7e3e ecef a1be 5ea9 88be e66d 243f
000002f0: 2b40 b83e 43fe e83d 346c 0d3e dfc4 32bb
00000300: 720f 273e 18e5 e5bd 53d9 413e 44be e9bd
00000310: ca6c 33bd 62e7 a2bd 1d4e 5d3e d542 7dbe
00000320: 6553 2ebe 4fe3 c83e 7864 783d 1c7f a33e
00000330: b490 42be 3cf7 e23c beee ab3e eb12 373e
00000340: df48 84be 5f20 1abe 0eff 803c 0a1c 993a
00000350: 042e 5c3e bf99 8e3e f8d8 983e 1fdf 993d
00000360: a4de 9fbe 35c9 8e3e f3ac 4abd d0be 8dbe
00000370: 0a0d 98be f1f9 a93b f699 943e 9d1c babe
00000380: 0f25 dabd 978d 7f3e 91f6 a63e e7a8 83be
00000390: 2b77 c9bd 504e 8a3c 1eb9 613e 7f67 9abd
000003a0: 48a5 723e 46be abbe 0841 6b3e 1b6a 533e
000003b0: 20b5 c7be 1006 9f3c 352b 873d 2241 59be
000003c0: ba89 a8be 004b 19be 87e6 02be 46cd 713d
000003d0: f0d4 dfbc 75b8 c2be 8476 82be 5e38 8a3e
000003e0: 7efe c4bd c4c9 b1bd 4595 b0be 05de 53be
000003f0: 7713 86bd 9dc7 b43e 1f22 813e 8ce0 ae3e

main_model.InputLayer.bias f4 [256]
-0.30060136 -0.27076763 0.20948368 -0.20807114 0.08933955 0.33531278 0.16961642 -0.33386895
0.3167292 -0.12242037 -0.1768307 0.3823169 -0.18911472 0.12038174 -0.27064443 0.30824852
0.21373188 -0.1679932 -0.14592265 0.034259252 0.18484356 0.45932016 -0.18984422 -0.017043384
0.28499937 0.076428235 0.164655 -0.047952414 0.32322964 0.13508722 0.12862651 -0.02368518
0.06528977 0.12776652 0.27652946 -0.23718493 -0.30079663 0.097714886 0.104341894 -0.07611236
-0.044095863 -0.11766688 -0.044564694 0.08507498 -0.3718111 -0.24710736 -0.30497634 -0.01025452
-0.010367043 0.26914763 0.009007848 0.06676382 -0.01613259 0.18402283 0.31083775 -0.14971288
-0.096636266 -0.24716742 0.11013793 0.19560282 0.3845235 0.17035197 0.109536454 0.108461216
0.31139928 -0.32987913 -0.019602478 0.32491362 -0.29136503 0.3310972 0.413298 -0.12720342
-0.2977271 -0.322592 -0.11126566 -0.24048479 0.3421439 -0.068306975 0.16057764 0.11853294
0.0017952622 0.35241687 0.03306077 -0.09479502 0.24067499 -0.27964202 0.2934112 -0.10876848
-0.045031227 -0.38502967 0.11117479 -0.1617641 -0.051398106 -0.24148126 -0.15780087 -0.26239905
-0.15493587 -0.07623066 -0.32297647 0.270128 -0.24237503 0.29949683 -0.15422958 0.39473963
0.12944384 0.25154755 0.105936565 0.20568524 -0.060590256 0.3588382 0.28342518 -0.31806973
-0.15433307 -0.36219427 0.030803787 -0.34435207 -0.2298692 -0.19518586 -0.31628034 -0.19321884
-0.15417013 -0.22321333 -0.13096835 0.18269777 -0.03993136 0.07098402 0.29077122 0.15493472
-0.0126824975 0.41558608 0.42312437 0.29525003 -0.03880891 -0.27743602 -0.123052366 -0.14730105
-0.24415886 0.35943025 -0.060290527 0.4283526 -0.2096521 0.12771358 0.2823688 0.23186912
-0.06734842 -0.21695273 0.37522343 0.41125947 0.19254841 -0.12143614 -0.16804677 -0.13315886
-0.38099164 0.36946976 -0.17364113 0.13485746 0.31840056 -0.01793454 -0.15043889 0.2755546
0.3242799 -0.32529008 0.13480242 0.33172646 -0.11092486 0.107333824 -0.10137305 -0.20687616
-0.27949035 -0.34914312 0.4497617 -0.3734126 0.32878768 0.043191034 -0.35003817 0.22680363
-0.19168498 0.043080952 -0.043624237 0.44769093 -0.021270476 -0.096581146 0.3347451 0.2987839
-0.32477006 0.40063918 0.27538025 -0.30574888 0.40609205 -0.1039615 0.07633414 -0.29386443
0.15679039 0.44000995 0.22550176 0.36172795 0.33283547 0.19016789 -0.28781062 0.19925994
-0.033618096 0.32221872 0.2933404 0.27876237 -0.26761633 0.2846765 -0.27634075 -0.16375984
0.049891826 -0.3491626 -0.0070780166 0.15680335 -0.33514574 -0.269328 -0.36169273 -0.3824417
-0.19819354 0.1974719 0.18262771 -0.28382668 0.15474078 -0.18976554 0.18438613 0.33587864
0.28461522 0.034080315 -0.19520089 -0.084058605 0.3681713 -0.09520514 -0.07028579 -0.27225834
0.29288843 0.027178114 0.27361944 0.25440162 -0.34728894 -0.06035282 -0.0717313 -0.08862278
-0.20568535 -0.234332 -0.12844703 0.30187494 0.16514972 -0.14326419 0.14029866 0.145692
0.27838093 0.35281113 -0.1540874 -0.34442562 0.21194221 -0.36912835 -0.2354811 0.34135973
00000000: 6ce8 99be 0ea2 8abe e482 563e 9a10 55be
00000010: a7f7 b63d 1eae ab3e edaf 2d3e dff0 aabe
00000020: 542a a23e 88b7 fabd 1b13 35be 0abf c33e
00000030: 4aa7 41be b48a f63d e891 8abe c0d2 9d3e
00000040: 88dc 5a3e 6906 2cbe bf6c 15be 6e53 0c3d
00000050: a147 3d3e 032c eb3e 8666 42be 919e 8bbc
00000060: 70eb 913e 6886 9c3d 529b 283e c069 44bd
00000070: 5b7e a53e 4e54 0a3e abb6 033e 6c07 c2bc
00000080: a5b6 853d 3ad5 023e 4595 8d3e 9be0 72be
00000090: 0402 9abe be1e c83d 34b1 d53d cce0 9bbd
000000a0: dd9d 34bd 55fb f0bd 7889 36bd cb3b ae3d
000000b0: 065e bebe b609 7dbe dc25 9cbe 9302 28bc
000000c0: 88da 29bc b8cd 893e a795 133c 78bb 883d
000000d0: 7e28 84bc 7b70 3c3e 2026 9f3e 554e 19be
000000e0: 3ce9 c5bd 7519 7dbe ff8f e13d 1b4c 483e
000000f0: 44e0 c43e bf70 2e3e a654 e03d ea20 de3d
00000100: ba6f 9f3e ebe5 a8be 6095 a0bc 145b a63e
00000110: cc2d 95be 9285 a93e cc9b d33e 9d41 02be
00000120: b06f 98be c72a a5be 40df e3bd a541 76be
00000130: 7c2d af3e 87e4 8bbd 776e 243e 66c1 f23d
00000140: 014f eb3a fc6f b43e bb6a 073d e423 c2bd
00000150: 8173 763e 3d2d 8fbe fe39 963e 02c2 debd
00000160: aa72 38bd 9c22 c5be 9caf e33d 7da5 25be
00000170: d286 52bd dd46 77be 8d96 21be 2b59 86be
00000180: 82a7 1ebe d21e 9cbd 2c5d a5be 384e 8a3e
00000190: 2931 78be a657 993e 5cee 1dbe 501b ca3e
000001a0: ed8c 043e d7ca 803e 45f5 d83d 279f 523e
000001b0: 7d2d 78bd a4b9 b73e 1b1d 913e 09da a2be
000001c0: 7d09 1ebe 8771 b9be 3958 fc3c ea4e b0be
000001d0: d562 6bbe cdde 47be 7fef a1be 29db 45be
000001e0: c6de 1dbe 0992 64be 911c 06be 2015 3b3e
000001f0: 118f 23bd 1260 913d f7df 943e 35a7 1e3e
00000200: 40ca 4fbc b3c7 d43e c2a3 d83e 032b 973e
00000210: 17f6 1ebd 180c 8ebe e102 fcbd 16d6 16be
00000220: c804 7abe 3e07 b83e 33f3 76bd 0851 db3e
00000230: 0aaf 56be 59c7 023e a592 903e 196f 6d3e
00000240: f8ed 89bd db28 5ebe 491d c03e 9a90 d23e
00000250: 692b 453e 83b3 f8bd 7414 2cbe cc5a 08be
00000260: 5611 c3be 242b bd3e fbce 31be 1318 0a3e
00000270: 6605 a33e 75eb 92bc a70c 1abe 7e15 8d3e
00000280: 0408 a63e 6c8c a6be a509 0a3e 0dd8 a93e
00000290: 932c e3bd d6d1 db3d ac9c cfbd 58d7 53be
000002a0: 5c19 8fbe e3c2 b2be 2a47 e63e f02f bfbe
000002b0: dc56 a83e 15e9 303d 3438 b3be 363f 683e
000002c0: 1149 44be a775 303d 54af 32bd bf37 e53e
000002d0: 6c3f aebc 56cc c5bd b663 ab3e 34fa 983e
000002e0: 4348 a6be 9420 cd3e a4fe 8c3e 1e8b 9cbe
000002f0: 4ceb cf3e c4e9 d4bd 1355 9c3d 6675 96be
00000300: a98d 203e fc48 e13e efe9 663e 6834 b93e
00000310: 6969 aa3e 5fbb 423e ea5b 93be cc0a 4c3e
00000320: 21b3 09bd daf9 a43e b730 963e f1b9 8e3e
00000330: 0205 89be 1ec1 913e 897c 8dbe a9b0 27be
00000340: 5f5b 4c3d 71c5 b2be b5ee e7bb 0f91 203e
00000350: 3998 abbe 5ce5 89be ca2f b9be 66cf c3be
00000360: 3ff3 4abe 1336 4a3e c202 3b3e bb51 91be
00000370: 5e74 1e3e e651 42be b8cf 3c3e 49f8 ab3e
00000380: 16b9 913e cd97 0b3d bee2 47be eb26 acbd
00000390: f380 bc3e eafa c2bd fff1 8fbd 7265 8bbe
000003a0: 79f5 953e a3a4 de3c d917 8c3e ee40 823e
000003b0: dbcf b1be 8534 77bd dce7 92bd dc7f b5bd
000003c0: 2e9f 52be baf4 6fbe 9e87 03be 5a8f 9a3e
000003d0: 021d 293e d9b3 12be 74aa 0f3e 4930 153e
000003e0: f287 8e3e a9a3 b43e 16c9 1dbe 8e58 b0be
000003f0: 6107 593e 64fe bcbe f521 71be b4c6 ae3e

main_model.hiddenlayer_0.weight f4 [256, 256]
-0.0048914477 -0.06156086 -0.048966363 -0.0129214 0.037649088 -0.059388787 0.033102185 0.042671315
-0.04233858 -0.030086279 -0.03992375 0.031812012 0.006433241 -0.06023199 0.056176193 -0.005758539
0.04995224 0.0011140555 0.055645913 -0.059311427 0.056155577 0.015127286 0.0058936477 -0.052026816
0.041473173 -0.01833018 0.03377241 -0.041011177 -0.040168278 -0.018758811 0.027055755 -0.02155535
-0.0032591224 -0.061796695 -0.0038916096 0.005148068 -0.027998805 -0.017624438 -0.027097717 0.061434336
-0.00026221573 0.009666175 0.026191168 0.009748004 -0.04990156 0.048090898 -0.031256624 0.013582088
-0.023716003 0.06218479 0.0394857 0.0526898 0.034534432 -0.05621375 0.008452214 -0.022761457
0.027431771 -0.0108684 -0.025893793 0.03540436 -0.021760069 0.0028467923 -0.04516691 0.059862398
-0.048858903 0.050001174 0.032973684 -0.003464222 -0.0024388433 -0.008447729 -0.05264806 0.026360616
-0.015319832 -0.04782448 -0.021962248 -0.045898408 0.014071055 0.050068155 -0.048151545 -0.014054976
0.00011181831 0.054130264 -0.028812774 0.0024890304 -0.03551832 -0.045967214 -0.044853806 -0.06025204
0.010053679 0.029292673 0.03362327 -0.033134207 -0.034157038 0.051281862 -0.033457726 -0.00060456246
0.05457522 -0.05759936 -0.0132321045 -0.0154909715 0.061375022 -0.0516235 -0.031911485 -0.032296576
0.04708235 -0.0009063408 0.01496651 -0.05314053 -0.017538719 0.04377608 0.05122324 0.061982483
0.051153675 0.047403634 -0.0007148683 -0.04760898 0.02705133 -0.0298037 -0.049068853 -0.038979426
0.005466737 -0.05939638 -0.058804967 -0.02701635 -0.00084028393 0.039539844 -0.050379395 -0.0070320666
0.052213103 0.020452656 0.020882905 -0.0377604 -0.030959599 0.04048673 -0.034494773 0.009240232
0.00048972666 -0.017196156 0.009654656 0.05999147 -0.011222988 0.057493202 -0.031499825 0.028159142
-0.061037704 -0.0012945682 -0.03396768 0.0218895 0.030081615 0.052494213 0.04485721 0.037539534
-0.004525341 -0.055660643 0.038131736 0.029572144 -0.015529901 0.022338398 -0.061159685 -0.05813691
0.034124635 0.025360845 0.0013339967 0.0010330305 -0.052655995 -0.016990684 0.04396125 -0.018845841
-0.059881277 -0.025394425 0.02824974 -0.0062520057 -0.051970035 0.015218005 -0.02249562 0.024475873
-0.015530579 -0.025982648 0.00820218 -0.015860394 0.014780991 0.058037803 0.04204329 -0.02299945
-0.050314024 0.05408442 0.013101995 -0.018484041 0.019087292 0.027230367 0.047620676 0.035716973
-0.021692753 0.020261236 -0.032722056 -0.023703657 0.029094048 -0.019842952 0.048912324 -0.0026911423
0.022989802 0.056798942 -0.056098856 -0.037149526 0.06203056 -0.048226357 0.03786219 0.041622147
-0.057963878 0.06242185 0.006900735 0.013225272 -0.04405375 -0.027488872 0.060765006 -0.02474647
-0.009634614 -0.046469174 -0.002755247 0.054450683 -0.020296097 -0.00623215 -0.026421241 -0.05634749
0.057912588 0.006025031 -0.033869036 0.05129309 0.05206936 -0.0006821826 -0.058887847 -0.025352634
-0.033026293 0.05828408 -0.05488444 -0.0028699785 -0.050731435 0.049607575 -0.052163184 0.008077316
0.041381143 0.029843926 -0.02925744 0.035054274 0.007394269 -0.04163277 -0.0100366175 -0.04251141
-0.025121622 -0.016381882 -0.015507765 -0.0393909 -0.011511169 0.03176894 0.033492297 -0.039516278
00000000: 7048 a0bb 3e27 7cbd f490 48bd 48b4 53bc
00000010: ee35 1a3d a841 73bd 2896 073d 1ec8 2e3d
00000020: 386b 2dbd 8077 f6bc 1687 23bd 504d 023d
00000030: f0cd d23b d2b5 76bd 0219 663d 20b2 bcbb
00000040: b89a 4c3d 8005 923a f8ec 633d 8af0 72bd
00000050: 6403 663d 70d8 773c 801f c13b 121a 55bd
00000060: c6df 293d 2c29 96bc f054 0a3d 56fb 27bd
00000070: 7e87 24bd 14ac 99bc 08a4 dd3c d894 b0bc
00000080: 0097 55bb 881e 7dbd 600a 7fbb 20b1 a83b
00000090: c05d e5bc 2061 90bc 08fc ddbc 92a2 7b3d
000000a0: 007a 89b9 e05e 1e3c dc8e d63c 18b6 1f3c
000000b0: 9465 4cbd f6fa 443d f206 00bd 6887 5e3c
000000c0: 1048 c2bc 7ab5 7e3d c2bb 213d 42d1 573d
000000d0: fa73 0d3d 6440 66bd 287b 0a3c 3c76 babc
000000e0: 98b8 e03c 6011 32bc 381f d4bc 2a04 113d
000000f0: 2c42 b2bc 4091 3a3b f000 39bd 4632 753d
00000100: 4620 48bd 08ce 4c3d 6a0f 073d 0008 63bb
00000110: 00d5 1fbb 5868 0abc 7ea5 57bd 38f2 d73c
00000120: 0800 7bbc 9ae3 43bd 2cea b3bc f8ff 3bbd
00000130: 488a 663c 4414 4d3d 8e3a 45bd d846 66bc
00000140: 0080 ea38 b2b7 5d3d c408 ecbc 001f 233b
00000150: a87b 11bd 1e48 3cbd a0b8 37bd d8ca 76bd
00000160: 30b8 243c 30f7 ef3c 8eb8 093d bcb7 07bd
00000170: 40e8 0bbd ee0c 523d f80a 09bd 807b 1eba
00000180: 448a 5f3d 4eed 6bbd 78cb 58bc d8cd 7dbc
00000190: 6064 7b3d 2a73 53bd 9eb5 02bd 6a49 04bd
000001a0: 6cd9 403d 8097 6dba 1836 753c e2a9 59bd
000001b0: 5cad 8fbc 8c4e 333d 76cf 513d 58e1 7d3d
000001c0: 8486 513d 502a 423d 0066 3bba a201 43bd
000001d0: c09a dd3c e426 f4bc 6cfc 48bd e4a8 1fbd
000001e0: 5022 b33b 9e49 73bd 7add 70bd 6451 ddbc
000001f0: 8046 5cba 88f4 213d a05a 4ebd 406d e6bb
00000200: 68dd 553d 548c a73c a012 ab3c a6aa 1abd
00000210: fc9e fdbc 6ad5 253d 644a 0dbd 5864 173c
00000220: 0061 003a f4de 8cbc 902e 1e3c 9eb9 753d
00000230: a0e0 37bc fe7d 6b3d f605 01bd 00ae e63c
00000240: ac02 7abd 80ae a9ba b221 0bbd 9c51 b33c
00000250: b86d f63c 2c04 573d 32bc 373d 0ec3 193d
00000260: 5049 94bb 6afc 63bd 0630 1c3d 4841 f23c
00000270: 2071 7ebc 04ff b63c 9482 7abd f820 6ebd
00000280: 46c6 0b3d 8cc1 cf3c 80d9 ae3a c066 873a
00000290: d0ad 57bd 0c30 8bbc b610 343d 9862 9abc
000002a0: 1246 75bd f807 d0bc 006c e73c a0dd ccbb
000002b0: 88de 54bd f054 793c bc48 b8bc a081 c83c
000002c0: f873 7ebc 90d9 d4bc 7062 063c a8ed 81bc
000002d0: f82b 723c 0cb9 6d3d 9635 2c3d 5869 bcbc
000002e0: 1416 4ebd a087 5d3d c0a9 563c d86b 97bc
000002f0: f45c 9c3c 3812 df3c e60d 433d f64b 123d
00000300: 00b5 b1bc e4fa a53c 9007 06bd 2c2e c2bc
00000310: a456 ee3c b08d a2bc 4a58 483d e05d 30bb
00000320: 1c55 bc3c 02a6 683d eac7 65bd 1a2a 18bd
00000330: c213 7e3d 0089 45bd 6215 1b3d fc7b 2a3d
00000340: 886b 6dbd 0eae 7f3d 901f e23b d0ae 583c
00000350: b471 34bd 5830 e1bc bae4 783d 1cb9 cabc
00000360: 80da 1dbc 7656 3ebd 6091 34bb ae07 5f3d
00000370: 0044 a6bc 1037 ccbb 5c71 d8bc a0cc 66bd
00000380: c035 6d3d a06d c53b 42ba 0abd b418 523d
00000390: ae46 553d 80d4 32ba 6234 71bd 54b0 cfbc
000003a0: 9446 07bd 4abb 6e3d 82ce 60bd 4016 3cbb
000003b0: c4cb 4fbd 5031 4b3d 10a9 55bd b856 043c
000003c0: 467f 293d 407b f43c 4cad efbc 1295 0f3d
000003d0: a04b f23b 2087 2abd a070 24bc 7220 2ebd
000003e0: dccb cdbc 4c33 86bc 4814 7ebc 5a58 21bd
000003f0: 5899 3cbc 2620 023d 382f 093d d2db 21bd

main_model.hiddenlayer_0.bias f4 [256]
0.05322288 -0.07163888 -0.0125206085 0.051786385 -0.007208543 0.050837193 0.039658997 0.01550632
0.12388429 -0.04776431 0.022711292 0.023292195 -0.019115388 0.04503131 0.047392577 0.011807128
-0.06745968 -0.048287008 -0.046114147 -0.028094932 -0.029635446 0.011616943 -0.053045973 0.051070616
-0.0034571786 0.03255056 -0.018225485 0.05082896 -0.022360737 -0.04866888 0.006115781 -0.0027291179
-0.03808678 -0.032247934 0.12144491 -0.0002360896 0.038366787 -0.00979007 -0.03552776 0.021165323
0.10869922 0.115638934 0.099545754 0.13775901 0.061100073 -0.021185426 -0.036096387 -0.058263227
-0.0372618 0.062873766 -0.0059361653 0.089061745 0.013730962 -0.009523345 -0.037034832 0.06512765
0.018535139 0.011725812 0.038745888 -0.055484604 0.027494434 0.07195435 -0.021653038 0.029854035
-0.047970667 -0.0052272454 0.0070336494 -0.051893666 0.014306311 -0.023687184 -0.055980157 -0.04775772
0.053841677 -0.05400907 -0.031252947 0.011641363 -0.054494966 0.006013228 0.040731702 0.01667875
-0.05023174 0.01538367 -0.04289972 0.026574438 0.03044627 0.09309047 0.0034227034 0.04611738
0.052209437 0.05486398 -0.037520513 0.020871155 0.012621243 -0.029968716 0.037255526 0.050206944
-0.0021623059 0.020131128 0.006869532 -0.03896048 0.055665694 0.047159214 0.040075015 0.061014805
-0.049522106 0.040504817 0.00024375392 -0.050865564 0.021124149 0.016444188 -0.06779059 -0.01014857
0.018197915 -0.0013581978 -0.009350352 0.12294593 0.0105364695 -0.04668105 0.026151324 0.003566857
0.068269804 0.018803593 0.028590033 -0.07177204 -0.010590191 -0.015122078 0.061697308 -0.00933748
0.05618694 -0.031703833 0.0446263 -0.011321417 -0.00016359985 0.016477402 0.040567737 -0.056660898
-0.0006316834 0.055113167 -0.0061618024 0.0019199264 -0.0009367116 0.04623385 0.042864006 -0.048694093
0.0070029977 -0.010615208 0.012743039 0.010651916 0.061806608 -0.03236578 0.105929375 0.059258394
-0.052877378 -0.023898639 0.045316383 -0.01212006 0.047387563 0.030526698 0.011664546 0.06656325
-0.013189715 -0.008037662 0.0037593385 -0.038658228 0.017111951 0.072719775 0.085235216 0.0003126132
0.051653493 0.004710958 -0.06636962 0.020698382 -0.012945903 -0.009734571 -0.010168772 0.038048506
0.04345257 0.03016982 -0.03231498 -0.030705988 0.10647465 0.057690866 -0.06595037 0.019853836
-0.029143924 0.042879548 -0.058406133 -0.017872412 -0.0074723135 0.037124395 0.008525722 0.032045536
-0.0070532174 0.08266555 -0.043226346 0.061703928 -0.02291849 -0.061637446 -0.058140915 -0.043147564
0.08498913 0.0034714143 0.06794992 0.043099023 -0.020746471 0.073565096 0.02754779 -0.044193774
-0.06866143 -0.02015665 -0.02360794 -0.061304577 0.049546413 -0.017494999 -0.005498746 0.029440602
0.023885744 0.065097824 -0.02795978 0.031096028 -0.016497646 -0.077610366 0.030892447 0.0744177
0.053615578 0.024745671 -0.014135272 0.056425318 0.103358835 -0.012547234 0.008533069 -0.038062688
-0.026953787 -0.0040288544 -0.030977475 -0.01586013 -0.010732619 0.03532617 -0.0307943 0.060282774
-0.0031261 -0.015254865 -0.037511684 0.057437196 0.028870681 -0.0056126686 0.0071830116 0.05526179
-0.028193943 0.01373062 -0.026540548 -0.024113866 -0.010537341 -0.036659535 -0.07251457 0.04548285
00000000: 3c00 5a3d 68b7 92bd 3d23 4dbc f61d 543d
00000010: a435 ecbb a93a 503d 7971 223d 380e 7e3c
00000020: 0cb7 fd3d 82a4 43bd 080d ba3c 46cf be3c
00000030: e097 9cbc c072 383d b81e 423d af72 413c
00000040: 4d28 8abd 99c8 45bd 30e2 3cbd 5827 e6bc
00000050: 09c6 f2bc fe54 3e3c bc46 59bd 6c2f 513d
00000060: d591 62bb bc53 053d 9d4d 95bc 0732 503d
00000070: dd2d b7bc 0559 47bd e466 c83b 00db 32bb
00000080: e200 1cbd 6916 04bd 1cb8 f83d d28e 77b9
00000090: 7e26 1d3d 8866 20bc 8e85 11bd e662 ad3c
000000a0: b29d de3d 1bd4 ec3d a5de cb3d b310 0d3e
000000b0: 1244 7a3d 0f8d adbc ced9 13bd 6ca5 6ebd
000000c0: d49f 18bd f6c3 803d 2a84 c2bb 0166 b63d
000000d0: d4f7 603c ce07 1cbc d6b1 17bd a561 853d
000000e0: 01d7 973c 9f1d 403c 02b4 1e3d d343 63bd
000000f0: 023c e13c cd5c 933d b661 b1bc 7390 f43c
00000100: e47c 44bd 5049 abbb 877a e63b 748e 54bd
00000110: 0465 6a3c a00b c2bc 734b 65bd 999d 43bd
00000120: 1789 5c3d 9d38 5dbd 1703 00bd 6abb 3e3c
00000130: 1d36 5fbd 9d0a c53b 49d6 263d e0a1 883c
00000140: ccbf 4dbd ca0b 7c3c 9eb7 2fbd a3b2 d93c
00000150: 756a f93c 37a6 be3d 6f4f 603b 94e5 3c3d
00000160: 90d9 553d 0db9 603d 1caf 19bd fcf9 aa3c
00000170: 54c9 4e3c f480 f5bc 4099 183d cca5 4d3d
00000180: 79b5 0dbb 09ea a43c d019 e13b 0695 1fbd
00000190: b601 643d 052a 413d b325 243d a9ea 793d
000001a0: b1d7 4abd 61e8 253d 3298 7f39 6958 50bd
000001b0: 8d0c ad3c f6b5 863c cbd5 8abd 3046 26bc
000001c0: cb13 953c 8e05 b2ba 3832 19bc 13cb fb3d
000001d0: 28a1 2c3c a134 3fbd 4d3b d63c eec1 693b
000001e0: 0ad1 8b3d fe09 9a3c a535 ea3c 38fd 92bd
000001f0: 7b82 2dbc 98c2 77bc 51b6 7c3d 3bfc 18bc
00000200: 4724 663d e1db 01bd 11ca 363d 777d 39bc
00000210: 008c 2bb9 9efb 863c 5b2a 263d 4215 68bd
00000220: 8e97 25ba 58be 613d f2e8 c9bb 0aa6 fb3a
00000230: a78d 75ba b55f 3d3d 2b92 2f3d 7573 47bd
00000240: 6779 e53b 69eb 2dbc 2ec8 503c 6085 2e3c
00000250: ed28 7d3d fb91 04bd 80f1 d83d eeb8 723d
00000260: f395 58bd 14c7 c3bc ac9d 393d 3793 46bc
00000270: 7619 423d 2013 fa3c a71c 3f3c 5052 883d
00000280: ad19 58bc 66b0 03bc 3c5f 763b 1758 1ebd
00000290: 5d2e 8c3c 1bee 943d cd8f ae3d 3ce6 a339
000002a0: 9d92 533d 615e 9a3b ccec 87bd a78f a93c
000002b0: 0e1b 54bc c07d 1fbc ec9a 26bc c0d8 1b3d
000002c0: 52fb 313d b326 f73c b65c 04bd 208b fbbc
000002d0: 620f da3d 424d 6c3d fd10 87bd 83a4 a23c
000002e0: 3dbf eebc 77a2 2f3d 453b 6fbd 2a69 92bc
000002f0: 4fda f4bb c00f 183d 78af 0b3c 2e42 033d
00000300: ad1e e7bb 8e4c a93d 1c0e 31bd 42bd 7c3d
00000310: 8fbf bbbc 8c77 7cbd 2b25 6ebd 80bb 30bd
00000320: c80e ae3d ab80 633b 5429 8b3d 9a88 303d
00000330: 81f4 a9bc 4ca9 963d e7ab e13c 8804 35bd
00000340: 5d9e 8cbd 8f1f a5bc 7065 c1bc 821a 7bbd
00000350: 2ef1 4a3d ac51 8fbc d32e b4bb 6b2d f13c
00000360: 09ac c33c 0252 853d e90b e5bc 19bd fe3c
00000370: 1226 87bc 2ff2 9ebd 2812 fd3c 4f68 983d
00000380: 029c 5b3d 6fb7 ca3c a197 67bc 3c1e 673d
00000390: ccad d33d ea92 4dbc 49ce 0b3c 9fe7 1bbd
000003a0: 30ce dcbc 7b04 84bb 79c4 fdbc 1aed 81bc
000003b0: ded7 2fbc 2db2 103d 5444 fcbc 12eb 763d
000003c0: 41df 4cbb 8bef 79bc daa5 19bd 4443 6b3d
000003d0: 3582 ec3c 7aea b7bb 785f eb3b 305a 623d
000003e0: fcf6 e6bc 65f6 603c 906b d9bc 718a c5bc
000003f0: d0a4 2cbc 4f28 16bd 8582 94bd 3a4c 3a3d

main_model.hiddenlayer_1.weight f4 [256, 256]
-0.043317437 -0.03242474 0.0134065375 0.051537298 0.014480005 0.033074982 -0.0014846905 -0.0066341534
0.0011546727 -0.04652378 0.055835776 0.0087230215 -0.0008981824 -0.005979733 0.07995631 -0.020926481
-0.07481936 -0.015806723 0.061489403 0.014791995 0.0401814 0.07087372 -0.025656989 0.031334177
0.0010388426 -0.042143866 -0.01604653 0.029838292 0.008096431 -0.08251581 -0.038788214 -0.037125833
0.07144032 -0.00812822 0.059715774 -0.0010623112 -0.038036898 -0.0495158 -0.031207774 0.025183463
0.017434707 0.065583386 0.07818925 0.04680168 -0.037058607 -0.0131755425 0.021420635 -0.0014921501
0.014304558 0.06351789 -0.06386068 0.095403776 0.06479866 -0.051340304 -0.036304124 0.006115578
-0.06603253 -0.017765932 0.1224327 0.04039767 0.06883711 0.053221624 -0.048058733 0.067308195
0.021751707 0.011940241 -0.052774735 0.0067816153 0.06319027 0.04009001 0.021728722 -0.008255083
0.10807443 0.032737453 -0.04228256 -0.023501897 -0.07068169 -0.03424954 0.043740936 -0.023211785
-0.10114587 0.054943208 0.042567268 0.03178043 -0.058532365 0.10854588 0.01078434 0.1107774
0.035625417 0.07012168 0.027586771 0.039346054 0.016696287 0.004511727 0.00054960925 0.09650733
-0.054747146 0.039848935 -0.043375805 0.022587398 -0.012250838 0.032779958 -0.022623016 0.020065457
-0.0479955 -0.022600861 -0.05423797 -0.07543869 0.016006986 -0.051204145 -0.068806514 0.04681471
-0.006715332 0.061976396 -0.012040118 0.045886394 -0.032547966 -0.058488254 -0.027654435 -0.021408094
0.035701383 -0.056334455 0.06379735 -0.029200435 0.04765469 0.02475454 -0.06467823 0.050053727
0.05593688 0.057135426 0.05443315 0.048314918 -0.019284688 0.037132703 -0.030138148 -0.012605235
-0.026892329 -0.045953922 0.027060015 0.085170165 0.020310113 0.035847966 -0.047974445 0.030629002
-0.0068771094 0.00169684 0.040605318 -0.0035418714 0.0060224934 -0.054255772 0.10293627 0.10890039
0.0053839157 0.044199914 -0.009289191 -0.033060245 -0.07437431 0.03274361 0.0447774 0.048804298
0.041386485 -0.031979922 -0.016553242 -0.008907441 0.09170193 0.055965908 -0.01847597 -0.0052836137
0.00558094 0.036192812 0.01165518 0.023542142 0.022741191 -0.050686274 0.037683308 0.034321785
0.01240015 -0.030985966 0.061695825 -0.059951805 0.015622526 0.059031647 -0.018551396 0.09016572
-0.018294044 0.093204774 -0.028507974 0.04740445 0.031368792 0.06482628 -0.030707553 -0.033734754
-0.010440895 0.0010056794 -0.0012927307 0.031148903 -0.060557038 -0.035069715 -0.02641164 -0.04672525
0.03498934 -0.051788762 0.11236594 -0.05209209 0.09767852 0.04807664 0.0116531085 0.03961324
-0.0122799575 -0.061000723 -0.07131463 -0.020755544 0.08227473 -0.012413119 -0.02354749 -0.0011207284
0.030366031 0.010435571 0.031001823 -0.022004843 -0.048076406 -0.047214698 0.066868864 0.03383773
0.03617846 -0.04297196 0.016977701 0.050078984 0.0764034 0.0042861057 0.013976254 0.05746442
-0.005942098 -0.07340409 -0.05604646 -0.0065790857 0.026822433 -0.032912333 0.02866321 -0.062375188
-0.063135125 -0.062539615 -0.07532532 0.015648674 -0.057054915 -0.007683793 -0.00013251202 -0.033105213
-0.039023265 -0.015150145 0.047989048 0.054932088 0.039823998 -0.030338654 -0.06586061 -0.028480487
00000000: a06d 31bd cecf 04bd 18a7 5b3c c618 533d
00000010: 8b3d 6d3c a279 073d f299 c2ba 5063 d9bb
00000020: 6358 973a b88f 3ebd 0eb4 643d 01eb 0e3c
00000030: 0074 6bba a3f1 c3bb 22c0 a33d 036e abbc
00000040: e53a 99bd 1a7d 81bc 50dc 7b3d 205a 723c
00000050: 4095 243d 3e26 913d 9b2e d2bc 4458 003d
00000060: c629 883a 0c9f 2cbd 0374 83bc 6f6f f43c
00000070: e5a6 043c 0dfe a8bd 64e0 1ebd 4211 18bd
00000080: 4d4f 923d 3a2c 05bc 8798 743d 403d 8bba
00000090: 94cc 1bbd 14d1 4abd 72a7 ffbc 8d4d ce3c
000000a0: 3bd3 8e3c 9550 863d af21 a03d 1eb3 3f3d
000000b0: c4ca 17bd 3bde 57bc 547a af3c 4094 c3ba
000000c0: aa5d 6a3c ab15 823d 63c9 82bd 0e63 c33d
000000d0: 29b5 843d 364a 52bd a2b3 14bd 3065 c83b
000000e0: 103c 87bd dc89 91bc ffbd fa3d 0778 253d
000000f0: 79fa 8c3d ebfe 593d 3cd9 44bd e1d8 893d
00000100: a330 b23c 00a1 433c 522a 58bd 5038 de3b
00000110: e669 813d 6c35 243d 6f00 b23c 5440 07bc
00000120: 2056 dd3d b517 063d 7a30 2dbd 0d87 c0bc
00000130: 90c1 90bd 3f49 0cbd b229 333d a426 bebc
00000140: 9125 cfbd 210c 613d 045b 2e3d 322c 023d
00000150: a2bf 6fbd 4d4d de3d cdb0 303c 43df e23d
00000160: f5eb 113d f59b 8f3d a7fd e13c 5429 213d
00000170: a7c6 883c 1cd7 933b a713 103a a3a5 c53d
00000180: 8b3e 60bd a338 233d d4aa 31bd 3509 b93c
00000190: bdb7 48bc 4744 063d e753 b9bc 5060 a43c
000001a0: ee96 44bd 7125 b9bc a228 5ebd 9a7f 9abd
000001b0: 1521 833c 70bb 51bd 6eea 8cbd c8c0 3f3d
000001c0: 4a0c dcbb f6da 7d3d ea43 45bc 5ff3 3b3d
000001d0: 0451 05bd 6191 6fbd 8e8b e2bc 0760 afbc
000001e0: 9d3b 123d f5be 66bd 2fa8 823d c035 efbc
000001f0: 9031 433d 08ca ca3c 0576 84bd 2305 4d3d
00000200: 121e 653d d606 6a3d 4bf5 5e3d dde5 453d
00000210: ecfa 9dbc 7618 183d 47e4 f6bc 3086 4ebc
00000220: 4d4d dcbc 2e3a 3cbd f7ac dd3c b26d ae3d
00000230: 6561 a63c 51d5 123d da80 44bd ace9 fa3c
00000240: 6059 e1bb 8168 de3a c351 263d be1e 68bb
00000250: 5658 c53b 4d3b 5ebd 40d0 d23d 2b07 df3d
00000260: 8f6b b03b f80a 353d b131 18bc 2e6a 07bd
00000270: 8f51 98bd 2a1e 063d 8268 373d 04e7 473d
00000280: e084 293d 61fd 02bd aa9a 87bc 84f0 11bc
00000290: 39ce bb3d 823c 653d eb5a 97bc 2a22 adbb
000002a0: 51e0 b63b ea3e 143d 5ef5 3e3c 73db c03c
000002b0: bc4b ba3c 699c 4fbd d059 1a3d 0095 0c3d
000002c0: 002a 4b3c 48d6 fdbc c3b4 7c3d 0690 75bd
000002d0: a0f5 7f3c 2bcb 713d 19f9 97bc cea8 b83d
000002e0: 64dd 95bc 25e2 be3d 8e89 e9bc 2b2b 423d
000002f0: 907c 003d a4c3 843d 688e fbbc 742d 0abd
00000300: 4a10 2bbc 00d1 833a d870 a9ba fc2b ff3c
00000310: a80a 78bd 43a5 0fbd 395d d8bc fa62 3fbd
00000320: fb50 0f3d 7420 54bd 1d20 e63d 845e 55bd
00000330: ad0b c83d 03ec 443d aeec 3e3c 7e41 223d
00000340: e031 49bc e5db 79bd 680d 92bd 8807 aabc
00000350: a77f a83d 6560 4bbc aae6 c0bc 68e5 92ba
00000360: 2fc2 f83c f5f9 2a3c 89f7 fd3c 8043 b4bc
00000370: c4eb 44bd 3364 41bd 8bf2 883d 6e99 0a3d
00000380: dd2f 143d 5e03 30bd d214 8b3c 9f1f 4d3d
00000390: 6379 9c3d 7672 8c3b a8fc 643c d05f 6b3d
000003a0: eeb5 c2bb e254 96bd f990 65bd 5f95 d7bb
000003b0: b8ba db3c 15cf 06bd 1ccf ea3c 207d 7fbd
000003c0: fd4c 81bd c514 80bd 2944 9abd a631 803c
000003d0: 6ab2 69bd 54c8 fbbb edf2 0ab9 5599 07bd
000003e0: dcd6 1fbd 5038 78bc 2a90 443d 7800 613d
000003f0: 7d1e 233d c588 f8bc ede1 86bd e94f e9bc

main_model.hiddenlayer_1.bias f4 [256]
0.04171263 0.028075963 -0.019813435 -0.021444457 -0.059414215 -0.036143307 -0.018653305 0.073301844
-0.054791592 0.0133941695 0.0194825 -0.04329368 0.015804548 0.05683528 -0.040637445 0.04671645
-0.056511823 -0.06443144 -0.012986659 0.007337114 -0.0059922813 0.05470549 0.040080275 -0.046342112
0.05255219 0.007959049 -0.0049428167 -0.04954517 -0.00395029 0.011621882 0.056429397 0.032729205
-0.073120415 0.02665192 -0.024701836 -0.022883065 -0.034391142 0.036388025 -0.033569578 -0.06349423
-0.026197985 -0.07954927 0.01684123 -0.010979433 -0.07593715 -0.06667643 0.053503428 0.047429416
-0.045356754 0.055848904 -0.06534259 -0.048340462 0.013847399 -0.07127753 -0.05999328 -0.05234762
0.05875171 -0.0028539714 0.042974237 0.009603053 -0.02481664 -0.015075271 -0.041109283 -0.048962947
0.033037707 -0.0037027432 -0.04433888 -0.0015307969 -0.018542463 -0.026851453 -0.007400452 -0.027224537
0.040402193 0.045129053 -0.014918949 -0.011518746 0.034760084 -0.05936899 0.027157353 0.07786552
-0.038136184 -0.00156955 -0.0803113 0.044203382 -0.027796283 -0.016783405 0.039966628 -0.008438907
0.016814617 -0.050592687 0.015250581 -0.02826565 0.08091888 0.01978855 0.0505416 -0.017978959
0.060666893 0.052555352 -0.0024677452 0.027522767 -0.022107037 0.0044126045 -0.04403518 -0.028656121
0.082508616 -0.0127992695 -0.03028492 -0.01615645 -0.0005251276 -0.06318654 0.0649903 0.010851873
0.03426256 -0.025193464 -0.07522423 -0.013616968 -0.048652545 -0.054662254 -0.005251188 0.0031654935
-0.0125009 -0.013141366 0.04241644 0.011429009 0.0020121748 0.0009006796 -0.03815472 0.07159884
-0.05393526 -0.04332732 0.035851587 -0.048535082 0.15026782 0.07615318 -0.04546365 -0.04576607
0.077999234 0.04172101 0.019516634 -0.048584107 0.038836394 -0.00018570144 0.030660987 0.015012475
-0.0019472445 0.020282509 0.056008536 0.012751802 -0.0062008076 -0.03358959 -0.007794351 -0.026775215
-0.002437594 -0.0040892395 0.0059509035 0.016844321 0.08457144 -0.050581653 -0.010314644 -0.015424987
-0.002857745 -0.070944004 -0.07936056 -0.0015461413 0.011544796 -0.05068522 -0.03124079 -0.042022515
-0.031914826 0.05705447 0.038328394 -0.010593878 -0.054565717 0.013014544 0.049982205 -0.036465492
0.025483401 0.07354046 0.03752955 -0.027388098 -0.05763911 -0.04642415 -0.04213674 0.021197027
-0.027380154 0.001182512 0.0023654017 -0.04901953 -0.0035879181 0.040036913 -0.023851423 0.07383077
-0.005450932 0.021561064 -0.033037752 -0.0020840922 -0.044118255 -0.049046554 0.014497168 0.015942134
-0.047257572 0.046432376 0.01243205 0.03192601 0.018487213 0.043672524 -0.0058177887 -0.009799002
0.0051668026 -0.03908232 -0.010726188 -0.058127336 -0.037998017 0.00019601149 -0.016585357 -0.008298893
-0.002697596 -0.00807817 0.0016167706 -0.040638622 0.09220724 0.023980243 -0.012770782 0.05383938
-0.014003425 -0.024805194 -0.056055423 -0.012587677 0.019017892 -0.011128095 0.0021679518 -0.04760264
-0.050665885 0.013308484 -0.02310629 0.02021631 -0.030892743 -0.01807039 0.068235815 0.026386494
0.049458005 -0.06899311 -0.00768084 -0.0016413865 0.03810629 -0.061101865 0.02524023 0.024407469
-0.07126197 -0.050228424 0.076966494 -0.012620884 -0.031913005 0.03432858 -0.073978685 -0.0752996
00000000: ddda 2a3d 90ff e53c c94f a2bc 49ac afbc
00000010: 525c 73bd 010b 14bd d1ce 98bc 471f 963d
00000020: 266d 60bd 3873 5b3c c499 9f3c b754 31bd
00000030: 8a78 813c 1ccc 683d 7373 26bd c059 3f3d
00000040: f178 67bd a1f4 83bd ffc5 54bc 2c6c f03b
00000050: e65a c4bb dd12 603d 372b 243d 3ad1 3dbd
00000060: f740 573d ac66 023c 5af7 a1bb e0ef 4abd
00000070: 6f71 81bb b569 3e3c 8322 673d 0f0f 063d
00000080: 28c0 95bd 2155 da3c 815b cabc 4475 bbbc
00000090: badd 0cbd 9c0b 153d 4180 09bd 4309 82bd
000000a0: 289d d6bc baea a2bd 9ff6 893c 14e3 33bc
000000b0: f084 9bbd a78d 88bd 6926 5b3d 5945 423d
000000c0: 01c8 39bd d2c1 643d 56d2 85bd a600 46bd
000000d0: 33e0 623c f4f9 91bd 83bb 75bd 756a 56bd
000000e0: a2a5 703d b209 3bbb c105 303d 2056 1d3c
000000f0: 444c cbbc 45fe 76bc 3562 28bd 5f8d 48bd
00000100: 8c52 073d b9a9 72bb af9c 35bd 05a5 c8ba
00000110: 5de6 97bc 94f7 dbbc 7e7f f2bb fe05 dfbc
00000120: c57c 253d 3ed9 383d 9c6e 74bc 1fb9 3cbc
00000130: 9760 0e3d e62c 73bd 1979 de3c f577 9f3d
00000140: b034 1cbd 5cb9 cdba 407a a4bd 9b0e 353d
00000150: 08b5 e3bc 5a7d 89bc 0cb4 233d 5743 0abc
00000160: cfbe 893c 473a 4fbd 93dd 793c 5d8d e7bc
00000170: ccb8 a53d 991b a23c b504 4f3d 9c48 93bc
00000180: d97d 783d 4844 573d e5b9 21bb 6d77 e13c
00000190: d119 b5bc 9c97 903b 3c5e 34bd 3ec0 eabc
000001a0: 47fa a83d 07b4 51bc 1518 f8bc 885a 84bc
000001b0: b7a8 09ba f267 81bd a219 853d 0ecc 313c
000001c0: e656 0c3d 8662 cebc 290f 9abd b419 5fbc
000001d0: e447 47bd 87e5 5fbd 2812 acbb 2b74 4f3b
000001e0: 93d0 4cbc e24e 57bc dcbc 2d3d bd40 3b3c
000001f0: b1de 033b 961b 6c3a 2048 1cbd 6aa2 923d
00000200: 38eb 5cbd fd77 31bd 1dd9 123d b9cc 46bd
00000210: cfdf 193e 33f6 9b3d 1838 3abd 3475 3bbd
00000220: 10be 9f3d a6e3 2a3d 59e1 9f3c 2100 47bd
00000230: e912 1f3d dab8 42b9 c02c fb3c e2f6 753c
00000240: af3a ffba 8127 a63c 3569 653d efec 503c
00000250: 2530 cbbb 3d95 09bd c167 ffbb b257 dbbc
00000260: 0bc0 1fbb 07ff 85bb ccff c23b 1afd 893c
00000270: cb33 ad3d b52e 4fbd c1fe 28bc 16b9 7cbc
00000280: 0149 3bbb 174b 91bd ca87 a2bd e5a7 caba
00000290: 6226 3d3c 4e9b 4fbd afec ffbc cd1f 2cbd
000002a0: 1fb9 02bd f3b1 693d 3cfe 1c3d f291 2dbc
000002b0: 4d80 5fbd f43a 553c 24ba 4c3d d75c 15bd
000002c0: 91c2 d03c 619c 963d 96b8 193d 015d e0bc
000002d0: fd16 6cbd 4027 3ebd 9397 2cbd 63a5 ad3c
000002e0: 584c e0bc 85fe 9a3a db04 1b3b b4c8 48bd
000002f0: 4723 6bbb bffd 233d 0f64 c3bc 9634 973d
00000300: bb9d b2bb d4a0 b03c 9852 07bd 4495 08bb
00000310: 58b5 34bd 0ae5 48bd 8885 6d3c 1499 823c
00000320: 2891 41bd e02f 3e3d ccaf 4b3c d9c4 023d
00000330: 7f72 973c f6e1 323d 26a3 bebb fe8b 20bc
00000340: 484e a93b c814 20bd e5bc 2fbc ee16 6ebd
00000350: cfa3 1bbd 6f88 4d39 04de 87bc 15f8 07bc
00000360: 27ca 30bb 4d5a 04bc d2e9 d33a af74 26bd
00000370: 26d7 bc3d 3772 c43c 8b3c 51bc af86 5c3d
00000380: 9f6e 65bc 4334 cbbc 5f9a 65bd 8b3c 4ebc
00000390: 69cb 9b3c 9d52 36bc 3214 0e3b fcfa 42bd
000003a0: 0887 4fbd d40b 5a3c 6749 bdbc ad9c a53c
000003b0: c712 fdbc 5b08 94bc 38bf 8b3d 7d28 d83c
000003c0: 7a94 4a3d 424c 8dbd 8eaf fbbb cb23 d7ba
000003d0: 5715 1c3d f345 7abd 99c4 ce3c 2cf2 c73c
000003e0: ccf1 91bd 52bc 4dbd 9ca0 9d3d d3c7 4ebc
000003f0: 36b7 02bd 209c 0c3d 2382 97bd ad36 9abd

main_model.hiddenlayer_2.weight f4 [256, 256]
0.04109362 0.013934225 0.009629473 -0.045963977 -0.037385516 -0.049078636 -0.052059095 -0.035901885
0.018054005 0.018518582 0.064133815 0.010359237 0.061963186 0.012206048 0.03236375 0.01706728
0.050527304 0.02830335 -0.063627146 0.032727513 0.048498232 -0.0138279265 0.03026381 -0.0863033
-0.001334266 -0.043118518 0.043351617 0.014233695 -0.021302717 0.029040419 -0.019146241 0.028023385
0.02306556 0.048401885 0.004922658 0.016209405 -0.015400692 -0.0015214648 0.036154706 -0.026969234
-0.04767765 -0.06345131 -0.011188786 0.00045013073 0.0672088 -0.03708036 -0.019931367 -0.025180954
0.025050476 -0.044893388 0.014645606 -0.030752989 -0.05039256 0.011902029 0.05023851 0.0078077773
0.02776083 -0.058496617 0.011383905 -0.02179944 -0.011340501 -0.041223068 0.0242005 -0.011576538
-0.04124353 -0.007979209 0.013258087 0.033662632 -0.003382288 -0.011366626 0.014328111 0.059173316
-0.020547792 0.04528937 -0.024527099 0.025572844 0.0743443 -0.028036721 0.0009629876 0.013559533
0.05429044 0.04877444 0.0038114649 -0.009615139 -0.03360235 0.02073106 0.04895124 -0.03627278
-0.04052336 -0.03580279 -0.05823003 0.04138877 0.029135182 0.021654753 -0.03185212 0.054888256
0.053185403 0.085596405 -0.039152134 -0.053012073 0.008229871 0.052652884 -0.009986617 -0.03528526
0.0015487459 -0.06593777 0.03772031 0.027609825 -0.041506525 0.06329041 -0.015722264 0.039460324
0.043052882 0.033957195 -0.015728397 0.004858407 0.036359593 0.05641307 0.03608026 0.025059938
-0.0632428 0.056495056 0.06641103 -0.065193 0.038683224 -0.015898066 -0.0024941145 0.004236851
-0.015695633 0.027331324 0.040192742 0.034883615 0.028200267 0.039153602 -0.02161248 0.005679324
0.00683622 0.060219076 -0.00066440913 -0.031798925 -0.03089649 0.041970484 -0.013229125 0.017338399
0.028199857 -0.019812318 -0.022553304 -0.01321208 0.022042045 0.0022186977 -0.065201655 -0.03297596
0.016218781 0.055773325 -0.032414738 -0.044582564 -0.0318008 0.011427826 -0.03418998 -0.01014068
0.034591496 -0.022274932 0.0010801334 -0.05107295 -0.05476239 0.0066987337 0.029811481 0.056934383
-0.047469974 0.025167543 0.048423156 0.017024282 0.010981543 -0.025634868 0.015869452 -0.016836956
-0.0052459077 0.00858431 0.006104566 -0.064403675 0.043189954 0.04030358 0.047255628 0.03237265
-0.018031597 0.062111683 -0.027606672 0.05761754 -0.044493124 -0.05410138 -0.01336345 -0.026675249
0.01136191 -0.01608904 0.04294195 0.029087046 -0.024822317 0.022730649 0.033083085 0.0029495284
-0.024733245 -0.035508025 0.042632047 0.0153052965 0.014651677 0.011558303 0.013154665 -0.052957293
0.01690418 -0.034264762 0.00021606337 0.054297924 0.04098637 0.0069007487 -0.03373597 -0.050532922
0.050074145 0.030259933 -0.031641345 0.040654965 0.029947443 0.033600338 0.014903294 -0.03351493
-0.002647954 0.04027448 -0.058447495 0.013927144 -0.058525726 -0.057600524 0.047367178 -0.06690152
0.0062583634 0.06525725 0.014396501 -0.053314246 0.0072477544 0.05334833 -0.030520374 -0.059339702
0.008770699 0.053402282 -0.012586438 0.075786956 0.056354195 -0.018490797 -0.031718753 0.022202874
-0.046844706 0.01094014 -0.043280568 0.04246132 -0.0645881 -0.021713821 0.022272797 0.06010895
00000000: c951 283d 604c 643c f0c4 1d3c b944 3cbd
00000010: 8e21 19bd ae06 49bd eb3b 55bd db0d 13bd
00000020: fee5 933c 48b4 973c 9758 833d cab9 293c
00000030: 1ccd 7d3d e0fb 473c da8f 043d aed0 8b3c
00000040: b8f5 4e3d 6ddc e73c f34e 82bd 490d 063d
00000050: 15a6 463d 878e 62bc cfeb f73c c9bf b0bd
00000060: 8ae2 aeba 0b9d 30bd 7791 313d 7234 693c
00000070: 0983 aebc 2ce6 ed3c 94d8 9cbc 4c91 e53c
00000080: fcf3 bc3c 0e41 463d 404e a13b 96c9 843c
00000090: 2f53 7cbc e36b c7ba f516 143d 95ee dcbc
000000a0: a449 43bd c3f2 81bd 2b51 37bc 86ff eb39
000000b0: c4a4 893d 93e1 17bd 1b47 a3bc 4a48 cebc
000000c0: a836 cd3c 21e2 37bd 20f4 6f3c b1ed fbbc
000000d0: 6e68 4ebd ba00 433c e5c6 4d3d 62d8 ff3b
000000e0: ae6a e33c 269a 6fbd 8f83 3a3c bd94 b2bc
000000f0: 82cd 39bc 85d9 28bd 2140 c63c 85ab 3dbc
00000100: faee 28bd 3abb 02bc 7338 593c d4e1 093d
00000110: 60a9 5dbb 163b 3abc 74c0 6a3c b85f 723d
00000120: d853 a8bc 5981 393d 0eed c8bc 247e d13c
00000130: d341 983d 44ad e5bc 0171 7c3a ce28 5e3c
00000140: a75f 5e3d b5c7 473d c5c9 793b d188 1dbc
00000150: 9ea2 09bd 2fd4 a93c 1881 483d c492 14bd
00000160: d3fb 25bd f2a5 12bd 9d82 6ebd 4587 293d
00000170: e8ac ee3c 4f65 b13c 5e77 02bd 82d2 603d
00000180: f0d8 593d 2b4d af3d fd5d 20bd 3023 59bd
00000190: 95d6 063c 8daa 573d e89e 23bc 4787 10bd
000001a0: 4aff ca3a 620a 87bd 9d80 1a3d 002e e23c
000001b0: bf02 2abd 679e 813d facb 80bc 26a1 213d
000001c0: 3858 303d b316 0b3d d7d8 80bc 4633 9f3b
000001d0: cced 143d 6411 673d e5c8 133d 804a cd3c
000001e0: 7185 81bd 5c67 673d 8202 883d e883 85bd
000001f0: 4d72 1e3d a93c 82bc 4c74 23bb 48d5 8a3b
00000200: 2194 80bc f1e5 df3c 25a1 243d 1fe2 0e3d
00000210: 3f04 e73c 875f 203d a80c b1bc 9f19 ba3b
00000220: 5f02 e03b 47a8 763d be2b 2eba 973f 02bd
00000230: a31a fdbc 3ee9 2b3d f9be 58bc 4209 8e3c
00000240: 6303 e73c 714d a2bc b5c1 b8bc 7b77 58bc
00000250: 8591 b43c 9267 113b 7288 85bd cd11 07bd
00000260: 40dd 843c 9272 643d 51c5 04bd 359c 36bd
00000270: 8e41 02bd c73b 3b3c cb0a 0cbd 1825 26bc
00000280: d0af 0d3d eb79 b6bc 4393 8d3a df31 51bd
00000290: 874e 60bd 0d81 db3b 3537 f43c 0734 693d
000002a0: e06f 42bd 2a2c ce3c 5c57 463d 8276 8b3c
000002b0: eeeb 333c 3700 d2bc a700 823c a8ed 89bc
000002c0: dde5 abbb 35a5 0c3c d008 c83b 13e6 83bd
000002d0: f3e7 303d 5e15 253d 1e8f 413d 2f99 043d
000002e0: 00b7 93bc d268 7e3d 6327 e2bc 5f00 6c3d
000002f0: 6c3e 36bd 6999 5dbd 5ff2 5abc 0d86 dabc
00000300: 4e27 3a3c 2acd 83bc e6e3 2f3d f547 ee3c
00000310: 2c58 cbbc a035 ba3c 2182 073d e04c 413b
00000320: 609d cabc dd70 11bd f19e 2e3d 11c3 7a3c
00000330: 960d 703c 095f 3d3c aa86 573c bfe9 58bd
00000340: a37a 8a3c 3559 0cbd 128f 6239 8067 5e3d
00000350: 53e1 273d ad1f e23b ba2e 0abd 9cfb 4ebd
00000360: 8c1a 4d3d aee3 f73c 5b9a 01bd d285 263d
00000370: 5754 f53c 82a0 093d f22c 743c f446 09bd
00000380: 4c89 2dbb daf6 243d a466 6fbd ad2e 643c
00000390: acb8 6fbd 87ee 6bbd 1604 423d aa03 89bd
000003a0: f512 cd3b 98a5 853d 4ddf 6b3c 0a60 5abd
000003b0: 927e ed3b c783 5a3d dd05 fabc 300e 73bd
000003c0: fab2 0f3c 5abc 5a3d 5937 4ebc 3136 9b3d
000003d0: a8d3 663d 037a 97bc 86eb 01bd cde2 b53c
000003e0: 3ce0 3fbd 463e 333c f746 31bd eceb 2d3d
000003f0: c446 84bd 2fe1 b1bc 7175 b63c cd34 763d
